experiments/1005/mHealth_100pct_4rot_model.pth (torch, 320149 bytes, 88 tensors)

total_ops f8 [1]
000000 00 00 00 00 00 00 00 00
       0.0

total_params f8 [1]
000000 00 00 00 00 00 00 00 00
       0.0

stem.total_ops f8 [1]
000000 00 00 00 00 00 00 00 00
       0.0

stem.total_params f8 [1]
000000 00 00 00 00 00 00 00 00
       0.0

stem.conv1d.weight f4 [64, 23, 3]
000000 0c 8b 4d 3e 6e 5b 86 3d 2e e8 08 3e cd 7b 33 bd
       0.20072573 0.065604076 0.1336982 -0.043819238
000010 23 53 7a bd ce c6 75 bd 8d 69 22 be cd 14 bf bd
       -0.06111444 -0.060004048 -0.15860577 -0.09330139
000020 09 e9 99 3b ff d4 6d 3d 1b 4f c3 3d 4a bb aa 3c
       0.0046969694 0.058064457 0.095365725 0.02084126
000030 80 e1 27 bb a8 24 0b 3d e7 f8 e2 bc 51 6f 88 bd
       -0.0025616586 0.033970505 -0.027706577 -0.06661857
000040 24 b1 ef 3c a6 66 e4 bd f1 46 44 3d c7 29 a4 3d
       0.029259272 -0.11152391 0.047919217 0.08015781
000050 f3 87 23 3e fe 36 6f bd 43 c0 6e bd bd d8 58 bc
       0.1596983 -0.058402054 -0.058288824 -0.013235268
000060 df 3a 96 bc 17 d8 ea bd 2b 2c e1 bd 90 a0 49 3e
       -0.018338619 -0.11466997 -0.109947525 0.19690156
000070 9b 89 5c 3c 5c 03 0d 3d 92 5e a4 3d 9c 1b 8d 3c
       0.013460542 0.034427032 0.0802585 0.01722508
000080 f1 a1 cf bd 56 0f 93 3b 38 a4 4c bc 09 2c 6f 3c
       -0.1013831 0.004487912 -0.012490325 0.014597901
000090 a8 cf d8 3c a0 75 12 bd 01 39 25 3c 35 52 af bc
       0.026466206 -0.035756707 0.010084392 -0.021401504
0000a0 78 5a 45 3d ce 1a 1b bd 62 ca c3 3d aa 72 32 bd
       0.04818198 -0.03786736 0.09560086 -0.043566383
0000b0 a7 0a ea bd ea 2f 4a bc 3e df 0f 3e 0d 4a 89 3c
       -0.11427813 -0.012340525 0.14050004 0.016758943
0000c0 57 f2 d1 bc 7b e9 82 bd 58 bd 78 bc 53 13 c4 bd
       -0.025628252 -0.06392189 -0.015181862 -0.09573998
0000d0 1c 33 d4 3d e4 bb df 3d 80 f7 80 3c a0 5d d2 3d
       0.10361311 0.10924509 0.015743017 0.10271764
0000e0 ef 93 bb 3d e7 e7 bb 3d a5 66 86 3d d8 57 31 3c
       0.091590755 0.09175091 0.06562547 0.010824166
0000f0 1d 04 6c 3a 15 f7 04 bd 6f 0d 81 3d b9 a3 39 bd
       0.00090032985 -0.0324622 0.063013904 -0.045322154
000100 c2 43 a9 bc 11 80 77 3d a9 ea c8 3c 15 41 6d bc
       -0.020662192 0.060424868 0.024525957 -0.014480849
000110 75 78 a3 3c 6f b8 f0 3c 5c e3 81 3d be 00 d1 3c
       0.0199549 0.02938482 0.063421935 0.02551305
000120 9b b7 fd 3d c6 0d 7f 3d 1c 30 68 3d db 24 1f 3d
       0.123885356 0.062268995 0.056686506 0.038853507
000130 00 9c b3 bd 2e d0 21 bd 82 4a 9e bd 6d a6 d8 3d
       -0.08769989 -0.039505176 -0.07729055 0.10578618
000140 f6 df 60 bc e3 e5 a5 bb eb 9d 38 3c 7d 90 9e ba
       -0.013725271 -0.005062805 0.011268119 -0.0012097504
000150 93 0f 21 be 03 0f 03 bd 27 ca c6 bd 28 8a de 3d
       -0.15728597 -0.03199674 -0.09706526 0.10866195
000160 21 68 cf 3c 6b 25 56 3e 2e 3e 51 bd fc 6b 88 bd
       0.025318207 0.20912711 -0.05108469 -0.066612214
000170 1f d5 f0 bd 99 7f f0 bd 1f e7 ac bd b7 5d 09 be
       -0.117593996 -0.11743087 -0.0844252 -0.13414656
000180 66 0c a7 3c f5 77 69 3b 9d 69 11 bd 39 b6 07 3c
       0.020391654 0.0035624478 -0.03550111 0.008283191
000190 87 3a 01 3e 18 51 ae 3d 22 a2 ba bc 98 f9 b3 3b
       0.12619983 0.08511561 -0.02278239 0.0054924004
0001a0 d2 dc 15 3d fa 4a 95 bc be af 89 3c ef 39 1f 3c
       0.036587544 -0.018224228 0.016807433 0.009718402
0001b0 f1 02 17 3d 45 ca ca bc 93 83 db 3c ea 23 c5 bc
       0.03686804 -0.024754653 0.026796138 -0.024064977
0001c0 05 87 7e 3d df f6 dd bd 02 90 5e 3d 4a cd a0 bd
       0.062140483 -0.108381025 0.054336555 -0.07851656
0001d0 19 45 98 3d 8f ac b2 3c 44 8d 26 3a 6b 5e ad ba
       0.07435054 0.021810798 0.00063534477 -0.0013226991
0001e0 68 a0 8f bd 79 d8 c4 bd 83 08 f3 bb a4 4c 76 bd
       -0.07013017 -0.096116014 -0.007416786 -0.060131684
0001f0 f7 f4 b7 bd eb 31 35 3d 23 47 15 be 6b 7b 33 bd
       -0.0898227 0.04423706 -0.14577918 -0.043818872
000200 95 13 2e be ef ce 43 bd f9 3a 23 3d 96 ca 86 3b
       -0.16999657 -0.04780477 0.039851163 0.0041135056
000210 65 86 da bc 73 4f 53 3d 7a b6 14 bd b5 37 04 bd
       -0.026675412 0.05158944 -0.036306836 -0.03227969
000220 f3 c9 64 3d 3e 12 50 bb c6 74 19 be 75 d2 0c be
       0.055856656 -0.0031749154 -0.14985952 -0.13752158
000230 31 d3 1d be 9d 58 f1 3d e8 3d 19 3e 9e 1f 75 3d
       -0.15412594 0.1178448 0.14965022 0.059844606
000240 42 85 af bc a7 b6 67 3b 02 0d b1 bd a9 66 76 3d
       -0.021425847 0.0035356672 -0.08645059 0.060156498
000250 64 1b cd 3c 00 20 8c bc 82 8e b7 bd f6 46 ad 3c
       0.025037475 -0.017105103 -0.08962728 0.021152
000260 c6 6a a1 3d df ba 1e be 30 11 74 be 4d 10 ea bc
       0.078816935 -0.15500973 -0.23834682 -0.028572226
000270 96 ad e0 bb 1c 3a 5b bd 2f 1a 0c bd 44 45 26 bd
       -0.0068566306 -0.053522214 -0.034204658 -0.0405934
000280 b3 63 43 bd 16 49 08 be 3c 77 12 be 4f 1f 2f be
       -0.047702502 -0.1330913 -0.14303297 -0.17101787
000290 14 8e 3b bd 52 56 17 3e be ba 4e 3d a3 e5 27 3e
       -0.045789793 0.14779022 0.05047106 0.16396193
0002a0 ea 1d d7 3d f1 41 d5 3d 69 20 91 3d e5 4e 2c 3d
       0.105037525 0.10412968 0.0708626 0.042067427
0002b0 fb bc 56 bc b7 eb 15 bc 15 38 ea 3b 30 ce 62 bc
       -0.01310658 -0.009150437 0.007147799 -0.013843104
0002c0 36 41 06 3c 3c 39 14 3d 81 a8 32 bc 07 b2 49 ba
       0.008194258 0.036187395 -0.010904432 -0.00076940696
0002d0 5b d0 b1 bd 5e fa 9f 3d d7 0e b0 bd 49 db 55 3d
       -0.08682319 0.078114256 -0.085965805 0.05221108
0002e0 00 00 2f be 18 98 d1 bc 12 8f cf 3d a0 d5 5a 3d
       -0.17089844 -0.02558522 0.1013471 0.053426385
0002f0 a7 80 f7 3c fe 8f ad 3d e5 05 03 3e 41 64 1b 3e
       0.030212713 0.0847473 0.12795217 0.15174963
000300 cc 5e 0b be 9e 3f 1e be 55 99 7c bd 3e 6a 43 be
       -0.13610381 -0.15453956 -0.061669666 -0.19083497
000310 28 b6 8f bd da 67 3f be 46 e6 3c 3d 12 05 d9 bd
       -0.070171654 -0.1869196 0.046118043 -0.1059667
000320 4c 2d 28 3d 55 e8 43 bd b4 7a 12 3d 5c ec 7b bb
       0.041058823 -0.04782899 0.03576155 -0.0038440442
000330 90 d9 58 3d 71 0f ca bd 9c 8c 21 3d d1 bd 99 3d
       0.05294186 -0.098662265 0.039440736 0.07506908
000340 3f 81 ef 3c cb 85 13 3e 98 52 65 bd ea 83 8a bd
       0.029236434 0.14406507 -0.05598697 -0.06763442
000350 e7 e2 06 be 7e 2a ac bd 0e d1 2a bd 10 cb b0 bd
       -0.13172494 -0.08406542 -0.041703276 -0.08632481
000360 19 56 2c 3d 8d ab 57 3d 1f d6 b1 bd 1b 43 27 bc
       0.042074297 0.052653838 -0.086834185 -0.01020887
000370 ae 9c d3 bd 34 e1 f2 bc 26 92 b4 3d 8f b4 11 3e
       -0.10332619 -0.0296484 0.08816938 0.14229034
000380 2e bb db 3d 5f 30 b6 3d b4 a3 1b bd 4b c5 00 3e
       0.10729061 0.08895945 -0.037997916 0.12575261
000390 db d9 09 bc f5 4b 37 be 77 c2 ee 3c 56 c7 05 3e
       -0.008413757 -0.17900069 0.029145462 0.13064322
0003a0 7f 3d 20 3d 13 e8 6f 3d 52 a0 6f bc 22 83 d4 3d
       0.039121147 0.058570933 -0.014625626 0.10376574
0003b0 c7 f5 0e 3c f2 25 ed 3d 32 aa ca 3d fa ec 8d 3c
       0.00872559 0.11579503 0.098957434 0.017324913
0003c0 5a ca be bc 87 1c ad ba c7 cf aa 3b ae 7a 9c 3c
       -0.023289848 -0.0013207354 0.0052127573 0.019101467
0003d0 24 5a b9 bc d5 79 5d bb fb 3d 8e bd 4f 31 c8 3c
       -0.02262599 -0.0033794541 -0.069454156 0.024437575
0003e0 7b 6c c4 3a 83 2e 0f bb 77 86 e0 3d 8a 30 ed bc
       0.0014985943 -0.0021847792 0.10963147 -0.02895381
0003f0 18 27 59 3d 0e bd b1 bd 2a cb 3e 3d 4b cc 6a 3c
       0.0530158 -0.086786374 0.04658047 0.014330934

stem.conv1d.bias f4 [64]
000000 e3 77 9f bd b7 86 d4 bc 2b 1f ac 3d c1 c9 b1 3d
       -0.077865385 -0.025943143 0.08404382 0.0868106
000010 5b 8f 85 3d 78 40 b5 3d fa ba 7d bd 29 b2 65 3d
       0.065214835 0.08850187 -0.061945893 0.05607811
000020 cf ed d4 3d 60 f9 aa bd b6 d7 76 bd d3 6f f1 3d
       0.10396921 -0.08348346 -0.06026431 0.11788907
000030 af f7 6f bd 72 b1 e0 bd a3 ef a3 3d 66 98 56 3c
       -0.05858582 -0.10971345 0.080046915 0.013097858
000040 22 92 c0 bc 35 6f b2 3b e6 6d 70 bd 53 e3 ed bd
       -0.023507182 0.005445386 -0.058698557 -0.11615624
000050 49 e2 02 3d 7b 12 b9 bc ab 12 b2 3d 01 e6 27 bd
       0.031954084 -0.02259182 0.08694967 -0.040990833
000060 9d b1 3d bd 3d c8 a5 bc f6 87 88 bd 30 56 0b 3d
       -0.046311963 -0.020237083 -0.066665575 0.03401774
000070 ae 70 d8 3d 96 ad 92 3d fb 87 ea bd 71 9b 76 bc
       0.10568367 0.07162015 -0.114517175 -0.015051709
000080 02 c4 17 bc 6a c6 b5 bc 38 fb 92 bd 5a d1 eb 3c
       -0.0092630405 -0.022189338 -0.071768224 0.02878635
000090 13 fe d6 bd fe fe 9f 3d 1f f3 97 bb ee 68 e9 3d
       -0.104976796 0.07812308 -0.0046371366 0.11396967
0000a0 96 8b e3 3d 98 53 73 3d 7c e4 bb bd ba 25 b4 3d
       0.11110608 0.059405893 -0.09174439 0.08796258
0000b0 fa 8b cc bd 4c 00 7a 3d 18 3e 8c 3d 51 e1 0d bd
       -0.09987636 0.06103544 0.06847781 -0.034638707
0000c0 15 f8 f3 bd 8c c5 a7 3d 85 cc d7 bc e5 fe 91 3d
       -0.11912552 0.08191976 -0.02634264 0.071286954
0000d0 63 2e b3 bd d0 6a df 3c 9a 00 3f bd 10 8d 4a bd
       -0.08749082 0.027272612 -0.046631433 -0.049450934
0000e0 81 b1 9c 3d 16 f4 95 3d 25 2e 2e 3d 5c f1 ba 3d
       0.07651044 0.07321946 0.042524476 0.09128067
0000f0 ff 30 b3 3d d8 b0 90 3d 3f 5d 4e bd 6c e3 11 bd
       0.0874958 0.0706498 -0.050381895 -0.035617277

stem.bn.weight f4 [64]
000000 e9 aa 89 3f 10 07 8c 3f 0e 9c 8e 3f 8e 31 8b 3f
       1.0755283 1.0939655 1.1141374 1.0874498
000010 da 55 88 3f 5e e7 8c 3f 0c 3b 8b 3f 2f 0d 88 3f
       1.06512 1.1008108 1.0877395 1.0629023
000020 aa 53 8c 3f 6e ca 8c 3f 11 91 8d 3f 84 6b 89 3f
       1.0963032 1.0999277 1.1059896 1.0735936
000030 eb d7 8e 3f 30 e1 90 3f 7e 6e 8f 3f af 75 8a 3f
       1.1159643 1.1318722 1.1205595 1.0817164
000040 11 f7 8d 3f c7 e9 8f 3f e7 70 8d 3f b1 d9 8e 3f
       1.1091024 1.1243218 1.105008 1.1160184
000050 4d 98 8e 3f dc f5 8a 3f 9f ae 9d 3f eb 3e 8f 3f
       1.1140229 1.085628 1.2318915 1.1191076
000060 94 4c 90 3f 94 d1 90 3f 18 ad 8d 3f 03 b4 95 3f
       1.127337 1.1313958 1.1068449 1.169556
000070 b2 01 90 3f 84 62 88 3f 5d b3 8a 3f 78 a0 94 3f
       1.1250517 1.0655065 1.0835987 1.1611471
000080 33 28 89 3f 8e 40 8f 3f 84 87 90 3f e2 f1 8a 3f
       1.0715393 1.1191576 1.1291356 1.0855067
000090 f3 48 8c 3f ac f2 8b 3f 45 c1 8d 3f d3 69 89 3f
       1.0959762 1.0933433 1.1074606 1.073542
0000a0 37 b7 91 3f 80 ca 8b 3f a6 4a 8c 3f 00 f0 8d 3f
       1.1384038 1.0921173 1.0960281 1.1088867
0000b0 0c 4e 90 3f 75 fc 92 3f ea a4 8b 3f e9 67 91 3f
       1.1273818 1.1483294 1.0909703 1.1359836
0000c0 bb c7 8c 3f 33 19 89 3f 66 22 92 3f 41 bd 8d 3f
       1.0998453 1.0710815 1.1416748 1.1073381
0000d0 26 63 8c 3f b1 c1 8e 3f 28 46 9e 3f 84 94 90 3f
       1.0967758 1.115286 1.236516 1.1295323
0000e0 cc b6 8f 3f 58 6b 8b 3f ae 55 8a 3f ee af 8d 3f
       1.122766 1.0892134 1.0807397 1.1069314
0000f0 a7 3c 8b 3f e0 f7 8a 3f 5a b3 87 3f 2a 24 95 3f
       1.0877885 1.0856895 1.0601609 1.1651661

stem.bn.bias f4 [64]
000000 0a 6f 43 3d 1b a4 b6 3d 9b c5 c8 3d 9a 6f b4 3d
       0.047713317 0.089180194 0.09803315 0.08810349
000010 13 50 5e bb 3d 7a af 3d 28 11 ae 3d ba f8 9d 3d
       -0.003392224 0.08568237 0.08499366 0.077134565
000020 09 34 d0 3d df ab b8 3d d5 1c 8a 3d 6f d2 6d 3d
       0.10166175 0.09017157 0.067437805 0.058062013
000030 72 94 48 3d f4 0f db 3d dd fe 30 3d 4c 22 89 3d
       0.048969693 0.10696402 0.043211807 0.06695995
000040 9b 3a 8e bb d4 85 b2 3d c5 f6 cf 3d 59 c5 b5 3d
       -0.0043404824 0.08716932 0.101544894 0.08875532
000050 1d ce 91 3d 3c 9a bf 3d 70 c2 da 3d 8f 95 b6 3d
       0.07119391 0.0935559 0.10681617 0.08915245
000060 d6 0d b5 3d c7 66 1d 3d 1f 26 d9 3d 18 7a d9 3d
       0.088405296 0.038428094 0.10602974 0.10618991
000070 ec 7d 41 3d aa 84 9c 3d c2 9b 9b 3d 2b 63 e0 3d
       0.04723923 0.07642491 0.07598068 0.10956415
000080 9f c4 9d 3d d8 13 c4 3d 54 6e d7 3d 79 7f a4 3d
       0.07703518 0.095740974 0.1051909 0.08032126
000090 c2 50 be 3d d5 40 67 3d 19 d8 81 3d 2a 79 a2 3d
       0.09292747 0.056458313 0.063400455 0.079332665
0000a0 d8 5d c5 3d f3 88 aa 3d d9 d3 0d 3d f1 65 49 3d
       0.0963704 0.08326902 0.03462586 0.049169485
0000b0 a1 7f a5 3d 97 1b ba 3d e3 c2 92 3d e6 4f e4 bc
       0.08080984 0.090872936 0.07166078 -0.02787013
0000c0 c1 50 b0 3d ca 29 aa 3d 3e fd 5d 3d cd d4 cf 3d
       0.086091526 0.08308752 0.05419659 0.101480104
0000d0 c0 ea 9f 3d 3d 5d c4 3d a6 21 fa 3d 93 ba c4 3d
       0.07808447 0.09588096 0.12213449 0.09605899
0000e0 5b 08 be 3d 19 48 f4 3d 76 f9 c9 3d 30 91 02 3d
       0.092789374 0.11927814 0.09862034 0.031876743
0000f0 f3 20 bf 3d 99 8b c3 3d 5c cc 8b 3d 61 81 ed 3d
       0.093324564 0.095481105 0.06826088 0.11596943

stem.bn.running_mean f4 [64]
000000 86 1d d3 c0 d7 7c 8c c0 9f ad 9a 40 62 2c 35 c0
       -6.597354 -4.3902392 4.833694 -2.830834
000010 d0 ed 9f 40 52 0a b5 40 9f 70 70 bf 35 98 b7 c0
       4.99778 5.65751 -0.93921846 -5.73733
000020 9f 73 95 40 5a 30 a5 bf d6 30 cc 40 82 13 9d c0
       4.670364 -1.2905381 6.3809614 -4.9086313
000030 fd 6e 89 40 63 10 95 40 0f 7f 71 c0 07 ee ac 40
       4.2947984 4.6582503 -3.77338 5.404056
000040 f5 58 f2 3f 3c fd a7 c0 7e 41 6a 40 47 1d ac bf
       1.8933398 -5.2496624 3.6602473 -1.3446435
000050 14 40 b8 c0 1e 71 6d c0 13 3b 18 3f 07 d1 26 40
       -5.757822 -3.7100291 0.5946514 2.606508
000060 44 31 81 c0 61 9a cc c0 ad 48 41 3f 0d d2 58 40
       -4.037264 -6.393845 0.7550152 3.3878205
000070 ab e2 3b bf 48 41 b8 c0 09 56 c8 3f 25 7a 87 40
       -0.7339274 -5.757969 1.5651256 4.23366
000080 f8 99 8f c0 29 19 b0 40 ac 9e db 40 ac 22 8a bf
       -4.487545 5.5030713 6.863119 -1.0791831
000090 dd 8c a4 40 8c 5b 29 bf 31 3b b5 bf 01 48 56 c0
       5.142195 -0.66155314 -1.4158689 -3.3481448
0000a0 89 eb 6b 40 ef 5e ca 40 fe 70 17 c0 71 c5 7d c0
       3.686251 6.3240886 -2.3662715 -3.9651759
0000b0 a0 f6 d8 40 e6 7a 20 c0 96 c2 d4 40 5c 7a dc 3f
       6.7801056 -2.5075011 6.648753 1.7224841
0000c0 91 87 d2 c0 af f2 3b 40 b5 e6 7b bc cb b7 d4 40
       -6.5790486 2.9366872 -0.015374829 6.6474357
0000d0 67 ba 0c 41 7a 4e ba 40 ac b4 06 3f 8e b5 36 c0
       8.795508 5.8220797 0.52619433 -2.8548312
0000e0 0c f8 28 c0 f1 ee b7 bf 84 8b e3 c0 a0 9f aa 40
       -2.6401396 -1.4369794 -7.1107807 5.3319855
0000f0 7f 1f d3 c0 e9 9b 1f c0 f2 e5 05 c1 57 ff 4b 3f
       -6.5975947 -2.493891 -8.368639 0.7968649

stem.bn.running_var f4 [64]
000000 b7 be 9d 41 b8 a2 9b 41 6a 81 d5 41 1e 9a 62 41
       19.718122 19.454453 26.68819 14.162626
000010 d6 a5 21 43 82 51 22 42 b0 08 bc 41 60 2a a0 41
       161.6478 40.579597 23.504242 20.02069
000020 31 65 e3 41 67 f6 98 41 e3 7f da 41 de 75 18 42
       28.42441 19.120314 27.312445 38.115105
000030 3e 1a 30 42 93 ba 18 42 e1 fb c7 41 62 4e 0e 42
       44.025627 38.1822 24.997988 35.576546
000040 d8 b7 95 41 31 4b 57 41 41 1f e3 41 15 65 4c 41
       18.714767 13.455857 28.39026 12.774678
000050 d0 ec 1b 42 7a 59 ce 41 bc c5 e6 40 2b e4 63 41
       38.981262 25.79369 7.2116375 14.243205
000060 a6 9b a2 41 20 c7 d8 41 d7 c4 2e 41 09 a7 5f 41
       20.326 27.097229 10.923057 13.97828
000070 23 ce 67 41 cd f5 9e 41 09 a2 7f 41 10 a4 2f 41
       14.487826 19.87002 15.977059 10.977554
000080 d8 f0 03 42 61 6f 2c 42 ab 31 e1 41 49 0d 62 41
       32.9852 43.10877 28.149252 14.128243
000090 9f 85 ce 41 ae c4 7e 41 ce 14 55 41 68 78 7e 41
       25.815245 15.9230175 13.317579 15.904396
0000a0 3b 27 5b 41 d4 b6 10 42 47 09 6e 41 11 fd 79 41
       13.697078 36.178543 14.877265 15.624284
0000b0 3b c1 19 42 32 08 94 41 94 0b c7 41 e2 4d d2 41
       38.4387 18.504002 24.880653 26.288029
0000c0 ed de 35 42 84 63 1f 42 2b dc ad 41 02 94 ef 41
       45.4677 39.847183 21.732504 29.94727
0000d0 bd 36 36 42 a2 36 a3 41 39 36 0a 41 7b 33 5f 41
       45.553455 20.401676 8.638238 13.950068
0000e0 ad 23 af 41 75 bc cb 41 ab 3d ea 41 0b 5c 05 42
       21.89242 25.46702 29.280111 33.339886
0000f0 d3 89 1a 42 48 3f 64 41 20 1e fd 41 74 72 9c 41
       38.634594 14.26545 31.63971 19.555885

inception.total_ops f8 [1]
000000 00 00 00 00 00 00 00 00
       0.0

inception.total_params f8 [1]
000000 00 00 00 00 00 00 00 00
       0.0

inception.branch1.1.total_ops f8 [1]
000000 00 00 00 00 00 00 00 00
       0.0

inception.branch1.1.total_params f8 [1]
000000 00 00 00 00 00 00 00 00
       0.0

inception.branch1.1.depthwise.weight f4 [64, 1, 1]
000000 4c 74 75 3f 11 78 6f 3f 93 78 a4 3e 33 8a f7 bd
       0.9588058 0.9354258 0.3212324 -0.12086906
000010 07 dd bf be 4d 12 82 bf 4b 50 63 3f a7 97 59 bf
       -0.37473318 -1.0161835 0.8879439 -0.8499703
000020 7f ba 00 bf 0a da be ba f7 32 eb bd 6e 71 85 bf
       -0.5028457 -0.001456083 -0.1148433 -1.0425241
000030 99 32 05 3f 33 bc 1a bf 8d ed c5 3e d7 a0 89 bf
       0.5203033 -0.6044342 0.386578 -1.075221
000040 2c de 85 3f 7a 6d 1e 3e 21 f7 6f 3f af 21 da bc
       1.0458426 0.1547145 0.93736464 -0.02662739
000050 6e d0 ea 3e a6 b0 86 3f 76 cb 1f bf e1 ad c1 be
       0.45862144 1.0522659 -0.6241983 -0.37827972
000060 c7 b7 47 bf da e6 0b bf f3 a4 18 3f 54 c3 55 be
       -0.78014797 -0.54649127 0.5962669 -0.20875293
000070 19 a5 da be a1 fa 0c be 09 b9 81 bf 4a 50 c2 be
       -0.42704085 -0.13767482 -1.0134593 -0.3795188
000080 49 1f 47 3f 51 71 db be 02 b5 85 bf dc 89 af be
       0.7778211 -0.4285989 -1.0445864 -0.34284866
000090 da b5 04 bf 72 80 56 bf 0d e8 e8 3d 11 a7 35 3f
       -0.51839983 -0.8378974 0.11372385 0.7095805
0000a0 74 45 29 bf 54 d0 29 3f 31 f3 22 bf 7d c5 0d 3f
       -0.661216 0.6633351 -0.6365233 0.5537947
0000b0 dd 48 8d 3e b3 f5 e0 3e 38 a0 7a bf 34 c8 be be
       0.27594653 0.43937454 -0.97900724 -0.37262118
0000c0 fd e6 38 bf 54 be 46 3f 23 e9 84 3e fa d6 5e 3f
       -0.7222746 0.7763417 0.2595912 0.8704678
0000d0 c8 2f 5a 3e fe 23 df be 65 6a 45 bf 70 0c 54 bf
       0.2130729 -0.43582147 -0.7711547 -0.8283148
0000e0 d7 59 33 bf 9c 22 45 3e 76 82 59 bf 60 03 16 3f
       -0.7005896 0.19251484 -0.8496469 0.585989
0000f0 5f 3a 86 be 33 73 31 bf 3e 34 87 bf 39 68 3a 3f
       -0.2621641 -0.69316405 -1.0562818 0.7281528

inception.branch1.1.depthwise.bias f4 [64]
000000 bf 01 67 bd 56 be 24 3f 7f 86 72 3f b1 05 55 3f
       -0.05639815 0.6435293 0.94736475 0.8321181
000010 e2 46 28 3f da b4 5f 3f 96 1c 04 bf 58 15 63 be
       0.6573316 0.8738533 -0.5160612 -0.2217611
000020 ba db 69 bf 36 28 58 bf d2 da 89 3d e2 82 59 bf
       -0.913509 -0.8443636 0.0673119 -0.84965336
000030 7e 73 71 be bc d3 bc be aa d9 2b bf 5f 42 da 3e
       -0.23579213 -0.3688029 -0.67129004 0.42628762
000040 05 80 67 bf 0d a1 e1 3e 81 eb 00 3f 4d eb 2e 3f
       -0.9042972 0.44068184 0.5035935 0.6832779
000050 be f1 ae be 7b 1f 0e be 36 ce f6 be 30 1c 1d bf
       -0.3416881 -0.13879196 -0.482042 -0.61371136
000060 0b 6b 52 3e 54 db 06 3f 76 f1 63 bf 70 6e 53 bf
       0.20548646 0.5267842 -0.89040315 -0.8259039
000070 86 29 b5 be 94 b1 be 3e d8 8c 5c 3f 40 d0 fe 3e
       -0.35383242 0.37244856 0.8615241 0.49768257
000080 6e 02 1f bf 2d d7 32 bf 79 33 f9 3c 72 80 4e bf
       -0.6211308 -0.6985958 0.030420052 -0.8066474
000090 6f 11 7e be b0 64 29 3f 33 3c 4e 3f 5e 57 be 3e
       -0.24811338 0.6616926 0.80560607 0.3717603
0000a0 49 22 65 3f 6a d5 d5 3e 1c a6 8b be 65 67 82 bd
       0.8950544 0.41764385 -0.2727517 -0.06367377
0000b0 07 b1 81 3f b7 15 cb 3e a4 8f 93 3e 61 20 1a bf
       1.013215 0.39665005 0.28820527 -0.60205656
0000c0 30 cb 67 be b8 a2 13 3e 82 e1 17 bf 15 25 fa be
       -0.22636104 0.14417541 -0.5932847 -0.48856416
0000d0 35 57 34 bf fb 80 7c 3d 93 9f c2 3e f9 3f 13 3e
       -0.7044557 0.061646443 0.3801237 0.14379872
0000e0 a3 7f 5c 3f 5c 62 99 3e f5 96 86 3e a2 29 ac be
       0.8613226 0.29957855 0.26287046 -0.33625513
0000f0 02 78 90 be a5 ba 70 3f 15 48 2c 3e 4b 87 4b be
       -0.2821656 0.94034797 0.16824372 -0.19875829

inception.branch1.1.pointwise.weight f4 [32, 64, 1]
000000 bf 45 9f 3c 21 31 12 3c 4c 9a 34 3d a8 6f ff 3d
       0.019442437 0.008922846 0.04409246 0.124724686
000010 d0 a5 32 bd f3 9c 01 3e be 97 47 bc 44 a6 1d be
       -0.043615162 0.12657528 -0.012182174 -0.15395457
000020 6d 71 91 3c dc 01 4a bc 5b 4b b1 3b 4c 99 6d 3d
       0.017754281 -0.012329545 0.0054105944 0.058007523
000030 f0 f4 1b be 13 40 67 bd 67 b1 42 3d 97 46 1e 3e
       -0.15230155 -0.05645759 0.047532465 0.15456615
000040 6f 9d 46 3e 9a fa 23 3d 88 75 8b 3d fe cd 9c 3d
       0.19395994 0.040033914 0.06809527 0.076564774
000050 4d b2 c7 bd 7d 79 d6 3d 29 89 83 bd 15 d8 3f bd
       -0.09750805 0.10472391 -0.064226456 -0.04683693
000060 0d 17 aa bd 58 f8 89 3c ea 7c 3e bc 43 73 f2 3c
       -0.08305178 0.016842052 -0.0116264615 0.029595977
000070 ef 37 0e 3d ef 5d 62 bc 8c 2d 07 bd 96 df 45 bb
       0.03472131 -0.013816341 -0.03300242 -0.0030193082
000080 10 68 62 3d 50 e8 2a 3d 31 c7 9e bd 58 a0 7d 3d
       0.055275023 0.041725457 -0.077528365 0.061920494
000090 a3 b9 1f 3e 97 cf 40 be c6 69 5d 3d 33 77 b7 3d
       0.15598159 -0.18829189 0.05405595 0.08958282
0000a0 94 6d a3 3d d6 55 00 bd 2a 24 0a be 06 74 39 3e
       0.07979885 -0.03133186 -0.13490358 0.18110666
0000b0 57 a0 09 3e c4 c1 bb 3d 71 fa 22 3b ce 16 04 3d
       0.13440071 0.09167817 0.0024868513 0.03224831
0000c0 50 87 48 be f8 4e ea bc 07 8d 86 3b bc 03 b0 bd
       -0.19582868 -0.028602108 0.0041061672 -0.08594462
0000d0 8e 2f 16 bd 89 6f 84 bd 72 5d fd 3d c4 fa 30 3d
       -0.036666445 -0.06466586 0.12371339 0.0432079
0000e0 d5 6e d0 bd 4e 1a d1 3c ba 08 40 be 94 43 ce bd
       -0.101773895 0.025525238 -0.18753329 -0.10071483
0000f0 69 a1 bf bd db b5 10 be cb bb 9e 3d b6 4a aa bd
       -0.093569584 -0.14131872 0.077506624 -0.08315031
000100 8d 1c 58 3d e7 50 2b 3d e4 9b 16 3e cf 16 53 bd
       0.052761603 0.0418252 0.14707905 -0.051535424
000110 fe a1 a7 3b bd 50 3a be e7 dd 81 3d a4 5d 1a 3e
       0.0051157465 -0.18194862 0.06341153 0.15074784
000120 6f cf 2c bd 8d e3 f2 bc 6c 79 85 bd 00 5b 3a bc
       -0.04219001 -0.02964952 -0.065173 -0.011374235
000130 f7 3a 6d bd 56 90 f8 bd bb a7 88 bc 95 59 ef bb
       -0.05791756 -0.12136905 -0.016681543 -0.00730438
000140 9a 9b 03 3d 3b db 21 3e 0a 75 ee 3d c4 fe de 3c
       0.032130815 0.15806286 0.11643417 0.027221091
000150 9d b2 e9 bc 08 0e b0 3c 0f 7d 2e be db 3a 0f be
       -0.028527552 0.021491066 -0.17039894 -0.13987295
000160 88 9d 02 3e 15 4f 28 3e f0 01 03 bc be 3a 05 bc
       0.12755406 0.16436417 -0.007996067 -0.008131681
000170 0e bf b9 bd 10 ba f0 3d c4 99 28 be 6d d2 19 be
       -0.09069644 0.117542386 -0.16464907 -0.15021677
000180 32 d9 06 be 80 ee 9e bb 94 f6 09 3e 35 34 03 3e
       -0.13168791 -0.0048502088 0.13472968 0.12812884
000190 fa 07 d5 bd d4 79 6c 3d 6a 60 d5 3b 22 06 06 be
       -0.10401912 0.05773337 0.0065117376 -0.13088277
0001a0 f8 a8 72 3d 3c f9 00 3c 8b 36 ce 3d c7 bd b1 bc
       0.059243172 0.007871922 0.10068997 -0.021696938
0001b0 7f 51 82 3c b4 94 d5 3d 62 1b 05 be 7c a2 17 be
       0.015908001 0.104287535 -0.12998727 -0.14808077
0001c0 18 d0 9d bc 49 bd 48 bc 34 0d a2 3d 7e db ac bc
       -0.019264266 -0.01225216 0.079126745 -0.021100756
0001d0 46 94 c2 bd 84 35 fd bd 0e 7f 28 3e 39 e0 2d 3e
       -0.09500937 -0.12363723 0.16454718 0.16980065
0001e0 1f 12 a9 3d 25 ac c5 3c 7b bd 20 bd 59 a9 a3 bd
       0.082554094 0.024129936 -0.039243203 -0.07991285
0001f0 74 9f c4 3c b6 ae 80 bd 14 d0 fc 3d 70 b7 26 bc
       0.024001814 -0.062833235 0.12344375 -0.010175571
000200 a2 4d 16 3e da 82 f6 3d 27 cf 23 bd 84 8f a7 bd
       0.14678052 0.12036677 -0.039992478 -0.0818167
000210 cd bc d1 3c dd df 80 3d b9 ce 0a be 42 82 05 be
       0.025602723 0.062926985 -0.13555421 -0.1303797
000220 74 a5 2b bd 7e 53 a8 bd 26 4f 29 3e 71 cc 1d be
       -0.041905835 -0.0821905 0.16534099 -0.1541002
000230 4d a4 b6 bc 43 68 83 3d c0 39 a4 3d ce 5a 27 3d
       -0.022295142 0.06416371 0.080188274 0.040858082
000240 d6 fe f1 bd ba 8b 14 3e f6 e7 a7 bc 50 68 f0 3d
       -0.11816184 0.14506426 -0.02049635 0.11738646
000250 55 70 85 3d 4d 18 37 3e fc 30 21 3c f9 e7 9b 3d
       0.06515566 0.17880364 0.009838339 0.07612605
000260 4d 6f e5 bd b3 d3 ee bc 4f 98 c7 bc 19 b9 14 3d
       -0.112028696 -0.02915368 -0.024364619 0.036309335
000270 29 74 08 bd e7 f7 bf bd b1 50 35 be b0 9c eb 3c
       -0.033313904 -0.093734555 -0.17706563 0.028761238
000280 2c da 00 3d ef 5c e5 3d 29 ca 09 3e 92 16 20 be
       0.031458065 0.11199366 0.13456024 -0.1563361
000290 64 00 93 3d 2f ac 04 be f8 b2 90 3d 24 fa 0f bd
       0.07177809 -0.12956308 0.070653856 -0.035150662
0002a0 a4 1b 2e 3d b0 ba dd bd 72 6a 2a be 44 68 35 3e
       0.04250683 -0.108266234 -0.16642168 0.17715555
0002b0 a1 3b 7f 3b 0e 39 d6 3d 5f b7 2b 3e a8 50 e7 3b
       0.0038945454 0.10460101 0.1676917 0.0070591755
0002c0 30 52 1c be 08 91 c7 3c a2 11 d2 bd 45 09 7f bd
       -0.15265727 0.024361148 -0.102572694 -0.0622647
0002d0 cb d9 cb bd 89 48 f0 3c 6c ec 83 3d 1f 9a 75 3a
       -0.0995365 0.029331462 0.06441578 0.0009368974
0002e0 e8 c1 a3 bd 68 e6 59 bd e6 eb 00 be 72 cb 29 be
       -0.07995969 -0.05319825 -0.12589988 -0.16581514
0002f0 a4 04 39 3c 85 9e 65 3d 0b 17 99 bd d1 cf a2 bd
       0.01129261 0.05605938 -0.07475098 -0.07949794
000300 4a 8e 86 3d 2d 70 08 be 19 5e 6b bd 6b d8 ed 3c
       0.06570108 -0.13324042 -0.057462785 0.02903386
000310 fd cc 0c 3e 8c d0 f5 ba 13 27 64 bd fc 78 fd bc
       0.13750072 -0.0018754168 -0.055701327 -0.030941479
000320 83 47 08 3d 7c 84 40 3d 0a 75 7c bd 25 74 1b be
       0.033271324 0.047001347 -0.061635055 -0.15181024
000330 78 cc ef 3c 83 c9 eb bd 55 c6 08 bc 12 30 c6 bd
       0.029272303 -0.11513045 -0.008348067 -0.096771374
000340 81 c8 f7 bd 4b f5 24 bd c0 21 e7 bc 2c 08 c8 3d
       -0.1209879 -0.040272992 -0.028214335 0.09767184
000350 7c eb 7d 3d f1 78 b9 3d 9f dc b1 bc 51 53 18 be
       0.061992154 0.09056271 -0.021711646 -0.14875533
000360 2b 8f 3c 3d 7e c7 9a 3d dc f8 6e bd 6e 0f 54 bd
       0.046034973 0.07557581 -0.0583428 -0.051772527
000370 01 21 12 be 6d 53 6b 3d 8f 28 12 3e f0 4e bb bd
       -0.14270402 0.057452608 0.14273284 -0.091459155
000380 bd 51 88 3d 89 b9 9b bd 27 ea 15 3d 2b 2d 07 be
       0.06656215 -0.076037474 0.03660026 -0.13200824
000390 38 cc b1 bc 3d 6a 30 3e 35 8f ba 3c cd 5c c4 bd
       -0.021703824 0.17228027 0.022773365 -0.09588013
0003a0 c9 66 d6 3c 36 49 05 ba 7e b0 78 bd e1 2f 92 3d
       0.026172059 -0.00050844566 -0.06071519 0.071380384
0003b0 5c 32 04 3d b6 b5 be 3c f1 8c 8c 3b 32 19 d0 3d
       0.03227459 0.023280006 0.0042892625 0.101610556
0003c0 57 89 57 3d 06 50 d0 bd 46 90 bb 3c ac a0 e5 3d
       0.05262121 -0.10171513 0.022895943 0.11212286
0003d0 93 3a b7 3d 1a 1e 30 be f9 a3 4f 3d 42 ae cb bc
       0.08946719 -0.17198983 0.050693486 -0.024863366
0003e0 a0 ab 2d bc f6 65 f6 3d 1b a7 0c 3c 64 01 0b 3e
       -0.010600001 0.12031166 0.008584763 0.13574749
0003f0 80 90 88 3d 8f 78 8c 3d cb c0 8c bd b2 99 94 3d
       0.06668186 0.06858932 -0.0687271 0.072558776

inception.branch1.1.pointwise.bias f4 [32]
000000 1a d7 9c 3d 71 5c d3 3d ca 52 81 3b 7a 1b 88 3d
       0.07658215 0.10320366 0.003946637 0.06645866
000010 e2 cb 05 3d 72 a8 cc bc d9 99 46 bd cb c4 ec 3d
       0.03266514 -0.024982665 -0.048486564 0.11560973
000020 fa ab a0 3d 45 76 d3 3d ab 1d 06 3e 80 1a c1 bc
       0.07845302 0.103252925 0.13097255 -0.023572206
000030 02 31 c9 bd 68 1d 5c 3d 73 3b fb 3d 5a c4 8c bd
       -0.098238006 0.05373898 0.122671984 -0.068733886
000040 8a 2f f0 bc 9a 40 cb bb 9b 13 09 3d d2 e6 be 3d
       -0.029319543 -0.0062027695 0.033465963 0.09321369
000050 0a 25 24 3d 29 3d 12 3b ca f8 40 3d 5b 6b 2e bd
       0.040074386 0.0022314286 0.047112264 -0.04258285
000060 8a 53 76 bd 6c c1 e5 3d 1f b4 bb 3c 28 c0 16 3e
       -0.060138263 0.11218533 0.022913037 0.1472174
000070 a3 6c 08 3e de 87 cc 3d 24 35 b4 bd 6d 60 db 3d
       0.13322692 0.09986852 -0.08799198 0.10711751

inception.branch2.0.total_ops f8 [1]
000000 00 00 00 00 00 00 00 00
       0.0

inception.branch2.0.total_params f8 [1]
000000 00 00 00 00 00 00 00 00
       0.0

inception.branch2.0.depthwise.weight f4 [64, 1, 1]
000000 15 ba 0f be 4d 65 89 bf 71 ba 3d 3f 75 2b cf 3e
       -0.14035828 -1.073404 0.7411261 0.40462843
000010 1b 52 2b bd 7c 46 02 3f 8a 73 7e bf 9e 15 66 bf
       -0.04182635 0.508888 -0.9939505 -0.89876735
000020 4a 6f 2a 3f 32 24 16 3f 47 9e d2 3e e6 f8 61 3f
       0.66576064 0.5864898 0.4113638 0.88270414
000030 06 69 4c bf 04 cf 6f bf 49 dd a8 3e e7 86 f0 3d
       -0.79847753 -0.93675256 0.32981327 0.117444806
000040 b4 d7 c5 3e 82 95 87 3f 00 39 4b 3f f8 10 2d 3e
       0.3864113 1.0592501 0.7938385 0.16901004
000050 5c 0c 48 bf ed 02 72 bf 20 db 76 3f 83 70 77 3f
       -0.7814386 -0.94535714 0.9642811 0.96656054
000060 71 c5 41 3f cf 1d f3 3d e3 ac a9 be e2 47 d7 3d
       0.75691897 0.1187092 -0.33139715 0.105117574
000070 3f 44 ec 3e 9e 84 56 3e 7f 9d 01 3f 37 15 01 3f
       0.46145818 0.20949027 0.50630945 0.50422996
000080 1d 68 36 3f a9 8a 8a bf ff 38 92 bf 4f 2b c1 3e
       0.71252614 -1.0823566 -1.1423644 0.37728354
000090 d0 82 8b bf 06 df 70 bf 5e 0c e4 be 20 11 0e 3d
       -1.0899296 -0.94090307 -0.44540685 0.0346843
0000a0 e5 77 08 3e 51 59 84 3f 03 de 5e bf 14 8c bd be
       0.13326986 1.0339757 -0.87057513 -0.37020934
0000b0 8d 0a 79 3f fd dd 26 bf 96 dc 8a 3f 07 6a a5 3e
       0.97281724 -0.6518248 1.0848567 0.32307455
0000c0 d8 bc 49 be 36 0d 00 3f 56 2a 59 bf 98 02 44 bf
       -0.19700944 0.5002016 -0.84830225 -0.7656646
0000d0 a6 d5 31 be 50 a5 86 bf b6 88 44 3f d4 7d 6c 3f
       -0.17366657 -1.0519199 0.76771104 0.923795
0000e0 cf 76 50 3f 57 9f 1e bf e9 53 81 3f ee c1 14 3d
       0.8143129 -0.61961883 1.0103732 0.03631776
0000f0 de ec ba 3c ef 6b 59 bf 27 48 12 bf 73 fc 1a 3f
       0.022818025 -0.8493032 -0.57141346 0.60541457

inception.branch2.0.depthwise.bias f4 [64]
000000 5f 23 31 bf f8 08 51 3f 76 62 fd 3e 14 35 de bd
       -0.69194597 0.8165431 0.49489182 -0.108499676
000010 dc 9b 59 3f d3 bc 8a 3e 52 f6 06 bf 68 a9 14 bf
       0.8500345 0.27097186 -0.52719605 -0.58070993
000020 59 96 ba be a6 c5 98 3e 26 d9 a6 be c6 f5 4b 3f
       -0.3644283 0.29838294 -0.32587546 0.79671896
000030 7c 38 aa be e9 c9 5c bf 95 be 6b 3f 16 d2 6b 3f
       -0.3324622 -0.8624559 0.9208768 0.9211744
000040 e1 da fb 3e ab c9 0a be c8 51 49 3e 0f 57 bd be
       0.4919043 -0.13553493 0.19660103 -0.36980483
000050 42 30 24 be b5 4d 46 3f f5 9f 18 3f 8c dd 68 3f
       -0.16034034 0.7746232 0.59619075 0.90963054
000060 8a 0d 67 3f 7b f2 4b bf bd e6 a6 bc 11 17 4d bf
       0.90255034 -0.7966687 -0.020373696 -0.8011332
000070 8d 71 a0 3d 87 56 83 3d ec 42 05 bf e4 37 f8 bc
       0.07834158 0.06412988 -0.5205524 -0.030300088
000080 10 fd f6 3e 72 97 16 bf 04 76 b0 3e 60 3b cc bd
       0.48239946 -0.5882484 0.3446504 -0.099722624
000090 ed 0d 24 bf 6f 8c 6c 3f d3 c3 6b 3f bc 56 fe 3e
       -0.6408375 0.92401785 0.9209568 0.49675548
0000a0 48 b9 1c 3f 7f e0 d4 3e 22 10 dc 3e e8 f5 44 3d
       0.61220217 0.41577527 0.42981058 0.048086077
0000b0 52 73 fc bd 14 71 b1 be 05 3d 04 3e 92 5f df be
       -0.12326683 -0.34656584 0.12913902 -0.43627602
0000c0 82 69 62 bf 3e 32 2f bf 1b 35 85 be 39 1c 6c 3f
       -0.8844224 -0.6843604 -0.2601708 0.92230564
0000d0 32 ca 60 bf fd b7 8c 3e 89 98 f5 be e4 92 1a 3f
       -0.87808526 0.27484122 -0.47967938 0.6038039
0000e0 b5 ef 0b 3f 7e 1c 66 3f d3 1b be 3e 69 fb f0 bd
       0.5466264 0.89887226 0.37130603 -0.11766703
0000f0 3c b1 3f 3f 79 25 15 3f 4e ca cb be c2 49 f3 be
       0.74879813 0.58260304 -0.39802784 -0.4751721

inception.branch2.0.pointwise.weight f4 [32, 64, 1]
000000 f3 2b ef bd 43 83 bf 3d 65 68 1e bd d7 a1 0c be
       -0.116783045 0.09351208 -0.038673777 -0.13733612
000010 69 86 b5 bd e4 9c 73 bd 64 51 15 be e8 54 35 bd
       -0.08863527 -0.059475794 -0.1458183 -0.044270426
000020 63 31 7f bd 8a 66 a3 bc 15 b4 09 3e b0 ac c6 3d
       -0.06230296 -0.019946355 0.13447602 0.09700906
000030 5c 15 7c bc 72 7c 4d bc 97 46 fa bd 6d 7f fd bc
       -0.015385952 -0.012541877 -0.12220495 -0.03094455
000040 4b 9c a7 3d b9 01 2e be 3f a0 0f 3e 49 62 b3 bd
       0.081841074 -0.16992845 0.14025973 -0.08758981
000050 51 d2 0e 3e 22 11 19 3e 8d fb 27 39 e9 fc 22 bc
       0.13947417 0.14947942 0.00016020071 -0.009947994
000060 3b 28 3f bd de 99 d7 bb 70 45 c1 3d b8 23 d2 bd
       -0.046669226 -0.0065796217 0.09437072 -0.10260719
000070 c4 76 97 bd c6 c4 0b be 63 f4 89 bb 03 67 f2 3d
       -0.073956996 -0.13649282 -0.0042100414 0.11836054
000080 76 38 f2 bd 8e f3 2f be 1d df 0c 3c 2b 2b 28 bc
       -0.11827175 -0.17182752 0.008598116 -0.010264198
000090 b0 5b 29 be 6a 50 ea 3d 5c 6a 0e 3e 9a a5 bf 3d
       -0.16538882 0.11441119 0.1390776 0.09357758
0000a0 ae 9e 04 3e db a9 92 3d 6e 13 95 3d be 3f 34 3e
       0.12951156 0.071613036 0.072790965 0.1760244
0000b0 77 cf ee 3c 02 89 cc bb 3e fb 0e 3e f0 57 37 3d
       0.029151661 -0.0062419185 0.13963029 0.044761598
0000c0 bb 1b eb 3c 36 1e fd bd ab 73 00 be 06 f5 e9 3c
       0.028699746 -0.12359278 -0.12544124 0.02855922
0000d0 6e 35 24 bb 9e bc 31 be 01 23 93 bd ae d0 80 3b
       -0.002505626 -0.17357108 -0.07184411 0.0039311266
0000e0 19 e1 7e bd de 38 94 3d 5a 20 df bd a4 e8 01 bc
       -0.06222639 0.07237409 -0.108948424 -0.007929001
0000f0 83 08 47 3c dd 4a 84 bd 70 c3 85 3d 7c 06 8a 3d
       0.012148025 -0.064595915 0.06531417 0.06739518
000100 b1 3e 7c bd 39 39 b7 3b 34 8d ec bd b4 8f 1d 3e
       -0.061583225 0.0055915383 -0.1155037 0.1538685
000110 b3 23 d2 bd 9c 53 fa 3d 53 49 06 3e a2 d7 b6 bd
       -0.10260715 0.122229785 0.13113908 -0.089278474
000120 3b 2b e3 3d 2e 21 31 bd 11 d2 41 bd 92 83 d1 3c
       0.1109223 -0.043244533 -0.047319476 0.025575433
000130 c1 a1 e0 bc fa c2 b0 3d 62 b5 6b 3d cf 31 b5 bd
       -0.02742088 0.08630939 0.057546027 -0.08847391
000140 74 cb af bc d1 f6 22 3e 27 06 c5 3c 1f c1 d2 bd
       -0.021459319 0.15914465 0.024050785 -0.10290741
000150 af 40 09 be 3b f4 f1 bd cd a4 96 bd 12 04 d4 3b
       -0.13403581 -0.118141614 -0.07355652 0.006470212
000160 ee 6c b2 bd 6e a7 63 3d c7 f5 ce 3d 45 e3 91 3d
       -0.08712183 0.055579595 0.10105472 0.07123426
000170 f5 3f d6 3d 26 18 f1 3d 8e 3d 31 bd 63 26 70 3e
       0.104614176 0.11772184 -0.043271594 0.23452143
000180 fe 21 98 3b a5 f1 ac 3c d6 1a 45 3e 3e ec c8 bc
       0.004642724 0.021111319 0.19248518 -0.024526712
000190 89 9c f6 3d d5 e0 81 bd 6f a3 a4 3d 19 cd 86 bc
       0.120415755 -0.063417114 0.08038985 -0.01645522
0001a0 5f 5d a9 3d d5 64 c8 bd ad 1b 21 be 0b 6a ad 3c
       0.08269762 -0.09784857 -0.15733214 0.02116873
0001b0 9e ba 1e be 54 26 cc bc 03 d5 8e bd c9 54 c2 3b
       -0.15500876 -0.02492062 -0.069742225 0.0059305173
0001c0 05 d4 02 bd 25 d2 84 bd 2e c3 25 3e 7a 95 95 bb
       -0.03194048 -0.064853944 0.16187736 -0.004564938
0001d0 22 96 77 3d 6a 57 5b 3e 47 1a e6 3b c9 ec cc bd
       0.060445912 0.21420065 0.0070221755 -0.10006101
0001e0 06 2f 57 3d 26 9f ae 3c 42 9d e3 3d cf a5 30 bd
       0.05253508 0.021316122 0.11113979 -0.043126877
0001f0 6b fd 16 bd 76 7d e7 bd 44 f6 85 bd 17 6e 9e bd
       -0.036862772 -0.11303227 -0.06541112 -0.07735842
000200 73 0b 3f 3c d0 6d d1 bc a1 0e f6 3c 33 1b 2c 3e
       0.011660445 -0.025565058 0.030036272 0.1680725
000210 67 f3 e0 bd 3c d6 49 be 86 ad 47 be 1b 50 55 bd
       -0.10983925 -0.1971063 -0.19499788 -0.052078348
000220 46 7e e0 bd 4d 46 14 bb fa 64 52 3d 96 37 10 be
       -0.10961585 -0.002262491 0.05136583 -0.14083704
000230 bf 0e fc 3d ce 1b cc bb fd 58 30 3d aa c2 41 ba
       0.123075 -0.0062289005 0.043053616 -0.0007391373
000240 fc f1 58 bd 63 b1 36 be a7 05 59 3d 8f ba 27 bd
       -0.05296515 -0.17841105 0.052983906 -0.0409494
000250 8e 78 05 3e f8 4c 2e be d8 5b 1b 3e 2d 30 94 3c
       0.13034269 -0.17021549 0.15171754 0.018089378
000260 db bc 0b bd ca 6a 25 bd 59 0a c3 bb 1b a8 bc 3d
       -0.034115653 -0.040385045 -0.0059521613 0.09211751
000270 7a 27 19 be 4f 2d 8a bd 62 d3 5b 3c ac 11 cd bd
       -0.14956465 -0.06746923 0.013417097 -0.10013136
000280 3b 52 b2 bc a1 7f b0 3d 7f 9a 29 3b 73 6c 3d 3c
       -0.021767726 0.08618093 0.002587944 0.011561501
000290 32 cf ea bd 3e 5e d4 3d 3d 90 95 3d 1b 35 03 be
       -0.114653006 0.10369538 0.07302902 -0.12813227
0002a0 c3 ff 86 3d 3b 3c 13 3e 87 10 0d 3d a7 87 9c bd
       0.065917514 0.14378445 0.03443959 -0.07643061
0002b0 89 51 12 bd 66 45 aa bd 4d ef 3b 3e 25 fc ad 3d
       -0.03572229 -0.08314018 0.18353005 0.084953584
0002c0 bf d3 6c bd d4 6d 1f 3e aa ef 2a be 93 2b e9 bc
       -0.057819124 0.1556924 -0.16692987 -0.02846316
0002d0 4b 3f 3e bd 2f c5 a5 3d c6 a3 d9 3c b6 a9 74 bc
       -0.04644708 0.080942504 0.026567351 -0.01493304
0002e0 55 a9 85 3d 8d f7 20 be e3 15 08 3d e2 9d 0b 3e
       0.06526438 -0.15719433 0.033223998 0.13634446
0002f0 50 ff c9 3c 44 48 39 3e 1e ce 0c 3c 76 90 93 bd
       0.024657875 0.18093973 0.008594064 -0.07205288
000300 bf 0b 99 bc 59 c9 30 3e 55 b0 cb bd 3b d5 f3 3d
       -0.018682359 0.17264308 -0.09945742 0.11905905
000310 3a b2 01 bd 73 b9 1f be 0e e9 c3 bd 1b 58 c4 bd
       -0.03166411 -0.15598087 -0.09565936 -0.09587117
000320 82 e7 00 be 8a ed 2e 3e 2c 32 94 bd e4 7c bd bc
       -0.12588313 0.17082801 -0.07236132 -0.023130842
000330 24 f5 74 3d ec 47 0e 3e 56 31 63 bd e0 4b c9 3d
       0.059804097 0.13894624 -0.055466972 0.09828925
000340 55 88 aa bd 39 ee 62 bd f1 9a 2c be 5f ec 12 3e
       -0.083267845 -0.055402968 -0.1685598 0.14347981
000350 75 ec 55 3d 47 2d 21 be ae cd c1 bd 7d 01 1a 3c
       0.052227456 -0.15739928 -0.094630584 0.009399769
000360 12 c1 22 3c 38 ba 4a bd 95 89 ec bd eb 8e e2 3d
       0.009933727 -0.049494 -0.11549679 0.11062416
000370 2f f3 27 bd c3 33 4b be e1 06 cd bd 35 21 77 bd
       -0.041003402 -0.19843964 -0.10011078 -0.060334403
000380 10 4e 23 3e 37 7b 6a bd 16 2f 72 be 78 7d 23 3e
       0.15947747 -0.057246413 -0.23650774 0.15965831
000390 87 a1 c0 bd 30 55 05 3e 14 b2 c6 3c 22 31 8c 3d
       -0.09405809 0.13020778 0.024254836 0.06845309
0003a0 1e 6a 46 bd 99 0c 3e 3e c7 eb d6 bd 25 e0 ca bd
       -0.048441045 0.18559493 -0.1049419 -0.099060334
0003b0 da c2 23 be d1 3a bc bd a7 b2 8f 3d 59 7d d2 bd
       -0.15992299 -0.09190906 0.07016497 -0.102778144
0003c0 a1 b7 d8 3d 92 e7 09 3e e0 b2 1e be a9 e0 7d bb
       0.105818994 0.13467243 -0.15497923 -0.0038738644
0003d0 74 19 a4 bd 84 d1 62 3c a1 92 ef 3c fb 54 b7 3d
       -0.08012667 0.013843898 0.029244723 0.089517556
0003e0 af 15 af 3c b6 92 5a 3d d3 34 bb bd e7 2c c8 bd
       0.021372644 0.05336257 -0.09140935 -0.097741894
0003f0 b0 b5 49 3d d6 84 af 3c 30 0c 78 bc 31 38 e2 3c
       0.049245536 0.021425646 -0.0151396245 0.027614685

inception.branch2.0.pointwise.bias f4 [32]
000000 84 ec 91 3d f6 9e 07 bb 0e 62 80 bd 4e b7 7d bc
       0.0712519 -0.0020694113 -0.062687024 -0.015485598
000010 5c 04 c5 bd 53 5c 73 3c 2d 36 8a bd cb 9e 22 3e
       -0.09619972 0.014853555 -0.067486145 0.15880887
000020 ae c8 06 be 3a ca 90 3c 26 cc c9 3c dd f9 1a bd
       -0.1316249 0.017674554 0.024633478 -0.037835944
000030 eb ff 10 be 10 a4 80 bc 42 8b 08 3d e1 c1 e7 3c
       -0.14160125 -0.015703231 0.03333593 0.02829069
000040 fe a9 d9 bd 11 2e c9 3d 7a 51 91 3d 84 f6 55 3d
       -0.106281266 0.098232396 0.070956185 0.05223705
000050 65 9e d6 bd db db 5b 3d 77 91 08 bd fc 87 2c bd
       -0.1047943 0.053676467 -0.03334185 -0.042121872
000060 39 f4 fc 3c 3c 31 c6 3c 40 04 09 3d c6 07 90 bd
       0.030878173 0.024193399 0.03345132 -0.07032733
000070 e4 3d a4 bc 43 df 2e 3d 38 ae 13 3d 5f f5 87 3d
       -0.020049043 0.042693388 0.03605482 0.06638598

inception.branch2.1.total_ops f8 [1]
000000 00 00 00 00 00 00 00 00
       0.0

inception.branch2.1.total_params f8 [1]
000000 00 00 00 00 00 00 00 00
       0.0

inception.branch2.1.depthwise.weight f4 [32, 1, 1]
000000 d3 1a 3c bf c5 51 0d bf 34 2e 1e 3f bc ee 08 bf
       -0.7347843 -0.55202895 0.6178925 -0.5348928
000010 77 d6 02 bf c4 0a 8c bf ae d8 b5 bd cf 94 2b 3e
       -0.511085 -1.0940785 -0.08879219 0.16755985
000020 d1 b7 27 3f 86 76 76 3f 7b e7 28 bf 3d 48 7a bf
       0.65514857 0.962746 -0.6597821 -0.97766477
000030 03 00 37 3f 99 ae 9c 3e 07 70 33 3f 47 e4 41 bf
       0.7148439 0.30601957 0.70092815 -0.7573895
000040 81 2a 7b be ca 54 af 3e 4a 00 52 3f 06 eb e4 3d
       -0.24527933 0.34244376 0.8203169 0.1117764
000050 81 97 b7 be e7 86 11 bf e6 1c 63 3e cc 2f d3 be
       -0.35857776 -0.5684647 0.22178993 -0.41247404
000060 6d 88 15 3f 09 67 1b 3e 93 52 f0 be fd 64 81 3e
       0.58411294 0.15176024 -0.46938 0.2527236
000070 99 47 6d bf 17 6a 6f be 25 96 73 bf 84 25 5a 3f
       -0.92687374 -0.23380314 -0.9515098 0.85213494

inception.branch2.1.depthwise.bias f4 [32]
000000 8a cc 34 bf 1c ff e0 3e cd 13 2e bf 6d 09 22 bd
       -0.706246 0.43944633 -0.67998964 -0.03955977
000010 16 81 59 bf c0 cf 5b bf d4 17 19 3f 08 0e 1a 3e
       -0.84962595 -0.85863876 0.59801984 0.15044415
000020 85 2b 4e bf ba 8e f3 be 83 d5 3c 3f a6 d8 76 3f
       -0.80535156 -0.4756983 0.73763293 0.9642433
000030 26 69 34 3e c0 04 2e bf e7 38 c8 be 4b eb bf bd
       0.17618236 -0.67976 -0.39105913 -0.093710504
000040 bb 76 89 3e 34 4e 21 3f c2 3d 48 bf 14 d4 71 be
       0.26848397 0.63009953 -0.78219235 -0.23616058
000050 ad 44 62 3e 4d 58 42 bf 8f 16 63 bf 36 c7 c8 bb
       0.2209651 -0.75915986 -0.88706297 -0.0061272634
000060 5f ff 08 3d 5b 80 42 be 6f 74 64 3f ec 8e 0a bf
       0.033446666 -0.18994276 0.89240164 -0.5412433
000070 84 74 9c 3e ca 58 13 bf a1 47 4f bf d0 4a 0a bf
       0.30557644 -0.57557356 -0.8096867 -0.54020405

inception.branch2.1.pointwise.weight f4 [32, 32, 1]
000000 96 e7 22 3e 6d e9 b0 bd 30 5a fb bd 53 4c 55 bd
       0.15908656 -0.086382724 -0.12273061 -0.05207474
000010 b1 11 41 3d 4a 88 9d bb 11 e1 39 be 56 7a 45 be
       0.047136012 -0.0048075067 -0.18152262 -0.19284949
000020 43 ff 80 3d 95 3c 7a bd 79 14 a5 bd 71 66 ff 3d
       0.06298687 -0.06109293 -0.080605455 0.12470711
000030 8f f1 36 3e 0e b3 24 3e 3c 28 48 3e 02 1c e2 bd
       0.17865585 0.16083929 0.19546598 -0.11040498
000040 39 d7 15 be 8c d5 26 be be 09 0d bd 96 ab 28 3d
       -0.14632882 -0.16292399 -0.03443312 0.041179262
000050 14 a4 92 bd 9d 5b 9a 3d 3b 69 ab 3d 12 23 39 be
       -0.07160202 0.07537005 0.083696805 -0.18079785
000060 06 e6 18 3e 23 98 40 3d d8 e4 f6 3d 3e eb cf 3d
       0.14931497 0.04702009 0.12055367 0.10152291
000070 ba 57 e0 bd 35 e3 0b be 4a de c5 bd b7 52 e8 bd
       -0.109542325 -0.13660891 -0.09661539 -0.113439016
000080 e4 e3 7c 3c ee ab ef 3d 46 94 dc 3d 07 b7 dc 3b
       0.015435193 0.11702715 0.107704684 0.0067356857
000090 a1 71 3f be a5 e1 16 3d 7d 51 60 bc b6 71 9b 3d
       -0.1869569 0.036836285 -0.013691303 0.07590048
0000a0 ba 5d 5d 3e ac aa 2e 3e e9 c8 47 3e a6 80 01 3e
       0.21617785 0.17057294 0.19510235 0.12646732
0000b0 e2 03 2c 3d 47 54 db bd 18 91 2c 3e 23 b8 23 3e
       0.04199589 -0.10709434 0.16852224 0.15988211
0000c0 9c c3 2d 3c f0 e1 3a 3e 55 78 49 bd aa 52 f7 3d
       0.010605719 0.18250251 -0.049187023 0.12076314
0000d0 42 19 39 3d 5f d8 e1 bc d3 7f 28 3d 9a 52 cd bc
       0.045190103 -0.027568994 0.041137528 -0.025063802
0000e0 c7 f3 ac 3d 20 4b 7d 3d 53 5c 39 be 81 cd c7 bd
       0.08444934 0.061839223 -0.18101625 -0.09755994
0000f0 fc 4f 3d 3c fa d6 1e be 24 99 32 bd 73 14 98 be
       0.011554714 -0.15511695 -0.043603078 -0.29703102
000100 6a 34 24 be 24 2a 04 be 8b c0 f5 3c 31 9c 29 3e
       -0.1603562 -0.129067 0.029999038 0.16563489
000110 af 6a 5a bd b6 62 1d 3d f0 f3 25 3e 68 89 04 3d
       -0.053324398 0.038424216 0.16206336 0.032357603
000120 1c ed f6 bd dc c0 8b 3d c1 17 e6 bd 23 fb 25 be
       -0.12056944 0.068238944 -0.112349994 -0.16209082
000130 e9 dc 98 be a6 ad 44 3c 98 58 4f 3e 2b 81 78 be
       -0.2985604 0.012004292 0.2024864 -0.24268024
000140 12 d6 27 3d 4e 3c 1b 3e 33 ad 51 be 9c 22 2d be
       0.040975638 0.15159723 -0.20476227 -0.16907734
000150 c9 20 1c bd c5 b2 48 bc 98 fb 2b be 56 7c 1e be
       -0.038117204 -0.012249653 -0.16795194 -0.15477118
000160 22 3f b7 bb b6 7e 49 be 85 7e f6 3c 68 16 31 be
       -0.005592243 -0.19677243 0.030089626 -0.17293704
000170 6e ce 59 be ad fd 33 be 8e 28 d2 3d 49 2b 05 3e
       -0.21270153 -0.17577238 0.102616414 0.13004793
000180 b1 e9 0a be 24 60 80 3d da a7 30 3d 80 1b d9 3d
       -0.13565709 0.06268337 0.043128826 0.10600948
000190 91 1f c3 bd 01 9e 75 be cc 79 ae 3d 10 11 e4 bd
       -0.09527505 -0.23986055 0.08519325 -0.11136067
0001a0 8c 2b 19 3d c0 a2 fb bc 2e f4 e0 bd 09 a0 11 3d
       0.037395045 -0.030717254 -0.109840736 0.035553012
0001b0 98 de a5 3e 53 18 4a be 5c 93 f7 bd 3b 0c 55 3d
       0.32396388 -0.19735841 -0.120886534 0.052013617
0001c0 80 47 ec 3d 03 31 20 be 8a 6e 71 3e 04 0c 07 bd
       0.11537075 -0.15643696 0.23577324 -0.032970443
0001d0 84 99 8c bd b4 e6 da 3d ba 1c 26 3d 22 05 22 3e
       -0.06865218 0.106885344 0.04055474 0.1582227
0001e0 52 ff 36 be 20 09 23 be 1c ee da 3d 7b 30 d7 bd
       -0.17870834 -0.1592145 0.10689947 -0.10507294
0001f0 72 04 e9 bd 15 29 92 3d 66 52 8d 3d a8 5c d1 3c
       -0.11377801 0.07136742 0.06900482 0.025556877
000200 93 ff 15 3e a8 ae 64 bd d2 9c 30 be 85 13 bb 3d
       0.14648275 -0.055830628 -0.17247322 0.091345824
000210 d3 6c f2 bd a1 6d bc bd 7e a0 29 bb cc 7f 4e 3d
       -0.11837163 -0.092005976 -0.0025883014 0.050414845
000220 a0 62 4a 3d b1 7b 4e be 99 ad d5 3d 39 26 91 3d
       0.049410462 -0.20164372 0.10433502 0.070873685
000230 24 2d 92 be 48 bb f1 3d 97 96 83 bd f3 84 75 be
       -0.28550065 0.11803299 -0.06425207 -0.23976497
000240 36 9b 12 3d b2 10 15 3e 24 65 bf bd 43 2d be bd
       0.035792552 0.1455715 -0.09345463 -0.09285977
000250 b1 57 16 3e 2d 8e 8c bd 2f 16 34 3e c9 37 a0 be
       0.14681889 -0.068630554 0.17586587 -0.3129256
000260 d5 ad 2b 3e e7 4a a7 3d fc 2e 84 bc 1d 9b 49 bc
       0.1676553 0.08168583 -0.016135685 -0.012305048
000270 0e df de bc dd f4 af 3d 41 67 d3 bd 43 0b 47 3e
       -0.02720597 0.08591626 -0.103224285 0.1943789
000280 f2 74 ae bc 7c 6f 0a 3e 4d c7 31 be 3e e2 47 bd
       -0.021295998 0.1351909 -0.17361183 -0.048799746
000290 5f 4a ca 3c 09 2d a1 bc 1c 76 1c 3e 91 3b af 3d
       0.024693666 -0.019674795 0.1527943 0.08556283
0002a0 50 fd 82 be 68 3e 2c be 74 a1 13 3c 7e d7 18 be
       -0.25583887 -0.16820681 0.009010661 -0.14925954
0002b0 fb 09 d9 bd 78 d6 89 3d d6 36 55 3d 34 d8 89 3c
       -0.10597607 0.0673036 0.05205425 0.016826726
0002c0 d1 b7 0c 3e 2d 61 89 3c b9 a7 1a be 4a 83 d4 bc
       0.13741995 0.01676997 -0.15103044 -0.02594151
0002d0 9a e8 63 3e 9f 55 6c bd 9f fb 9f 3c de b1 35 bd
       0.22256699 -0.057698842 0.019529162 -0.04435908
0002e0 87 99 86 3d dc a0 d3 bd 1a 7b d4 3d 5d 72 ca bc
       0.06572252 -0.10333416 0.10375042 -0.024712736
0002f0 9b 16 e0 bd dd 4d c5 bc 29 4c 02 3d 31 88 57 3e
       -0.10941812 -0.02408498 0.031810913 0.21048047
000300 19 6e 16 3d 23 ae 00 be 65 87 27 3e e6 4f 78 bd
       0.03672609 -0.12566428 0.16360243 -0.060623072
000310 a7 f4 5a be b4 78 ec 3d b9 06 ab 3d 8b 88 ba 3d
       -0.2138239 0.1154646 0.083508916 0.09108075
000320 66 c5 54 3e 01 77 19 be d6 9d 5f 3e 31 95 34 3e
       0.20778427 -0.14986803 0.21837553 0.17635037
000330 b4 41 72 be c9 84 b5 bd ae 3d fe 3d ad f9 4a bd
       -0.23657876 -0.088632174 0.12414108 -0.049554516
000340 3d d0 17 3e 3b 95 f7 3d a5 59 3c be 58 e4 a1 bd
       0.1482553 0.1208901 -0.18393572 -0.07904881
000350 c9 10 9a 3c dd 82 51 3d 66 60 b4 bd 91 b2 95 be
       0.018806832 0.05115019 -0.08807449 -0.29237798
000360 a6 36 8a bc 8b fd 2d be c6 67 4b be e2 fd c9 3d
       -0.016871762 -0.1699125 -0.19863805 0.098628774
000370 99 b9 cf bc a5 b2 a5 bd 55 1a 6c 3d 54 7c 46 be
       -0.025357055 -0.08090714 0.0576423 -0.19383365
000380 ff 1f 4a 3d f1 44 53 3e 6c a4 39 bd c5 f9 ff bd
       0.04934692 0.20631768 -0.04532282 -0.12498812
000390 d5 d3 40 be 04 18 40 3e de 21 d4 bc 15 c8 59 bd
       -0.18830808 0.18759161 -0.025895055 -0.05316933
0003a0 49 74 22 3e 8d 05 27 3e ec 6a 3a 3e 08 63 35 3e
       0.15864672 0.16310711 0.1820485 0.17713559
0003b0 a6 7b 58 bc 78 d4 0b be a6 fc fc bd 40 e7 5b 3d
       -0.013213074 -0.13655269 -0.12352876 0.053687334
0003c0 69 58 29 be 50 5b 8f bc d7 6f cb 3d 11 05 10 be
       -0.16537632 -0.017499596 0.09933441 -0.14064433
0003d0 86 52 15 be 90 02 da bd ed ad 21 be 99 1c 57 3e
       -0.14582261 -0.1064502 -0.15789004 0.21007003
0003e0 34 7d 60 be 27 fc f4 3c 54 ea 64 bc c9 8d aa bd
       -0.21922761 0.029905392 -0.013971884 -0.083278246
0003f0 e1 f5 5f bd 16 7c 9a bc b7 ee 91 3d 92 86 0d bd
       -0.054677848 -0.018857997 0.07125609 -0.034552164

inception.branch2.1.pointwise.bias f4 [32]
000000 e0 13 79 bd 58 25 38 3e 88 34 3a 3e 76 ed f5 bd
       -0.06080997 0.17982996 0.18184102 -0.12008183
000010 9b b2 38 3e 82 00 d7 3d d3 4d 19 bd 49 59 f4 bd
       0.18036883 0.10498144 -0.037427735 -0.11931092
000020 dc a3 7a bd 05 36 0c be 02 e3 37 3d bf f4 f1 bc
       -0.061191425 -0.13692482 0.044894226 -0.02953565
000030 eb 1b df bd 0b f5 28 3c c8 4d e7 bc 09 87 8d bd
       -0.10893997 0.010312329 -0.028235331 -0.069105215
000040 34 3f 27 bd 79 27 02 be bc 5c 4a 3e 73 9a ce bd
       -0.04083176 -0.1271037 0.19761938 -0.100880526
000050 9f 7f bf 3d ac a8 51 3b 18 8c a5 bd 26 78 02 3e
       0.09350514 0.0031991405 -0.080833614 0.12741145
000060 e2 a9 a6 bd 57 52 bd 3d 77 f5 bb 3d b0 df 54 3c
       -0.08137871 0.09244221 0.09177678 0.012992784
000070 a8 96 d6 bd 4f fa 0d 3e b3 93 e2 bd d7 70 be bd
       -0.10477954 0.13865016 -0.11063328 -0.09298866

inception.branch3.0.total_ops f8 [1]
000000 00 00 00 00 00 00 00 00
       0.0

inception.branch3.0.total_params f8 [1]
000000 00 00 00 00 00 00 00 00
       0.0

inception.branch3.0.depthwise.weight f4 [64, 1, 1]
000000 58 b1 ff 3e a4 f7 10 bf 63 f5 25 bf 63 32 cd 3d
       0.4993999 -0.5662787 -0.64827555 0.10019376
000010 f2 da 93 3e 8c ee 52 3f 5a db 53 bf cd f8 30 3f
       0.2887798 0.82395244 -0.8275658 0.6912964
000020 d1 6a b5 be 2a f5 06 3f 87 8d 8b bf 76 cf 0c bf
       -0.35433057 0.5271784 -1.0902566 -0.5500406
000030 14 8f bc be 1e de 39 bf f3 15 8e bf c1 23 06 bf
       -0.3682791 -0.7260455 -1.1100448 -0.52398306
000040 19 50 3d bf 30 d5 9c be 31 9c 1f 3f b0 9b 45 bf
       -0.73950344 -0.306314 0.62347704 -0.77190685
000050 39 fc ac 3e 55 a0 8e bf 72 2f 8f bf bf 69 2c bf
       0.3378618 -1.114268 -1.1186354 -0.67348856
000060 db 19 4c 3f 06 bd 75 bf c4 97 58 3e 9e a3 95 3f
       0.7972695 -0.9599155 0.21151644 1.1690557
000070 9f 90 1c 3f e5 d7 c2 3e 80 17 99 3e 39 7c a2 bd
       0.61158174 0.3805534 0.29900742 -0.0793385
000080 f1 7b 50 3f af c0 36 bf bc 3e f8 be 77 ea 43 bf
       0.8143912 -0.7138776 -0.48485363 -0.7652964
000090 30 5c 5c be 61 c8 3c 3e 5b fc 43 3f 99 35 2d bf
       -0.21519542 0.18435813 0.7655694 -0.6765991
0000a0 2e 19 e5 3e 05 af 02 bf b2 a3 8e be eb 68 40 be
       0.44745773 -0.5104831 -0.27859265 -0.18790023
0000b0 25 e5 66 3f ad 9e d7 3e 62 8c 9a 3e 0f fc 4a 3f
       0.90193397 0.42113248 0.3018523 0.7929086
0000c0 15 0e 7e bf 95 bb 78 3e 33 75 29 bf d7 a5 44 3f
       -0.9924024 0.24290307 -0.66194457 0.7681555
0000d0 92 99 c1 be 29 c6 6b 3f 48 f8 40 bf 62 cf 71 bf
       -0.37812477 0.92099243 -0.7537885 -0.94457066
0000e0 4d ec 4a 3f 8a 91 67 bf 82 ca 73 3f fa 82 7e bf
       0.79266816 -0.9045645 0.9523088 -0.99418604
0000f0 a7 77 83 be ef 78 08 3f 71 b4 83 be 1e b9 8a bf
       -0.25677225 0.5330953 -0.25723603 -1.0837743
