experiments/1005/PAMAP2_100pct_4rot_model.pth (torch, 339253 bytes, 88 tensors)

total_ops f8 [1]
0.0
00000000: 0000 0000 0000 0000

total_params f8 [1]
0.0
00000000: 0000 0000 0000 0000

stem.total_ops f8 [1]
0.0
00000000: 0000 0000 0000 0000

stem.total_params f8 [1]
0.0
00000000: 0000 0000 0000 0000

stem.conv1d.weight f4 [64, 48, 3]
-0.056674056 -0.0110519575 -0.05127159 0.013558784 -0.027846476 0.054007776 -0.0036698054 -0.0645245
0.010701376 0.050665684 0.093383744 0.01502459 -0.076922745 0.021414366 0.042601142 -0.028197145
-0.06615811 -0.07190569 -0.014680857 -0.11337439 -0.047144838 0.036494933 -0.038556278 -0.0029164278
0.001983335 -0.014518351 0.009313111 0.03094383 -0.07349157 -0.06537195 -0.00079816434 -0.007434727
-0.011054874 0.04803656 0.050695587 -0.0191783 0.04378482 0.04705777 -0.05005564 0.015730271
0.08540628 0.12144855 0.099415876 0.039451562 -0.05744953 -0.031175975 -0.009501408 0.029961184
-0.06543182 0.0076571372 0.039790098 -0.050570216 -0.026906166 0.011567739 -0.036903292 0.060420424
-0.05035458 -0.05589566 -0.03495184 0.0398279 -0.031022623 0.011653796 0.10376104 0.036284108
-0.01153182 -0.018153096 -0.097477555 -0.006425428 -0.08230812 -0.044703312 -0.07934197 -0.07591216
-0.038216703 -0.04487366 -0.019289885 0.04573139 0.0651247 -0.06165097 -0.11627638 -0.09853222
-0.033963546 0.07521308 0.11363496 0.102799244 -0.100092866 0.046673175 0.040155564 -0.04220786
-0.064955644 0.009227583 -0.019964758 0.0017178998 -0.016470188 -0.018434698 -0.046684943 0.0683399
0.038680658 -0.09676391 -0.093422346 -0.05097953 -0.012617551 0.0240699 -0.04817955 0.009279558
0.016506545 -0.037768062 -0.07219486 0.03753965 0.04697337 0.0067123217 -0.0068387436 0.023897896
-0.08677479 0.009622427 0.061345983 0.0029307522 0.052324545 -0.09415289 0.03501674 0.028957006
0.040413685 0.021522285 -0.055227883 0.024043992 0.10032207 0.079485826 0.019728467 0.0017463502
-0.018450843 -0.05608532 0.013080844 -0.13610445 0.024640031 -0.028364183 -0.08914134 -0.084775925
-0.06665529 0.012804471 -0.08047712 0.062731795 -0.07954833 0.06423467 0.014612236 0.047985543
-0.034644943 0.061527487 0.05179274 -0.05666629 0.08412737 -0.0086696325 -0.108312555 -0.020521998
0.017593825 0.06917884 -0.03613098 -0.055475704 0.079177216 0.0114912465 0.0036257901 -0.00852077
0.046915602 -0.05584587 -0.040778704 -0.04873906 0.06797516 -0.10393239 0.048748177 -0.013352833
-0.022774985 0.040079467 -0.035776895 0.07333215 -0.023031319 0.028644912 -0.09027935 0.036476802
0.01874085 -0.08105606 -0.0014704673 -0.079757355 0.0178188 -0.0039757364 0.012915414 0.007711014
0.0015083438 0.105518445 -0.055072013 0.023899605 -0.07882176 -0.0053277304 0.004799586 0.062500775
-0.007197302 0.019804442 0.023791358 -0.038834445 0.03285009 -0.08160503 -0.0337682 -0.06646942
-0.1335745 0.005624865 0.079113245 -0.05597659 0.021427523 0.050082687 -0.047845215 -0.07681184
-0.035441134 -0.005640069 0.024654094 0.032461893 0.035153322 -0.04745189 -0.007119496 -0.052349836
-0.0076085646 0.014269357 -0.07159279 -0.082079045 0.010820186 -0.0078421375 0.03997429 0.006049731
-0.044375595 -0.076534316 -0.06888797 -0.11229938 0.023575902 0.04037305 0.053911828 -0.039771654
0.027734037 -0.065697044 -0.09076981 -0.02407669 -0.030436799 -0.080940664 -0.04537397 0.03916234
0.061529584 0.09519376 0.005793707 -0.047331054 0.05455305 0.015377616 0.050708108 0.015293584
0.027348004 0.064409696 0.05398002 0.082540214 0.07718695 0.027852599 0.0064712693 0.0776649
00000000: 0e23 68bd 4513 35bc 2902 52bd a925 5e3c
00000010: 4b1e e4bc 4237 5d3d 1e81 70bb 6c25 84bd
00000020: d354 2f3c d286 4f3d fa3f bf3d b329 763c
00000030: ac89 9dbd 2e6d af3c 897e 2e3d b3fd e6bc
00000040: e77d 87bd 4a43 93bd fa87 70bc d530 e8bd
00000050: f21a 41bd b67b 153d 30ed 1dbd 8a21 3fbb
00000060: d7fa 013b 61de 6dbc 0596 183c ea7d fd3c
00000070: c082 96bd bbe1 85bd e73b 51ba 039f f3bb
00000080: 811f 35bc fcc1 443d 2da6 4f3d cf1b 9dbc
00000090: b657 333d a6bf 403d 2507 4dbd c5dc 803c
000000a0: 7de9 ae3d 04ba f83d 8d9a cb3d f697 213d
000000b0: 3350 6bbd c264 ffbc cbab 1bbc 2871 f53c
000000c0: 1e01 86bd b9e8 fa3b f1fa 223d b722 4fbd
000000d0: 526a dcbc 9d86 3d3c e827 17bd 687b 773d
000000e0: 9b40 4ebd d9f2 64bd a929 0fbd 9422 233d
000000f0: 2823 febc 90ef 3e3c ab80 d43d a59e 143d
00000100: f5ef 3cbc cdb5 94bc 50a2 c7bd 668c d2bb
00000110: 2991 a8bd d21a 37bd 0b7e a2bd d677 9bbd
00000120: 1e89 1cbd 71cd 37bd d205 9ebc d750 3b3d
00000130: 1960 853d ba85 7cbd 5022 eebd 43cb c9bd
00000140: 5c1d 0bbd 5109 9a3d 72b9 e83d 6988 d23d
00000150: 7dfd ccbd 5f2c 3f3d 297a 243d 26e2 2cbd
00000160: 7707 85bd 4a2f 173c 228d a3bc 272b e13a
00000170: 7dec 86bc 5d04 97bc b638 3fbd caf5 8b3d
00000180: 9c6f 1e3d 282c c6bd 3754 bfbd e9cf 50bd
00000190: d8b9 4ebc 3d2e c53c eb57 45bd 4a09 183c
000001a0: bc38 873c afb2 1abd e6da 93bd 2dc3 193d
000001b0: 2667 403d 09f3 db3b 8a17 e0bb 85c5 c33c
000001c0: fbb6 b1bd 62a7 1d3c ed45 7b3d dd11 403b
000001d0: 4352 563d 3bd3 c0bd b76d 0f3d 3e37 ed3c
000001e0: d288 253d 814f b03c a236 62bd e8f7 c43c
000001f0: a875 cd3d 77c9 a23d 989d a13c cae5 e43a
00000200: 3926 97bc b8b9 65bd 0951 563c f75e 0bbe
00000210: e4d9 c93c 015c e8bc bc8f b6bd 009f adbd
00000220: 9282 88bd d8c9 513c 30d1 a4bd 8779 803d
00000230: 3cea a2bd 778d 833d 2968 6f3c 7d8c 443d
00000240: dbe7 0dbd 3f04 7c3d a024 543d e91a 68bd
00000250: f84a ac3d 130b 0ebc f9d2 ddbd c01d a8bc
00000260: ed20 903c a3ad 8d3d 14fe 13bd 7e3a 63bd
00000270: aa27 a23d c845 3c3c aa9e 6d3b b39a 0bbc
00000280: 932a 403d a4be 64bd 9207 27bd 9ca2 47bd
00000290: 9036 8b3d 81da d4bd 2bac 473d d7c5 5abc
000002a0: 9b92 babc 5e2a 243d cb8a 12bd 2b2f 963d
000002b0: 2dac bcbc bca8 ea3c 61e4 b8bd b368 153d
000002c0: 6986 993c b800 a6bd b2bc c0ba d357 a3bd
000002d0: bbf8 913c e546 82bb 2c9b 533c acac fc3b
000002e0: 9fb3 c53a 0e1a d83d 3193 61bd 1bc9 c33c
000002f0: 4e6d a1bd 3e94 aebb d845 9d3b 6800 803d
00000300: 58d7 ebbb ed3c a23c 18e6 c23c de10 1fbd
00000310: d18d 063d 8a20 a7bd 8650 0abd 1f21 88bd
00000320: c1c7 08be ca50 b83b 2006 a23d b547 65bd
00000330: c688 af3c 8123 4d3d 58f9 43bd 874f 9dbd
00000340: b92a 11bd 54d0 b8bb 62f7 c93c c3f6 043d
00000350: eefc 0f3d ea5c 42bd a94a e9bb c86c 56bd
00000360: 4451 f9bb 05ca 693c 3e9f 92bd 0f19 a8bd
00000370: 2647 313c 4f7c 00bc 15bc 233d d23c c63b
00000380: 2fc3 35bd 06be 9cbd 2315 8dbd 38fd e5bd
00000390: 4022 c13c 365e 253d a6d2 5c3d 9ae7 22bd
000003a0: 7e32 e33c 2c8c 86bd 86e5 b9bd 7b3c c5bc
000003b0: 9856 f9bc 38c4 a5bd 0eda 39bd b168 203d
000003c0: 7206 7c3d f2f4 c23d 23d9 bd3b 35de 41bd
000003d0: 0573 5f3d 65f2 7b3c 4eb3 4f3d f191 7a3c
000003e0: ec08 e03c 3be9 833d 271a 5d3d d80a a93d
000003f0: 3114 9e3d 222b e43c f10c d43b c60e 9f3d

stem.conv1d.bias f4 [64]
-0.054644406 0.047848802 0.060052533 0.081375055 0.075844154 0.045076404 -0.07964683 -0.048413396
-0.029062258 0.05110029 0.018923542 0.03250521 0.065257706 0.058710966 -0.063503765 -0.026003122
0.03996571 -0.03396977 -0.04967341 0.06336454 0.0007867984 0.017092617 0.033065014 0.060265668
0.05732091 -0.067946315 0.047826305 0.04118399 -0.0057563125 -0.007595141 -0.07528803 0.08296209
0.03260058 -0.031679105 0.010073933 -0.08014731 0.06104737 0.037928738 -0.06709286 0.039608553
0.03542817 -0.003762937 -0.037278976 0.07164979 0.028764267 0.07340825 0.006583461 -0.055981666
-0.013800285 0.05797182 0.013669787 -0.03938489 0.045183808 0.08124256 -0.022358736 -0.014355956
-0.012156761 -0.030045751 0.011513245 -0.038196065 0.027869206 -0.0511558 0.07419902 0.011603281
00000000: d0d2 5fbd 1bfd 433d a5f9 753d f7a7 a63d
00000010: 2e54 9b3d 09a2 383d e11d a3bd 204d 46bd
00000020: f913 eebc 8a4e 513d 8b05 9b3c 2f24 053d
00000030: d5a5 853d e97a 703d 430e 82bd 8004 d5bc
00000040: 16b3 233d e323 0bbd 5876 4bbd 45c5 813d
00000050: 2641 4e3a d105 8c3c 2e6f 073d 22d9 763d
00000060: 55c9 6a3d 7027 8bbd 84e5 433d 8bb0 283d
00000070: 739f bcbb a9e0 f8bb 9c30 9abd 07e8 a93d
00000080: 3088 053d f3c1 01bd 230d 253c 4624 a4bd
00000090: cf0c 7a3d 2a5b 1b3d fb67 89bd 943c 223d
000000a0: 211d 113d 9b9b 76bb d7b1 18bd 20bd 923d
000000b0: 0aa3 eb3c 1157 963d 13ba d73b 084d 65bd
000000c0: 971a 62bc dc73 6d3d 3ef7 5f3c 0d52 21bd
000000d0: a812 393d 8062 a63d ab29 b7bc 3e35 6bbc
000000e0: 272d 47bc 8222 f6bc 0da2 3c3c 7a73 1cbd
000000f0: f64d e43c bf88 51bd a8f5 973d b01b 3e3c

stem.bn.weight f4 [64]
1.0715349 1.1107281 1.1567837 1.1387624 1.1340321 1.1569682 1.1054617 1.0962292
1.1681149 1.0885689 1.1082201 1.0879264 1.1440036 1.1573027 1.0899826 1.1674587
1.1218847 1.0703495 1.0882164 1.1071275 1.1076499 1.1222072 1.0876231 1.1161973
1.0630596 1.1319242 1.1273446 1.1134315 1.1400594 1.1082349 1.1225837 1.0848016
1.1115476 1.0863935 1.1141014 1.0953598 1.0962226 1.1264218 1.173949 1.1606172
1.1095814 1.1354178 1.1102796 1.1340929 1.1517161 1.0882319 1.0953976 1.1056257
1.1232764 1.1084025 1.1232108 1.1136552 1.1551428 1.1025242 1.0772915 1.1317656
1.1269995 1.1213405 1.1222526 1.1119047 1.1638471 1.1113889 1.0947335 1.1174952
00000000: 0e28 893f 572c 8e3f 7d11 943f f7c2 913f
00000010: f727 913f 8917 943f c57f 8d3f 3d51 8c3f
00000020: ca84 953f 3a56 8b3f 28da 8d3f 2c41 8b3f
00000030: b66e 923f 7f22 943f 8d84 8b3f 496f 953f
00000040: eb99 8f3f 3601 893f ad4a 8b3f 5bb6 8d3f
00000050: 79c7 8d3f 7ca4 8f3f 3c37 8b3f 8edf 8e3f
00000060: 5612 883f e4e2 903f d44c 903f ec84 8e3f
00000070: 77ed 913f a4da 8d3f d3b0 8f3f c7da 8a3f
00000080: 3147 8e3f f10e 8b3f e09a 8e3f c034 8c3f
00000090: 0651 8c3f 972e 903f f643 963f 1b8f 943f
000000a0: c306 8e3f 5f55 913f a41d 8e3f f529 913f
000000b0: 6f6b 933f 2f4b 8b3f fd35 8c3f 2585 8d3f
000000c0: 85c7 8f3f 22e0 8d3f 5fc5 8f3f 418c 8e3f
000000d0: b8db 933f 831f 8d3f b0e4 893f b2dd 903f
000000e0: 8541 903f 1688 8f3f f9a5 8f3f e552 8e3f
000000f0: f1f8 943f fe41 8e3f 3a20 8c3f 150a 8f3f

stem.bn.bias f4 [64]
0.021604268 0.005722954 -0.0014773838 -0.023992993 0.004739678 -0.0027810687 0.01826524 -0.00071678794
0.0069550513 -0.03532361 0.027207324 0.021633772 0.052324235 0.028668491 -0.029574236 0.003168598
-0.043706235 0.012023559 0.0018986581 -0.0027557441 0.028923191 0.05763633 -0.0019883758 0.07671316
0.0023576315 0.027670812 0.0063502286 -0.010735657 0.0055353185 0.012245155 -0.011626314 -0.016601246
-0.048931394 -0.08043129 0.006866719 -0.021531736 0.037745666 -0.01674528 0.039995126 -0.03742311
0.02816707 0.04395857 -0.022661906 0.04365525 0.010488993 0.023813268 -0.0075470274 0.014306812
-0.012979723 -0.06856355 0.024687596 0.0032026956 0.015556563 0.060297646 0.04615862 0.00051557383
0.010617456 -0.026375605 -0.055108942 0.08576324 0.0060882876 -0.039022088 -0.024549056 0.004195661
00000000: 6ffb b03c 9e87 bb3b c6a4 c1ba f48c c4bc
00000010: 4d4f 9b3b 9742 36bb fca0 953c d3e6 3bba
00000020: 33e7 e33b 7daf 10bd e5e1 de3c 4f39 b13c
00000030: f051 563d 2fda ea3c ab45 f2bc 41a8 4f3b
00000040: 4f05 33bd 76fe 443c 65dc f83a b799 34bb
00000050: 54f0 ec3c 1314 6c3d 694f 02bb ca1b 9d3d
00000060: 7e82 1a3b e6ad e23c 9415 d03b 9ce4 2fbc
00000070: 9e61 b53b e79f 483c 4c7c 3ebc 56ff 87bc
00000080: 496c 48bd 29b9 a4bd 3702 e13b 5363 b0bc
00000090: 339b 1a3d 662d 89bc eed1 233d fa48 19bd
000000a0: a1be e63c e70d 343d 76a5 b9bc d9cf 323d
000000b0: 06da 2b3c 0b14 c33c 0e4d f7bb 1e67 6a3c
000000c0: e7a8 54bc 0c6b 8cbd a43d ca3c 51e4 513b
000000d0: f4e0 7e3c aafa 763d d210 3d3d 9327 073a
000000e0: d7f4 2d3c a711 d8bc eab9 61bd a3a4 af3d
000000f0: 4280 c73b a0d5 1fbd 1a1b c9bc c17b 893b

stem.bn.running_mean f4 [64]
-0.049335442 0.04056038 0.05604298 0.10117046 0.072897494 0.050450593 -0.06819466 -0.06171737
-0.040574223 0.064841375 0.042428207 0.024415784 0.064933084 0.07800971 -0.048399452 -0.024270793
0.03631749 -0.033777725 -0.06360303 0.063778564 -0.022429638 0.035493784 0.03575982 0.07520179
0.059721623 -0.07014794 0.068535514 0.016502904 -0.006828143 -0.022970071 -0.09708191 0.07794643
0.033812918 -0.024819838 0.012969944 -0.087294854 0.053525303 0.03212841 -0.07646817 0.036860894
0.027825493 -0.018449983 -0.018051205 0.068377495 -0.0069141327 0.07749486 -0.0040032463 -0.0774393
-0.036024537 0.023075782 0.032431483 -0.02555372 0.058180485 0.07712027 -0.027937148 -0.048208717
-0.010596028 -0.024408044 -0.0034137464 -0.03955285 0.008857318 -0.040477224 0.06634845 0.045049496
00000000: f613 4abd a422 263d 538d 653d 7532 cf3d
00000010: 484b 953d 48a5 4e3d a4a9 8bbd 5acb 7cbd
00000020: 2831 26bd 8ecb 843d 33c9 2d3d 9c03 c83c
00000030: a3fb 843d 8ec3 9f3d 813e 46bd 8bd3 c6bc
00000040: a6c1 143d 835a 0abd 4e42 82bd 569e 823d
00000050: 5cbe b7bc ee61 113d e478 123d 6503 9a3d
00000060: a99e 743d b9a9 8fbd 595c 8c3d 1931 873c
00000070: 9dbe dfbb bb2b bcbc e1d2 c6bd 61a2 9f3d
00000080: 6a7f 0a3d f952 cbbc e37f 543c a5c7 b2bd
00000090: 593d 5b3d 1499 033d 589b 9cbd 73fb 163d
000000a0: 4af2 e33c 6b24 97bc 1fe0 93bc 8009 8c3d
000000b0: f38f e2bb a0b5 9e3d aa2d 83bb 7f98 9ebd
000000c0: 778e 13bd 6c09 bd3c e0d6 043d 0956 d1bc
000000d0: a94e 6e3d 3bf1 9d3d 72dc e4bc 8176 45bd
000000e0: f69a 2dbc 61f3 c7bc 29b9 5fbb 2b02 22bd
000000f0: 491e 113c 72cb 25bd b2e1 873d d285 383d

stem.bn.running_var f4 [64]
0.31259027 0.3982831 0.86675507 0.70665056 0.5576275 0.5988608 0.29147044 0.3027305
0.4965661 0.75981057 0.4574741 0.6031349 0.8890446 0.28777826 0.550728 0.56234705
0.6973318 0.18007791 0.20437132 0.38953176 0.65224016 0.6319793 0.64081955 0.8880965
0.31255937 0.25598726 0.36732525 0.8154925 0.30725914 0.47939843 1.0711013 0.22283804
0.5180117 0.2979823 0.7231422 0.5295872 0.5224462 0.5216529 1.049529 1.0891238
0.31082234 0.51567775 0.5820411 0.22011335 1.072153 0.40641734 0.43426913 0.64696234
0.8266159 0.9583554 0.6895017 0.7915255 0.50567955 0.53959155 0.78601074 0.583793
0.46945253 0.29115295 1.1047823 0.53117645 0.72567636 0.5021901 0.47867465 1.1169041
00000000: d50b a03e c3eb cb3e a9e3 5d3f 0de7 343f
00000010: adc0 0e3f f14e 193f 9d3b 953e 7eff 9a3e
00000020: e93d fe3e f282 423f 0c3a ea3e 0c67 1a3f
00000030: 6d98 633f ac57 933e 83fc 0c3f faf5 0f3f
00000040: 5684 323f 5866 383e b746 513e b570 c73e
00000050: 36f9 263f 65c9 213f c00c 243f 4b5a 633f
00000060: c807 a03e c310 833e 0e12 bc3e 1ec4 503f
00000070: 1251 9d3e b673 f53e d919 893f a82f 643e
00000080: 6a9c 043f 2391 983e d91f 393f 0793 073f
00000090: 09bf 053f 0b8b 053f f756 863f 6968 8b3f
000000a0: 1b24 9f3e 7503 043f a500 153f 6565 613e
000000b0: 4f3c 893f ef15 d03e 8658 de3e 539f 253f
000000c0: 1a9d 533f c856 753f 2f83 303f 6aa1 4a3f
000000d0: 3774 013f ac22 0a3f 0038 493f 7573 153f
000000e0: 155c f03e 0012 953e 8269 8d3f 2efb 073f
000000f0: edc5 393f 888f 003f d814 f53e b7f6 8e3f

inception.total_ops f8 [1]
0.0
00000000: 0000 0000 0000 0000

inception.total_params f8 [1]
0.0
00000000: 0000 0000 0000 0000

inception.branch1.1.total_ops f8 [1]
0.0
00000000: 0000 0000 0000 0000

inception.branch1.1.total_params f8 [1]
0.0
00000000: 0000 0000 0000 0000

inception.branch1.1.depthwise.weight f4 [64, 1, 1]
0.7129539 0.7265065 -0.524827 0.66908556 -1.0498405 -0.66179127 0.6950765 -0.90469635
0.2922288 -0.20767762 0.82718694 -0.9286291 0.2581266 0.41456187 -0.36710018 -0.7954136
-0.81726664 0.7689141 0.928859 -1.0388 -0.35051736 0.87776554 -0.3890721 -0.5900077
-0.30827436 -1.0097775 -1.0387363 0.8071309 -0.14207454 -0.11131972 0.8515053 0.4022692
0.6147673 -0.92165464 -0.98828286 -0.19910228 -0.7371676 -0.025619721 0.7323033 0.6587333
0.8124887 -0.63711476 0.24550337 0.46950635 -0.63639945 0.957804 0.7197857 -0.2400317
-0.5307372 0.82698196 0.4515562 0.77652085 -0.37199014 0.70605844 -1.0348542 -0.5001457
-0.66708803 -0.8999846 -0.85050344 1.0722507 -0.70479316 -0.6397552 0.85873926 -0.16593972
00000000: 2684 363f 54fc 393f 105b 06bf 3149 2b3f
00000010: 2c61 86bf 276b 29bf 89f0 313f 2e9a 67bf
00000020: 039f 953e 71a9 54be 86c2 533f a3ba 6dbf
00000030: 2b29 843e 7441 d43e 8ef4 bbbe 3aa0 4bbf
00000040: 6338 51bf 8ed7 443f b4c9 6d3f 66f7 84bf
00000050: 0377 b3be 3eb5 603f 7534 c7be bf0a 17bf
00000060: 23d6 9dbe 6440 81bf 50f5 84bf 21a0 4e3f
00000070: fd7b 11be 98fb e3bd 40fc 593f 3bf6 cd3e
00000080: 6461 1d3f 8ff1 6bbf 1b00 7dbf 78e1 4bbe
00000090: 04b7 3cbf 73e0 d1bc 3b78 3b3f bfa2 283f
000000a0: 42ff 4f3f f419 23bf 3c65 7b3e 2363 f03e
000000b0: 13eb 22bf a532 753f e043 383f dfca 75be
000000c0: 65de 07bf 17b5 533f 6032 e73e 12ca 463f
000000d0: 7e75 bebe 3fc0 343f 1a76 84bf 8c09 00bf
000000e0: 48c6 2abf 6465 66bf 98ba 59bf 833f 893f
000000f0: 536d 34bf ffc6 23bf 56d6 5b3f 1aec 29be

inception.branch1.1.depthwise.bias f4 [64]
0.9179572 0.68881226 -0.5635449 -0.05185778 -0.7157143 -0.71742827 -0.7294699 -0.832764
-0.8232452 -0.7255188 -0.18151918 0.5592654 -0.21406233 -0.5485362 0.053024948 -0.78487164
-0.4913119 0.520379 -0.16557975 0.97591287 0.73847634 0.14242662 -0.21568385 -0.66753465
-0.5474361 -0.9519323 -0.26509643 -0.79928905 -0.12466659 0.44037026 -0.16159949 -0.2747893
0.94189835 0.5656519 0.17992464 -0.20754832 0.5544654 -0.87932545 -0.10077979 0.33733046
0.6077856 0.30492622 0.55300784 0.2709616 0.9573051 0.59198004 0.8654228 -1.003173
0.98561114 -0.22768043 0.33814746 -0.34691414 -0.75166845 0.5928872 0.8600593 -0.95183855
0.7348727 0.82963514 0.071955115 -0.70062196 0.44696718 0.17603873 -0.5038278 -0.8356915
00000000: 3eff 6a3f 0056 303f 7b44 10bf d368 54bd
00000010: 0d39 37bf 61a9 37bf 8abe 3abf 0630 55bf
00000020: 33c0 52bf 9abb 39bf 2ae0 39be 042c 0f3f
00000030: 2833 5bbe de6c 0cbf b030 593d 59ed 48bf
00000040: 3c8d fbbe 8f37 053f bd8d 29be 6dd5 793f
00000050: c90c 3d3f 49d8 113e 3adc 5cbe 8de3 2abf
00000060: c624 0cbf d6b1 73bf b8ba 87be 359e 4cbf
00000070: 3251 ffbd 3678 e13e 567a 25be 2fb1 8cbe
00000080: 4020 713f 90ce 103f 2a3e 383e 8c87 54be
00000090: 72f1 0d3f 791b 61bf a265 cebd 94b6 ac3e
000000a0: d697 1b3f 4a1f 9c3e ec91 0d3f 7bbb 8a3e
000000b0: f211 753f 018c 173f 598c 5d3f f967 80bf
000000c0: 0351 7c3f 0f25 69be aa21 ad3e bb9e b1be
000000d0: 586d 40bf 75c7 173f d92c 5c3f b1ab 73bf
000000e0: 9e20 3c3f f862 543f 345d 933d f65b 33bf
000000f0: e2d8 e43e 7f43 343e dcfa 00bf e1ef 55bf

inception.branch1.1.pointwise.weight f4 [32, 64, 1]
-0.020115878 0.0029168127 -0.11650034 -0.046003412 -0.09813395 0.06254887 0.007980336 0.116272375
-0.16090775 -0.051977403 0.094509624 0.21874876 0.0851294 -0.008144364 -0.022324605 -0.04817943
0.08718649 0.07446222 -0.21402399 -0.20596139 -0.07867947 0.21080351 -0.014106565 -0.09177929
-0.057013422 -0.07296207 0.1294388 0.10581016 -0.10186255 -0.065501794 0.022489985 -0.051749945
-0.07048269 0.15359624 -0.04190019 0.049637534 0.16743162 -0.11392422 -0.022477923 0.17871507
0.07945838 -0.005243805 0.05286986 0.14667584 -0.05580743 -0.07713256 0.1154337 -0.0806462
-0.027297584 0.26067027 0.10508476 0.005974979 -0.07381753 0.17453495 -0.19209033 0.07296889
0.20353548 -0.014416718 0.17454237 0.072085634 -0.13003074 0.15077212 0.07914177 -0.007771645
-0.0022607346 0.12068753 0.13577501 0.10700178 -0.09358193 -0.031026483 0.034276627 -0.047402255
0.07880019 0.08045198 0.21994177 0.14091225 -0.055195417 -0.17335415 -0.060315933 -0.09883404
-0.0974022 -0.056884434 -0.2039918 -0.118568204 -0.10448845 0.14356896 -0.11607624 0.018778076
-0.06581129 -0.1116582 0.062462352 0.008910358 0.031987786 0.071970545 0.11799651 -0.07692367
0.07303987 0.14747314 -0.22178882 -0.16064815 0.08203893 0.08284297 -0.15292142 -0.019749904
-0.13550802 -0.02548518 0.08380133 0.10684681 -0.13755228 -0.12341747 0.041616984 -0.12545113
-0.0018138323 0.22044154 0.009105455 0.1750674 -0.016180757 0.05065549 -0.12649636 -0.1494883
0.092252545 -0.10022813 0.10768559 -0.08403228 0.13665368 0.21172819 0.17325619 0.0361291
0.049391612 0.10730728 0.08764626 -0.18003796 -0.026246974 -0.039639536 0.04066617 -0.0807996
-0.1174233 0.03342118 0.16345304 0.13112715 -0.027395386 -0.18670811 -0.013983325 0.08068723
0.06565019 0.09020874 -0.098937236 -0.041339174 0.040731367 0.11482264 0.014428667 0.07892345
-0.0762777 -0.10860794 0.033395857 -0.029076206 -0.11866012 0.12726063 -0.19776453 0.18026699
-0.08723919 -0.051962815 0.024778416 0.021028088 0.16784853 0.057362348 -0.20780985 -0.16396078
-0.0968082 -0.21786857 0.05013189 0.1436168 -0.006981488 0.10352648 0.03847908 -0.10661681
0.07967139 0.12264384 0.11160385 -0.0340726 0.02392504 0.15323442 -0.16457348 -0.080507986
0.12604815 -0.16230929 0.14999415 0.09915086 0.11653964 0.11993941 0.22549234 -0.0569872
-0.041734513 0.06705368 -0.080285065 -0.040237468 -0.060270056 0.044123337 0.08403094 -0.07079712
0.08250634 0.0034328208 -0.0040310756 0.057267502 0.1306582 -0.01669623 -0.07453458 0.03099851
0.012904918 -0.017877283 0.19628039 0.08413255 -0.1930071 0.052185778 -0.0005143328 0.06795769
0.018068632 -0.037945315 -0.06336379 -0.09673041 -0.0035755679 0.060398705 0.13141766 0.057538845
0.030160198 0.022680076 0.14450754 0.112365216 -0.24441919 0.02868812 -0.17144549 0.10787924
0.036662873 -0.046256416 -0.00823828 0.10632235 -0.047521587 -0.016558845 -0.009604762 -0.079693444
0.023242997 -0.019206205 0.059605762 0.081785746 0.06662395 0.038844403 -0.09723126 0.10857441
0.0017868247 0.03924585 0.13414168 -0.16461086 0.056682605 -0.15886049 0.1025371 0.0003607539
00000000: 0eca a4bc ff27 3f3b bb97 eebd 136e 3cbd
00000010: 74fa c8bd 9f19 803d f5bf 023c 3620 ee3d
00000020: 00c5 24be 42e6 54bd 438e c13d adff 5f3e
00000030: 5358 ae3d f06f 05bc 17e2 b6bc cb57 45bd
00000040: d58e b23d a67f 983d 1b29 5bbe 8be7 52be
00000050: b422 a1bd e0dc 573e 391f 67bc c8f6 bbbd
00000060: e886 69bd 236d 95bd 9b8b 043e ffb2 d83d
00000070: 509d d0bd ce25 86bd eb3c b83c c0f7 53bd
00000080: 3b59 90bd 5548 1d3e 899f 2bbd ba50 4b3d
00000090: 3273 2b3e 1a51 e9bd 9f23 b8bc 1501 373e
000000a0: 13bb a23d 39d4 abbb 118e 583d 3132 163e
000000b0: 5596 64bd adf7 9dbd 8168 ec3d d629 a5bd
000000c0: 2f9f dfbc 9376 853e ae36 d73d c2c9 c33b
000000d0: a52d 97bd 4ab9 323e 54b3 44be b770 953d
000000e0: 9b6b 503e 1934 6cbc 3cbb 323e a2a1 933d
000000f0: c726 05be 0264 1a3e 1515 a23d 49a9 febb
00000100: d528 14bb 062b f73d 9b08 0b3e c023 db3d
00000110: e2a7 bfbd 402b febc a665 0c3d de28 42bd
00000120: fe61 a13d 02c4 a43d 6a38 613e 4d4b 103e
00000130: 9714 62bd c083 31be d70d 77bd 8069 cabd
00000140: ce7a c7bd a7ff 68bd 3ae3 50be e3d3 f2bd
00000150: 0afe d5bd be03 133e 61b9 edbd 7bd4 993c
00000160: 12c8 86bd 0ead e4bd 86d8 7f3d c0fc 113c
00000170: a005 033d 4b65 933d 27a8 f13d 288a 9dbd
00000180: ed95 953d 3303 173e 9c1c 63be f380 24be
00000190: 0704 a83d 93a9 a93d 6f97 1cbe 8dca a1bc
000001a0: 9dc2 0abe 4cc6 d0bc 08a0 ab3d 80d2 da3d
000001b0: 81da 0cbe 4cc2 fcbd 9276 2a3d 4376 00be
000001c0: 1dbe edba 6dbb 613e 0c2f 153c de44 333e
000001d0: 828d 84bc 227c 4f3d 4388 01be 7613 19be
000001e0: e7ee bc3d 6844 cdbd 438a dc3d 1e19 acbd
000001f0: f1ee 0b3e 46cf 583e 126a 313e 1bfc 133d
00000200: dc4e 4a3d ebc3 db3d e27f b33d df5b 38be
00000210: e503 d7bc 115d 22bd 9291 263d 437a a5bd
00000220: a17b f0bd a6e4 083d 3c60 273e 3246 063e
00000230: 4a6c e0bc 6930 3fbe 511a 65bc 593f a53d
00000240: 9b73 863d 5cbf b83d 9b9f cabd 4453 29bd
00000250: efd5 263d 2228 eb3d 3766 6c3c 9ea2 a13d
00000260: 7c37 9cbd d76d debd 18ca 083d 3931 eebc
00000270: 1404 f3bd 9c50 023e c982 4abe e997 383e
00000280: 76aa b2bd f6d6 54bd 1bfc ca3c 1943 ac3c
00000290: 7ce0 2b3e c8f4 6a3d 1bcc 54be 56e5 27be
000002a0: 6143 c6bd f018 5fbe 1957 4d3d 4810 133e
000002b0: f7c4 e4bb b105 d43d 3d9c 1d3d ea59 dabd
000002c0: c12a a33d b22c fb3d 8f90 e43d b68f 0bbd
000002d0: 72fe c33c 7ce9 1c3e f385 28be 5fe1 a4bd
000002e0: c412 013e 6834 26be 1198 193e 9b0f cb3d
000002f0: 56ac ee3d cba2 f53d 77e7 663e 696b 69bd
00000300: cff1 2abd 7153 893d 7f6c a4bd 0bd0 24bd
00000310: bcdd 76bd acba 343d 6a18 ac3d 15fe 90bd
00000320: 16f9 a83d 2df9 603b 1d17 84bb 5491 6a3d
00000330: 43cb 053e 88c6 88bc 96a5 98bd 96f0 fd3c
00000340: 266f 533c 6173 92bc bafd 483e b04d ac3d
00000350: a7a3 45be c1c0 553d 4ad4 06ba 672d 8b3d
00000360: ab04 943c 8c6c 1bbd e0c4 81bd 981a c6bd
00000370: 1354 6abb a264 773d 5a92 063e daad 6b3d
00000380: 8512 f73c 91cb b93c c9f9 133e bc1f e63d
00000390: 0649 7abe 5903 eb3c 688f 2fbe caef dc3d
000003a0: cf2b 163d 5e77 3dbd daf9 06bc 88bf d93d
000003b0: ffa5 42bd 6aa6 87bc 4b5d 1dbc 5136 a3bd
000003c0: 1968 be3c 5556 9dbc 2c25 743d 497f a73d
000003d0: 2372 883d 4f1b 1f3d 2f21 c7bd 435c de3d
000003e0: e333 ea3a 42c0 203d 705c 093e c08f 28be
000003f0: 052c 683d 53ac 22be f9fe d13d 9223 bd39

inception.branch1.1.pointwise.bias f4 [32]
0.03894104 0.1176033 -0.071556844 0.06966324 0.044818137 0.04573616 0.08975307 -0.0137339905
0.039038207 -0.06938132 -0.022645839 -0.045336746 -0.09747532 0.06924788 -0.023065824 0.14664501
-0.083975114 0.07012053 -0.043774776 0.014403354 0.09641074 0.12440789 0.044505343 -0.088149175
-0.0700125 -0.092277385 -0.050935023 -0.06085997 0.029770928 0.058232978 0.08520887 -0.09000191
00000000: a480 1f3d 00da f03d 658c 92bd 9aab 8e3d
00000010: 3993 373d d755 3b3d 75d0 b73d 8804 61bc
00000020: 87e6 1f3d cb17 8ebd c483 b9bc 06b3 39bd
00000030: 24a1 c7bd d5d1 8d3d 8af4 bcbc 1c2a 163e
00000040: 25fb abbd 5a9b 8f3d 2e4d 33bd 0cfc 6b3c
00000050: fe72 c53d 90c9 fe3d 3c4b 363d 8e87 b4bd
00000060: b762 8fbd edfb bcbd 3ea1 50bd 4e48 79bd
00000070: 29e2 f33c b485 6e3d fd81 ae3d ec52 b8bd

inception.branch2.0.total_ops f8 [1]
0.0
00000000: 0000 0000 0000 0000

inception.branch2.0.total_params f8 [1]
0.0
00000000: 0000 0000 0000 0000

inception.branch2.0.depthwise.weight f4 [64, 1, 1]
0.8881808 -0.19830593 0.7034195 -0.66729206 -0.3492533 0.7544326 -0.27172938 -0.7750495
0.41070068 0.8467358 0.40653163 0.4647332 -0.19532482 -0.41564235 0.59814644 0.68123364
-0.5700062 0.60918593 -0.3085429 0.5319065 0.35148707 -0.34668732 -0.3669317 -0.47123542
-1.0512722 0.56893814 -1.0179267 0.587408 0.33068785 -0.6415055 0.7843535 0.8645761
0.07004859 -0.9215214 -0.90268743 -0.38456735 0.69797945 -0.3939228 -0.8645415 -0.49805218
-0.26067185 0.9409186 0.73508734 0.98302054 0.3361182 0.09031386 -0.35717025 -0.5936092
-0.91848516 0.61336553 -0.31448722 0.3132005 -0.38817427 -0.012962272 0.41223836 0.099584706
0.8734194 -0.9035075 0.42262277 0.47384262 0.091533236 -0.75899327 -0.86377877 -0.15950678
00000000: d15f 633f b610 4bbe 4d13 343f a7d3 2abf
00000010: 54d1 b2be 7f22 413f 1d20 8bbe a569 46bf
00000020: 5c47 d23e adc3 583f ea24 d03e 83f1 ed3e
00000030: 3b03 48be 13cf d4be 2020 193f 5465 2e3f
00000040: edeb 11bf 9cf3 1b3f 56f9 9dbe 062b 083f
00000050: 1df6 b33e 0081 b1be 79de bbbe c545 f1be
00000060: 1690 86bf eea5 113f 6c4b 82bf 5f60 163f
00000070: eb4f a93e b439 24bf 64cb 483f dc54 5d3f
00000080: a375 8f3d d4e8 6bbf 8616 67bf 03e6 c4be
00000090: c8ae 323f 40b0 c9be 9752 5dbf b200 ffbe
000000a0: c876 85be 0be0 703f af2e 3c3f 3ca7 7b3f
000000b0: af17 ac3e 79f6 b83d 05df b6be c6f6 17bf
000000c0: d821 6bbf 8605 1d3f 7804 a1be d15b a03e
000000d0: c7be c6be b65f 54bc e810 d33e 11f3 cb3d
000000e0: 6a98 5f3f 444c 67bf 0362 d83e 809b f23e
000000f0: c775 bb3d 624d 42bf 9b20 5dbf bf55 23be

inception.branch2.0.depthwise.bias f4 [64]
-0.5249074 0.07987379 -0.82748395 -0.82935876 -0.63240165 -0.69783336 -0.44125754 0.41738287
-0.9169145 -0.3586084 -0.47475106 0.21126127 0.16785862 -0.55021274 -0.24269885 0.6174837
-0.94151956 0.5705844 -0.7640713 0.7406038 -0.65261674 0.80403954 -0.9881498 0.40944812
-0.83587897 -0.7794965 -0.5162118 0.594075 -0.9660565 -0.4754861 -0.77469313 -0.22846787
-0.9194556 0.25490552 -0.80526286 -0.46393228 -0.5578838 -0.0011550945 0.26261398 0.5823121
0.077662565 0.9579594 -0.8517312 -0.61454916 -0.27041087 0.043534696 -0.14937754 -0.5841238
0.9033263 0.71768105 0.36076587 0.08171045 0.19427055 0.95608914 -0.9722538 0.5860485
-0.2707878 -0.12712921 -0.2826013 0.9171276 -0.9786582 0.7477427 0.15832278 -0.21764071
00000000: 5560 06bf df94 a33d fdd5 53bf db50 54bf
00000010: 13e5 21bf 35a5 32bf 82ec e1be 35b3 d53e
00000020: e9ba 6abf 859b b7be 9212 f3be e054 583e
00000030: 21e3 2b3e beda 0cbf 0c86 78be 6913 1e3f
00000040: 6d07 71bf d211 123f 2d9a 43bf 3698 3d3f
00000050: e411 27bf 89d5 4d3f 63f7 7cbf 2fa3 d13e
00000060: 2afc 55bf 158d 47bf 7526 04bf 4d15 183f
00000070: 7b4f 77bf ea72 f3be 4a52 46bf 7bf3 69be
00000080: 7161 6bbf fa82 823e b525 4ebf 8888 edbe
00000090: 79d1 0ebf 8a66 97ba 5775 863e 6812 153f
000000a0: 8d0d 9f3d d43c 753f 0e0b 5abf 1853 1dbf
000000b0: 4b73 8abe 7051 323d 6df6 18be 2389 15bf
000000c0: 6440 673f f2b9 373f 4eb6 b83e cf57 a73d
000000d0: dcee 463e 42c2 743f a0e5 78bf 4607 163f
000000e0: b3a4 8abe 292e 02be 1eb1 90be e0c8 6a3f
000000f0: 5889 7abf 116c 3f3f 5e1f 223e 35dd 5ebe

inception.branch2.0.pointwise.weight f4 [32, 64, 1]
-0.15009907 0.19507822 0.017456373 -0.014064354 -0.1001981 -0.0007127394 0.06330588 0.18247597
0.06719766 0.1498007 0.09059004 -0.1555154 -0.063513674 0.03140349 -0.1371312 0.14479712
-0.10050252 -0.032676592 0.10809845 0.08225531 -0.0781424 -0.09695269 -0.0738925 -0.13055627
0.14554822 -0.15575133 -0.07359067 0.053492885 0.005127946 0.050146013 -0.03440239 -0.0242747
-0.007588242 0.048250124 -0.10719483 -0.037970174 0.021717824 0.087759875 -0.14431596 -0.04933871
0.11200745 -0.04182204 -0.033781715 -0.19742975 0.083903216 0.008948307 -0.0851226 0.053619705
-0.1430844 0.1018588 0.010530313 0.13987777 -0.23606339 0.07412392 0.04149101 0.04093478
-0.18152562 0.108187 0.19016823 -0.056804735 -0.02822621 -0.027162738 0.054164547 -0.10825916
0.054867208 0.068112545 -0.018704915 0.13632683 0.11546874 -0.0009550982 0.0640014 -0.051715355
0.12895578 -0.1866347 -0.10711523 0.13113225 -0.043558512 0.08043035 -0.04958348 0.07423056
0.0647361 0.040663555 -0.079724275 -0.051521204 -0.09591954 -0.112566836 -0.049061768 0.0886401
-0.12233674 0.034296624 -0.162829 -0.085401766 -0.07304559 0.030321987 -0.072960526 0.08145852
0.11034851 -0.13364963 0.15651384 0.04437111 0.12197729 -0.0602571 0.017458014 0.06464123
-0.08056186 -0.12023611 -0.061478898 -0.021131266 -0.10304167 -0.020380845 -0.09130132 0.1427103
-0.07817611 -0.05634358 -0.09464622 -0.1817527 0.06578722 -0.109340265 0.027394634 0.09003493
0.08694297 0.101641186 -0.022226699 0.116588116 -0.11300111 -0.16720027 0.21322095 0.06651519
0.23578708 -0.14733894 -0.038573693 0.08133112 0.12556668 -0.07447113 -0.12944666 -0.018120404
-0.017781124 -0.21184115 -0.12653264 0.15338707 0.067693 -0.11488394 -0.108588316 0.044854112
0.13259532 0.14056006 -0.10332353 -0.026626952 -0.10965252 0.06496279 0.10545942 0.16401325
-0.081342 -0.08411986 0.05695663 0.026885329 0.09017977 -0.09250232 -0.08718729 0.15082207
0.057653572 -0.23964223 0.15141967 0.063582055 0.05546683 -0.04639026 0.14321347 0.17524406
-0.08088944 -0.010506189 -0.122968785 0.039896708 -0.06424126 0.06635592 -0.07919389 0.08285804
0.032916967 -0.05044712 -0.09058298 -0.036691956 0.09859483 0.014583678 0.06680677 0.080998674
0.24341978 -0.057363242 -0.056771312 0.07063741 0.031472612 -0.03354934 0.18189354 0.052045487
-0.010517409 0.24545138 0.0047885226 -0.16454317 0.022012228 -0.07292237 0.11403259 0.016544282
-0.005519214 -0.09630512 0.05290045 -0.08433406 -0.13300171 -0.00650115 -0.0026428232 0.058810074
0.017232722 -0.014202671 -0.105115704 -0.045033276 -0.006183364 0.018331092 0.07899816 0.00084464706
-0.048615653 -0.059227135 -0.056388512 -0.09930387 0.019379152 -0.0019033058 0.17429146 -0.09885627
-0.048622582 0.14653312 0.021026917 -0.09039424 0.07251793 0.040751327 -0.30562496 -0.06900843
-0.012755496 -0.1662204 0.07209514 -0.09005562 -0.07606536 -0.079717465 0.14870511 0.06673207
-0.22754265 -0.11167956 -0.06983632 -0.04250068 -0.1772458 -0.04017337 0.120564766 -0.016992083
0.108215734 0.22254464 0.23923887 -0.05268512 0.0014311072 -0.11580332 0.05954575 -0.06194342
00000000: 92b3 19be 96c2 473e ab00 8f3c 2d6e 66bc
00000010: a934 cdbd 22d7 3aba 83a6 813d fbda 3a3e
00000020: ed9e 893d 5b65 193e 4587 b93d 6e3f 1fbe
00000030: 7513 82bd f2a0 003d 1f6c 0cbe b245 143e
00000040: 44d4 cdbd e4d7 05bd b862 dd3d 7975 a83d
00000050: 1f09 a0bd 228f c6bd f354 97bd 8bb0 05be
00000060: 980a 153e 477d 1fbe b5b6 96bd 5b1b 5b3d
00000070: 5408 a83b e865 4d3d 85e9 0cbd bcdb c6bc
00000080: caa6 f8bb eca1 453d f788 dbbd 9d86 1bbd
00000090: 94e9 b13c 73bb b33d 90c7 13be 6317 4abd
000000a0: 2964 e53d 964d 2bbd b25e 0abd 062b 4abe
000000b0: 73d5 ab3d eb9b 123c c254 aebd 56a0 5b3d
000000c0: b884 12be 599b d03d 5587 2c3c 1e3c 0f3e
000000d0: 9aba 71be 48ce 973d 7af2 293d 3aab 273d
000000e0: dae1 39be 2591 dd3d 76bb 423e 15ac 68bd
000000f0: a73a e7bc 6484 debc a5db 5d3d fab6 ddbd
00000100: 70bc 603d 977e 8b3d 0d3b 99bc 4399 0b3e
00000110: e07a ec3d 8e5f 7aba 2a13 833d 7bd3 53bd
00000120: fc0c 043e 2b1d 3fbe 3b5f dbbd 8847 063e
00000130: 696a 32bd abb8 a43d 0c18 4bbd 3106 983d
00000140: 5c94 843d d48e 263d 7b46 a3bd e607 53bd
00000150: 7771 c4bd 7189 e6bd fef4 48bd f188 b53d
00000160: af8b fabd 9e7a 0c3d a5bc 26be 1fe7 aebd
00000170: ed98 95bd d165 f83c 546c 95bd b9d3 a63d
00000180: 66fe e13d 73db 08be 2a45 203e 7bbe 353d
00000190: 3bcf f93d 26d0 76bd 1c04 8f3c 9f62 843d
000001a0: 9efd a4bd 5a3e f6bd 4cd1 7bbd 7a1b adbc
000001b0: 8307 d3bd bbf5 a6bc 30fc babd a622 123e
000001c0: cc1a a0bd 87c8 66bd e1d5 c1bd 611d 3abe
000001d0: 73bb 863d caed dfbd b66a e03c 3c64 b83d
000001e0: 280f b23d 4129 d03d c414 b6bc c0c5 ee3d
000001f0: 206d e7bd 8c36 2bbe 9856 5a3e 1e39 883d
00000200: 2b72 713e 05e0 16be 73ff 1dbd ee90 a63d
00000210: 8d94 003e 5284 98bd aa8d 04be 3e71 94bc
00000220: b8a9 91bc e3ec 58be c691 01be 8011 1d3e
00000230: a1a2 8a3d 4548 ebbd 8d63 debd f2b8 373d
00000240: 11c7 073e faee 0f3e 499b d3bd c420 dabc
00000250: 8091 e0bd 360b 853d 1cfb d73d 17f3 273e
00000260: a296 a6bd 0847 acbd 5b4b 693d 9f3e dc3c
00000270: 2cb0 b83d db71 bdbd 408f b2bd 1a71 1a3e
00000280: 2726 6c3d c664 75be c20d 1b3e 4f37 823d
00000290: 3031 633d b703 3ebd 8da6 123e 2e73 333e
000002a0: 5da9 a5bd 2722 2cbc 0fd7 fbbd bb6a 233d
000002b0: ec90 83bd 9de5 873d 6830 a2bd 7ab1 a93d
000002c0: f1d3 063d a4a1 4ebd 9283 b9bd 4e4a 16bd
000002d0: 16ec c93d 61f0 6e3c fdd1 883d a2e2 a53d
000002e0: 0943 793e b8f5 6abd 0989 68bd 59aa 903d
000002f0: 6de9 003d 086b 09bd 4d42 3a3e a62d 553d
00000300: 3651 2cbc 9b57 7b3e 0ae9 9c3b 017e 28be
00000310: fd52 b43c 5358 95bd eb89 e93d e087 873c
00000320: 86da b4bb 9e3b c5bd 24ae 583d 56b7 acbd
00000330: 9a31 08be 9907 d5bb 3733 2dbb d5e2 703d
00000340: a32b 8d3c 52b2 68bc e746 d7bd d074 38bd
00000350: d19d cabb 162b 963c cac9 a13d 4e6b 5d3a
00000360: 3521 47bd 2798 72bd a4f7 66bd d45f cbbd
00000370: 07c1 9e3c 5878 f9ba 7679 323e 2875 cabd
00000380: 7928 47bd c70c 163e a440 ac3c 9e20 b9bd
00000390: 4884 943d ddea 263d e07a 9cbe 4b54 8dbd
000003a0: 6efc 50bc ae35 2abe 9ea6 933d 156f b8bd
000003b0: 28c8 9bbd e942 a3bd 2746 183e d3aa 883d
000003c0: f100 69be 41b8 e4bd 5806 8fbd 3115 2ebd
000003d0: ec7f 35be d58c 24bd a9ea f63d fb32 8bbc
000003e0: 36a0 dd3d bee2 633e 09fb 743e 5acc 57bd
000003f0: fd93 bb3a 4b2a edbd 3fe6 733d 62b8 7dbd

inception.branch2.0.pointwise.bias f4 [32]
-0.016188575 -0.031330686 0.09571392 -0.08369665 -0.09516676 -0.015722541 0.119650155 0.015962098
-0.106605776 0.02357966 -0.015604934 0.08794709 -0.01968844 -0.10268973 0.0041517834 0.03767658
0.048813395 0.039831363 0.053194586 -0.028124444 0.067096226 0.08261781 0.089753956 -0.03406852
0.004055867 0.028395412 -0.030867659 -0.102802426 0.11308701 -0.02575871 0.048105285 -0.0053231814
00000000: e79d 84bc 9b54 00bd a905 c43d 2669 abbd
00000010: cae6 c2bd 8fcc 80bc 240b f53d f2c2 823c
00000020: 2154 dabd 222a c13c d6ab 7fbc 9b1d b43d
00000030: a749 a1bc fe4e d2bd af0b 883b c252 1a3d
00000040: 8ef0 473d 3626 233d 91e2 593d 3c65 e6bc
00000050: bf69 893d 8733 a93d ecd0 b73d 6f8b 0bbd
00000060: 14e7 843b 7f9d e83c 2cde fcbc 148a d2bd
00000070: 2a9a e73d ee03 d3bc 0c0a 453d 156e aebb

inception.branch2.1.total_ops f8 [1]
0.0
00000000: 0000 0000 0000 0000

inception.branch2.1.total_params f8 [1]
0.0
00000000: 0000 0000 0000 0000

inception.branch2.1.depthwise.weight f4 [32, 1, 1]
0.8997674 0.8367438 0.9376168 0.7849514 -0.71165663 -0.31087834 -0.9720667 0.26804733
-0.37008426 0.75356346 0.271373 -0.36251706 0.891514 0.53229016 0.21928774 0.25778022
0.5854002 -0.66392595 1.079247 0.97927797 -0.8685225 0.8373164 0.7532415 -1.138525
0.54898113 0.4610611 0.027504925 0.6952076 -0.5430737 -0.0781989 0.11804943 -0.60354865
00000000: 2857 663f d734 563f a807 703f 93f2 483f
00000010: 212f 36bf 722b 9fbe 5dd9 78bf 803d 893e
00000020: af7b bdbe 89e9 403f 67f1 8a3e d69b b9be
00000030: 433a 643f 2b44 083f f78c 603e c5fb 833e
00000040: cadc 153f 0df7 29bf c424 8a3f f6b1 7a3f
00000050: 7e57 5ebf 5e5a 563f 6fd4 403f 30bb 91bf
00000060: 078a 0c3f 3310 ec3e 0252 e13c 20f9 313f
00000070: e106 0bbf bf26 a0bd e6c3 f13d 2a82 1abf

inception.branch2.1.depthwise.bias f4 [32]
0.51869243 0.9012089 -0.6772052 -0.8409014 0.44838777 0.63042396 0.07876168 -0.78652316
0.39951876 0.38550067 -0.70269257 -0.10699989 0.7265488 -0.019826382 0.07605371 0.067033626
-0.38154998 -0.7352039 -0.3342606 -0.56833684 -0.26882926 -0.41972026 0.30913705 -0.83263147
-0.6302535 -0.5208338 0.691715 0.16568866 0.3491545 -0.7672868 0.8102958 -0.205242
00000000: 07c9 043f a0b5 663f 525d 2dbf 5045 57bf
00000010: 1593 e53e 7763 213f ce4d a13d 9559 49bf
00000020: b98d cc3e 5860 c53e a9e3 33bf c222 dbbd
00000030: 1aff 393f f06a a2bc 0cc2 9b3d ed48 893d
00000040: 855a c3be 5336 3cbf 3524 abbe 867e 11bf
00000050: fda3 89be 93e5 d6be 3647 9e3e 5627 55bf
00000060: 4b58 21bf 5d55 05bf 3c14 313f 4aaa 293e
00000070: 61c4 b23e e86c 44bf 8c6f 4f3f f52a 52be

inception.branch2.1.pointwise.weight f4 [32, 32, 1]
-0.09053866 -0.02805373 -0.021731138 -0.08290439 0.14736404 0.16575237 -0.05273662 -0.04901071
-0.027087083 -0.11692337 0.06961051 -0.15059242 -0.10224279 0.18085562 -0.098720856 -0.026909672
0.2188482 0.119343676 -0.14778948 -0.14453338 0.05148272 0.07281661 -0.054445278 -0.008564913
0.014169382 0.112569 0.14276229 -0.10200818 0.09351094 -0.15800175 -0.042014092 0.10702397
-0.11031322 0.2000679 0.23875701 -0.11427086 0.08884166 -0.12318251 0.018878272 -0.10398884
-0.088002026 -0.12083601 0.09412595 -0.1654213 0.18146724 -0.015218811 -0.2360259 0.22351857
0.3283165 0.021991631 -0.07827574 -0.14387454 -0.13953926 0.10087091 -0.05985341 0.054470044
0.04066086 0.16355689 -0.00913502 -0.20207468 0.11686918 -0.15572526 -0.1361998 -0.1183316
-0.11229707 0.01441255 0.29847378 0.0022330882 -0.1253752 -0.15339479 -0.029323502 -0.14849192
-0.107481636 -0.01476803 0.1305643 -0.13311289 0.09500953 0.013523145 -0.12713224 0.1291966
0.2626115 0.01689735 -0.14968073 -0.054338086 0.022091495 -0.11327955 0.13549215 -0.15505557
-0.09635052 0.09104022 -0.11889081 0.03419947 0.08421275 -0.17387761 -0.004261247 -0.048602857
-0.09152433 -0.17042586 0.17175442 -0.1441964 0.039539296 -0.13467844 0.09017873 0.06164759
0.117207125 -0.07489199 -0.047564298 -0.18733585 0.122751206 0.16694677 -0.058918737 -0.070234194
0.106116876 -0.10878946 0.093915366 -0.003972639 -0.17761996 0.0071392 -0.029359737 -0.043838345
-0.17265089 0.06414186 -0.10320977 0.085128695 0.06060877 0.14570267 -0.1623621 0.049747955
0.013425497 0.1957331 0.19709694 -0.13273878 -0.03529833 0.12608461 0.21035291 -0.16445099
0.013290998 -0.22484954 -0.14639832 0.13696687 0.1505113 -0.124226645 -0.044996284 0.19254811
0.30726892 0.174922 -0.0784733 -0.13680133 0.1354012 0.062152546 0.14525323 0.009976252
-0.09617766 0.08387979 -0.05692892 -0.11355518 0.17654891 0.13340928 0.1384429 -0.13752292
0.25889978 0.025736088 0.11842901 0.052151367 0.021159573 -0.036600526 0.2936938 0.031183295
-0.012221194 0.048245464 -0.13682973 -0.029741794 0.09610163 -0.014226753 -0.04698821 0.21767387
-0.14531022 -0.14474073 -0.24857771 -0.08377521 -0.01655976 -0.044913415 0.08263697 -0.104300275
0.08442644 0.03315698 0.15404466 0.097960144 0.21784909 -0.035102736 -0.013111975 0.009494118
0.17395732 -0.025771044 -0.3066477 -0.009089198 0.041002486 0.19318697 -0.16017565 0.102524124
0.04756442 0.20833728 -0.13649969 0.18320236 0.0008188428 0.18295808 -0.12419676 0.061978452
-0.14268905 -0.040408965 0.26666412 0.12767145 -0.12533896 0.02140621 -0.09447634 0.08284075
-0.11446672 -0.17615579 0.12782954 0.09436075 0.056084756 -0.028511826 -0.12816484 -0.039766043
-0.14710777 0.08152528 0.2754706 0.11000931 -0.16635053 -0.054739207 0.19763042 -0.20010658
0.011525205 -0.22419786 -0.051827006 -0.20829202 0.18483892 -0.11365071 -0.012040394 0.15837866
0.39466187 -0.14424078 -0.10642022 -6.0414033e-05 -0.022886481 -0.15683578 -0.0058852243 -0.02152646
-0.11460259 -0.11322711 0.14388569 -0.023053827 0.07129902 -0.009729259 0.08777291 0.085911475
00000000: 556c b9bd f0d0 e5bc 8005 b2bc c7c9 a9bd
00000010: 99e6 163e fdba 293e 5b02 58bd 74bf 48bd
00000020: bbe5 ddbc 8575 efbd f48f 8e3d e634 1abe
00000030: ab64 d1bd 3732 393e 292e cabd ac71 dcbc
00000040: be19 603e 756a f43d 2056 17be 8f00 14be
00000050: 8bdf 523d e020 953d 0302 5fbd d953 0cbc
00000060: b226 683c 938a e63d 4730 123e aae9 d0bd
00000070: aa82 bf3d 36cb 21be f816 2cbd 622f db3d
00000080: e6eb e1bd 99de 4c3e b87c 743e d706 eabd
00000090: 9ef2 b53d 1d47 fcbd 9ba6 9a3c 1af8 d4bd
000000a0: 683a b4bd df78 f7bd 1bc5 c03d 3464 29be
000000b0: 8cd2 393e 5258 79bc c6b0 71be 0de2 643e
000000c0: 1a19 a83e cb27 b43c 084f a0bd d953 13be
000000d0: 61e3 0ebe 6895 ce3d d928 75bd fb1b 5f3d
000000e0: 008c 263d 757b 273e 0dab 15bc aaec 4ebe
000000f0: 1c59 ef3d 7176 1fbe f677 0bbe d757 f2bd
00000100: 02fc e5bd 9e22 6c3c 8ed1 983e 0159 123b
00000110: 5b62 00be 8613 1dbe d737 f0bc 440e 18be
00000120: 551f dcbd 9bf5 71bc a6b2 053e bf4e 08be
00000130: 5b94 c23d 2e90 5d3c f42e 02be 1d4c 043e
00000140: 0475 863e 506c 8a3c e845 19be 9d91 5ebd
00000150: 39f9 b43c 1cff e7bd 74be 0a3e e3c6 1ebe
00000160: 6c53 c5bd 4b73 ba3d 067d f3bd be14 0c3d
00000170: bc77 ac3d f90c 32be eea1 8bbb ca13 47bd
00000180: 1c71 bbbd 1e84 2ebe 64e0 2f3e 39a8 13be
00000190: f5f3 213d 25e9 09be a0af b83d 2f82 7c3d
000001a0: 4a0a f03d f960 99bd c8d2 42bd f8d4 3fbe
000001b0: fc64 fb3d 18f4 2a3e c654 71bd f2d6 8fbd
000001c0: ce53 d93d 02cd debd b356 c03d e92c 82bb
000001d0: 02e2 35be f3ef e93b d583 f0bc d68f 33bd
000001e0: 65cb 30be cf5c 833d a55f d3bd f457 ae3d
000001f0: e740 783d 1533 153e 4042 26be 83c4 4b3d
00000200: 9ef6 5b3c 426e 483e c8d3 493e adec 07be
00000210: fb94 10bd 531c 013e c166 573e d765 28be
00000220: 7cc2 593c f53e 66be 71e9 15be 0b41 0c3e
00000230: a21f 1a3e 8a6a febd 064e 38bd 552b 453e
00000240: 5a52 9d3e c11e 333e 9cb6 a0bd a615 0cbe
00000250: 9da6 0a3e ab93 7e3d 43bd 143e 6f73 233c
00000260: cbf8 c4bd 2bc9 ab3d 4d2e 69bd 9e8f e8bd
00000270: 3dc9 343e 719c 083e fac3 0d3e cfd2 0cbe
00000280: 838e 843e 7dd4 d23c e98a f23d ac9c 553d
00000290: d756 ad3c 6fea 15bd 095f 963e 1c74 ff3c
000002a0: 673b 48bc 099d 453d 181d 0cbe 10a5 f3bc
000002b0: eed0 c43d 5417 69bc b676 40bd e6e5 5e3e
000002c0: 34cc 14be ea36 14be 288b 7ebe 5692 abbd
000002d0: 55a8 87bc 21f7 37bd 923d a93d 629b d5bd
000002e0: c5e7 ac3d 9dcf 073d e2bd 1d3e 549f c83d
000002f0: d513 5f3e e3c7 0fbd 9cd3 56bc 388d 1b3c
00000300: de21 323e cc1d d3bc ed00 9dbe dcea 14bc
00000310: 39f2 273d ced2 453e 1605 24be 2bf8 d13d
00000320: e9d2 423d 5e56 553e 93c6 0bbe 6699 3b3e
00000330: 9ca7 563a 5d59 3b3e df5a febd 1edd 7d3d
00000340: 141d 12be df83 25bd 3388 883e 4ebc 023e
00000350: db58 00be 135c af3c d07c c1bd 69a8 a93d
00000360: 876d eabd 2f62 34be bfe5 023e 3540 c13d
00000370: 21b9 653d a291 e9bc a53d 03be b8e1 22bd
00000380: 6ba3 16be baf6 a63d 7c0a 8d3e 904c e13d
00000390: cb57 2abe 3836 60bd a15f 4a3e bde8 4cbe
000003a0: 37d4 3c3c 2094 65be 8e48 54bd 814a 55be
000003b0: 6a46 3d3e b4c1 e8bd 1345 45bc 042e 223e
000003c0: 1f11 ca3e dbb3 13be d8f2 d9bd 1365 7db8
000003d0: 6e7c bbbc 8f99 20be d7d8 c0bb 4258 b0bc
000003e0: c3b4 eabd 9de3 e7bd c556 133e 61db bcbc
000003f0: 3805 923d 7867 1fbc 49c2 b33d 5bf2 af3d

inception.branch2.1.pointwise.bias f4 [32]
-0.006203434 0.1626374 0.023507262 -0.0042286613 0.0018217327 -0.08309444 0.10973349 -0.076196976
0.10773956 0.027165923 0.027348263 0.12030443 0.101411656 -0.011962436 0.01687596 -0.0838507
-0.0758871 -0.040703658 0.12061503 -0.09802801 -0.103855975 0.051386315 0.13332036 0.11419948
0.08246385 -0.13536419 0.039326917 -0.010019386 0.1447008 0.18380739 -0.015641484 -0.029695073
00000000: 2d46 cbbb 6b8a 263e 4d92 c03c 9590 8abb
00000010: 35c7 ee3a 6b2d aabd f4bb e03d 290d 9cbd
00000020: 8fa6 dc3d 128b de3c 7709 e03c 2b62 f63d
00000030: eab0 cf3d 18fe 43bc 743f 8a3c eab9 abbd
00000040: b26a 9bbd e1b8 26bd 0305 f73d e9c2 c8bd
00000050: 71b2 d4bd 757a 523d 2285 083e 6be1 e93d
00000060: cfe2 a83d e99c 0abe 4315 213d 5a28 24bc
00000070: 722c 143e 0138 3c3e 9222 80bc 1543 f3bc

inception.branch3.0.total_ops f8 [1]
0.0
00000000: 0000 0000 0000 0000

inception.branch3.0.total_params f8 [1]
0.0
00000000: 0000 0000 0000 0000

inception.branch3.0.depthwise.weight f4 [64, 1, 1]
0.737221 -0.06183222 0.7662218 -0.7854021 -0.8090547 0.76926357 0.49776676 0.7814431
0.9841469 1.0444909 0.19742921 -1.0623618 0.5831304 -0.55138665 -1.0280216 0.41393006
0.1402227 0.50195944 0.7464055 0.20313649 -0.7924936 0.34381044 -1.0593921 0.36449304
-0.10620501 0.3266219 0.6749013 0.4792658 -0.3008813 0.29549822 -0.36133912 -0.24575466
0.913379 0.30541155 -0.042808663 1.0903531 -0.072135046 0.83342165 -0.21747698 -0.6444593
0.7564321 0.67586446 0.5500005 0.59139365 0.377003 0.50535154 -1.0586479 0.5759935
-0.95888186 -0.5314639 -0.37087712 0.92751366 0.47486532 0.404916 0.6579171 0.7222957
-0.43709144 -0.44905266 -0.3410769 0.20117664 0.11708954 0.63266075 0.77800465 -0.7406041
00000000: 84ba 3c3f c843 7dbd 1d27 443f 1d10 49bf
00000010: 351e 4fbf 75ee 443f 49db fe3e a80c 483f
00000020: 0df1 7b3f e1b1 853f e22a 4a3e 79fb 87bf
00000030: 0948 153f ad27 0dbf 3696 83bf a4ee d33e
00000040: 8a96 0f3e 6a80 003f 6e14 3f3f 0303 503e
00000050: dce0 4abf ec07 b03e 299a 87bf d59e ba3e
00000060: 0382 d9bd fc3a a73e 55c6 2c3f 5462 f53e
00000070: 1d0d 9abe 8b4b 973e 7101 b9be 1ca7 7bbe
00000080: 35d3 693f e75e 9c3e 2358 2fbd b190 8b3f
00000090: 8abb 93bd 1f5b 553f 49b2 5ebe 49fb 24bf
000000a0: 89a5 413f 7405 2d3f d5cc 0c3f 9365 173f
000000b0: 8a06 c13e b85e 013f c681 87bf 4f74 133f
000000c0: 4879 75bf 050e 08bf 9be3 bdbe 8971 6d3f
000000d0: 8c21 f33e 2651 cf3e 416d 283f 5fe8 383f
000000e0: 73ca dfbe 3bea e5be a2a1 aebe 4001 4e3e
000000f0: a4cc ef3d 0ef6 213f 502b 473f 3b98 3dbf

inception.branch3.0.depthwise.bias f4 [64]
0.5719282 0.3626741 -0.12838896 0.77135366 -0.47445625 -0.5708554 0.9490388 0.9056267
0.6940585 -0.41006804 0.07682711 0.9565225 0.8345839 -0.08757622 -0.84347 0.19233876
-0.959164 -0.9425366 0.92146397 -0.794253 -0.86911124 -0.3925411 0.7983716 -0.13129856
-0.7912227 -0.22410765 -0.08678869 -0.6094373 0.9276918 0.05819427 0.2552051 -0.3687139
-0.90289253 -0.9325919 -0.9676875 0.52409106 0.52244276 -0.4329857 0.829103 -0.03879934
-0.87501645 -0.1622771 0.63878244 0.049149647 0.43754372 0.31503832 0.25214827 -0.064825125
0.23885277 0.39613175 -0.52123195 -0.75002474 0.6684715 -0.83900356 0.3794255 0.35825437
0.6038708 0.38969025 -0.6430209 -0.8904927 -0.5969608 0.42481697 0.66630816 0.94238293
00000000: e369 123f 6bb0 b93e 6578 03be 6f77 453f
00000010: eeeb f2be 9423 12bf 35f4 723f 27d7 673f
00000020: d1ad 313f 70f4 d1be 8857 9d3d a9de 743f
00000030: 4aa7 553f 295b b3bd a6ed 57bf 74f4 443e
00000040: c68b 75bf 144a 71bf 10e5 6b3f 2a54 4bbf
00000050: 137e 5ebf 26fb c8be 1562 4c3f 2173 06be
00000060: 928d 4abf 7a7c 65be 45be b1bd 1504 1cbf
00000070: 367d 6d3f 1d5d 6e3d 3eaa 823e 11c8 bcbe
00000080: f723 67bf 58be 6ebf 5eba 77bf d52a 063f
00000090: cfbe 053f 4db0 ddbe 1840 543f 0fec 1ebd
000000a0: 1401 60bf f82b 26be 3f87 233f 2451 493d
000000b0: bb05 e03e b44c a13e 9419 813e 09c3 84bd
000000c0: d295 743e c8d1 ca3e 756f 05bf 9f01 40bf
000000d0: f320 2b3f f0c8 56bf 0f44 c23e 1e6d b73e
000000e0: 4797 1a3f 7b85 c73e 059d 24bf 54f7 63bf
000000f0: 6cd2 18bf 9c81 d93e 2c93 2a3f 0240 713f
