experiments/1005/pretask_PAMAP2_4rot.pth (torch, 179492 bytes, 48 tensors)

stem.conv1d.weight f4 [64, 48, 3]
0	0xbd6072d8	-0.054797024
1	0xbc1fcb74	-0.009753097
2	0xbd50e887	-0.051003005
3	0x3c95d527	0.018290116
4	0xbcbd2460	-0.023088634
5	0x3d73e91a	0.059548475
6	0xbbf403a6	-0.007446724
7	0xbd8b931c	-0.06815168
8	0x3be49edc	0.0069769453
9	0x3d45a7fb	0.0482559
10	0x3dbb906b	0.09158405
11	0x3c47fa5d	0.012205687
12	0xbd9264aa	-0.071481064
13	0x3cd6dd04	0.026228435
14	0x3d43a9c9	0.04776934
15	0xbd0466dd	-0.03232466
16	0xbd95dcd6	-0.07317512
17	0xbda1f9f7	-0.07909005
18	0xbbb7200d	-0.0055885375
19	0xbdd2bfe4	-0.102905065
20	0xbd05990c	-0.03261666
21	0x3d2058e7	0.039147284
22	0xbd1600e9	-0.03662196
23	0xbb01614c	-0.0019741831
24	0x3c9c53b5	0.019082883
25	0x3b34d715	0.002759402
26	0x3ce30e6a	0.027716834
27	0x3cfbee28	0.03075321
28	0xbd975e79	-0.07391066
29	0xbd86ff6e	-0.06591688
30	0xbc4f5d89	-0.012656578
31	0xbc9d5950	-0.019207627
32	0xbcbbf013	-0.022941625
33	0x3d48f58f	0.049062308
34	0x3d53d2ff	0.051714893
35	0xbc94ab24	-0.018148012
36	0x3d349350	0.0440858
37	0x3d41e32c	0.04733579
38	0xbd4e1e36	-0.05032178
39	0x3c9c4663	0.019076532
40	0x3db61c6d	0.088921405
41	0x3dffa484	0.12482551
42	0x3dcaabb0	0.09896028
43	0x3d20f160	0.039292693
44	0xbd6bd2b4	-0.05757399
45	0xbd3ab56a	-0.045583166
46	0xbcc46666	-0.023974609
47	0x3c79eca9	0.015254178
48	0xbd703f2f	-0.058654007
49	0x3c8a00a0	0.016846001
50	0x3d51d121	0.05122483
51	0xbd1abc21	-0.03777707
52	0xbc84979c	-0.016185574
53	0x3c9d8f0b	0.019233247
54	0xbd03e74c	-0.032203004
55	0x3d85df0d	0.06536684
56	0xbd3a292d	-0.045449425
57	0xbd603a36	-0.054743014
58	0xbd0035d6	-0.031301342
59	0x3d3cdaab	0.046106976
60	0xbc862a10	-0.016377479
61	0x3ccbfbd5	0.024900356
62	0x3dea5d97	0.11443632
63	0x3d211ca5	0.03933396
64	0xbc0ac596	-0.00846996
65	0xbc7a1aa7	-0.0152651435
66	0xbd9bf362	-0.07614781
67	0x3c6ca12f	0.014442726
68	0xbd7fe675	-0.06247564
69	0xbd28c633	-0.041204643
70	0xbd9be09d	-0.07611201
71	0xbd958f05	-0.073026694
72	0xbce55865	-0.027996251
73	0xbd0ab5d7	-0.033864822
74	0xbbf3e1f8	-0.007442709
75	0x3d42bf71	0.047545854
76	0x3d89102b	0.06692537
77	0xbd75fc29	-0.06005493
78	0xbdfd0e35	-0.123562254
79	0xbdd937a7	-0.10606318
80	0xbd293016	-0.041305624
81	0x3d9d1cc9	0.07671506
82	0x3debe3b9	0.11518044
83	0x3dd54554	0.10413614
84	0xbdd35f1e	-0.103208765
85	0x3d3350d6	0.043778263
86	0x3d180a9a	0.037119485
87	0xbd052f04	-0.03251554
88	0xbd62ae96	-0.05534228
89	0x3c996965	0.018727014
90	0xbc8d7e8e	-0.01727226
91	0x3b8b1fc7	0.0042457315
92	0xbc647a1d	-0.01394513
93	0xbbcf7925	-0.00633158
94	0xbd0ee15d	-0.034882892
95	0x3da48b38	0.08034366
96	0x3d48a804	0.048988357
97	0xbdc0b8a7	-0.0941022
98	0xbdc84ace	-0.09779893
99	0xbd2e1b71	-0.04250664
100	0xbbe19401	-0.0068840985
101	0x3d16447a	0.036686398
102	0xbd201b73	-0.039088678
103	0x3cb987c5	0.022647748
104	0x3d0ec6e4	0.034857646
105	0xbcdfa791	-0.027301582
106	0xbd8825a9	-0.06647808
107	0x3d11031f	0.035403367
108	0x3d8588d9	0.06520242
109	0x3c80de01	0.01573086
110	0x3af8211d	0.0018930767
111	0x3cff6ca4	0.031179734
112	0xbda322d8	-0.0796563
113	0x3cb4b4ac	0.022058807
114	0x3d87ec38	0.06636852
115	0x3bd323f7	0.0064434963
116	0x3d57ef5d	0.05271851
117	0xbdda0e03	-0.10647204
118	0x3ca3bb67	0.019986821
119	0x3c626d0b	0.013819943
120	0x3cd89101	0.02643633
121	0x3c25d9f1	0.010122762
122	0xbd853ee4	-0.06506136
123	0x3c0aee54	0.008479673
124	0x3dacf353	0.08444848
125	0x3d81feaa	0.063474014
126	0x3c280940	0.010256112
127	0xbc00b90b	-0.007856618
128	0xbce78b94	-0.028264798
129	0xbd74e39e	-0.059787385
130	0x3c1cd543	0.00957233
131	0xbe0f4faf	-0.1399524
132	0x3cfb4602	0.03067303
133	0xbcb64ea6	-0.0222543
134	0xbdaa4a5e	-0.08314966
135	0xbdb31fa9	-0.08746273
136	0xbd8d4d90	-0.068995595
137	0x3c2de30f	0.010613217
138	0xbdad476a	-0.08460887
139	0x3d71f334	0.059069827
140	0xbdab3c9f	-0.08361172
141	0x3d7f5e34	0.0623457
142	0x3c5425d4	0.012948472
143	0x3d3dd46e	0.046345167
144	0xbcf96334	-0.030442812
145	0x3d856294	0.06512943
146	0x3d5cc16c	0.0538954
147	0xbd5a61df	-0.053315993
148	0x3db0071b	0.08595105
149	0xbc091ff1	-0.008369432
150	0xbdce603e	-0.100769505
151	0xbc69ee9a	-0.014278078
152	0x3cb5cc51	0.022192152
153	0x3d909425	0.07059506
154	0xbd0e222b	-0.034700554
155	0xbd6121de	-0.05496394
156	0x3da92818	0.082596004
157	0x3c71315a	0.014721239
158	0x3bad2eae	0.0052851057
159	0xbbb3da89	-0.005488698
160	0x3d5595ce	0.052144818
161	0xbd543037	-0.051803794
162	0xbd15d662	-0.036581405
163	0xbd37744f	-0.044788655
164	0x3d915414	0.07096115
165	0xbddb355c	-0.10703537
166	0x3d36a2c6	0.044588827
167	0xbc98bc43	-0.018644458
168	0xbc8b684d	-0.017017508
169	0x3d3d8c26	0.046276234
170	0xbcf7b539	-0.03023778
171	0x3d894f7f	0.06704616
172	0xbcef7af1	-0.029233428
173	0x3cb79d4e	0.022413876
174	0xbdc8d9fe	-0.09807204
175	0x3ceb10d0	0.02869454
176	0x3c2dd1aa	0.01060907
177	0xbdb19ebc	-0.08672854
178	0xbbee8197	-0.007278632
179	0xbdafd032	-0.08584632
180	0x3a9b92b5	0.0011869284
181	0xbca734bb	-0.020410886
182	0xbb60c9d7	-0.0034299993
183	0x3aab4812	0.0013067743
184	0xbba0b638	-0.0049045347
185	0x3dcaed05	0.09908489
186	0xbd49c253	-0.049257588
187	0x3cf3590c	0.029705547
188	0xbd954e62	-0.07290341
189	0xbcc7b4de	-0.024378236
190	0xbc6d030e	-0.01446606
191	0x3d30bcf0	0.043148935
192	0xbb0c1d3d	-0.0021379732
193	0x3ccd6ba8	0.025075749
194	0x3ceec107	0.029144777
195	0xbd15d911	-0.036583964
196	0x3d0a7d76	0.033811055
197	0xbdaaa622	-0.083324686
198	0xbd0c45ed	-0.034246374
199	0xbd890a6a	-0.066914394
200	0xbe09921a	-0.1343464
201	0x3c09c791	0.008409397
202	0x3da80d67	0.08205681
203	0xbd58c644	-0.052923456
204	0x3ccd4654	0.02505795
205	0x3d581392	0.05275304
206	0xbd40c945	-0.047066946
207	0xbda0e56b	-0.07856258
208	0xbd1a4683	-0.0376649
209	0xbc0372e4	-0.0080229975
210	0x3cfcb511	0.030848058
211	0x3d0874a0	0.033314347
212	0x3cfcff30	0.030883402
213	0xbd74d7b3	-0.05977602
214	0xbca21722	-0.019786421
215	0xbd86c346	-0.06580214
216	0xbc86154b	-0.016367575
217	0x3bc64548	0.0060507394
218	0xbda4415e	-0.0802028
219	0xbd99286f	-0.07478415
220	0x3c95e52f	0.01829776
221	0xb9cd1a8f	-0.00039120435
222	0x3d836a0c	0.06416711
223	0x3cf445c5	0.029818425
224	0xbcac9cb9	-0.021070825
225	0xbda21166	-0.07913475
226	0xbd925a25	-0.071461
227	0xbdeb9e10	-0.115047574
228	0x3ccc6f14	0.02495531
229	0x3d2bcae7	0.04194155
230	0x3d63b866	0.055595778
231	0xbd32d837	-0.04366323
232	0x3cc48a59	0.02399175
233	0xbd8e52b0	-0.06949365
234	0xbdc53d97	-0.09630888
235	0xbcf27acf	-0.029599575
236	0xbd122f60	-0.03568971
237	0xbd948210	-0.0725137
238	0xbd17a9c6	-0.037027143
239	0x3d43cbe0	0.047801852
240	0x3cef9a71	0.029248448
241	0x3d92f242	0.07175113
242	0xbc4a74a0	-0.012356907
243	0xbd5c2b01	-0.05375195
244	0x3d2a4372	0.041568227
245	0xbbab4571	-0.005226784
246	0x3d56d19c	0.052445993
247	0x3cc2b1f8	0.023766503
248	0x3d0aef90	0.03391987
249	0x3cebc8ff	0.028782366
250	0x3cb7e234	0.02244673
251	0x3d6e6cff	0.058209416
252	0x3d8dd544	0.06925443
253	0x3c93240f	0.01796153
254	0xbc232709	-0.009958037
255	0x3d9aab48	0.075522006

stem.conv1d.bias f4 [64]
0	0xbd6306fb	-0.05542658
1	0x3d407076	0.04698225
2	0x3d75d8bb	0.060021143
3	0x3da636ae	0.08115898
4	0x3d9a8350	0.07544577
5	0x3d39b012	0.04533393
6	0xbda26cc9	-0.07930905
7	0xbd462faa	-0.0483853
8	0xbcf01f8c	-0.029311918
9	0x3d500ede	0.05079543
10	0x3c9d650b	0.01921322
11	0x3d030d90	0.031995356
12	0x3d8443e8	0.064582646
13	0x3d6e177d	0.05812787
14	0xbd81877f	-0.06324672
15	0xbccff5b8	-0.025385723
16	0x3d22ef1f	0.039778825
17	0xbd0a2e71	-0.033735696
18	0xbd4a5b03	-0.0494032
19	0x3d8094dd	0.062783934
20	0x3a88d409	0.0010439168
21	0x3c8a5980	0.01688838
22	0x3d01903e	0.0316317
23	0x3d7523b9	0.05984852
24	0x3d68392d	0.056695152
25	0xbd8d478a	-0.068984106
26	0x3d442a2e	0.04789179
27	0x3d2adcd6	0.04171451
28	0xbbab2c6a	-0.0052238004
29	0xbbfe31e2	-0.0077574113
30	0xbd9a2259	-0.075260825
31	0x3daa2d77	0.08309453
32	0x3d058348	0.032595903
33	0xbcf102df	-0.029420314
34	0x3c2dc58c	0.010606181
35	0xbda5265b	-0.08063956
36	0x3d7815de	0.06056773
37	0x3d218056	0.03942903
38	0xbd899a23	-0.06718852
39	0x3d21eb71	0.039531175
40	0x3d15b25d	0.036547054
41	0xbb573e87	-0.0032843666
42	0xbd152f1a	-0.036421873
43	0x3d913b94	0.07091442
44	0x3cf01935	0.029308895
45	0x3d95ce18	0.073147
46	0x3bd52618	0.0065047853
47	0xbd64eb50	-0.055888474
48	0xbc5cf81f	-0.013486891
49	0x3d6f219a	0.058381654
50	0x3c5cdea1	0.013480813
51	0xbd214010	-0.039367735
52	0x3d38875c	0.045050964
53	0x3da52d84	0.08065322
54	0xbcbbc8a1	-0.022922816
55	0xbc6a0396	-0.0142830815
56	0xbc37431b	-0.011185433
57	0xbcf3243b	-0.029680362
58	0x3c4a43e5	0.012345289
59	0xbd17e0a7	-0.03707948
60	0x3ce91fb8	0.028457507
61	0xbd4b3d6d	-0.049619127
62	0x3d99d82a	0.07511933
63	0x3c3c7ae5	0.01150391

stem.bn.weight f4 [64]
0	0x3f89a368	1.0752993
1	0x3f9027ef	1.1262187
2	0x3f932349	1.1495143
3	0x3f9028dc	1.1262469
4	0x3f90b264	1.130444
5	0x3f94efd9	1.1635696
6	0x3f8f08c0	1.1174545
7	0x3f8ed48f	1.1158618
8	0x3f947945	1.1599509
9	0x3f8c34b0	1.0953579
10	0x3f8d70c6	1.1050041
11	0x3f8ced26	1.1009872
12	0x3f909d84	1.129807
13	0x3f934b52	1.1507361
14	0x3f8bd4b0	1.0924282
15	0x3f948a8d	1.1604782
16	0x3f8db4b5	1.1070772
17	0x3f8b72d5	1.0894419
18	0x3f8d28fd	1.1028134
19	0x3f8ec0ae	1.1152551
20	0x3f8d61c0	1.1045456
21	0x3f8eeba2	1.116566
22	0x3f8b7224	1.0894208
23	0x3f8cb9e5	1.099423
24	0x3f8a0c76	1.0785053
25	0x3f92b02d	1.1460015
26	0x3f909dc7	1.129815
27	0x3f8d0c1a	1.1019318
28	0x3f93ca22	1.1546061
29	0x3f8e9def	1.1141948
30	0x3f8f3661	1.118847
31	0x3f8f375e	1.1188772
32	0x3f8e17f3	1.1101059
33	0x3f8df115	1.1089197
34	0x3f8e3f7b	1.1113123
35	0x3f8bc849	1.0920497
36	0x3f8bdaff	1.0926207
37	0x3f916639	1.1359321
38	0x3f9469fc	1.1594844
39	0x3f92703c	1.1440501
40	0x3f902585	1.126145
41	0x3f92ccbf	1.1468734
42	0x3f8d3c54	1.1034036
43	0x3f92818a	1.1445782
44	0x3f9208da	1.1408951
45	0x3f8ce472	1.1007216
46	0x3f8d2b95	1.1028925
47	0x3f8d06e0	1.1017723
48	0x3f8fef44	1.1244893
49	0x3f8b9dba	1.0907509
50	0x3f90a141	1.1299211
51	0x3f8d4e72	1.1039565
52	0x3f928aa8	1.1448565
53	0x3f8b3eef	1.0878581
54	0x3f89d73b	1.0768808
55	0x3f90cd34	1.1312623
56	0x3f9149ef	1.1350688
57	0x3f91e541	1.1398088
58	0x3f8eafe5	1.1147429
59	0x3f9060fc	1.1279597
60	0x3f937374	1.1519608
61	0x3f8f2943	1.1184467
62	0x3f8cb2d6	1.0992076
63	0x3f8ddbfa	1.1082757

stem.bn.bias f4 [64]
0	0x3c54180d	0.012945187
1	0xbc566985	-0.013086681
2	0xbbca0cad	-0.006166062
3	0xbd14cdeb	-0.03632919
4	0xbbc56b70	-0.0060247704
5	0xbb9bb483	-0.0047517433
6	0x3c9af9e5	0.018917987
7	0x3c6f98f9	0.014623874
8	0x3c30400b	0.0107574565
9	0xbd0e5754	-0.03475125
10	0x3cd63518	0.026148364
11	0x3c954147	0.018219603
12	0x3d3c4036	0.045959674
13	0x3cc8c97b	0.024510136
14	0xbcfaa978	-0.030598387
15	0x3c20559f	0.009786039
16	0xbd592ee9	-0.053023253
17	0x3c5db336	0.013531497
18	0x3b802221	0.0039103185
19	0xbbf5c672	-0.007500463
20	0x3c84cf5d	0.01621216
21	0x3d362424	0.04446806
22	0xbc1e6160	-0.009666771
23	0x3d84bd41	0.0648141
24	0x3aa897b8	0.0012862599
25	0x3cc208b3	0.023685789
26	0x3c345eef	0.011008962
27	0xbc4639f5	-0.012098779
28	0x3c3a6416	0.011376401
29	0x3ce7d80d	0.028301263
30	0xbc3df41f	-0.011593848
31	0xbb594819	-0.0033154546
32	0xbd453755	-0.04814847
33	0xbd86ae8a	-0.065762594
34	0x3bd6e965	0.0065585845
35	0xbcaa9670	-0.020823687
36	0x3c82ce49	0.015967505
37	0xbc9073dc	-0.017633371
38	0x3d31dac8	0.043421537
39	0xbd2695ed	-0.040670324
40	0x3ce20933	0.027592277
41	0x3d24959c	0.04018174
42	0xbca96697	-0.020678801
43	0x3d2cdedc	0.042204723
44	0x3c1f696a	0.0097297225
45	0x3cddba11	0.027066262
46	0xbca7fd0f	-0.02050641
47	0x3c58ed14	0.013240118
48	0xbca7fce2	-0.020506326
49	0xbd9516a7	-0.07279711
50	0x3cb376f8	0.021907315
51	0xbb6eca79	-0.00364366
52	0xbae5a387	-0.0017520048
53	0x3d288942	0.041146524
54	0x3d3417ea	0.04396812
55	0xbc433ad0	-0.011915877
56	0x3c3ebb26	0.011641299
57	0xbcbbee93	-0.02294091
58	0xbd761fae	-0.060088806
59	0x3db87c10	0.09008038
60	0xbbe9a155	-0.007129828
61	0xbd02f03f	-0.031967398
62	0xbca1ad12	-0.019735847
63	0x3b6a6088	0.0035763104

stem.bn.running_mean f4 [64]
0	0xbdbba2ac	-0.091618866
1	0x3d5ee2e0	0.054415584
2	0x3cc68c52	0.024236832
3	0x3da2d9a5	0.07951669
4	0x3dc073f1	0.09397114
5	0x3d67738e	0.056506686
6	0xbd892e61	-0.06698299
7	0xbcf2f462	-0.029657546
8	0xbc893a89	-0.016751545
9	0x3daca1f0	0.084293246
10	0x3cadd1b6	0.021218162
11	0x3d36c8b9	0.044625018
12	0x3d86fec8	0.065915644
13	0x3d8bdc22	0.068290964
14	0xbdaf0c01	-0.085472114
15	0xbc46cd83	-0.012133959
16	0x3d47d616	0.048788153
17	0xbd895a80	-0.06706715
18	0xbd635dd6	-0.05550941
19	0x3d5d0a53	0.053964924
20	0xbcc52ae0	-0.024068296
21	0x3b8528fe	0.0040637245
22	0x3cd7ffba	0.026367057
23	0x3d894d2b	0.06704172
24	0x3d3568c0	0.04428935
25	0xbd5ad85b	-0.05342899
26	0x3d3a4f9e	0.045486085
27	0x3cd9fb28	0.026609018
28	0x3c01db65	0.007925843
29	0xbcc5cfc6	-0.024146926
30	0xbdd9d8dc	-0.10637066
31	0x3d96d5ac	0.073649734
32	0x3d5a8851	0.053352658
33	0x3b866a35	0.0041020163
34	0x3d375123	0.044755112
35	0xbd8b5ad0	-0.068044305
36	0x3d494f59	0.049147937
37	0x3da6942b	0.081337295
38	0xbd42e32e	-0.047579937
39	0x3d84ebad	0.06490264
40	0x3d7332bf	0.059374567
41	0x3be9be42	0.007133276
42	0xbca73345	-0.02041019
43	0x3d8520ec	0.0650042
44	0x3cf7ea74	0.030263163
45	0x3d9f9906	0.07792859
46	0xbb89e866	-0.0042086123
47	0xbd9e30bf	-0.07724141
48	0xbd32c8e8	-0.04364863
49	0x3d971c86	0.07378487
50	0x3d895186	0.067050025
51	0xbc866ad6	-0.016408365
52	0x3d882a7d	0.06648729
53	0x3dc696c0	0.09696722
54	0xbcb8f1b9	-0.0225762
55	0xbccf43ed	-0.025300944
56	0xbc709d51	-0.014685945
57	0x3bf391da	0.0074331583
58	0x3ca9f5a6	0.020747017
59	0xbd9dd146	-0.07705931
60	0x3cb03305	0.021508703
61	0xbd557b0e	-0.052119307
62	0x3d0325a3	0.032018315
63	0x3c582b71	0.013193951

stem.bn.running_var f4 [64]
0	0x3f3da6e9	0.7408281
1	0x3f1b70db	0.6071908
2	0x3f341dc0	0.70357895
3	0x3ec40aa1	0.3828936
4	0x3f0c3719	0.5477157
5	0x3f206a12	0.6266185
6	0x3f3ea9a3	0.74477595
7	0x3f0a4229	0.540072
8	0x3ed29121	0.4112635
9	0x3f2edc0b	0.6830451
10	0x3f10848a	0.5645224
11	0x3f2300ca	0.6367308
12	0x3f2bcce4	0.67109513
13	0x3eaa57c8	0.33270097
14	0x3f498e0c	0.7873237
15	0x3ec62257	0.38698074
16	0x3f09679c	0.5367372
17	0x3ebdafcd	0.37048188
18	0x3ec26d6d	0.3797411
19	0x3efe5952	0.4967752
20	0x3f2fbe5f	0.6864986
21	0x3f19ec00	0.6012573
22	0x3f41460f	0.75497526
23	0x3f17136d	0.59014016
24	0x3f081a91	0.5316554
25	0x3eb29410	0.34878588
26	0x3eccd178	0.40003562
27	0x3f25d963	0.6478483
28	0x3f30b84f	0.6903123
29	0x3f1a24a6	0.6021217
30	0x3f42b91b	0.760637
31	0x3f116aa4	0.56803346
32	0x3f4fb381	0.81133276
33	0x3f224b2b	0.6339595
34	0x3eec3fb0	0.4614234
35	0x3ee8c3b7	0.4546182
36	0x3f28852e	0.65828216
37	0x3f2cd674	0.6751473
38	0x3f385f71	0.7202063
39	0x3f2276f9	0.6346279
40	0x3efcc501	0.49369052
41	0x3f45047c	0.7695997
42	0x3f046666	0.5171875
43	0x3e99919e	0.2999391
44	0x3f1e75ce	0.61898506
45	0x3f2fcea6	0.68674695
46	0x3f098546	0.53718984
47	0x3f466707	0.7750096
48	0x3f6b21f5	0.9184869
49	0x3f56b9ea	0.8387743
50	0x3f8bbe63	1.0917476
51	0x3f0d2d3c	0.5514715
52	0x3ec2425f	0.37941262
53	0x3f3530d8	0.70777655
54	0x3f28242d	0.656802
55	0x3f005ff0	0.5014639
56	0x3f03a017	0.5141615
57	0x3efe1d4d	0.4963173
58	0x3f53b15d	0.8269251
59	0x3f577a42	0.84170926
60	0x3ee0b752	0.43889862
61	0x3f1afed6	0.605451
62	0x3f34e9b6	0.70669115
63	0x3f4413d4	0.76592755

inception.branch1.1.depthwise.weight f4 [64, 1, 1]
0	0x3f372d31	0.7155333
1	0x3f3a2691	0.727151
2	0xbf0109a0	-0.5040531
3	0x3f29a826	0.662722
4	0xbf863f37	-1.0488042
5	0xbf2b2cb9	-0.66865116
6	0x3f34c684	0.7061541
7	0xbf6b12e4	-0.918257
8	0x3e8abeb4	0.2709862
9	0xbe51fcc1	-0.20506574
10	0x3f524bfb	0.82147187
11	0xbf6edb15	-0.9330304
12	0x3e81d71d	0.2535943
13	0x3ecfce36	0.40587014
14	0xbec1b9b9	-0.37837008
15	0xbf49c62b	-0.78818005
16	0xbf4db2c8	-0.80350924
17	0x3f47d8ca	0.7806517
18	0x3f713e5a	0.94235766
19	0xbf865129	-1.0493518
20	0xbeb1da5d	-0.3473691
21	0x3f604df0	0.87618923
22	0xbec75a54	-0.38936102
23	0xbf140046	-0.5781292
24	0xbea1ee1e	-0.31626981
25	0xbf834293	-1.0254692
26	0xbf85e515	-1.0460535
27	0x3f4cc614	0.79989743
28	0xbe2334a7	-0.15938054
29	0xbde43298	-0.111424625
30	0x3f59060f	0.8477487
31	0x3ed59747	0.41716978
32	0x3f1b88f7	0.60755867
33	0xbf6f3610	-0.9344187
34	0xbf7d3103	-0.9890291
35	0xbe5761ad	-0.21033354
36	0xbf3c520a	-0.7356268
37	0xbce132cd	-0.027490044
38	0x3f37951c	0.717119
39	0x3f260cda	0.6486336
40	0x3f52ced1	0.82346827
41	0xbf288141	-0.65822226
42	0x3e779959	0.24179591
43	0x3eeeadb8	0.46616912
44	0xbf20d527	-0.62825245
45	0x3f7a265d	0.9771479
46	0x3f395203	0.72390765
47	0xbe77b6f6	-0.24190888
48	0xbf0a07a4	-0.5391791
49	0x3f503715	0.8133405
50	0x3ee5c2e4	0.44875252
51	0x3f45bf14	0.7724469
52	0xbec02658	-0.37529254
53	0x3f311c09	0.69183403
54	0xbf844c7f	-1.0335845
55	0xbefdda5c	-0.49580657
56	0xbf2cf85b	-0.6756646
57	0xbf6a0efc	-0.91429114
58	0xbf564f8d	-0.83715135
59	0x3f8b1565	1.0865904
60	0xbf31842a	-0.6934229
61	0xbf25135d	-0.6448267
62	0x3f5b8a78	0.8575816
63	0xbe235919	-0.15951957

inception.branch1.1.depthwise.bias f4 [64]
0	0x3f6d0a5f	0.9259395
1	0x3f32d63b	0.6985814
2	0xbf0edf7a	-0.5580975
3	0xbd6b7e3d	-0.057493437
4	0xbf387b62	-0.7206327
5	0xbf39304a	-0.7233931
6	0xbf3a8bc7	-0.72869533
7	0xbf564e7a	-0.83713496
8	0xbf554cb3	-0.8332016
9	0xbf3a3132	-0.72731316
10	0xbe3523b8	-0.17689407
11	0x3f0e3598	0.5555053
12	0xbe620f99	-0.22076263
13	0xbf0d2388	-0.5513234
14	0x3d47f7a5	0.048820157
15	0xbf47676a	-0.7789217
16	0xbef9fa7e	-0.48823923
17	0x3f05630d	0.52104264
18	0xbe25a5de	-0.16176555
19	0x3f78774f	0.9705705
20	0x3f3e4613	0.74325675
21	0x3e0f7843	0.1401072
22	0xbe6025bf	-0.21889399
23	0xbf2ace0c	-0.6672065
24	0xbf0d9903	-0.553116
25	0xbf759514	-0.959306
26	0xbe87cb59	-0.2652233
27	0xbf4dd24c	-0.8039901
28	0xbe055ea6	-0.13024387
29	0x3ee191b1	0.44056466
30	0xbe2e4276	-0.1701754
31	0xbe88d2f4	-0.26723444
32	0x3f72565a	0.9466301
33	0x3f103a3e	0.5633887
34	0x3e37f2ae	0.17963669
35	0xbe57ef24	-0.21087319
36	0x3f0e6aaa	0.55631506
37	0xbf5efe38	-0.8710666
38	0xbdd2c78a	-0.10291965
39	0x3eaa140d	0.33218423
40	0x3f1bad68	0.6081147
41	0x3e9a92fa	0.3019026
42	0x3f0c7db1	0.5487929
43	0x3e8ed7aa	0.27898914
44	0x3f76a3d4	0.9634373
45	0x3f19660d	0.5992134
46	0x3f5e9b9a	0.8695618
47	0xbf7fe253	-0.9995472
48	0x3f7bd7ae	0.98375976
49	0xbe6ec8e3	-0.2331882
50	0x3eae8ba7	0.3409092
51	0xbeb32ff0	-0.3499751
52	0xbf405448	-0.75128603
53	0x3f173e1a	0.59079134
54	0x3f5cd945	0.86269027
55	0xbf72bbd1	-0.94817835
56	0x3f3b82ee	0.7324666
57	0x3f535c92	0.82563126
58	0x3d99c8fe	0.07509039
59	0xbf31d59b	-0.6946656
60	0x3ee7fc8e	0.4530987
61	0x3e31c8d5	0.17361768
62	0xbeffc224	-0.49952805
63	0xbf54a2ce	-0.8306092

inception.branch1.1.pointwise.weight f4 [32, 64, 1]
0	0xbca70ca4	-0.02039177
1	0xbabdb4f2	-0.0014473482
2	0xbde05f7c	-0.10955712
3	0xbd5045c9	-0.050847802
4	0xbdd06f31	-0.10177458
5	0x3d900b4c	0.07033405
6	0x3c6d2c8a	0.014475951
7	0x3df307d9	0.11866731
8	0xbe25246e	-0.16127178
9	0xbd46e29b	-0.04855595
10	0x3da85af3	0.08220472
11	0x3e605875	0.21908744
12	0x3d968ed8	0.07351464
13	0xbc66574a	-0.014058897
14	0xbc86fcfd	-0.016478056
15	0xbd61e8bc	-0.055153593
16	0x3da6ea55	0.08150164
17	0x3d899f3c	0.06719825
18	0xbe5e1f44	-0.21691614
19	0xbe52ccb7	-0.20585905
20	0xbd9b47b1	-0.075820334
21	0x3e4d1c0b	0.20030229
22	0xbc84350d	-0.016138578
23	0xbdabd0e4	-0.08389452
24	0xbd6e1fa4	-0.058135644
25	0xbd80dca4	-0.06292084
26	0x3e016a25	0.12638147
27	0x3de40f96	0.11135785
28	0xbdd5e2b0	-0.10443628
29	0xbd69fb9e	-0.057124726
30	0x3cb0fbf4	0.021604516
31	0xbd66724d	-0.05626135
32	0xbdabe129	-0.08392555
33	0x3e1c1409	0.15242018
34	0xbd09ba29	-0.0336248
35	0x3d5658df	0.052330848
36	0x3e313d2f	0.17308496
37	0xbde46dfd	-0.11153791
38	0xbcbdebeb	-0.023183784
39	0x3e2b15b5	0.167075
40	0x3d9c6c55	0.0763785
41	0xbca0f748	-0.019649163
42	0x3d4b5b3b	0.04964755
43	0x3e15e20b	0.1463701
44	0xbd3cf312	-0.046130247
45	0xbda624db	-0.081124984
46	0x3ddbe82b	0.10737642
47	0xbda1071c	-0.07862684
48	0xbd32aff3	-0.04362483
49	0x3e8162e0	0.25270748
50	0x3ddb14db	0.10697337
51	0x3c18557e	0.009297727
52	0xbd925a53	-0.07146134
53	0x3e347d46	0.17625913
54	0xbe49061d	-0.19631238
55	0x3d99665a	0.07490225
56	0x3e59ec9e	0.21281669
57	0xbcbabc06	-0.022794735
58	0x3e26d652	0.16292694
59	0x3d8dc9db	0.069232665
60	0xbe052a1a	-0.13004342
61	0x3e238c96	0.15971598
62	0x3dae4a70	0.085102916
63	0xbbe0e4e5	-0.006863224
64	0xbb99f30d	-0.0046981634
65	0x3e014954	0.12625629
66	0x3e0242fb	0.12720864
67	0x3ddda129	0.108217545
68	0xbdbb52a1	-0.091466196
69	0xbd04e355	-0.032443363
70	0x3ce45eb5	0.027877191
71	0xbd44e75b	-0.0480722
72	0x3da3310d	0.0796834
73	0x3db4a50a	0.08820541
74	0x3e59e901	0.2128029
75	0x3e106ed7	0.14104782
76	0xbd5a7235	-0.053331573
77	0xbe2e23a8	-0.1700579
78	0xbd8e4f7a	-0.06948753
79	0xbdc84ee3	-0.097806714
80	0xbdb043ec	-0.08606705
81	0xbd855857	-0.0651099
82	0xbe5dd964	-0.21664959
83	0xbdfcef12	-0.123502865
84	0xbde52af0	-0.1118983
85	0x3e147018	0.14495885
86	0xbdd56587	-0.104197554
87	0x3c8b2996	0.016987603
88	0xbd7d36ba	-0.06181977
89	0xbddbf83b	-0.107407056
90	0x3d778f76	0.06043955
91	0x3bb8bb53	0.005637565
92	0x3d140ca3	0.036144864
93	0x3d9defff	0.07711791
94	0x3df5735a	0.11984892
95	0xbd9fe189	-0.07806689
96	0x3d64d69f	0.05586874
97	0x3e2114c4	0.15730578
98	0xbe6b0017	-0.22949253
99	0xbe223f90	-0.1584456
100	0x3dafc90b	0.08583268
101	0x3db0f4bf	0.086404316
102	0xbe1c3034	-0.15252763
103	0xbca15bc9	-0.019697087
104	0xbe0ef699	-0.13961257
105	0xbcdb0772	-0.026736949
106	0x3dab6028	0.0836795
107	0x3dcbacb2	0.099450484
108	0xbe11658b	-0.14198892
109	0xbdec51a9	-0.11539013
110	0x3d332aa4	0.043741837
111	0xbe066b92	-0.13126972
112	0x3c09e92c	0.008417409
113	0x3e61c7a3	0.22048812
114	0x38824140	6.211037e-05
115	0x3e2c8de5	0.16851003
116	0xbc309d06	-0.010779625
117	0x3d32f64a	0.04369191
118	0xbe02dfbf	-0.12780665
119	0xbe19ff66	-0.15038833
120	0x3db834c7	0.089944415
121	0xbdcf5471	-0.10123528
122	0x3df295e1	0.118449934
123	0xbd8c26ed	-0.06843362
124	0x3dff7138	0.12472767
125	0x3e5608b8	0.20901763
126	0x3e2ce14b	0.16882817
127	0x3d29fab6	0.041498862
128	0x3d4bdaea	0.04976932
129	0x3de82590	0.113352895
130	0x3d86bce9	0.065790005
131	0xbe2c23cd	-0.16810532
132	0xbd0f5930	-0.034997165
133	0xbd2bf45f	-0.041981097
134	0x3d2fc816	0.042915426
135	0xbda32072	-0.07965173
136	0xbdf2ea3c	-0.11861083
137	0x3cb3af08	0.021934047
138	0x3e2a625a	0.1663908
139	0x3defe6c7	0.11713939
140	0xbce248ba	-0.02762257
141	0xbe39d76c	-0.18148583
142	0xbc9dc76f	-0.019260136
143	0x3da8b446	0.082375094
144	0x3d417ff5	0.04724117
145	0x3de2d9d7	0.11076706
146	0xbdb51147	-0.08841186
147	0xbd5dde0c	-0.05416684
148	0x3d298268	0.04138413
149	0x3e076d51	0.13225295
150	0x3c2556dc	0.01009151
151	0x3d91915b	0.071078025
152	0xbdb2ccb2	-0.08730449
153	0xbdfe0598	-0.12403411
154	0x3cc5d855	0.024151007
155	0xbcf63163	-0.030052846
156	0xbe0196b9	-0.12655152
157	0x3e05623d	0.13025756
158	0xbe45d0ca	-0.19317928
159	0x3e2db74f	0.16964458
160	0xbda2f0b4	-0.07956067
161	0xbd5ff5ca	-0.054677762
162	0x3c82e2d8	0.015977308
163	0xb8c0694c	-9.1748865e-05
164	0x3e2d0bf6	0.16899094
165	0x3d563c24	0.05230345
166	0xbe59153f	-0.21199511
167	0xbe1b6d40	-0.15178394
168	0xbdbfa8ed	-0.09358392
169	0xbe6c208e	-0.23059294
170	0x3d53378f	0.051566657
171	0x3e20e987	0.15714084
172	0xbc237c2e	-0.009978337
173	0x3dea36a7	0.11436205
174	0x3d40ed26	0.047101162
175	0xbde68400	-0.11255646
176	0x3dae3aae	0.08507286
177	0x3e0206e1	0.12697937
178	0x3de9e441	0.11420489
179	0xbd29a0ee	-0.04141324
180	0x3ca6de25	0.020369599
181	0x3e249770	0.16073394
182	0xbe31450f	-0.173115
183	0xbdade37d	-0.084906556
184	0x3df7fd5d	0.12108872
185	0xbe275c8a	-0.16343895
186	0x3e1947e2	0.14968827
187	0x3ddb5f20	0.10711503
188	0x3dd56b6d	0.104208805
189	0x3df4d812	0.11955275
190	0x3e608bc9	0.21928324
191	0xbd7ce2c5	-0.0617397
192	0xbd52a13d	-0.0514233
193	0x3d8603bf	0.06543683
194	0xbd9e56c0	-0.0773139
195	0xbd2c1d6b	-0.042020243
196	0xbd4ccc85	-0.049999733
197	0x3d775310	0.06038195
198	0x3db85905	0.09001354
199	0xbd733939	-0.059380744
200	0x3db484c6	0.08814387
201	0x3c0a65b6	0.008447101
202	0xbb12cf2c	-0.0022401316
203	0x3d52c464	0.051456824
204	0x3e2523b0	0.16126895
205	0xbbbf8fa4	-0.0058459807
206	0xbd523868	-0.051323324
207	0x3d33d8f7	0.043908086
208	0x3bc83e4d	0.0061109425
209	0xbca69af5	-0.020337561
210	0x3e454176	0.19263253
211	0x3da79b59	0.08183927
212	0xbe4d5a36	-0.20053944
213	0x3d521ada	0.05129514
214	0x3b447a8f	0.0029980277
215	0x3d9f148b	0.0776759
216	0x3ce22797	0.027606769
217	0xbd18ed3c	-0.03733562
218	0xbd891f0d	-0.066953756
219	0xbd933e1c	-0.07189581
220	0x3b973084	0.004613938
221	0x3d479802	0.04872895
222	0x3e085f4c	0.13317603
223	0x3d7c4a52	0.061594315
224	0x3cc4cb5e	0.024022754
225	0x3ccd1bc2	0.02503765
226	0x3e148eb3	0.1450756
227	0x3df73843	0.12071278
228	0xbe6f7bd5	-0.23387082
229	0x3d146b3b	0.036235075
230	0xbe31c46a	-0.17360082
231	0x3dcca348	0.09992081
232	0x3c6c9eb6	0.0144421365
233	0xbd7323fa	-0.05936048
234	0xbc92912d	-0.01789149
235	0x3de0b04e	0.109711275
236	0xbd7547fb	-0.0598831
237	0xbca35601	-0.01993847
238	0xbc213107	-0.009838349
239	0xbd8f9e26	-0.07012586
240	0x3c723d3a	0.014785105
241	0x3c0742f2	0.008255707
242	0x3d6a7d49	0.057248387
243	0x3d95cec6	0.073148295
244	0x3d8ed743	0.06974652
245	0x3cc0d803	0.023540502
246	0xbdaaef22	-0.08346392
247	0x3df0a26f	0.11749732
248	0x3c9d9f05	0.019240865
249	0x3cd91ba3	0.026502436
250	0x3e07eb2a	0.13273302
251	0xbe23d189	-0.159979
252	0x3d83aff9	0.064300485
253	0xbe299ee9	-0.16564526
254	0x3db8a176	0.09015171
255	0x3c00f7cb	0.007871578

inception.branch1.1.pointwise.bias f4 [32]
0	0x3d15aaa9	0.036539707
1	0x3dec3c38	0.11534923
2	0xbd86fa98	-0.06590766
3	0x3d7e0c5d	0.06202351
4	0x3d493d78	0.049130887
5	0x3d5327eb	0.05155174
6	0x3dba7380	0.09104061
7	0xbc2d8e20	-0.010592967
8	0x3d20aa62	0.03922499
9	0xbd9114ba	-0.070840314
10	0xbcbc27e3	-0.022968238
11	0xbd478e32	-0.048719592
12	0xbdca92b3	-0.09891262
13	0x3d8f5d8f	0.07000267
14	0xbca3f5b4	-0.020014621
15	0x3e0df9ef	0.13864873
16	0xbdaa9c1a	-0.08330555
17	0x3d92f80e	0.07176219
18	0xbd12d778	-0.03585002
19	0x3c16ea09	0.009211072
20	0x3dd9b2eb	0.10629829
21	0x3df59732	0.11991729
22	0x3d4b4802	0.04962922
23	0xbdc20b7f	-0.09474849
24	0xbd8d29b3	-0.06892719
25	0xbdbfa5c7	-0.093577914
26	0xbd43408e	-0.047668986
27	0xbd87e554	-0.06635538
28	0x3cd4c168	0.02597113
29	0x3d54f4c7	0.05199125
30	0x3daa8ed2	0.08328022
31	0xbdbefae3	-0.093251966

inception.branch2.0.depthwise.weight f4 [64, 1, 1]
0	0x3f65c5fd	0.8975523
1	0xbe4df5a2	-0.20113233
2	0x3f2e9d14	0.6820843
3	0xbf278d10	-0.6544962
4	0xbeab1050	-0.33410883
5	0x3f438467	0.76373905
6	0xbe967962	-0.29389483
7	0xbf4a2470	-0.7896185
8	0x3ed49e65	0.41527095
9	0x3f58bfa6	0.8466743
10	0x3ed404e3	0.41409978
11	0x3ef73bdd	0.4828786
12	0xbe3bf67e	-0.18355748
13	0xbeddb744	-0.43303883
14	0x3f15d35c	0.58525634
15	0x3f2dc062	0.6787168
16	0xbf103ceb	-0.56342953
17	0x3f1f5ddd	0.622526
18	0xbea6d1a0	-0.32581806
19	0x3f07ea65	0.5309203
20	0x3eb604aa	0.35550433
21	0xbea9dd48	-0.33176637
22	0xbebcb057	-0.36853287
23	0xbeea7a81	-0.45796588
24	0xbf8840ca	-1.0644772
25	0x3f15a2ea	0.5845171
26	0xbf825de8	-1.0184908
27	0x3f158c4d	0.58417207
28	0x3eafa0b9	0.3430231
29	0xbf2510af	-0.6447858
30	0x3f4a1f38	0.78953886
31	0x3f64d763	0.89391154
32	0x3d975ce5	0.07390765
33	0xbf719293	-0.9436428
34	0xbf63468c	-0.8877952
35	0xbebdcfb8	-0.3707254
36	0x3f3344a7	0.7002663
37	0xbecc4f1e	-0.39904112
38	0xbf5aacf0	-0.8542013
39	0xbef83039	-0.4847429
40	0xbe8b2625	-0.2717754
41	0x3f6eb23c	0.93240714
42	0x3f3c5d29	0.7357965
43	0x3f7dfdc0	0.99215317
44	0x3ea8c7f1	0.32965043
45	0x3db52c5d	0.08846352
46	0xbec0eb84	-0.37679684
47	0xbf1439d2	-0.57900727
48	0xbf69e75a	-0.9136864
49	0x3f16308f	0.58667845
50	0xbea9ee59	-0.33189657
51	0x3e9f58d6	0.31122464
52	0xbec25b20	-0.37960148
53	0xbc37f227	-0.011227167
54	0x3ed65621	0.41862586
55	0x3dc0e89d	0.094193675
56	0x3f609f1f	0.877428
57	0xbf68b575	-0.9090188
58	0x3edc9cc3	0.4308835
59	0x3ef180f2	0.4716869
60	0x3dce6bd1	0.10079158
61	0xbf443f8d	-0.7665947
62	0xbf5fb884	-0.87390924
63	0xbe181136	-0.14850315

inception.branch2.0.depthwise.bias f4 [64]
0	0xbf05512c	-0.52076983
1	0x3d9f134e	0.07767354
2	0xbf551d81	-0.83248144
3	0xbf539053	-0.82642096
4	0xbf2142d7	-0.62992615
5	0xbf329d48	-0.6977124
6	0xbee5cb5f	-0.44881722
7	0x3ed3e43a	0.4138506
8	0xbf6bd3c9	-0.92120034
9	0xbebacfbc	-0.36486614
10	0xbef5e8a8	-0.48029065
11	0x3e5e6b72	0.21720675
12	0x3e2ffbcd	0.17185898
13	0xbf0ee58c	-0.5581901
14	0xbe78475e	-0.24245974
15	0x3f1d859b	0.6153199
16	0xbf712348	-0.9419446
17	0x3f13c6cd	0.5772522
18	0xbf457286	-0.77127874
19	0x3f3d643a	0.7398106
20	0xbf28bfda	-0.6591774
21	0x3f4f0091	0.8086024
22	0xbf7d8b52	-0.9904071
23	0x3ed44dad	0.41465512
24	0xbf57d0cb	-0.8430297
25	0xbf47af65	-0.78002006
26	0xbf053da5	-0.5204719
27	0x3f1729f3	0.59048384
28	0xbf762be0	-0.961607
29	0xbef804af	-0.48441073
30	0xbf477be5	-0.77923423
31	0xbe670297	-0.22559582
32	0xbf6a97cb	-0.9163787
33	0x3e7f6174	0.24939519
34	0xbf4d264e	-0.80136573
35	0xbeeb3c6b	-0.45944533
36	0xbf0e025a	-0.5547234
37	0xbbf029e5	-0.007329213
38	0x3e878d88	0.26475167
39	0x3f162689	0.5865255
40	0x3d912a62	0.07088162
41	0x3f766317	0.9624495
42	0xbf5c263d	-0.85995847
43	0xbf1cfa82	-0.61319745
44	0xbe8cbb5f	-0.27486703
45	0x3d45568b	0.048178237
46	0xbe191d5c	-0.14952606
47	0xbf150905	-0.5821689
48	0x3f683e74	0.90720296
49	0x3f36ef42	0.7145883
50	0x3eb76dcb	0.35825953
51	0x3d9cb165	0.07651023
52	0x3e4abd6c	0.19798821
53	0x3f748a4c	0.95523524
54	0xbf79fbe1	-0.9764996
55	0x3f16f361	0.58965117
56	0xbe8822f1	-0.26589158
57	0xbe046a93	-0.1293128
58	0xbe921303	-0.2853013
59	0x3f6c0126	0.9218925
60	0xbf7b9792	-0.9827815
61	0x3f3e8aa7	0.74430317
62	0x3e2340a0	0.15942621
63	0xbe5e46b7	-0.21706663

inception.branch2.0.pointwise.weight f4 [32, 64, 1]
0	0xbe192d08	-0.14958584
1	0x3e4e37f9	0.2013854
2	0x3c7a072c	0.015260499
3	0xbc98e3ee	-0.018663373
4	0xbdb6732c	-0.08908686
5	0x3b8256a0	0.0039776117
6	0x3d876f9f	0.06613087
7	0x3e3f31f5	0.18671401
8	0x3d97020a	0.07373436
9	0x3e0ff249	0.14057268
10	0x3dadb77d	0.08482263
11	0xbe29948f	-0.16560577
12	0xbd78b78a	-0.06072191
13	0x3d3cecb4	0.046124175
14	0xbdfb46a5	-0.12269334
15	0x3e10b1a0	0.14130259
16	0xbdc1a1d1	-0.09454692
17	0xbd072d37	-0.033002105
18	0x3df950cd	0.12173615
19	0x3da43218	0.08017367
20	0xbd9af5b8	-0.075663984
21	0xbdc77e1c	-0.0974085
22	0xbd8d9b71	-0.06914414
23	0xbe068730	-0.13137507
24	0x3e1e05db	0.15431921
25	0xbe1f80ef	-0.15576528
26	0xbd7ecac4	-0.06220509
27	0x3d3ff2b1	0.046862308
28	0xba5d0100	-0.000843063
29	0x3d61b235	0.055101592
30	0xbcf3670f	-0.029712228
31	0xbd51c2da	-0.051211216
32	0xbbb51c39	-0.005527046
33	0x3d773962	0.06035746
34	0xbdcc9ce7	-0.09990864
35	0xbcff05ca	-0.03113069
36	0x3cbe52a6	0.02323277
37	0x3dcb6321	0.09931017
38	0xbe0ad724	-0.13558632
39	0xbd341fa1	-0.043975476
40	0x3ddd0efe	0.10793875
41	0xbd45c416	-0.048282705
42	0xbd1ee136	-0.038788997
43	0xbe4d6559	-0.20058192
44	0x3da81b94	0.08208385
45	0x3b983d14	0.004645953
46	0xbd95bdae	-0.07311569
47	0x3d7ba410	0.06143576
48	0xbe153025	-0.14569147
49	0x3dbb0f9c	0.091338366
50	0x3c82e5e7	0.015978767
51	0x3e0b633e	0.13612077
52	0xbe68f099	-0.2274803
53	0x3d92c0b3	0.07165661
54	0x3d36b628	0.04460731
55	0x3d15d841	0.03658319
56	0xbe39c428	-0.18141234
57	0x3dee4a87	0.11635309
58	0x3e411960	0.18857336
59	0xbd5caf5d	-0.053878177
60	0xbcca1942	-0.024670247
61	0xbce96235	-0.028489212
62	0x3d63c7c6	0.05561044
63	0xbdd2d820	-0.10295129
64	0x3d617d36	0.05505105
65	0x3d75668b	0.059912246
66	0xbcad28e3	-0.02113766
67	0x3e0ce0c6	0.1375762
68	0x3ddfa9fe	0.10921095
69	0x3b91e422	0.0044522444
70	0x3d850aff	0.06496238
71	0xbd7b90f0	-0.06141752
72	0x3e0523ef	0.13001989
73	0xbe420335	-0.18946536
74	0xbde8e75c	-0.11372253
75	0x3e0e8b5f	0.13920353
76	0xbd1546c6	-0.036444448
77	0x3d8f2dee	0.06991182
78	0xbd87a31d	-0.06622908
79	0x3d944337	0.07239383
80	0x3d880124	0.066408426
81	0x3d09724f	0.03355628
82	0xbda54304	-0.08069423
83	0xbd6ecb03	-0.058299076
84	0xbdcaa7a8	-0.09895259
85	0xbddb2e95	-0.10702244
86	0xbd51ee8a	-0.05125288
87	0x3db42bac	0.08797392
88	0xbe081298	-0.13288343
89	0x3d00686a	0.031349577
90	0xbe323ef8	-0.17406833
91	0xbdbd5cb8	-0.092462
92	0xbd93091c	-0.07179472
93	0x3d0b63d0	0.034030735
94	0xbd9ab0f8	-0.07553285
95	0x3dc17726	0.09446554
96	0x3de1a891	0.110184796
97	0xbe097f5b	-0.13427489
98	0x3e14b4a2	0.14522031
99	0x3d4713cd	0.048602868
100	0x3debe6e8	0.11518651
101	0xbd77e5af	-0.060521778
102	0x3c0de018	0.008659385
103	0x3d7b9493	0.06142099
104	0xbdaeb5f1	-0.08530796
105	0xbde85337	-0.11343997
106	0xbd5953b4	-0.05305834
107	0xbca46ec6	-0.020072352
108	0xbdd5d26c	-0.104405254
109	0xbc43c427	-0.011948622
110	0xbda1b8f9	-0.07896609
111	0x3e0b16db	0.13582937
112	0xbd9231dc	-0.07138416
113	0xbd472062	-0.048614867
114	0xbdd1eef0	-0.10250652
115	0xbe377d34	-0.17918855
116	0x3d6f646f	0.05844539
117	0xbddf1944	-0.10893491
118	0x3ceb6e85	0.028739223
119	0x3db81e98	0.0899021
120	0x3db49b26	0.08818655
121	0x3dd55f24	0.10418537
122	0xbcb5f402	-0.022211079
123	0x3de935da	0.113872245
124	0xbde9dac2	-0.11418678
125	0xbe3208d3	-0.17386179
126	0x3e58b42a	0.21162477
127	0x3d814240	0.06311464
128	0x3e78635a	0.2425665
129	0xbe1d3500	-0.15352249
130	0xbd06dcb6	-0.03292533
131	0x3d921dad	0.071345665
132	0x3dddb7ad	0.10826049
133	0xbda2fef3	-0.07958784
134	0xbe113c1b	-0.14183085
135	0xbcedd874	-0.029033877
136	0xbcb803ab	-0.022462687
137	0xbe53e8ee	-0.20694324
138	0xbe06be58	-0.13158548
139	0x3e338361	0.17530586
140	0x3d650961	0.055917148
141	0xbe05eb6b	-0.13078086
142	0xbde9ee42	-0.11422397
143	0x3d23c698	0.039984316
144	0x3e001780	0.12508965
145	0x3e1c91fe	0.15290067
146	0xbdecd940	-0.11564875
147	0xbc987773	-0.018611645
148	0xbdf66a2b	-0.12031969
149	0x3d815c39	0.06316418
150	0x3dc129dc	0.09431812
151	0x3e169a0b	0.147072
152	0xbdc16398	-0.09442824
153	0xbda3eeed	-0.08004556
154	0x3d328cca	0.0435913
155	0x3cd4a775	0.025958756
156	0x3db9d56c	0.0907391
157	0xbdccef33	-0.10006561
158	0xbdcc4d64	-0.099756986
159	0x3e18df28	0.14928877
160	0x3d50c153	0.05096562
161	0xbe887278	-0.26649833
162	0x3e06bc42	0.13157752
163	0x3d2ea0ea	0.04263393
164	0x3d4a0ea4	0.04933037
165	0xbd66b59e	-0.056325547
166	0x3e05f6a7	0.13082372
167	0x3e2e961e	0.17049453
168	0xbda8b759	-0.08238096
169	0xba112c45	-0.0005537908
170	0xbe0279a0	-0.12741709
171	0x3d441ab4	0.04787703
172	0xbd83e691	-0.064404614
173	0x3d93e572	0.072214976
174	0xbdc0584f	-0.093918435
175	0x3db44a01	0.088031776
176	0x3d1ca2a8	0.03824106
177	0xbd21ad75	-0.039472062
178	0xbdc12a35	-0.094318785
179	0xbd0922c4	-0.03348042
180	0x3dcc8149	0.09985597
181	0x3cb78b25	0.022405216
182	0x3d7058ff	0.058678623
183	0x3db34f18	0.0875532
184	0x3e7eb512	0.2487376
185	0xbd96036e	-0.07324873
186	0xbd62b485	-0.055347938
187	0x3d95dc9d	0.07317469
188	0x3ccb5dc2	0.02482498
189	0xbd08af3a	-0.033370234
190	0x3e3cf025	0.18450983
191	0x3d29253d	0.04129528
192	0xbcb79856	-0.022411507
193	0x3e7737af	0.24142335
194	0xbb9a751c	-0.0047136676
195	0xbe165bf6	-0.14683518
196	0x3cb6b738	0.022304162
197	0xbd9fd953	-0.07805123
198	0x3dfbf675	0.12302867
199	0x3c235407	0.009968764
200	0xbc0ec98a	-0.008715043
201	0xbdc337a3	-0.09532096
202	0x3d369c98	0.044582933
203	0xbdad2689	-0.084546156
204	0xbdec0695	-0.11524693
205	0xbc42d895	-0.0118924575
206	0xbc87aba6	-0.01656134
207	0x3d61a8ea	0.05509273
208	0x3ccbfe74	0.024901606
209	0xbd073a9f	-0.03301489
210	0xbdc73e6c	-0.09728703
211	0xbd57f87f	-0.05272722
212	0xbad7fc2e	-0.0016478354
213	0x3cf6f990	0.030148298
214	0x3db566fa	0.08857532
215	0x3c75a6e9	0.014993408
216	0xbd63496a	-0.055489935
217	0xbd9551ac	-0.07290968
218	0xbd4687f2	-0.04846949
219	0xbdcd26f0	-0.10017192
220	0x3c628e08	0.013827808
221	0x3c502219	0.012703442
222	0x3e3a5f5a	0.18200436
223	0xbdd8f414	-0.10593429
224	0xbd499dcd	-0.049222756
225	0x3e20388b	0.1564657
226	0x3cfbc6b9	0.030734407
227	0xbda54e7e	-0.08071612
228	0x3d86c4b9	0.065804906
229	0x3d62e748	0.05539635
230	0xbe94ff32	-0.2910095
231	0xbd853144	-0.06503537
232	0xbca85249	-0.02054705
233	0xbe1a5592	-0.15071705
234	0x3d9896e4	0.07450655
235	0xbdca4082	-0.09875585
236	0xbda4b459	-0.08042211
237	0xbd949de8	-0.07256681
238	0x3e322def	0.17400335
239	0x3d3e3716	0.046439253
240	0xbe68c342	-0.22730735
241	0xbdc8f2a1	-0.09811903
242	0xbd8bd1ca	-0.068271235
243	0xbd4ae737	-0.04953691
244	0xbe38d1f9	-0.18048848
245	0xbd29a1d1	-0.041414086
246	0x3e028bf1	0.12748696
247	0xbca2ef78	-0.019889578
248	0x3de27b57	0.110586815
249	0x3e66bb3c	0.22532362
250	0x3e827c5f	0.25485513
251	0xbd67495d	-0.05646645
252	0x3b79c2e9	0.003811056
253	0xbe054c76	-0.13017449
254	0x3d9460de	0.072450384
255	0xbd3b328c	-0.045702502

inception.branch2.0.pointwise.bias f4 [32]
0	0xbc9b7012	-0.018974338
1	0xbcf9af29	-0.03047903
2	0x3dd48980	0.103777885
3	0xbdae0bc7	-0.0849834
4	0xbdb7fcb0	-0.08983743
5	0xbc3b04a6	-0.0114146825
6	0x3de8e735	0.11372224
7	0x3c3bb8aa	0.011457602
8	0xbde11f5f	-0.10992312
9	0x3ca8d03a	0.020607103
10	0xbc40c86f	-0.011766537
11	0x3db97d51	0.09057105
12	0xbc8dbfa4	-0.017303295
13	0xbde09d89	-0.109675474
14	0x3a8fd918	0.0010974733
15	0x3d2752e3	0.04085053
16	0x3d574a50	0.052561104
17	0x3d272b36	0.040812694
18	0x3d5be23e	0.05368256
19	0xbd0c3032	-0.03422565
20	0x3d90cd69	0.07070429
21	0x3da6ab93	0.08138194
22	0x3dbe8574	0.09302798
23	0xbd0f1f1f	-0.03494179
24	0x3a0d7fb0	0.000539775
25	0x3cff96dc	0.031199865
26	0xbd026c2f	-0.031841453
27	0xbdd90094	-0.105958134
28	0x3ddd1d56	0.10796611
29	0xbcd8047b	-0.026369324
30	0x3d3f0f11	0.046645228
31	0xbbecb06e	-0.0072231805

inception.branch2.1.depthwise.weight f4 [32, 1, 1]
0	0x3f663c7a	0.8993603
1	0x3f572920	0.84047127
2	0x3f742920	0.9537525
3	0x3f49981d	0.7874773
4	0xbf34dc2c	-0.70648456
5	0xbea20856	-0.31646985
6	0xbf79d37f	-0.9758834
7	0x3e8ecf7a	0.27892667
8	0xbec0cfdc	-0.37658584
9	0x3f428904	0.7599032
10	0x3e8aa4ee	0.27078956
11	0xbeb8fdf9	-0.36131266
12	0x3f616e78	0.88059187
13	0x3f0717bb	0.52770585
14	0x3e67dae4	0.22642094
15	0x3e861bc9	0.26193073
16	0x3f1a8bed	0.6036976
17	0xbf2bf2dd	-0.67167455
18	0x3f8bb547	1.0914696
19	0x3f7d7e08	0.99020433
20	0xbf600413	-0.87506217
21	0x3f577b33	0.8417236
22	0x3f4174bf	0.75568765
23	0xbf915eb2	-1.1357024
24	0x3f0ec6cf	0.5577211
25	0x3eeae25d	0.45875826
26	0x3d0de20f	0.034639414
27	0x3f33be65	0.70212394
28	0xbf0c333c	-0.5476568
29	0xbd889df8	-0.06670755
30	0x3e008ebf	0.12554453
31	0xbf196c85	-0.5993121

inception.branch2.1.depthwise.bias f4 [32]
0	0x3f044d74	0.51680684
1	0x3f6752d0	0.90360737
2	0xbf2b9ede	-0.6703929
3	0xbf57eb1e	-0.84343135
4	0x3ee3239f	0.44363114
5	0x3f208b55	0.62712604
6	0x3dae1d4d	0.085016824
7	0xbf4ad7da	-0.79235613
8	0x3ece7f8e	0.40331692
9	0x3ec428af	0.3831229
10	0xbf33337d	-0.7000044
11	0xbde09840	-0.109665394
12	0x3f3aeb7b	0.73015565
13	0xbcda92e2	-0.026681367
14	0x3d95c47e	0.073128685
15	0x3d8fdd9f	0.07024693
16	0xbec1cc17	-0.3785102
17	0xbf3cc1ff	-0.73733515
18	0xbeab3800	-0.33441162
19	0xbf1349a0	-0.5753422
20	0xbe8ba893	-0.2727705
21	0xbed7f4b5	-0.42178884
22	0x3ea02425	0.31277576
23	0xbf554b4a	-0.83318007
24	0xbf22831d	-0.63481313
25	0xbf04da06	-0.5189518
26	0x3f31239c	0.6919496
27	0x3e26e28b	0.16297357
28	0x3eb5c7af	0.3550391
29	0xbf4499ea	-0.76797354
30	0x3f4f6432	0.8101226
31	0xbe509100	-0.20367813

inception.branch2.1.pointwise.weight f4 [32, 32, 1]
0	0xbdbccd32	-0.092188254
1	0xbcffc8b4	-0.031223632
2	0xbcb29016	-0.021797221
3	0xbda35010	-0.07974255
4	0x3e1ad32c	0.15119618
5	0x3e260fbe	0.16216943
6	0xbd513035	-0.051071364
7	0xbd4566cb	-0.048193734
8	0xbcef448e	-0.029207494
9	0xbdeb3bda	-0.11486025
10	0x3d8d281e	0.06892417
11	0xbe18df7e	-0.14929006
12	0xbddb2565	-0.10700492
13	0x3e3074ba	0.17232028
14	0xbdbcaea7	-0.09213
15	0xbcbeaba2	-0.0232752
16	0x3e61c756	0.22048697
17	0x3df36d0a	0.11886032
18	0xbe18487c	-0.148714
19	0xbe133c30	-0.14378428
20	0x3d72603f	0.05917382
21	0x3d90f889	0.07078654
22	0xbd55fdd6	-0.05224403
23	0xbc831826	-0.016002726
24	0x3c9df882	0.019283537
25	0x3de1cc9a	0.11025353
26	0x3e1174d7	0.14204727
27	0xbde3f9d0	-0.11131632
28	0x3dac4a70	0.08412635
29	0xbe21cdcd	-0.15801163
30	0xbd2ecc20	-0.042675138
31	0x3de0e9df	0.10982107
32	0xbdda774c	-0.10667285
33	0x3e525942	0.20541862
34	0x3e7853c8	0.2425071
35	0xbdecb565	-0.11558036
36	0x3db2e783	0.087355636
37	0xbe042243	-0.12903695
38	0x3ccc39da	0.02492993
39	0xbdd541b4	-0.104129225
40	0xbdbcf439	-0.09226269
41	0xbe0500d1	-0.12988593
42	0x3dc47167	0.09591942
43	0xbe1f8c65	-0.155809
44	0x3e3750db	0.17901938
45	0xbccb9da2	-0.024855439
46	0xbe6f9016	-0.23394808
47	0x3e642d16	0.22282824
48	0x3eacf6bb	0.3378199
49	0x3cbd6f80	0.023124456
50	0xbd9e8321	-0.077398546
51	0xbe16a52e	-0.14711449
52	0xbe0dc26f	-0.13843702
53	0x3dcbeae0	0.09956908
54	0xbd74db94	-0.05977972
55	0x3d2e6635	0.04257794
56	0x3d2b4a4c	0.041818902
57	0x3e25e16a	0.1619927
58	0xbc107585	-0.008817081
59	0xbe57e505	-0.21083458
60	0x3def06e6	0.11671238
61	0xbe1fb564	-0.15596539
62	0xbe0baa02	-0.13639072
63	0xbdf004d8	-0.11719674
64	0xbddfacaa	-0.10921605
65	0x3ca84bfb	0.020544043
66	0x3e987931	0.29779962
67	0xbb8be75f	-0.004269525
68	0xbdfedfbb	-0.12445017
69	0xbe1906c5	-0.14943989
70	0xbcd0cbac	-0.025487743
71	0xbe1f66b5	-0.15566523
72	0xbddfdf22	-0.10931231
73	0xbc5bd091	-0.013416425
74	0x3e028a65	0.12748106
75	0xbdfb9a76	-0.122853205
76	0x3dbd3e3b	0.09240385
77	0x3c3e012e	0.011596961
78	0xbe03c6f9	-0.12868871
79	0x3e0bb496	0.13643107
80	0x3e8cf00f	0.275269
81	0x3c81ffd9	0.015869068
82	0xbe23a34c	-0.15980262
83	0xbd7cb454	-0.06169541
84	0x3c9ace7f	0.018897293
85	0xbde69b56	-0.11260097
86	0x3e127ab0	0.14304614
87	0xbe2b6d9b	-0.1674103
88	0xbdcebfdb	-0.10095187
89	0x3daae276	0.08343975
90	0xbdea2216	-0.114322826
91	0x3d2dfd7f	0.04247808
92	0x3db1a753	0.08674493
93	0xbe374c92	-0.17900303
94	0xba7a79e9	-0.0009554909
95	0xbd60263d	-0.054723967
96	0xbdc1d483	-0.094643615
97	0xbe28e742	-0.16494468
98	0x3e3c3ad7	0.1838182
99	0xbe1407df	-0.14456128
100	0x3d283fc7	0.041076448
101	0xbe09f645	-0.1347285
102	0x3dd0cdd0	0.101955056
103	0x3d66ec96	0.05637797
104	0x3df1cf30	0.11807096
105	0xbd955f4a	-0.072935656
106	0xbd439509	-0.047749553
107	0xbe3bae47	-0.183282
108	0x3df6659d	0.120311
109	0x3e1f198f	0.15537094
110	0xbd6e3b39	-0.058161948
111	0xbd868988	-0.06569201
112	0x3deb51f9	0.114902444
113	0xbdd97097	-0.10617178
114	0x3db08d64	0.08620718
115	0xbc26a373	-0.010170805
116	0xbe2e2135	-0.17004855
117	0x3c2a49c0	0.01039356
118	0xbc876309	-0.016526716
119	0xbd5fe987	-0.05466607
120	0xbe321719	-0.17391624
121	0x3d8a6858	0.06758183
122	0xbdd0b197	-0.101901226
123	0x3d92dab9	0.07170624
124	0x3d8994e8	0.06717855
125	0x3e1322ee	0.14368793
126	0xbe272efa	-0.16326514
127	0x3d51531d	0.051104654
128	0x3c7a1c67	0.015265561
129	0x3e494df6	0.19658646
130	0x3e50ca5a	0.20389691
131	0xbe0975e6	-0.13423881
132	0xbd1ce510	-0.03830439
133	0x3e03f0a7	0.1288477
134	0x3e5f804a	0.21826282
135	0xbe29bedd	-0.16576715
136	0x3bc9013b	0.00613418
137	0xbe66fdc1	-0.22557737
138	0xbe173bbe	-0.14768884
139	0x3e036c54	0.12834293
140	0x3e1b0d9b	0.15141909
141	0xbe09f12b	-0.13470905
142	0xbd3bef13	-0.045882296
143	0x3e45467e	0.19265172
144	0x3e9f9f76	0.31176347
145	0x3e309c01	0.17247011
146	0xbda77cf7	-0.08178132
147	0xbe10f25d	-0.14154954
148	0x3e0da3fe	0.1383209
149	0x3d722952	0.059121437
150	0x3e269399	0.16267242
151	0xbb0563c3	-0.0020353652
152	0xbdc32e89	-0.0953036
153	0x3dbb03d7	0.09131592
154	0xbd5f85a2	-0.0545708
155	0xbe04181c	-0.12899822
156	0x3e37f7af	0.17965578
157	0x3e056625	0.13027246
158	0x3e0fafaf	0.14031862
159	0xbe0bfd30	-0.13670802
160	0x3e82cb7f	0.2554588
161	0x3cdcd87d	0.026958698
162	0x3dfa30e5	0.12216357
163	0x3d584000	0.05279541
164	0x3c9d681c	0.019214682
165	0xbd109fbb	-0.03530858
166	0x3e93988c	0.28827322
167	0x3cf71ff2	0.0301666
168	0xbc1377f8	-0.009000771
169	0x3d2f729b	0.042833906
170	0xbe0eddaf	-0.13951753
171	0xbd1d588c	-0.038414523
172	0x3dd50e7d	0.10403154
173	0xbc193699	-0.009351396
174	0xbd51b22c	-0.05119531
175	0x3e63569b	0.22201006
176	0xbe1a97c3	-0.15096955
177	0xbe165dbe	-0.14684197
178	0xbe801b2d	-0.25020733
179	0xbdb0f26e	-0.0863999
180	0xbc5c25ff	-0.013436793
181	0xbd3ad654	-0.045614555
182	0x3da76807	0.081741385
183	0xbdc5fbe1	-0.09667183
184	0x3da9935d	0.082800604
185	0x3d04a917	0.03238782
186	0x3e20006d	0.15625162
187	0x3dbda44d	0.092598535
188	0x3e618918	0.22024953
189	0xbd192631	-0.037389938
190	0xbc0e4b07	-0.00868488
191	0x3c1809c7	0.009279675
192	0x3e34c410	0.17652917
193	0xbcde82e0	-0.027162015
194	0xbe9f3420	-0.31094456
195	0xbae88ee6	-0.0017742782
196	0x3d34d221	0.044145707
197	0x3e414a1c	0.18875927
198	0xbe276922	-0.16348699
199	0x3dd744cc	0.10511169
200	0x3d514859	0.051094387
201	0x3e544c8c	0.20732325
202	0xbe0690b9	-0.13141145
203	0x3e364a15	0.17801698
204	0xba8b0812	-0.0010607264
205	0x3e3784ec	0.179218
206	0xbdfcf4fa	-0.12351413
207	0x3d77a62b	0.060461204
208	0xbe2190eb	-0.15777938
209	0xbd275cbd	-0.040859926
210	0x3e8ba112	0.27271324
211	0x3e04b1d4	0.12958461
212	0xbdf15247	-0.11783271
213	0x3cbe31a3	0.023217028
214	0xbdc52061	-0.096253164
215	0x3dd27fee	0.10278307
216	0xbdeb5674	-0.11491099
217	0xbe31064d	-0.1728756
218	0x3dff9741	0.12480021
219	0x3daf34d2	0.085549966
220	0x3d3fae52	0.046797104
221	0xbccd3cba	-0.02505337
222	0xbe041403	-0.12898259
223	0xbd1130d9	-0.035446975
224	0xbe14df23	-0.14538245
225	0x3da22dd0	0.07918894
226	0x3e8dd3b3	0.27700576
227	0x3dd2aa36	0.102863714
228	0xbe273625	-0.16329248
229	0xbd574d8c	-0.05256419
230	0x3e4c138b	0.1992933
231	0xbe51bb4a	-0.20481601
232	0x3c6d86da	0.014497483
233	0xbe61498f	-0.22000717
234	0xbd698fef	-0.05702203
235	0xbe5b9a8c	-0.21445674
236	0x3e3f9244	0.1870814
237	0xbde122b8	-0.1099295
238	0xbcb5c293	-0.022187507
239	0x3e284cd4	0.16435558
240	0x3ecc1305	0.3985826
241	0xbe17a0c1	-0.14807416
242	0xbde1db60	-0.110281706
243	0xbb8ab63e	-0.0042331507
244	0xbce68d48	-0.02814354
245	0xbe1e1270	-0.15436721
246	0x3b354cdb	0.0027664218
247	0xbcdbab9e	-0.026815232
248	0xbdf97357	-0.121802025
249	0xbdde0f3b	-0.10842749
250	0x3e185dae	0.14879486
251	0xbc94ffa3	-0.018188303
252	0x3da41da3	0.08013465
253	0xbc6c371e	-0.014417438
254	0x3dbc18c1	0.09184409
255	0x3da7edbb	0.0819964

inception.branch2.1.pointwise.bias f4 [32]
0	0xbbe84425	-0.0070882016
1	0x3e270f18	0.16314352
2	0x3ce9213d	0.028458232
3	0xbb104e38	-0.0022019278
4	0x3b94166a	0.0045192735
5	0xbda73947	-0.08165222
6	0x3dda1643	0.10648777
7	0xbd92c3a8	-0.07166225
8	0x3dd9292d	0.10603557
9	0x3c9a0ad9	0.018804
10	0x3c896d9c	0.016775899
11	0x3dff189e	0.12455867
12	0x3ddfdbd5	0.109306015
13	0xbc294564	-0.010331485
14	0x3c869452	0.016428147
15	0xbda2a009	-0.079406805
16	0xbd9c80f6	-0.07641785
17	0xbd82c27f	-0.063847534
18	0x3df237a6	0.1182702
19	0xbdbfd44d	-0.09366665
20	0xbdc6053f	-0.09668969
21	0x3d4c4fb6	0.049880706
22	0x3e089800	0.13339233
23	0x3df2d4e5	0.11857013
24	0x3da7f329	0.08200676
25	0xbe072375	-0.1319712
26	0x3d3d4789	0.0462108
27	0xbc3a2644	-0.011361662
28	0x3e10eebd	0.14153571
29	0x3e39b0be	0.18133828
30	0xbc76b0a7	-0.015056766
31	0xbd064730	-0.032782733

inception.branch3.0.depthwise.weight f4 [64, 1, 1]
0	0x3f3affed	0.7304676
1	0xbd6de18e	-0.058076434
2	0x3f4593fc	0.7717893
3	0xbf484c5d	-0.7824152
4	0xbf4eab70	-0.8073034
5	0x3f44b851	0.76843745
6	0x3f0050e1	0.5012341
7	0x3f4abf3c	0.7919805
8	0x3f7c3369	0.98515946
9	0x3f86e29f	1.0537909
10	0x3e4bb0e4	0.19891697
11	0xbf89cc35	-1.0765444
12	0x3f15cc80	0.5851517
13	0xbf0ca91e	-0.5494555
14	0xbf84bb77	-1.036971
15	0x3ed16eb9	0.40904787
16	0x3e0e9725	0.13924845
17	0x3f02a4a0	0.5103245
18	0x3f406653	0.75156134
19	0x3e553dac	0.20824307
20	0xbf494e1c	-0.7863481
21	0x3eaf8734	0.3428284
22	0xbf88174b	-1.0632108
23	0x3eb5c1b6	0.35499352
24	0xbdbd1eb2	-0.0923437
25	0x3ea7acd5	0.32749048
26	0x3f2c9ce6	0.6742691
27	0x3ef3d12d	0.47620526
28	0xbe9c0e30	-0.30479574
29	0x3e998f29	0.29992035
30	0xbeb5d338	-0.3551271
31	0xbe85750e	-0.26065868
32	0x3f6a0a1f	0.91421694
33	0x3e9e131b	0.3087395
34	0xbd1219ee	-0.03566926
35	0x3f8b1264	1.0864987
36	0xbd914fe1	-0.07095314
37	0x3f578bd0	0.8419771
38	0xbe60d253	-0.21955232
39	0xbf22b276	-0.6355356
40	0x3f45f17b	0.77321595
41	0x3f304f24	0.6887076
42	0x3f0a97e1	0.54138
43	0x3f194503	0.5987093
44	0x3ec2141c	0.37905967
45	0x3efd45e8	0.49467397
46	0xbf881164	-1.0630307
47	0x3f1350af	0.5754499
48	0xbf75fbfd	-0.9608763
49	0xbf05e12f	-0.5229673
50	0xbec2f388	-0.38076425
51	0x3f6b8618	0.92001486
52	0x3ef13e93	0.47118053
53	0x3ecb5580	0.3971367
54	0x3f282498	0.6568084
55	0x3f394eb7	0.72385734
56	0xbee1071a	-0.4395073
57	0xbeec6bc5	-0.46175972
58	0xbeb2a131	-0.34888604
59	0x3e49a359	0.19691218
60	0x3dea05e6	0.11426906
61	0x3f23c8c5	0.63978225
62	0x3f4822cb	0.7817809
63	0xbf3e94df	-0.7444591

inception.branch3.0.depthwise.bias f4 [64]
0	0x3f13b43c	0.5769689
1	0x3ebb07f1	0.36529496
2	0xbe023d2f	-0.12718652
3	0x3f465181	0.77468115
4	0xbef25e16	-0.47337407
5	0xbf12c7d5	-0.5733617
6	0x3f7408b4	0.9532578
7	0x3f691a75	0.91055995
8	0x3f32744a	0.69708693
9	0xbed334e3	-0.41251287
10	0x3d99b8a7	0.07505923
11	0x3f74b6de	0.95591533
12	0x3f560391	0.8359919
13	0xbdb71e7b	-0.089413606
14	0xbf580238	-0.84378386
15	0x3e45ec60	0.19328451
16	0xbf75975f	-0.959341
17	0xbf714d56	-0.9425863
18	0x3f6ce358	0.925344
19	0xbf4c1069	-0.7971254
20	0xbf5e88c6	-0.8692745
21	0xbecb3084	-0.39685452
22	0x3f4d37ac	0.80163074
23	0xbe095783	-0.1341229
24	0xbf4b95a6	-0.7952522
25	0xbe65c299	-0.22437514
26	0xbdadd190	-0.084872365
27	0xbf1d09f8	-0.61343336
28	0x3f6e1098	0.9299407
29	0x3d76ecf7	0.06028458
30	0x3e847aaa	0.25874835
31	0xbebd7a38	-0.37007308
32	0xbf671341	-0.90263754
33	0xbf6ead68	-0.93233347
34	0xbf791979	-0.97304493
35	0x3f05df9e	0.5229434
36	0x3f060f54	0.5236714
37	0xbedd33c1	-0.43203548
38	0x3f5401eb	0.82815427
39	0xbd1fe3d3	-0.03903563
40	0xbf5fdd3a	-0.8744694
41	0xbe2788e9	-0.16360821
42	0x3f23d980	0.64003754
43	0x3d44084b	0.04785947
44	0x3edf92a5	0.43666568
45	0x3ea2b3be	0.31777757
46	0x3e823889	0.25433758
47	0xbd88f1d7	-0.06686752
48	0x3e73c3bd	0.23805137
49	0x3ecc69f0	0.39924574
50	0xbf065277	-0.5246958
51	0xbf40f34e	-0.75371253
52	0x3f2a642d	0.66559106
53	0xbf57e203	-0.8432924
54	0x3ec14179	0.37745264
55	0x3eb74a72	0.35798985
56	0x3f1a8ff8	0.6037593
57	0x3ec8c359	0.39211538
58	0xbf242c54	-0.6413014
59	0xbf644888	-0.89173174
60	0xbf1985c8	-0.5996976
61	0x3edb0de8	0.42784047
62	0x3f2a6cae	0.6657208
63	0x3f72a6b0	0.94785595
