experiments/1005/pretask_UCI_4rot.pth (torch, 149375 bytes, 48 tensors)

stem.conv1d.weight f4 [64, 9, 3]
0	0x3ea814b0	0.32828283
1	0x3df284dc	0.11841747
2	0x3e18224b	0.14856832
3	0x3e45b350	0.19306684
4	0xbe36f30b	-0.17866151
5	0x3ca2e8bc	0.019886367
6	0x3de44822	0.11146571
7	0xbc399ddb	-0.01132914
8	0xbd3822d6	-0.044955097
9	0xbdb99ef5	-0.09063522
10	0xbdd35b6a	-0.1032017
11	0xbe2f6ecb	-0.17132108
12	0xbd64f24e	-0.055895142
13	0x3e82fc99	0.25583342
14	0x3e88afea	0.26696712
15	0x3cc80891	0.024418147
16	0x3e3b7bf1	0.18308999
17	0x3ddc9e0c	0.107723325
18	0xbe13de1e	-0.144402
19	0xbdb54892	-0.08851732
20	0xbe1af6e8	-0.1513325
21	0x3d8281b5	0.06372396
22	0xbe649666	-0.22322997
23	0x3da7a7e2	0.08186318
24	0xbd5d868e	-0.0540834
25	0x3ded55bb	0.115886174
26	0x3d5c7e21	0.053831223
27	0xbe1ba9a8	-0.15201437
28	0x3e8edddd	0.27903643
29	0xbdad517d	-0.08462808
30	0xbe194025	-0.14965875
31	0xbdf473ed	-0.119361736
32	0xbd1c72f0	-0.03819555
33	0x3e1d6caf	0.15373491
34	0x3e8f0b45	0.27938285
35	0x3def76a7	0.11692553
36	0xbdb59501	-0.08866311
37	0x3d84f72d	0.064924575
38	0x3d8d63d8	0.06903809
39	0xbe3e1d4b	-0.18565862
40	0x3dc178a3	0.09446838
41	0x3e0e17bb	0.1387624
42	0x3d9bc6c5	0.07606272
43	0xbe8ccffa	-0.27502424
44	0xbd0d8979	-0.034554932
45	0x3c369cb6	0.011145761
46	0x3dd294aa	0.10282262
47	0x3de3d534	0.1112465
48	0x3c609073	0.013706314
49	0x3dbbf755	0.09178034
50	0xbd353ea0	-0.044249177
51	0xbc3566ee	-0.011071904
52	0xbe39e317	-0.18153034
53	0xbdbabe09	-0.091182776
54	0xbd8dbec9	-0.06921155
55	0xbd7a6d90	-0.061139643
56	0xbe6b7a31	-0.22995831
57	0xbe363434	-0.17793351
58	0x3e08d9a9	0.13364281
59	0x3e005903	0.12533955
60	0x3e68e18f	0.22742294
61	0x3e8d5474	0.27603495
62	0x3ec4ccb6	0.38437432
63	0xbe05dd91	-0.13072802
64	0x3d68ed9f	0.056867238
65	0xbddfade3	-0.10921838
66	0x3e15efa5	0.14642198
67	0x3d049add	0.03237425
68	0xbd2894b6	-0.041157447
69	0xbd9d4baa	-0.076804474
70	0xbde362cf	-0.111028306
71	0xbe04b5bc	-0.12959951
72	0x3e153897	0.14572369
73	0x3d8c041d	0.06836722
74	0xbe01ab67	-0.12663041
75	0x3dd0e6da	0.102002814
76	0xbdee1089	-0.116242476
77	0xbe5339c0	-0.20627499
78	0x3ba7a26d	0.005115798
79	0xbe0cb20c	-0.13739794
80	0xbdcd1569	-0.10013849
81	0xbe6927dc	-0.22769111
82	0xbdb427d3	-0.08796658
83	0xbe394670	-0.18093276
84	0x3d9cca22	0.07655741
85	0xbb1b7fe1	-0.0023727345
86	0x3e68e0d4	0.22742015
87	0xbea006a4	-0.31255066
88	0x3d267263	0.04063643
89	0xbe086c62	-0.13322595
90	0x3dae5adb	0.08513423
91	0xbe8487f3	-0.2588497
92	0xbcd46b82	-0.02593017
93	0x3d65c38c	0.05609469
94	0x3defee6a	0.11715396
95	0xbdc9e7ef	-0.09858691
96	0xbdcad52d	-0.09903941
97	0x3e36cae9	0.17850842
98	0x3e015694	0.12630683
99	0xbd346e7e	-0.044050686
100	0x3e31161e	0.17293593
101	0xbd5a141d	-0.053241838
102	0x3c87d18e	0.016579416
103	0xbdcf2dc4	-0.10116151
104	0xbe28e1e3	-0.16492419
105	0x3e04983b	0.12948696
106	0x3d294a2c	0.0413305
107	0xbd3bd48b	-0.045856994
108	0x3d4d3a8a	0.050104655
109	0x3dee95b1	0.11649645
110	0xbdf53c23	-0.11974361
111	0x3da4116a	0.08011134
112	0x3c82f747	0.015987052
113	0xbe8b7630	-0.27238607
114	0xbe04b24f	-0.12958644
115	0xbdf64266	-0.12024383
116	0x3e6eb46f	0.23311017
117	0xbcbcd41e	-0.023050364
118	0xbd3fbb1e	-0.04680931
119	0x3ad4d33d	0.001623727
120	0xbd92b66a	-0.07163699
121	0xbbd37a66	-0.0064538
122	0x3e585076	0.21124443
123	0xbd12d54c	-0.035847947
124	0x3d6b07fe	0.05738067
125	0xbe04c226	-0.12964687
126	0x3d9a6439	0.07538647
127	0x3e41dffc	0.189331
128	0xbcfd1e88	-0.030898347
129	0x3e077092	0.13226536
130	0x3e50a5c8	0.2037574
131	0x3e4ee484	0.2020436
132	0xbd5f9844	-0.05458857
133	0xbde11b58	-0.109915435
134	0xbe13daa7	-0.14438878
135	0xbe8880a5	-0.26660648
136	0xbe14b354	-0.14521533
137	0x3d43e0ca	0.047821797
138	0xbe4dd91d	-0.20102353
139	0xbe1b03ab	-0.15138118
140	0xbd932a2e	-0.071857795
141	0x3d77d8d9	0.060509536
142	0x3eca415c	0.3950299
143	0x3e4974da	0.19673482
144	0xbcdadcba	-0.026716579
145	0xbdf2bb33	-0.11852112
146	0xbc6b1bfe	-0.014349936
147	0x3d0384df	0.032109138
148	0x3c668f66	0.014072275
149	0xbe6b7f30	-0.22997737
150	0xbe745bb1	-0.23863102
151	0xbe630aea	-0.22172132
152	0x3ab8a0ba	0.0014085986
153	0x3cc7ad0d	0.02437451
154	0x3e2b821c	0.16748852
155	0xbd2839cd	-0.041070748
156	0xbda69207	-0.08133321
157	0x3def53e9	0.116859265
158	0x3dde375c	0.10850403
159	0xbd5e767d	-0.054312218
160	0x3bd0ea7e	0.00637561
161	0xbe19c754	-0.15017444
162	0x3d5694e0	0.052388072
163	0x3df79a11	0.12089933
164	0xbcd4f6bf	-0.025996564
165	0x3ce33cf9	0.027739035
166	0x3d9da9a9	0.07698376
167	0xbe21c2dc	-0.15796989
168	0x3e70cd78	0.2351588
169	0x3e9b0a50	0.30281305
170	0x3c96a666	0.018389892
171	0x3dcc1336	0.09964602
172	0x3d013d3e	0.031552546
173	0xbddfdd33	-0.10930862
174	0xbe461f2c	-0.19347829
175	0x3e3c8d57	0.18413292
176	0x3d14b052	0.036300965
177	0xbe26f6ba	-0.16305056
178	0xbcc5cb3c	-0.024144761
179	0xbac00db0	-0.0014652517
180	0xbd9a895d	-0.07545731
181	0x3d8cc9cd	0.06874428
182	0xbdd6a44a	-0.104805544
183	0xbd94f081	-0.07272435
184	0x3e1c5a78	0.15268886
185	0xbdec1461	-0.115273245
186	0xbe551e78	-0.20812404
187	0x3d96d8b1	0.07365549
188	0xbc3c8e5e	-0.011508552
189	0xbdbc99a2	-0.09208991
190	0x3d811192	0.063021794
191	0x3e155930	0.14584804
192	0x3e5f9915	0.2183574
193	0x3e51a136	0.20471653
194	0x3e0d4916	0.13797411
195	0x3eccd91f	0.400094
196	0x3e27398a	0.16330543
197	0x3e1b4d4a	0.15166202
198	0xbe6350fd	-0.22198863
199	0x3e1b55b1	0.15169407
200	0x3cd216da	0.025645662
201	0xbdf35f9c	-0.118834704
202	0x3de01ca6	0.10942964
203	0x3dc7a989	0.09749133
204	0xbde5fcf1	-0.11229885
205	0xbe2208fe	-0.15823743
206	0xbe6b267a	-0.22963896
207	0xbbd8e536	-0.006619121
208	0xbdb3dfab	-0.08782896
209	0xbdac422a	-0.08411057
210	0xbdbc861c	-0.09205267
211	0x3e017c0b	0.12644975
212	0xbdffe04a	-0.124939516
213	0xbe4fbe5b	-0.20287459
214	0x3da9ff80	0.08300686
215	0xbdd1ed53	-0.10250344
216	0x3da8c277	0.08240216
217	0xbdddfbb3	-0.108390234
218	0x3da44f62	0.080229536
219	0x3dbfc43b	0.093636
220	0xbd1e9001	-0.03871155
221	0x3dd56979	0.10420508
222	0x3d632f27	0.05546489
223	0x3e223ee1	0.15844299
224	0x3e93649a	0.2878769
225	0xbd764b6d	-0.060130525
226	0x3c34e393	0.011040586
227	0x3e1f39b9	0.15549363
228	0x3d1f473e	0.0388863
229	0x3e245cf9	0.16051091
230	0xbe587e66	-0.21141967
231	0x3d101679	0.03517768
232	0xbe2295f1	-0.1587751
233	0x3d8d4b5a	0.06899138
234	0x3e13131e	0.14362761
235	0xbdaafb54	-0.08348718
236	0x3d7799b2	0.06044931
237	0xbe17db17	-0.1482967
238	0xbda6bc7d	-0.0814142
239	0x3d0f9b09	0.035059962
240	0xbe7aa69d	-0.2447762
241	0x3c5db3ae	0.0135316085
242	0xbdf92ee7	-0.12167149
243	0x3cbd5267	0.023110582
244	0xbcc76ac6	-0.024342906
245	0x3e2027d7	0.15640198
246	0xbe036b7e	-0.12833974
247	0x3d1eec72	0.03879971
248	0xbe8353cc	-0.2564987
249	0x3da18fad	0.07888732
250	0x3cd688c2	0.026188258
251	0x3eb3c7f9	0.35113505
252	0x3d0e5683	0.034750473
253	0x3dc1b61e	0.09458564
254	0xbdb7034a	-0.08936174
255	0xbdd62b4b	-0.10457476

stem.conv1d.bias f4 [64]
0	0x3db0e612	0.086376324
1	0xbc60a6ac	-0.013711613
2	0x3ca8475c	0.02054184
3	0xbe003f08	-0.12524045
4	0xbc3ae081	-0.011406065
5	0x3dacd828	0.08439666
6	0xbe0ca40e	-0.13734457
7	0xbe22c2ed	-0.15894671
8	0x3d86ce14	0.06582275
9	0x3e2e84b7	0.17042814
10	0x3d1991d5	0.037492592
11	0xbdf1b3c6	-0.11801867
12	0x3dda8308	0.106695235
13	0x3de6285e	0.11238168
14	0xbd2781e8	-0.040895373
15	0x3de72cd4	0.11287847
16	0xbe421c9b	-0.18956225
17	0x3e108c8b	0.14116113
18	0xbe34d068	-0.17657626
19	0xbd0f5dd9	-0.03500161
20	0xbe41f155	-0.18939717
21	0xbc5e3f78	-0.013564937
22	0xbcad022a	-0.021119196
23	0xbc7539ed	-0.014967424
24	0xbd9512bf	-0.07278966
25	0xbe4314b6	-0.1905087
26	0xbe0a3ad4	-0.13499004
27	0xbe25e0d1	-0.16199042
28	0x3da2427d	0.07922838
29	0xbe38170f	-0.17977546
30	0xbd6376d3	-0.05553324
31	0xbe2b45a7	-0.16725789
32	0xbdc47552	-0.095926896
33	0xbded5142	-0.11587764
34	0x3e0f53bc	0.13996786
35	0x3c477c63	0.012175652
36	0x3ceeed50	0.029165894
37	0xbda88f6c	-0.082304806
38	0x3d9f6886	0.07783608
39	0x3e18fad8	0.1493944
40	0x3e1a1f06	0.15050897
41	0x3dc426a0	0.0957768
42	0x3e0a879b	0.13528292
43	0x3df5223e	0.11969422
44	0x3e1ca2c4	0.15296465
45	0x3d204033	0.039123725
46	0xbd41259f	-0.04715502
47	0x3e255310	0.16144967
48	0xbd6cb962	-0.057793982
49	0xbc778014	-0.01510622
50	0x3d5d6559	0.05405173
51	0x3e340af6	0.17582306
52	0xbdf585af	-0.11988389
53	0xbe2bb93e	-0.16769883
54	0xbd81c211	-0.06335843
55	0xbdf2237e	-0.11823176
56	0x3e2470b7	0.16058622
57	0xbe18c515	-0.14918931
58	0x3d6940a9	0.05694643
59	0xbd84d74d	-0.06486378
60	0x3df260b0	0.11834848
61	0xbdc7f7d8	-0.09764069
62	0xbcf4d51b	-0.029886773
63	0xbdce579f	-0.10075306

stem.bn.weight f4 [64]
0	0x3f89b8d0	1.0759525
1	0x3f87fcc7	1.0624017
2	0x3f89ca3b	1.0764841
3	0x3f8c5adb	1.0965227
4	0x3f87842c	1.0587211
5	0x3f87d680	1.0612335
6	0x3f9051a3	1.1274914
7	0x3f8a9fb8	1.0829992
8	0x3f8a5f62	1.0810359
9	0x3f8bd0cc	1.0923095
10	0x3f84ecc2	1.0384753
11	0x3f8d7929	1.10526
12	0x3f8f51be	1.1196821
13	0x3f84f4a4	1.0387158
14	0x3f8b7e85	1.0897986
15	0x3f84f4f0	1.0387249
16	0x3f88be6d	1.0683113
17	0x3f891335	1.0708987
18	0x3f8ac13c	1.084022
19	0x3f86c428	1.0528612
20	0x3f88d31f	1.0689429
21	0x3f87f47e	1.0621488
22	0x3f8e2b23	1.1106914
23	0x3f88946c	1.0670295
24	0x3f8c4d53	1.0961097
25	0x3f8a79b5	1.0818392
26	0x3f8445b5	1.0333773
27	0x3f8ae056	1.0849712
28	0x3f8861f7	1.0654896
29	0x3f89db81	1.0770112
30	0x3f8f2ae1	1.1184961
31	0x3f885442	1.0650713
32	0x3f854722	1.0412333
33	0x3f8c8f4c	1.0981231
34	0x3f82f517	1.0231045
35	0x3f88d8d8	1.0691175
36	0x3f8d1cab	1.1024374
37	0x3f8bb0ab	1.091329
38	0x3f89ac14	1.0755639
39	0x3f8c2672	1.0949233
40	0x3f8b4e2f	1.0883235
41	0x3f8a5382	1.0806735
42	0x3f89c8e5	1.0764433
43	0x3f862b47	1.0481957
44	0x3f8a61a8	1.0811052
45	0x3f8f9782	1.1218112
46	0x3f8c0afb	1.0940851
47	0x3f89692f	1.0735224
48	0x3f867382	1.0504
49	0x3f889b0d	1.0672318
50	0x3f895a32	1.073065
51	0x3f8a246b	1.0792364
52	0x3f86991b	1.0515474
53	0x3f88a726	1.067601
54	0x3f89320c	1.0718398
55	0x3f878cc8	1.0589838
56	0x3f8ce8e9	1.1008579
57	0x3f87c8af	1.0608119
58	0x3f865d52	1.0497229
59	0x3f8cd385	1.1002051
60	0x3f911776	1.1335285
61	0x3f8672fd	1.0503842
62	0x3f88b20a	1.0679333
63	0x3f893284	1.0718541

stem.bn.bias f4 [64]
0	0x3ddb5961	0.10710407
1	0x3b09546c	0.002095486
2	0xbb0102f6	-0.0019685603
3	0x3dfc32ac	0.123143524
4	0x3d89341a	0.06699391
5	0xbc9ad1ea	-0.018898923
6	0x3cb6d424	0.022317953
7	0xbd1b8739	-0.037970755
8	0x3d878d0b	0.06618699
9	0x3d78f229	0.060777817
10	0x3d0041d4	0.03131278
11	0x3d74e506	0.059788726
12	0x3c77d918	0.015127443
13	0xbc07781c	-0.008268382
14	0x3cc15586	0.023600351
15	0x3dd9a7f7	0.1062774
16	0x3d3eb7d3	0.046562027
17	0x3d8d972b	0.069135986
18	0x3c618c45	0.013766353
19	0x3da2de95	0.079526104
20	0x3bd357e5	0.006449687
21	0xbd4ad9eb	-0.04952423
22	0x3d8887d6	0.06666534
23	0x3dcc5d6a	0.09978755
24	0x3d5c0bf1	0.053722326
25	0x3dd2359f	0.10264134
26	0xbd7eaa7f	-0.062174316
27	0xbce24a49	-0.027623313
28	0x3d9ef73c	0.07762
29	0x3c4cb539	0.012494379
30	0x3dd46cf3	0.10372343
31	0x3d61e7a0	0.055152535
32	0xbd7ac66f	-0.061224397
33	0x3dca09cc	0.0986515
34	0x3d814c08	0.0631333
35	0x3dc6c49b	0.09705468
36	0x3dbe3d59	0.09289045
37	0x3def3fa8	0.11682063
38	0x3d8dee12	0.06930174
39	0x3dc9ca15	0.09852997
40	0xbd055f24	-0.032561436
41	0xbbcd5f63	-0.0062674745
42	0x3d0f13f8	0.034931153
43	0xba4f226c	-0.00079015526
44	0x3c582c92	0.01319422
45	0x3e094a68	0.1340729
46	0x3cb5ce4d	0.022193098
47	0x3d35c2d2	0.04437525
48	0x3db730f6	0.089448854
49	0x3db1720a	0.08664329
50	0xbd2600f5	-0.040528256
51	0x3dd292a9	0.102818795
52	0x3d009be4	0.03139867
53	0x3dd8fcd7	0.105951004
54	0x3dcfcaf7	0.10146134
55	0xbd35a244	-0.0443442
56	0xbce595e9	-0.028025584
57	0xbda06b90	-0.07833016
58	0x3df10ee1	0.11770416
59	0x3d9220f2	0.0713519
60	0x3e0882a9	0.13331093
61	0x3d95ce44	0.07314733
62	0x3d833e2d	0.064083435
63	0x3d66241f	0.05618679

stem.bn.running_mean f4 [64]
0	0x3dc33141	0.09530879
1	0xbd12e555	-0.03586324
2	0x3b385b47	0.0028130577
3	0xbdee32c6	-0.11630778
4	0xbd10f1eb	-0.03538696
5	0x3d901b0e	0.0703641
6	0xbe17c1ac	-0.14819974
7	0xbe33218e	-0.17493269
8	0x3d18111c	0.03712569
9	0x3e149dc5	0.1451331
10	0x3c2ef7e1	0.010679216
11	0xbe094b87	-0.13407718
12	0x3dbf03b8	0.09326881
13	0x3e07c8b3	0.13260154
14	0xbd4fb968	-0.050713927
15	0x3df340f4	0.11877623
16	0xbe5897f9	-0.21151723
17	0x3e05b230	0.13056254
18	0xbe3c9532	-0.18416288
19	0xbcc4f536	-0.024042707
20	0xbe54ae20	-0.20769548
21	0xbc703dc1	-0.014663161
22	0xbd1436e1	-0.03618515
23	0x3c1eb1a5	0.009685908
24	0xbdc8b1e4	-0.09799555
25	0xbe32e1f2	-0.17469004
26	0xbe1fcea6	-0.15606174
27	0xbe2ea91d	-0.17056699
28	0x3d830c6d	0.063988544
29	0xbe4c4f4c	-0.19952124
30	0xbd31bcc4	-0.04339291
31	0xbe414237	-0.18872915
32	0xbe0dbde4	-0.13841969
33	0xbdd6d9e3	-0.10490777
34	0x3e1fd96a	0.1561028
35	0x3ca9e705	0.020740042
36	0x3d124906	0.03571417
37	0xbd7d9717	-0.06191167
38	0x3d667345	0.056262273
39	0x3e36cb79	0.17851056
40	0x3e15d399	0.146315
41	0x3da1f080	0.079072
42	0x3dfc38c9	0.123155184
43	0x3dd344b8	0.103158414
44	0x3e10d1ad	0.14142485
45	0x3d34329a	0.04399357
46	0xbd8481d3	-0.064700745
47	0x3e05d882	0.13070872
48	0xbd9275a5	-0.07151345
49	0x3aef47e0	0.0018255673
50	0x3d363797	0.04448661
51	0x3e4166b5	0.18886836
52	0xbe1f4f87	-0.15557681
53	0xbe29ad73	-0.16570072
54	0xbd37f711	-0.044913355
55	0xbe05310e	-0.13006994
56	0x3e18afd0	0.14910817
57	0xbe179e46	-0.1480647
58	0x3d9c0c82	0.07619573
59	0xbd5a28e4	-0.053261653
60	0x3dbf3a97	0.09337347
61	0xbd9d5669	-0.07682497
62	0xbd2776d7	-0.04088482
63	0xbdf17ee5	-0.11791781

stem.bn.running_var f4 [64]
0	0x3e0f0a0d	0.13968678
1	0x3d487f00	0.04894924
2	0x3d61d61d	0.055135835
3	0x3d527854	0.051384285
4	0x3e3dac72	0.18522814
5	0x3d616ba5	0.0550343
6	0x3c896b0a	0.016774673
7	0x3d4d3243	0.05009676
8	0x3d3291d4	0.043596104
9	0x3d153eb5	0.036436755
10	0x3d7f175b	0.062278133
11	0x3cdecfd2	0.027198706
12	0x3ce6eea4	0.028189965
13	0x3d382d04	0.044964805
14	0x3c23ca88	0.009997018
15	0x3e4881e3	0.19580798
16	0x3d09e587	0.03366616
17	0x3d86d0ec	0.065828174
18	0x3cf30357	0.029664678
19	0x3d74f3cc	0.059802815
20	0x3d47b5bf	0.04875731
21	0x3d8c7722	0.0685866
22	0x3c9a9468	0.018869594
23	0x3e04a594	0.12953788
24	0x3d761a56	0.06008371
25	0x3da83439	0.08213086
26	0x3d8283b3	0.06372776
27	0x3cbcc2d7	0.023042126
28	0x3d7299ba	0.059228636
29	0x3d23b68d	0.039969016
30	0x3d3bc24d	0.045839597
31	0x3e4b5f31	0.19860531
32	0x3dc2634e	0.09491597
33	0x3d3f16b7	0.046652522
34	0x3d70b9ac	0.05877082
35	0x3d495b73	0.04915948
36	0x3d4151bf	0.0471971
37	0x3de0b197	0.109713726
38	0x3e007cd2	0.12547615
39	0x3da2a6b5	0.07941953
40	0x3c9adaba	0.018903125
41	0x3cf58203	0.029969221
42	0x3cf91d08	0.030409351
43	0x3dc7498a	0.09730823
44	0x3ce4b11b	0.027916482
45	0x3d112da3	0.035443913
46	0x3d025a34	0.031824306
47	0x3d3ba7ff	0.04581451
48	0x3d82d568	0.0638836
49	0x3d7621f7	0.060090985
50	0x3cca4d9b	0.024695208
51	0x3d74e79e	0.0597912
52	0x3d92f234	0.07175103
53	0x3cea4530	0.028597444
54	0x3d7f66f3	0.06235404
55	0x3d249b31	0.040187065
56	0x3d1f6011	0.038909975
57	0x3e31a75c	0.17348999
58	0x3d21c1a3	0.039491307
59	0x3df12851	0.11775268
60	0x3ce95cad	0.028486574
61	0x3da94d1c	0.082666606
62	0x3d329614	0.043600157
63	0x3ca9c9cf	0.020726113

inception.branch1.1.depthwise.weight f4 [64, 1, 1]
0	0xbf0d56d8	-0.5521064
1	0x3f16b6db	0.58872765
2	0x3db165e3	0.086620115
3	0xbf691bc9	-0.9105802
4	0xbf330980	-0.6993637
5	0x3f482b4e	0.7819108
6	0x3f5b1f0a	0.85594237
7	0xbf780e36	-0.96896684
8	0x3f820bb7	1.0159825
9	0xbe4617b3	-0.19344978
10	0xbf6ed084	-0.9328692
11	0xbeccde77	-0.40013477
12	0x3f2de8b7	0.6793322
13	0xbe6c7427	-0.23091184
14	0xbf204491	-0.62604624
15	0xbf07936d	-0.5295933
16	0xbf860e0b	-1.0473036
17	0xbf1c2308	-0.60990953
18	0x3eff7f95	0.49902025
19	0x3f571fa6	0.84032667
20	0x3e490efa	0.1963462
21	0x3e3ebbae	0.18626282
22	0xbeb34232	-0.3501144
23	0xbf46a5b1	-0.77596575
24	0xbf8608d9	-1.047145
25	0xbe92f104	-0.28699505
26	0xbeb7dbd9	-0.35909918
27	0xbf132c61	-0.5748959
28	0x3e975f09	0.29564694
29	0x3e9cb3f8	0.30606055
30	0x3e096c3a	0.13420191
31	0x3f157225	0.58377296
32	0x3ea35064	0.3189727
33	0x3eee92ab	0.46596274
34	0x3f62d82a	0.8861109
35	0xbf3872f4	-0.72050405
36	0xbdb44f24	-0.088041574
37	0x3e3100b5	0.17285426
38	0xbddd042b	-0.107918106
39	0xbf10f2e8	-0.56620646
40	0xbf877587	-1.0582741
41	0xbf80b4a0	-1.0055122
42	0xbef38466	-0.4756195
43	0xbf408bdd	-0.75213414
44	0xbf3ecf15	-0.7453473
45	0x3f3d063d	0.73837644
46	0xbea4953b	-0.32145104
47	0xbe5b0cb5	-0.21391566
48	0xbcf0c4b9	-0.02939068
49	0x3e99340f	0.2992253
50	0x3f6516ce	0.8948792
51	0x3f0cb56a	0.54964316
52	0x3ee6e061	0.45093063
53	0xbec63050	-0.38708735
54	0x3eb5a150	0.35474634
55	0xbebafb84	-0.36520016
56	0x3f2a77e5	0.66589195
57	0x3eec8daf	0.46201846
58	0xbeac6b45	-0.3367559
59	0xbf3e8c4c	-0.74432826
60	0xbedd337c	-0.43203342
61	0xbf36f98a	-0.71474516
62	0x3f50bd59	0.8153892
63	0xbf40069e	-0.750101

inception.branch1.1.depthwise.bias f4 [64]
0	0xbf00463e	-0.5010718
1	0xbf0b2c54	-0.54364514
2	0x3f2efb31	0.6835204
3	0x3f65425e	0.89554393
4	0xbf04c53f	-0.51863474
5	0xbe4468a5	-0.19180544
6	0xbe6aedd3	-0.22942285
7	0x3d893559	0.066996284
8	0x3f285f21	0.65770155
9	0x3e801afc	0.25020587
10	0xbf1ea4d5	-0.61970264
11	0xbeaa8bc8	-0.3330977
12	0xbd2f2bd7	-0.04276642
13	0x3f4d3018	0.8015151
14	0x3c9605a9	0.018313246
15	0xbe062afa	-0.13102332
16	0xbf422d31	-0.75850207
17	0x3e1e24b4	0.15443689
18	0xbf02cdb3	-0.5109512
19	0x3ed672bb	0.41884407
20	0x3bdeb77b	0.006796775
21	0xbf71c652	-0.9444324
22	0xbd04acaf	-0.032391246
23	0xbf30c81f	-0.6905536
24	0x3f455066	0.77075803
25	0x3ebd993c	0.3703097
26	0x3ed4f18c	0.41590536
27	0xbf495370	-0.7864294
28	0x3f333524	0.7000296
29	0xbf393fd5	-0.72363025
30	0xbeed1da6	-0.46311682
31	0xbe916a9e	-0.28401655
32	0x3dca8580	0.09888744
33	0x3f36ca16	0.7140211
34	0xbf425a0b	-0.75918645
35	0xbf294408	-0.6611943
36	0xbf3a11a2	-0.72683156
37	0x3c9ff107	0.01952411
38	0x3ddbc14c	0.10730228
39	0x3ee5aedb	0.44859967
40	0xbf35b3a6	-0.70977247
41	0x3e502bc4	0.20329195
42	0x3f20d357	0.6282248
43	0xbf03ee22	-0.51535237
44	0x3d84a3bc	0.06476542
45	0x3f533c44	0.82513833
46	0xbf2b832f	-0.66997045
47	0xbf528840	-0.8223915
48	0x3f30209c	0.6879976
49	0x3ec3564c	0.38151777
50	0x3e174d11	0.14775492
51	0xbf399d50	-0.72505665
52	0xbe910858	-0.28326678
53	0xbf5510fa	-0.8322903
54	0xbf09e533	-0.53865355
55	0x3ebcb5a2	0.36857325
56	0x3eb6d226	0.35707206
57	0x3e43b029	0.19110169
58	0xbf4e3d3c	-0.80562186
59	0xbf5618bc	-0.8363149
60	0xbf3f6e99	-0.74778134
61	0x3f76f4bc	0.96467185
62	0x3f3e7f4f	0.7441301
63	0xbd94023e	-0.0722699

inception.branch1.1.pointwise.weight f4 [32, 64, 1]
0	0x3d373699	0.044729803
1	0xbdd25a91	-0.102711804
2	0x3db7f266	0.08981781
3	0x3cf4b4f5	0.029871443
4	0xbdf23dc4	-0.11828187
5	0xbe315dbf	-0.17320918
6	0x3e49296c	0.19644707
7	0xbe331808	-0.17489636
8	0xbc9ca2fa	-0.019120682
9	0xbd757618	-0.059927076
10	0xbe2e9c28	-0.17051756
11	0x3d361e85	0.0444627
12	0x3e39b3d8	0.18135011
13	0x3e236f35	0.15960391
14	0x3c70b9ba	0.014692718
15	0xbe135076	-0.14386162
16	0x3d09c601	0.033636097
17	0xbe1f8e72	-0.15581682
18	0x3dc33861	0.09532238
19	0x3d1c34b2	0.03813619
20	0x3d9293cf	0.071570985
21	0xbe173507	-0.14766322
22	0xbb61530d	-0.0034381778
23	0xbda0a6f8	-0.07844347
24	0x3de44717	0.11146372
25	0x3d9a866d	0.07545171
26	0xbd0b1ced	-0.033963133
27	0x3d69c3fb	0.057071667
28	0x3e245d03	0.16051106
29	0xbd62da53	-0.05538399
30	0xbcbdd0fd	-0.023170942
31	0x3e39a699	0.18129958
32	0xbd0d3ca1	-0.03448165
33	0x3dbcbd9d	0.09215853
34	0x3ceb6946	0.028736722
35	0xbd32ebf3	-0.04368205
36	0xbd649c55	-0.055813152
37	0xbdab8bd2	-0.08376278
38	0xbdd4b898	-0.10386771
39	0x3e33d500	0.17561722
40	0x3dc3babb	0.095571004
41	0x3df1ac2b	0.118004166
42	0xbdf7220d	-0.120670415
43	0x3d75ec67	0.060039904
44	0xbd7e722b	-0.062120598
45	0x3e2eb5dc	0.17061561
46	0xbe0b6571	-0.13612916
47	0xbde93177	-0.11386388
48	0x3d8d968a	0.06913479
49	0xbb5807b5	-0.0032963578
50	0xbe19bf65	-0.15014417
51	0xbdc55688	-0.09635645
52	0xbca3eeba	-0.020011295
53	0xbb85f8d5	-0.004088501
54	0xbdfcd128	-0.12344581
55	0xbd7600a1	-0.060059194
56	0xbce0e301	-0.027451994
57	0xbd68aa5f	-0.056803104
58	0x3d95b302	0.07309534
59	0x3dcc9bb6	0.09990637
60	0xbe11e0fc	-0.14245981
61	0x3d175049	0.0369418
62	0x3d1a4464	0.03766288
63	0x3e1a8825	0.15090998
64	0xbcb61dba	-0.022230972
65	0x3a023c64	0.00049681053
66	0xbb81eab5	-0.003964747
67	0x3e070381	0.1318493
68	0xbdfe2ed9	-0.12411279
69	0xbc3fa0c8	-0.011696048
70	0xbe4777e5	-0.1947933
71	0xbcb115f0	-0.021616906
72	0xbdd3126b	-0.10306247
73	0x3df046c3	0.11732247
74	0x3d177945	0.036980886
75	0xbe20293e	-0.15640733
76	0xbdd1851f	-0.10230469
77	0xbd49bf35	-0.049254615
78	0xbe49a481	-0.1969166
79	0xbdbecdd7	-0.093166046
80	0xbe093681	-0.13399698
81	0x3d4dabc5	0.05021264
82	0x3ce7ea5e	0.028309997
83	0xbd440f7f	-0.04786634
84	0xbd2c9367	-0.04213276
85	0xbdc4f679	-0.096173234
86	0x3be5e704	0.0070160646
87	0x3de3a657	0.11115711
88	0xbd137a83	-0.03600551
89	0x3e41119e	0.18854377
90	0x3dd1a346	0.1023622
91	0xbd38b9c4	-0.045099035
92	0xbd7412f4	-0.059588388
93	0xbe1261ac	-0.14295071
94	0x3cc93018	0.024559066
95	0xbd56553e	-0.052327387
96	0x3db622f0	0.088933825
97	0x3d96a80b	0.073562704
98	0x3cc8be66	0.024504852
99	0xbc750892	-0.014955657
100	0xbd449d2a	-0.048001446
101	0x3d0fa1c3	0.035066377
102	0x3daac0c3	0.08337548
103	0xbdda9b01	-0.10674096
104	0xbdff541e	-0.12467216
105	0xbe34803f	-0.17627047
106	0x3d41d4e6	0.047322176
107	0xbe0384e6	-0.12843665
108	0x3def3269	0.11679537
109	0x3dcdb534	0.100443274
110	0xbb58f650	-0.0033105798
111	0xbdc383a1	-0.095465906
112	0xbd2d4d3b	-0.04230998
113	0x3cd620c0	0.026138663
114	0x3c80a95a	0.015705753
115	0x3b041448	0.002015369
116	0xba99701e	-0.0011706387
117	0xbc86c61a	-0.016451884
118	0xbd602123	-0.0547191
119	0xbd97d132	-0.07412948
120	0x3e3dcb29	0.1853453
121	0xbdff0ee4	-0.12454012
122	0xbb9d47ed	-0.004799834
123	0xbe39da0d	-0.18149586
124	0x3de3841d	0.11109183
125	0x3cc4ec83	0.024038559
126	0xbb89d68b	-0.0042064837
127	0x3d101077	0.035171952
128	0xbdd65e72	-0.10467233
129	0x3e2c987a	0.1685504
130	0x3a4ddbfd	0.000785291
131	0x3b7970b2	0.0038061556
132	0xbe1e9cab	-0.15489452
133	0x3e3c6c57	0.18400703
134	0xbd048bec	-0.032360002
135	0x3e2c53bf	0.16828822
136	0x3dd2597d	0.10270975
137	0x3d9f8fba	0.077910855
138	0xbdcf6624	-0.10126904
139	0x3c41e6d9	0.0118348235
140	0xbe24ac2c	-0.16081303
141	0x3ceafb24	0.028684206
142	0xbd8c29cf	-0.06843912
143	0x3e047060	0.12933493
144	0xbcdd122c	-0.026986204
145	0x3d22fecc	0.039793774
146	0xbcdd8274	-0.027039744
147	0x3e04f56b	0.12984245
148	0xbe210369	-0.15723957
149	0x3de5946e	0.11209951
150	0xbd198e87	-0.03748944
151	0xbdbee66e	-0.09321295
152	0xbd5f60f1	-0.05453581
153	0x3d7afcc3	0.06127621
154	0x3d78c06e	0.06073039
155	0xbddcd5f1	-0.107829936
156	0xbe0fc2b6	-0.1403912
157	0x3cc48119	0.02398734
158	0xbdd23a2e	-0.10265003
159	0xbd48b7e0	-0.049003482
160	0x3c4b4a68	0.012407877
161	0x3e256ee5	0.16155584
162	0x3d0f71a8	0.0350205
163	0xbd90b537	-0.07065814
164	0xbccf2c32	-0.025289629
165	0xbd6e022c	-0.05810754
166	0x3c080d44	0.008303944
167	0xbe1edd37	-0.15514074
168	0xbe1c3937	-0.152562
169	0xbdb758c2	-0.08952476
170	0x3e0a0204	0.13477331
171	0x3c659509	0.0140125835
172	0xbe0f46aa	-0.139918
173	0xbe030991	-0.12796618
174	0x3d5de70c	0.05417542
175	0x3d96b05d	0.073578574
176	0x3c06bb8f	0.008223428
177	0xbd958ff9	-0.07302851
178	0x3c0fb461	0.008771033
179	0xbc969716	-0.01838259
180	0x3e1341c9	0.14380564
181	0xbdc23a0e	-0.09483729
182	0x3d9455d9	0.07242937
183	0x3ca3a16d	0.019974435
184	0x3e4a66da	0.19765797
185	0xbd3e5d37	-0.046475615
186	0xbc9736d3	-0.01845876
187	0xbd70cb3b	-0.058787566
188	0xbc812d35	-0.015768627
189	0xbdb2bb78	-0.08727163
190	0x3dbd148c	0.09232435
191	0x3caec018	0.021331832
192	0xbd5d7cd8	-0.05407414
193	0xbd090c57	-0.033459034
194	0xbd74b0b3	-0.059738826
195	0x3de143f3	0.109992884
196	0xbdbcdc76	-0.09221737
197	0x3e0c9a7f	0.1373081
198	0xbe26db08	-0.16294491
199	0x3d3599d2	0.044336148
200	0x3e05f634	0.130822
201	0x3e17dcc9	0.14830317
202	0xbd8893d9	-0.06668825
203	0x3e039f71	0.12853791
204	0xbd449bb2	-0.048000045
205	0xbd96b2c0	-0.073583126
206	0xbb02d9d0	-0.0019966252
207	0x3d8616f3	0.06547346
208	0xbe4050bf	-0.18780802
209	0xbd0dcf04	-0.034621254
210	0x3c9b714b	0.01897492
211	0x3de56faa	0.11202939
212	0xbd75f7c2	-0.060050733
213	0x3da5b1df	0.08090567
214	0x3db2b029	0.08725006
215	0x3b26aeb0	0.0025433712
216	0x3d8ca64f	0.06867658
217	0xbcc00417	-0.02343945
218	0xbd6d03d6	-0.057864986
219	0xbd847500	-0.064676285
220	0xbdf7b59b	-0.12095185
221	0xbd08eaae	-0.033426933
222	0xbe01dd9d	-0.12682195
223	0xbbfed0e5	-0.007776367
224	0xbd8cb060	-0.06869578
225	0xbcb788f4	-0.022404172
226	0x3de1eccc	0.110314935
227	0xbcd59bef	-0.026075331
228	0xbc4a94cc	-0.0123645775
229	0x3dcd3be7	0.10021191
230	0xbda01477	-0.07816403
231	0xbe0256f1	-0.12728478
232	0x3d9392c9	0.072057314
233	0xbcf76dc7	-0.030203713
234	0x3cde654e	0.027147915
235	0xbdfeeaa2	-0.124470964
236	0xbe21ba38	-0.15793693
237	0x3c98dba0	0.018659413
238	0x3d66377d	0.05620526
239	0x3c8259c6	0.015911948
240	0x3de1fffc	0.11035153
241	0x3bb9dbc3	0.0056719496
242	0x3deda74a	0.116041735
243	0x3d3e1585	0.04640724
244	0x3e3b0728	0.18264449
245	0x3dfc51ad	0.12320266
246	0xbd495175	-0.04914995
247	0x3d183e2f	0.037168678
248	0x3d2a6f93	0.04161031
249	0xbe2d8ad1	-0.16947486
250	0xbd7c960f	-0.061666545
251	0xbdc56dc6	-0.09640078
252	0x3e096444	0.13417155
253	0xbdf9c009	-0.12194831
254	0xbca189e4	-0.019719072
255	0xbd64b022	-0.055832036

inception.branch1.1.pointwise.bias f4 [32]
0	0x3e0f6e3c	0.14006895
1	0xbd3eab13	-0.046549868
2	0x3e0802ec	0.13282365
3	0x3e081849	0.13290514
4	0x3dac91a1	0.08426214
5	0x3e0f3191	0.13983752
6	0x3d1bd12d	0.038041282
7	0x3d031586	0.03200295
8	0xbdb8233e	-0.08991097
9	0xbdbdcc68	-0.09267503
10	0x3d5b2b37	0.05350801
11	0x3d9f6f12	0.07784857
12	0xbd25fa48	-0.04052189
13	0xbd19fafc	-0.037592873
14	0xbdb25953	-0.087084435
15	0x3dcb16e6	0.09916477
16	0x3bdfc48c	0.00682885
17	0xbdb8d909	-0.09025771
18	0x3d821bd9	0.06352968
19	0x3d11fa77	0.035639253
20	0x3e23e27e	0.16004369
21	0x3d53a778	0.051673383
22	0x3d0c837a	0.034305073
23	0x3d080c55	0.033214886
24	0x3cf4ca2c	0.02988156
25	0xbdb91ca0	-0.09038663
26	0x3dca52e3	0.09879091
27	0xbcc91326	-0.024545263
28	0xbdd4d68d	-0.10392485
29	0x3dbabbac	0.09117827
30	0xbd9ae9d3	-0.0756413
31	0xbd4abe59	-0.049497936

inception.branch2.0.depthwise.weight f4 [64, 1, 1]
0	0x3e8ab2d4	0.2708956
1	0x3ec36405	0.38162246
2	0x3ec83ca0	0.39108753
3	0x3f83d1c8	1.0298395
4	0x3f12fbaa	0.5741526
5	0xbd85428a	-0.06506832
6	0x3f850ef1	1.0395185
7	0xbe9c8127	-0.30567285
8	0x3e97822a	0.29591495
9	0x3e788500	0.24269485
10	0xbf595d7a	-0.8490826
11	0x3f2f0599	0.68367916
12	0xbe9e80d4	-0.30957663
13	0x3ecb6b36	0.39730233
14	0xbf82cf62	-1.0219538
15	0x3d3021ac	0.043000862
16	0xbf85c91c	-1.0451999
17	0x3d9e8ba9	0.07741482
18	0xbe885ba9	-0.2663243
19	0x3f0eadd7	0.5573401
20	0x3f35be9a	0.7099396
21	0xbe899095	-0.2686812
22	0xbde7137d	-0.11283014
23	0x3f00a253	0.5024769
24	0x3f7ffec4	0.99998116
25	0x3f1c384b	0.61023396
26	0x3f80eb0b	1.007173
27	0x3e3382fd	0.17530437
28	0xbed348f5	-0.412666
29	0x3f338693	0.7012722
30	0x3f82903f	1.020027
31	0xbe5457f5	-0.20736678
32	0xbf449058	-0.7678275
33	0x3f1d17d1	0.61364466
34	0x3ee6fd3a	0.45115072
35	0x3dd2ff8d	0.10302649
36	0xbf06fd85	-0.5273059
37	0xbe0d3750	-0.13790631
38	0xbdcdb70c	-0.10044679
39	0xbf3468cd	-0.70472413
40	0xbf38040e	-0.71881187
41	0xbecdee1a	-0.4022072
42	0x3e16de40	0.14733219
43	0xbdbc5d60	-0.09197497
44	0xbf1432a3	-0.57889766
45	0x3f004698	0.5010772
46	0x3f892b63	1.0716366
47	0xbf884b53	-1.0647987
48	0xbef03d9e	-0.4692201
49	0xbee0adf9	-0.4388273
50	0x3e9b9b00	0.30391693
51	0x37086112	8.128833e-06
52	0xbf894960	-1.0725517
53	0x3f84b611	1.0368062
54	0x3f105e61	0.5639401
55	0x3f86e508	1.0538645
56	0x3eda56de	0.426444
57	0xbf0163ef	-0.5054311
58	0x3f51e612	0.81991684
59	0xbf53f88f	-0.82801145
60	0xbdeea5be	-0.116527066
61	0x3f001018	0.5002456
62	0xbf458539	-0.77156407
63	0x3ef0814a	0.4697364

inception.branch2.0.depthwise.bias f4 [64]
0	0x3f71f479	0.9451366
1	0x3f2d93f7	0.678039
2	0xbec24e0d	-0.37950173
3	0xbc3d21b1	-0.011543677
4	0x3f6795db	0.90463036
5	0x3ebaed30	0.36509085
6	0x3ea507cd	0.32232514
7	0xbea61b4b	-0.32442698
8	0xbf443cc8	-0.76655245
9	0x3f26fb4f	0.65227216
10	0xbd8f06d7	-0.069837265
11	0xbdd9916b	-0.106234394
12	0xbf1847f5	-0.594848
13	0x3ebb6715	0.36602083
14	0x3ec4692b	0.38361487
15	0x3f36c992	0.7140132
16	0xbf183ce7	-0.5946793
17	0xbf6b61a3	-0.91945857
18	0xbe6a02bb	-0.22852604
19	0x3ef60216	0.48048466
20	0x3f75388b	0.957894
21	0x3f56b3c8	0.83868074
22	0x3d0f8dd5	0.03504737
23	0x3f493ae8	0.7860551
24	0xbf2824c8	-0.65681124
25	0xbdfe89a5	-0.12428597
26	0x3eba6108	0.36402154
27	0xbd743577	-0.0596213
28	0x3efdfb43	0.4960576
29	0x3f32d17e	0.6985091
30	0xbdc8dd2c	-0.0980781
31	0x3f58f2c0	0.8474541
32	0x3f33fbe2	0.7030622
33	0x3e9a4c5d	0.30136386
34	0xbe9dbe66	-0.30809325
35	0xbca32d5e	-0.019919094
36	0xbd5cd0c8	-0.053910047
37	0x3dbeea53	0.093220375
38	0x3ee5d856	0.44891614
39	0xbeb51eb6	-0.35374993
40	0x3e006275	0.12537558
41	0xbdc090f3	-0.09402647
42	0x3f3b795f	0.7323207
43	0x3d511704	0.05104734
44	0x3f67aef1	0.90501314
45	0x3e88af5f	0.26696298
46	0x3ddc9d5a	0.107722
47	0xbd232952	-0.039834328
48	0x3f3c6800	0.7359619
49	0xbf0f9e55	-0.5610097
50	0x3f516e41	0.8180886
51	0x3ec1bc5f	0.37839028
52	0xbeb9168c	-0.36150014
53	0xbe9f6ff4	-0.311401
54	0x3e02a957	0.1275991
55	0xbf73a10c	-0.95167613
56	0x3f23deaf	0.64011663
57	0x3ea1c1d1	0.31593183
58	0x3e631606	0.2217637
59	0xbf1e0590	-0.6172724
60	0xbd1581f0	-0.03650087
61	0x3e402278	0.18763149
62	0xbf5bab65	-0.858084
63	0x3f343558	0.70393896

inception.branch2.0.pointwise.weight f4 [32, 64, 1]
0	0x3d6dc348	0.058047563
1	0x3d727f70	0.059203565
2	0x3cffd900	0.031231403
3	0xbe25710d	-0.16156407
4	0x3d38655a	0.04501853
5	0xbc400e6c	-0.011722188
6	0xbd82dc93	-0.063897274
7	0xbca5e63d	-0.020251388
8	0x3a9af3ac	0.0011821887
9	0xbdcf89d4	-0.101337105
10	0xbd875059	-0.06607122
11	0x3b2f3445	0.0026734036
12	0x3d5acf87	0.05342057
13	0xbd6c1320	-0.057635427
14	0xbde72aa7	-0.11287432
15	0x3d1b9676	0.037985288
16	0xbd0375ba	-0.032094695
17	0x3dbdf26a	0.092747524
18	0xbd379c91	-0.044827048
19	0xbde33267	-0.11093598
20	0xbde0bcf8	-0.10973543
21	0xbd9b6c2c	-0.075889915
22	0xbc14186a	-0.009039024
23	0xbc8b2f5b	-0.016990354
24	0xbe0bd42d	-0.13655157
25	0x3d287a62	0.04113234
26	0xbcab87aa	-0.020938713
27	0xbc1decea	-0.009639004
28	0x3e3e844f	0.18605159
29	0xbd883956	-0.06651561
30	0xbe50ad25	-0.2037855
31	0x3e0821bf	0.13294123
32	0x3e38220e	0.17981741
33	0x3dfdcd89	0.12392718
34	0xbe066aea	-0.13126722
35	0x3dc69867	0.09697037
36	0xbdfca71d	-0.12336562
37	0xbe511feb	-0.20422332
38	0x3da0abf2	0.07845296
39	0xbe1be0fd	-0.15222545
40	0xbdaf96a8	-0.08573657
41	0xbe0bfe1c	-0.13671154
42	0x3d6115be	0.054952376
43	0xbccde418	-0.025133178
44	0x39955119	0.00028479917
45	0xbe0e62f8	-0.13904941
46	0xbd86b3b4	-0.065772444
47	0x3d7f4430	0.062320888
48	0xbc9467d1	-0.01811591
49	0x3e143892	0.14474705
50	0x3b877f9b	0.004135085
51	0x3d7389c9	0.059457574
52	0x3daedfca	0.08538778
53	0x3cc7f3c1	0.024408223
54	0xbca8cabb	-0.020604482
55	0x3dafe90b	0.08589371
56	0x3e0df95b	0.13864653
57	0x3dc35928	0.095384896
58	0x3e2a3a72	0.16623858
59	0xbcd6e3f8	-0.02623175
60	0x3e3f554c	0.18684882
61	0x3e0bed0d	0.13664646
62	0xbe05ff1e	-0.130856
63	0xbd362c28	-0.044475704
64	0xbd718e71	-0.058973733
65	0x3aea3d02	0.0017870965
66	0x3e07c4ad	0.1325862
67	0xbdd63a32	-0.104603186
68	0xbdc3deea	-0.09564002
69	0x3dcc8f95	0.099883236
70	0xbe2cb67d	-0.16866489
71	0x3d2ec399	0.042667005
72	0x3d95fa16	0.07323091
73	0x3db6fe88	0.08935267
74	0x3db38ec6	0.08767466
75	0xbe6de88c	-0.23233241
76	0x3db35db9	0.087581106
77	0x3de157c4	0.11003068
78	0x3dfff9f8	0.1249885
79	0x3d32c687	0.04364636
80	0xbda147c6	-0.07875018
81	0x3d0f60bb	0.03500436
82	0x3dcb1c66	0.09917526
83	0xbd81d36e	-0.06339155
84	0xbdba3423	-0.090919755
85	0xbd45d269	-0.048296366
86	0x3e0ae225	0.1356283
87	0xbd109673	-0.03529973
88	0x3cc6d493	0.024271285
89	0x3dfad27c	0.12247178
90	0x3d1cf939	0.038323615
91	0xbd7b5b4b	-0.06136636
92	0x3b0afa7a	0.0021206425
93	0xbd3f3b03	-0.046687137
94	0xbd669273	-0.05629201
95	0x3d1ef9f2	0.038812585
96	0x3ccbca96	0.024876874
97	0x3dc658cd	0.09684906
98	0x3c195ec9	0.009360977
99	0xbd3eaba7	-0.04655042
100	0xbe3b1db7	-0.18273054
101	0xbe5d3095	-0.21600564
102	0x3d9d1f6f	0.07672011
103	0xbc71bd23	-0.014754566
104	0x3e05e255	0.1307462
105	0x3e3ca543	0.18422417
106	0x3dd8fcbc	0.1059508
107	0xbdb465db	-0.0880849
108	0xbc7a1f84	-0.015266303
109	0x3db4f065	0.08834914
110	0xbe0aa40b	-0.1353914
111	0x3ca85a2d	0.020550812
112	0x3de4da42	0.11174442
113	0x3df7ba6a	0.120961025
114	0xbdc26e9f	-0.094937555
115	0xbd17fe13	-0.03710754
116	0x3e0fabb2	0.1403034
117	0x3ce4df1c	0.027938418
118	0xbb63987b	-0.0034728337
119	0xbd3700d5	-0.044678528
120	0xbd8ed648	-0.06974465
121	0xbdee69a7	-0.11641245
122	0xbce4fde2	-0.027953092
123	0xbd9f7d54	-0.07787576
124	0x3d5862d6	0.052828632
125	0x3da3897c	0.079852074
126	0x3d1f1516	0.03883847
127	0xbd96cd27	-0.073633485
128	0x3d2a8ec9	0.041640077
129	0xbdb1bc50	-0.08678496
130	0xbdfac26b	-0.122441135
131	0x3e14d77d	0.14535327
132	0x3dbae821	0.09126306
133	0xbd9ea0f3	-0.077455424
134	0x3e4953ca	0.19660869
135	0x3c0dd355	0.0086563425
136	0xbdb6bafb	-0.089223824
137	0x3dd1ba6f	0.102406375
138	0x3c5ef90d	0.013609183
139	0x3e09110c	0.13385409
140	0xbe00f31d	-0.1259274
141	0x3d2f5b79	0.042811844
142	0xbdb506f0	-0.08839214
143	0x3d5efeef	0.054442342
144	0xbd25a3dc	-0.04043947
145	0xbd88f087	-0.06686502
146	0x3dbfbb4c	0.09361896
147	0x396f8639	0.00022842818
148	0x3d8eaf92	0.06967081
149	0x3db88438	0.09009594
150	0xbd843be0	-0.06456733
151	0xbd817599	-0.06321258
152	0x3b8d2c5c	0.0043082666
153	0x3dac6ffa	0.08419795
154	0x3db48540	0.08814478
155	0x3b946e13	0.0045297234
156	0x3d58ca75	0.052927453
157	0x3d723e2a	0.059141316
158	0xbd840ccc	-0.06447753
159	0xbd0f13aa	-0.034930862
160	0xbe1a97fe	-0.15097043
161	0xbdd1418a	-0.10217579
162	0xbd19ac10	-0.037517607
163	0xbde9551e	-0.11393188
164	0x3daa6379	0.08319754
165	0x3d4a65ed	0.04941361
166	0x3d83ded6	0.06438987
167	0xbd34fd46	-0.044186853
168	0xbda13094	-0.07870594
169	0x3d7e9140	0.06215024
170	0x3b88a376	0.0041698767
171	0xbd414e1b	-0.047193628
172	0x3e2850e4	0.16437107
173	0x3db97967	0.09056359
174	0x3e450824	0.19241387
175	0xbd7fb063	-0.062424075
176	0xbce99c26	-0.02851684
177	0x3cf25cdb	0.029585293
178	0x3de354b1	0.11100138
179	0xbd47597d	-0.048669327
180	0x3e120c80	0.14262581
181	0xbc81dca1	-0.015852274
182	0x3d3917fb	0.045188885
183	0xbe24defa	-0.16100684
184	0x3d8dafe5	0.06918315
185	0xbe00fc30	-0.12596202
186	0xbdb25a27	-0.087086014
187	0x3c35ae1c	0.011088874
188	0xbd2e9186	-0.04261925
189	0xbe025b43	-0.12730126
190	0x3bbc2d10	0.0057426766
191	0x3dee5f8f	0.1163932
192	0x3d6a8f05	0.0572653
193	0xbd942baf	-0.072348945
194	0x3e3ec165	0.18628462
195	0xbe2e7852	-0.17038086
196	0x3ddf88dd	0.109147765
197	0xbdf6996a	-0.1204098
198	0xbbae0060	-0.0053101033
199	0x3c1c5816	0.009542486
200	0x3d9bb85a	0.07603522
201	0xbdcfe2ea	-0.10150702
202	0xbd78c971	-0.060738984
203	0xbe204e19	-0.15654792
204	0xbda42c74	-0.08016291
205	0x3df31f8d	0.11871252
206	0xb777a8af	-1.4761622e-05
207	0xbd55f7e6	-0.052238367
208	0xbddefc03	-0.10887911
209	0x3d9f5ae6	0.077810094
210	0x3d173cb9	0.036923144
211	0x3e3895d8	0.18025911
212	0xbcbe1bb6	-0.023206573
213	0x3ca4e227	0.02012737
214	0x3e3766be	0.17910287
215	0x3e0f1e77	0.13976465
216	0xbe617fee	-0.22021458
217	0x3c802d3e	0.015646573
218	0x3e00e2f2	0.12586573
219	0x3dbc7cbe	0.0920348
220	0xbdb85e74	-0.090023905
221	0x3de16c54	0.1100699
222	0xbe7387bb	-0.23782246
223	0xbe1303d5	-0.1435693
224	0xbd82c32a	-0.06384881
225	0x3e4ab4d0	0.19795537
226	0x3e1e47ef	0.15457128
227	0x3d824a6d	0.06361852
228	0xbe4144be	-0.1887388
229	0xbe59662f	-0.21230386
230	0x3dc185c6	0.094493434
231	0xbd5f4430	-0.054508388
232	0xbadef13c	-0.0017009149
233	0xbd6d7f82	-0.05798293
234	0xbd98cee4	-0.07461336
235	0xbd804aed	-0.06264291
236	0x3cdee00b	0.027206441
237	0x3ddaf0b0	0.10690439
238	0xbdca0d9f	-0.09865879
239	0xbd54639e	-0.051852815
240	0xbe132bad	-0.1437213
241	0x3d234996	0.0398651
242	0x3d2b8f36	0.041884623
243	0x3daf158e	0.08549033
244	0x3d830af7	0.06398576
245	0xbe33498f	-0.17508529
246	0x3e024714	0.12722427
247	0x3e2a71d5	0.16644986
248	0xbcd3b3f0	-0.025842637
249	0x3e0be876	0.13662896
250	0x3d6311a3	0.05543674
251	0x3d5cee4f	0.053938206
252	0x3dc9e3b4	0.09857884
253	0x3dc31d09	0.095270224
254	0xbdc22e8a	-0.09481533
255	0x3d94331c	0.07236311

inception.branch2.0.pointwise.bias f4 [32]
0	0x3c9b0927	0.018925263
1	0x3ac2d32e	0.0014863962
2	0x3b987638	0.0046527646
3	0x3d259f3b	0.040435057
4	0x3c3b1c5d	0.011420337
5	0x3ca88228	0.020569876
6	0xbd568457	-0.052372303
7	0xbbbe74e9	-0.0058122766
8	0xbd50bf94	-0.050963953
9	0x3df24d30	0.118311286
10	0xbc963a91	-0.018338474
11	0xbc7ce912	-0.015436428
12	0x3ce5f403	0.028070455
13	0x3db06be9	0.08614332
14	0x3db08727	0.08619528
15	0xbc6025e1	-0.013680906
16	0xbd1b4959	-0.037911747
17	0x3d7f0a03	0.062265407
18	0xbd7153c7	-0.058917787
19	0xbdbd79e5	-0.09251765
20	0xbd8124c1	-0.063058384
21	0xbb54d133	-0.0032473325
22	0x3bf4d191	0.0074712713
23	0x3be496d6	0.006975989
24	0x3d7c6d33	0.061627578
25	0xbdd8c849	-0.10585076
26	0x3cfa0730	0.030521005
27	0x3dc10de9	0.09426481
28	0x3e05a3bd	0.13050742
29	0x3d50560f	0.050863322
30	0xbd29aba8	-0.04142347
31	0xbd850d01	-0.06496621

inception.branch2.1.depthwise.weight f4 [32, 1, 1]
0	0x3f7fbb23	0.9989492
1	0x3f30078b	0.6876151
2	0x3e7b51ed	0.24542971
3	0x3f5818ee	0.8441304
4	0xbf780375	-0.96880275
5	0xbe352c08	-0.17692578
6	0x3f80eef6	1.0072925
7	0x3e7d37ad	0.2472827
8	0xbf18cc8b	-0.5968711
9	0xbe9bb8b6	-0.3041436
10	0xbe2d8ae3	-0.16947512
11	0xbf7e7f08	-0.99412584
12	0x3f71477a	0.9424969
13	0x3e982188	0.29713082
14	0xbd98735f	-0.0744388
15	0xbf179bc2	-0.5922204
16	0xbe3021d6	-0.17200407
17	0xbf47e3cc	-0.78081965
18	0x3f5d0b1d	0.8634508
19	0x3f03f81b	0.51550454
20	0xbf5221f8	-0.8208308
21	0xbf1a6859	-0.6031547
22	0xbf0af7f7	-0.54284614
23	0x3f1e3c97	0.618112
24	0xbf34f3c2	-0.70684445
25	0xbe79ca59	-0.24393596
26	0x3f64ddd3	0.89400977
27	0xbe397c0f	-0.18113731
28	0x3f017347	0.50566524
29	0x3f817bcd	1.0115906
30	0xbe76f700	-0.2411766
31	0xbd4e2696	-0.050329767

inception.branch2.1.depthwise.bias f4 [32]
0	0xbe8e6bf7	-0.27816746
1	0x3f544365	0.82915336
2	0xbf11c0e6	-0.56934965
3	0xbf635724	-0.8880484
4	0x3e7d695f	0.24747227
5	0x3c01a90e	0.007913841
6	0x3f288809	0.65832573
7	0xbf0a55d3	-0.5403721
8	0x3e3ecd41	0.18632986
9	0xbf788f99	-0.9709411
10	0x3f53b5b6	0.82699144
11	0xbea9c87a	-0.33160764
12	0xbf74ef1b	-0.95677346
13	0xbedd0ac8	-0.43172288
14	0x3eef7b69	0.46773842
15	0xbeb45da8	-0.35227704
16	0xbeb472bf	-0.35243794
17	0x3f751084	0.95728326
18	0x3f1515d5	0.5823644
19	0x3f34a92c	0.70570636
20	0x3f67179c	0.902704
21	0xbf107d21	-0.5644093
22	0x3e88a764	0.2669021
23	0xbf731360	-0.9495144
24	0xbe25d7b6	-0.16195568
25	0x3cb9bfbb	0.022674432
26	0x3f59a1a3	0.85012263
27	0xbf6c2a58	-0.9225211
28	0xbf55e778	-0.8355632
29	0xbf2673a9	-0.65020233
30	0xbec4887f	-0.38385388
31	0x3f551181	0.83229834

inception.branch2.1.pointwise.weight f4 [32, 32, 1]
0	0x3df5bb5b	0.11998626
1	0xbdfa64d5	-0.122262634
2	0xbe4270b3	-0.18988304
3	0x3e309efc	0.17248148
4	0x3e3d53f6	0.1848906
5	0x3de9d004	0.11416629
6	0x3e16135c	0.14655823
7	0x3e03df18	0.12878072
8	0x3d0e562d	0.034750152
9	0xbc98ff5f	-0.018676458
10	0x3e1a275d	0.15054078
11	0x3cdf7169	0.027275758
12	0x3d8173e0	0.063209295
13	0x3df4ffd3	0.11962857
14	0x3ddfd3ac	0.10929045
15	0xbd9b6d94	-0.0758926
16	0x3e011948	0.126073
17	0x3ce738f5	0.028225401
18	0x3e4a9fe2	0.19787553
19	0x3e1a15db	0.150474
20	0x3e37b89e	0.1794152
21	0x3df0aeec	0.11752114
22	0x3e27c421	0.16383411
23	0x3d319646	0.043356203
24	0x3daa2310	0.08307469
25	0xbd1ced82	-0.038312443
26	0x3ddb8796	0.1071922
27	0xbdd902e6	-0.10596256
28	0x3e69781d	0.22799726
29	0x3e308ef0	0.17242026
30	0xbe172d24	-0.14763314
31	0x3d9119b8	0.070849836
32	0x3dd4a5c8	0.10383183
33	0x3e4700b4	0.19433862
34	0xbe337253	-0.1752408
35	0x3e53a791	0.2066939
36	0x3d9c5998	0.07634276
37	0xbdbdd63f	-0.0926938
38	0xbe09322d	-0.13398047
39	0xbe0a0b11	-0.13480784
40	0x3ca7138a	0.02039506
41	0x3d67833f	0.05652165
42	0xbde43730	-0.11143339
43	0xbc8b7c29	-0.017026978
44	0xbdb6a56b	-0.0891827
45	0x3e24329a	0.16034928
46	0x3da5f6d2	0.08103718
47	0x3db75328	0.08951408
48	0x3dc6364e	0.096783265
49	0x3e3a087b	0.18167298
50	0xbd32e24b	-0.04367284
51	0xbd1a8dcf	-0.037732895
52	0xbdb7590f	-0.089525335
53	0x3e13494f	0.14383434
54	0x3df26d0e	0.11837207
55	0xbcb0359e	-0.021509942
56	0x3d377826	0.044792317
57	0x3d4dff55	0.05029233
58	0xbc6063c0	-0.013695657
59	0xbd6cbc92	-0.057797022
60	0x3dae4eb6	0.08511107
61	0x3d935876	0.07194607
62	0xbd874c20	-0.066063166
63	0x3c72acd9	0.014811718
64	0xbe454e08	-0.19268048
65	0x3e06b77e	0.13155934
66	0xbdb878a8	-0.09007388
67	0xbe253660	-0.16134024
68	0xbe453509	-0.19258513
69	0xbc092446	-0.008370465
70	0xbdba61fb	-0.091007195
71	0x3da5ece6	0.081018254
72	0x3ae4a52a	0.0017444242
73	0x3e08a742	0.13345054
74	0xbd93bbf6	-0.07213585
75	0x3d1ef1b5	0.03880473
76	0xbd0b2cb0	-0.033978164
77	0xbe64c9d0	-0.2234261
78	0xbd020f89	-0.031753097
79	0xbdb64657	-0.08900135
80	0xbd7be2bf	-0.06149554
81	0xbd00b96e	-0.03142684
82	0xbe141f49	-0.1446506
83	0xbdf07788	-0.11741549
84	0x3e5c848a	0.21534935
85	0xbdbb4887	-0.09144693
86	0x3d18407c	0.037170872
87	0xbe3f04d7	-0.1865419
88	0xbde00d5f	-0.1094005
89	0xbe827c8c	-0.25485647
90	0x3dc057cf	0.09391748
91	0x3da0645f	0.07831644
92	0xbe23af72	-0.15984896
93	0xbe46056b	-0.19338004
94	0xbdd1eb55	-0.10249964
95	0xbc8a79b1	-0.01690373
96	0x3dbb1f09	0.09136779
97	0xbe0cd502	-0.13753131
98	0xbdd6098b	-0.10451039
99	0xbe2424d2	-0.16029671
100	0xbe468d38	-0.19389808
101	0xbe1eaae5	-0.15494879
102	0x3ddcfccc	0.10790405
103	0xbe31e9c5	-0.17374332
104	0xbdfe8700	-0.12428093
105	0xbd803684	-0.06260398
106	0x3e23a002	0.15979007
107	0x3e9071c4	0.28211796
108	0xbe56cc81	-0.2097645
109	0x3baa8af2	0.005204552
110	0x3e3a7e0c	0.18212146
111	0xbc6a96c5	-0.014318173
112	0xbbd2b9cb	-0.0064308397
113	0xbbf99356	-0.0076164408
114	0x3c187880	0.009306073
115	0xbcd997c5	-0.026561627
116	0xbddb8183	-0.10718062
117	0xbd1bbf6b	-0.038024347
118	0xbe1441f1	-0.1447828
119	0x3c2223b3	0.009896207
120	0x3e090b8a	0.13383308
121	0xbd898ec2	-0.06716682
122	0xbd0050a1	-0.031326894
123	0x3dfef9db	0.1245
124	0xbd1f0697	-0.038824644
125	0xbe52804e	-0.20556757
126	0xbe31ec76	-0.17375359
127	0x3d26ab9b	0.040691
128	0xbe816744	-0.25274098
129	0xbe086c5b	-0.13322584
130	0x3e1dcf21	0.15411045
131	0xbe0e09c1	-0.13870908
132	0x3e2df125	0.1698652
133	0x3e8df89b	0.27728733
134	0x3da188e8	0.07887441
135	0x3d83a2ae	0.06427513
136	0xbd65cff7	-0.056106534
137	0xbe00cc47	-0.12577926
138	0x3dad2ea0	0.08456159
139	0xbcd01131	-0.025398823
140	0x3da90e15	0.08254639
141	0x3df8ac85	0.121422805
142	0xbdc4c456	-0.096077606
143	0x3e2e21d3	0.1700509
144	0xbd93a535	-0.07209245
145	0xbe0f86c8	-0.14016259
146	0xbe09afa5	-0.1344591
147	0x3c027e07	0.007964618
148	0x3bc72a2b	0.006078025
149	0xbc561057	-0.013065419
150	0x3dd1f7c2	0.10252334
151	0xbe1db214	-0.15399963
152	0xbd8c12a7	-0.06839495
153	0xbe897f24	-0.26854813
154	0xbdd67a56	-0.104725525
155	0xbdfab603	-0.12241747
156	0x3de57d9e	0.112056
157	0xbd02ca8b	-0.03193144
158	0x3e1059d5	0.14096768
159	0x3e3ac530	0.18239284
160	0x3db1a3b7	0.08673804
161	0x3deb3690	0.11485016
162	0xbe1fca93	-0.1560462
163	0xbc9d291e	-0.019184645
164	0x3e68a804	0.22720343
165	0x3c03d63e	0.008046685
166	0x3e1c0171	0.15234925
167	0xbd02561e	-0.03182041
168	0xbd672622	-0.05643285
169	0xbc354ae5	-0.0110652195
170	0x3d9f9723	0.07792499
171	0x3ca5cfff	0.020240782
172	0x3c6ef903	0.014585736
173	0xbde2e2cf	-0.110784166
174	0xbc92d7d3	-0.017925179
175	0x3dfec827	0.1244052
176	0x3d85a742	0.065260425
177	0x3e25790a	0.16159454
178	0x3e315e01	0.17321016
179	0x3e4cf033	0.20013504
180	0x3dfb2275	0.122624315
181	0x3dfa5d43	0.122248195
182	0xbe0dcfbb	-0.13848774
183	0x3dc8b1fb	0.09799572
184	0x3ca888e6	0.02057309
185	0x3d7f8b10	0.06238848
186	0x3d3c8714	0.046027258
187	0xbe44ae3d	-0.19207092
188	0x3dff22ae	0.124577865
189	0x3d93c4ba	0.07215257
190	0x3dc77570	0.09739196
191	0xbdf96641	-0.121777065
192	0xbbe22206	-0.0069010286
193	0xbe0ab9a0	-0.13547373
194	0xbc84fda6	-0.01623423
195	0xbe244d70	-0.16045165
196	0xbdac6864	-0.084183484
197	0xbe37f2dc	-0.17963737
198	0x3e189e8d	0.14904232
199	0x3e2348c7	0.15945731
200	0x3e1c69d1	0.15274741
201	0x3e007120	0.12543154
202	0xbd463ed6	-0.04839977
203	0x3dba8a35	0.09108392
204	0xbdaf4b7f	-0.085593216
205	0xbca03e4f	-0.019560961
206	0x3e053bdd	0.13011117
207	0x3dedcbef	0.11611163
208	0x3d9cf704	0.07664302
209	0xbdda19dc	-0.106494635
210	0x3dfe12f8	0.12405962
211	0x3d8f9352	0.07010521
212	0x3d9d29be	0.07673977
213	0x3dedbd77	0.11608403
214	0xbd75dbf0	-0.060024202
215	0x3e172175	0.14758857
216	0x3caa3148	0.020775452
217	0xbd001bf7	-0.03127667
218	0xbbc3b559	-0.005972546
219	0xbd760408	-0.06006244
220	0x3cdbf39e	0.026849564
221	0xbd399f52	-0.045317955
222	0x3de402c2	0.111333385
223	0x3cc9ef9a	0.024650384
224	0x3bb65466	0.0055642603
225	0xbd915e89	-0.07098109
226	0xbcf57de7	-0.029967261
227	0xbe0b0524	-0.1357618
228	0x3e2ffe8c	0.17186946
229	0x3e16f670	0.14742446
230	0xbdd176cf	-0.10227739
231	0x3e1f0041	0.1552744
232	0xbd639c66	-0.055569075
233	0xbe1186c1	-0.14211561
234	0xbe041be1	-0.1290126
235	0x3e2f9a7f	0.1714878
236	0x3d87ad55	0.06624857
237	0x3d553687	0.052053954
238	0xbe125541	-0.14290334
239	0xbddd0fd9	-0.10794038
240	0x3dcebefe	0.100950226
241	0xbe09d507	-0.1346017
242	0xbd6776c6	-0.056509756
243	0xbca5d6bb	-0.020243993
244	0xbc8f7ae2	-0.01751465
245	0xbd2b2a00	-0.0417881
246	0x3c711419	0.014714264
247	0x3d211abb	0.039332133
248	0xbdfc27a2	-0.12312247
249	0x3d9ebd7c	0.07750985
250	0x3df1b4e9	0.11802084
251	0xbcf0c8ce	-0.029392626
252	0x3defc8cf	0.11708223
253	0x3d203e6e	0.039122038
254	0x3da3165a	0.079632476
255	0xbcc756ad	-0.024333322

inception.branch2.1.pointwise.bias f4 [32]
0	0xbcaaeffe	-0.02086639
1	0x3e2f80c8	0.1713897
2	0xbc36c821	-0.011156113
3	0xbd58371b	-0.052786928
4	0xbd1c15cf	-0.038106736
5	0xbd88cafe	-0.06679343
6	0xbdb8e6fd	-0.090284325
7	0x3e0a7b81	0.13523676
8	0x3dc8ffd6	0.09814422
9	0x3e306e41	0.17229559
10	0xbc9ed2b8	-0.019387588
11	0x3bcfc159	0.0063401875
12	0x3d5982a6	0.05310311
13	0x3da07e2c	0.078365654
14	0xbd763e7b	-0.06011818
15	0x3e0951e6	0.13410148
16	0x3dc2cdec	0.09511933
17	0xbd8b60e9	-0.068055935
18	0x3e145e98	0.1448921
19	0x3e14999e	0.14511725
20	0xbc83eec3	-0.016105061
21	0x3e0a54f2	0.13508967
22	0x3d076128	0.03305164
23	0xbe2997d7	-0.16561829
24	0xbdeed0d8	-0.116609275
25	0xbcc9b67f	-0.024623154
26	0xbd79aee9	-0.060957823
27	0xbd915645	-0.07096533
28	0x3dcc0101	0.09961129
29	0xbdfc8b8a	-0.123313025
30	0xbd169d63	-0.03677119
31	0x3de6fc73	0.112786196

inception.branch3.0.depthwise.weight f4 [64, 1, 1]
0	0xbeef3f27	-0.4672787
1	0x3e34f569	0.17671742
2	0x3f3bc8fa	0.7335354
3	0x3ed51383	0.4161645
4	0x3e9fd0b6	0.3121392
5	0xbf863e19	-1.0487701
6	0x3f4ab9bc	0.7918966
7	0xbf88c190	-1.068407
8	0xbf1f2e2c	-0.6217983
9	0x3f354b14	0.70817685
10	0xbf329ff7	-0.69775337
11	0xbf242149	-0.6411329
12	0x3f1b3f5e	0.60643566
13	0xbe2106cb	-0.15725248
14	0xbdee8828	-0.116470635
15	0x3ef7bfd0	0.4838853
16	0xbe80b35c	-0.2513684
17	0xbf332351	-0.69975764
18	0xbf840fd6	-1.0317333
19	0x3eb93f05	0.36180893
20	0x3f606ff4	0.87670827
21	0xbdedde8a	-0.116147116
22	0xbe209bab	-0.15684383
23	0xbf17a1f1	-0.5923148
24	0xbf48e711	-0.7847758
25	0xbf88e917	-1.0696133
26	0x3e6d620d	0.23181935
27	0xbf02dab2	-0.5111495
28	0x3f5da4d6	0.86579645
29	0xbf2bd2a8	-0.6711831
30	0x3f3c7850	0.7362108
31	0xbf464df2	-0.77462685
32	0x3f4e7b64	0.8065703
33	0xbea3afc7	-0.31970045
34	0x3edba105	0.42896286
35	0x3f2f9cf6	0.6859888
36	0xbef467d1	-0.47735456
37	0x3f72e2a3	0.9487707
38	0xbf2ee405	-0.6831668
39	0x3dd7a7c0	0.10530043
40	0xbf8a37f3	-1.0798324
41	0x3f075536	0.52864397
42	0xbed6f40c	-0.41983068
43	0x3d38baa5	0.045099873
44	0x3f184060	0.5947323
45	0xbe7b5eb3	-0.24547844
46	0x3f2d85cd	0.6778229
47	0xbf315f4e	-0.6928605
48	0xbef06558	-0.4695232
49	0x3f41a007	0.7563481
50	0xbf58aed6	-0.8464178
51	0x3dd4c7c0	0.10389662
52	0x3f7c35d8	0.9851966
53	0x3f3aa5a3	0.7290899
54	0xbeb78ff1	-0.35852006
55	0x3f3bf745	0.7342418
56	0xbe7cb046	-0.24676618
57	0x3e30c03f	0.17260836
58	0x3e59843c	0.2124185
59	0xbeef975c	-0.46795166
60	0xbf963989	-1.1736308
61	0x3f2c7ebe	0.67380893
62	0x3e5c0328	0.21485579
63	0xbbf22a2a	-0.0073902803

inception.branch3.0.depthwise.bias f4 [64]
0	0xbf7e4d63	-0.9933683
1	0x3f6bb0b6	0.92066514
2	0x3f104cd5	0.56367236
3	0xbdfdaf16	-0.123869106
4	0xbecb0a59	-0.39656332
5	0xbf1ceeca	-0.61301863
6	0xbd922c43	-0.071373485
7	0x3ea51782	0.32244498
8	0x3f60449d	0.87604696
9	0xbf6edebb	-0.9330861
10	0xbe7ebc77	-0.24876581
11	0xbe60ef6b	-0.2196633
12	0x3e9bb77c	0.30413425
13	0x3f03c537	0.514728
14	0xbf5d4b0b	-0.8644263
15	0xbeedc3a6	-0.4643833
16	0xbe2aa48f	-0.16664337
17	0x3eaac15f	0.33350655
18	0xbf62f190	-0.88649845
19	0xbf745e8d	-0.95456773
20	0x3d833e58	0.064083755
21	0xbf6f8d34	-0.93574834
22	0xbf10f6a5	-0.5662635
23	0x3f3e0dfd	0.74240094
24	0x3e5fc360	0.21851873
25	0xbebc29ef	-0.36750743
26	0xbf59c1b2	-0.8506118
27	0x3eabb4ba	0.3353632
28	0x3f639775	0.8890298
29	0xbf1ea6f8	-0.61973524
30	0xbf5c1a45	-0.85977584
31	0xbe4c6c7a	-0.19963256
32	0x3e9dca7f	0.30818555
33	0x3f35fee7	0.71092075
34	0x3c9bb68b	0.019007942
35	0xbe3dd8c1	-0.18539716
36	0xbeab6ea1	-0.3348284
37	0xbf32d275	-0.6985238
38	0x3dd44768	0.10365182
39	0xbf354109	-0.7080236
40	0xbf31b42d	-0.6941555
41	0xbf6f4f4c	-0.9348037
42	0xbe4b751a	-0.1986889
43	0xbe224069	-0.15844883
44	0xbf6623d4	-0.8989842
45	0xbf5ac003	-0.85449237
46	0x3f2d647f	0.6773147
47	0xbe47ac8b	-0.19499414
48	0x3f42f7f7	0.76159614
49	0xbd216221	-0.039400224
50	0x3f1e1fdc	0.61767364
51	0x3f71ae65	0.9440673
52	0x3f7c4d79	0.98555714
53	0x3f237073	0.6384346
54	0xbe5e485e	-0.21707293
55	0x3ee0ae66	0.43883055
56	0x3f24a1c3	0.6430933
57	0xbe2185bb	-0.1577367
58	0x3e8ce3f0	0.27517653
59	0x3f62ae35	0.8854707
60	0x3f07c123	0.5302908
61	0x3e0b5070	0.13604903
62	0xbe13fca1	-0.14451839
63	0x3f61cc1a	0.8820206
