experiments/1005/pretask_UCI_8rot.pth (torch, 151423 bytes, 48 tensors)

stem.conv1d.weight f4 [64, 9, 3]
000000 fb 43 4f 3e 6e 18 e0 bc 2e 24 94 3e d9 b3 c2 3d
       0.20240776 -0.027355399 0.28933853 0.095069595
000010 1f f8 b3 3e ce 05 e8 3d 56 40 30 3e 16 77 57 3c
       0.3515024 0.11329232 0.17212042 0.013150951
000020 ea 32 c4 ba b2 7b 54 3c dd 82 94 bd b5 a6 cd 3d
       -0.0014968787 0.012968944 -0.07251523 0.100415625
000030 f9 42 09 3d 0c 79 81 3c b5 ca 29 bd 5a aa 50 3d
       0.033511136 0.01580479 -0.041453082 0.05094371
000040 6a 57 89 bd da b1 90 3d 26 aa 5f be 28 d3 b2 3d
       -0.06706126 0.070651725 -0.2184225 0.08731681
000050 ce 5c 20 be 16 90 16 3e 15 22 88 bd 64 66 d1 bd
       -0.15660402 0.14703402 -0.06647126 -0.102246076
000060 e9 91 84 3d 18 d3 20 be b2 97 ca 3d bf 77 d0 3d
       0.06473143 -0.15705526 0.09892215 0.1017909
000070 61 5f cb 3d 04 5b 16 3e 62 f7 79 3e f9 dd 9a 3e
       0.099303015 0.14683157 0.24410775 0.30247477
000080 3b 4d 2f 3e 40 5e a7 bd 12 9b 2a be e9 ed 84 be
       0.17119305 -0.08172274 -0.16660717 -0.2596276
000090 db 15 16 be d2 b4 20 3d 30 ab 76 bd 28 31 f4 3d
       -0.14656775 0.039234944 -0.06022185 0.11923438
0000a0 9a 3b fd 3c 12 74 53 3d 7b 22 54 3e 24 32 be 3d
       0.03091221 0.051624365 0.20716278 0.09286907
0000b0 17 94 18 3e 58 83 13 be 47 04 29 3e fb 94 f7 bd
       0.14900242 -0.14405572 0.16505538 -0.12088963
0000c0 e4 42 4a bd 2f 11 ab bd fd e6 1e bc 14 38 e6 3c
       -0.049380198 -0.08352887 -0.009698627 0.028102912
0000d0 76 93 f7 bc a4 d7 b5 3d eb d4 4a be 4e aa 1d bd
       -0.030221682 0.08879021 -0.19807784 -0.038492493
0000e0 d5 81 f3 3d 7c cc 1b 3d 62 30 fd 3c 4c a4 a1 3d
       0.11889998 0.03803681 0.03090686 0.07892665
0000f0 01 13 c9 3d 4f a4 d6 3d 18 b2 16 3e a8 de 98 3d
       0.09818078 0.10480558 0.14716375 0.07464343
000100 77 09 b8 bd 4e 50 08 3c 4a 0b 8f 3c e0 56 33 3c
       -0.0898618 0.008319927 0.017461438 0.010946006
000110 ae 26 ee bc f3 c0 dd bd de 6d f6 bc e4 98 b0 3c
       -0.029071178 -0.10827818 -0.030081686 0.021557279
000120 39 2b a6 3d 03 fb 57 3e 6d 1b 65 bd 13 94 fb 3c
       0.08113713 0.21091847 -0.05593436 0.030710256
000130 da 8e f2 bc ff 78 f9 bd 8f 96 36 be 9e a4 01 bd
       -0.029609133 -0.12181281 -0.17830871 -0.03165113
000140 a4 a4 89 bd 2b cd 67 bd 4c 37 13 3e 70 67 50 be
       -0.06720856 -0.056592148 0.14376563 -0.20351958
000150 25 fb b9 bd fb d8 9b bb 71 b8 fa 3d be 11 2a 3e
       -0.09081105 -0.0047560907 0.12242211 0.1660833
000160 ba 0d d7 bd e8 98 1b 3d fa 1d bc bc 90 29 20 be
       -0.10500665 0.03798762 -0.022963513 -0.15640855
000170 02 c3 1d 3e 61 30 fa bd 1e 99 09 3d f5 3d b9 3d
       0.15406421 -0.12216259 0.03359329 0.090450205
000180 34 40 fe 3c 55 66 39 3d 5e d3 fc bd 26 65 00 3e
       0.031036474 0.045263607 -0.123450026 0.12538585
000190 66 2f 21 3e 95 79 f5 bd 7d e7 93 3d 53 e5 a8 bd
       0.15740737 -0.119860806 0.07221887 -0.08246865
0001a0 a3 f0 d9 bd 98 91 cf bc 4b d6 9d bd da 87 3c be
       -0.10641601 -0.02533798 -0.07706889 -0.18411198
0001b0 7a f3 df bd f2 2d 5a be a9 19 29 bb 51 73 a0 bc
       -0.10935111 -0.21306589 -0.0025802648 -0.019586237
0001c0 2d cd 85 bd 4c 5a 54 3d 4c 39 9d 3d ba 17 1a 3d
       -0.06533275 0.051843926 0.07676944 0.037620284
0001d0 f5 b5 85 3e a0 de b6 3c 54 0c f0 3c fb 6f 46 3d
       0.26115385 0.022322953 0.029302754 0.048446637
0001e0 82 4b 9d 3d 16 53 0a 3d ea ad f0 ba 75 44 b0 3d
       0.076804176 0.033770643 -0.0018362377 0.08606807
0001f0 b6 cd 4a bc dc 67 c2 bd e5 c3 10 3e 8c 2a 92 3d
       -0.012378147 -0.09492466 0.14137228 0.071370214
000200 21 7f 89 bd ce c3 8c 3d 8e d1 ad bc 44 8a 06 bd
       -0.06713701 0.06873284 -0.021218088 -0.032846704
000210 d0 c0 39 be 32 35 30 bd cf f3 34 bc 09 d1 eb 3d
       -0.18139958 -0.04301948 -0.011044457 0.1151448
000220 26 e2 3b 3e bf d4 65 3d 9e 84 06 be 34 da a6 be
       0.18347988 0.056111094 -0.13136527 -0.3258835
000230 bf d2 43 3d 87 12 e8 3c 34 d2 b3 ba 26 4a a4 bd
       0.047808405 0.028329147 -0.0013719262 -0.08021955
000240 a3 79 3f 3e 70 33 be bc aa 7f 45 be bd 8e bf bc
       0.18698744 -0.023217887 -0.19286981 -0.023383493
000250 0e bd f4 3d 4f e6 a2 bd d5 77 0e 3e e3 f5 5c 3d
       0.11950122 -0.07954084 0.139129 0.053945433
000260 4c 27 80 be d9 74 b9 bd 36 79 e8 3d 5d 27 3b bd
       -0.2502998 -0.0905549 0.11351244 -0.045691837
000270 e7 c0 a7 3d ff 86 d4 bb 05 95 bd 3d c8 a5 c7 bd
       0.0819109 -0.0064858194 0.09256939 -0.09748417
000280 c2 80 ad 3d 74 6e 60 be 34 56 7a be 27 e1 8a bd
       0.08471824 -0.21917135 -0.24446946 -0.06781226
000290 ea f8 e9 3d d2 1d 6e 3d 5c 16 e1 3c 6b b2 9e bd
       0.1142443 0.058133908 0.027476482 -0.07748874
0002a0 bc 78 a5 3e 7d 3b 49 3d e0 dc de bd a4 39 d7 3c
       0.32318676 0.049128998 -0.10881972 0.026272602
0002b0 05 5d b1 3d ba e5 7b be d9 91 39 be 04 16 6d 3d
       0.0866032 -0.24599352 -0.18122043 0.057882324
0002c0 32 02 c2 3d 40 81 b4 bd 03 c3 a9 bd 27 c1 fd bd
       0.09473075 -0.08813715 -0.08289149 -0.123903565
0002d0 08 90 30 3e 25 e2 21 bd 0c 13 8b 3d 4d 74 fc 3d
       0.17242444 -0.03952231 0.06790742 0.1232687
0002e0 02 05 06 be 20 4d 95 3c bc d0 50 bd 8f 61 0c be
       -0.13087848 0.018225253 -0.050980315 -0.1370909
0002f0 34 c6 9d bd 41 06 90 3c 32 95 0e 3e 48 67 11 bd
       -0.0770382 0.017581107 0.13924101 -0.035498887
000300 40 1e a5 3c fc d8 3d bd 19 43 77 be 30 4e 11 3e
       0.020156026 -0.04634951 -0.2414669 0.14189982
000310 6c b7 ca 3e 42 7a 7f 3e 91 8c 7c be 08 bf 68 3d
       0.39593065 0.24948981 -0.24662997 0.056822807
000320 58 68 5b 3e 45 fd 02 bc 7c 8d 13 be 79 5a 0d 3e
       0.21426523 -0.0079949545 -0.14409441 0.13804044
000330 29 6d 64 3d 5f 7c f7 bd 94 72 01 be 91 ea 39 3d
       0.055768166 -0.12084269 -0.12641364 0.045389716
000340 a3 52 d6 bd 2a 9b 59 3d 76 e0 40 3e e4 d4 f2 3b
       -0.104649805 0.05312649 0.18835625 0.0074106324
000350 08 21 61 3d d5 74 ca bd 4f 63 2b 3e f1 af d9 bd
       0.05496314 -0.09885565 0.16737102 -0.10629261
000360 ae cb 4b 3e 02 8a 99 bd 9a f4 16 3e 03 d3 10 3e
       0.19901916 -0.07497026 0.14741746 0.14142995
000370 92 b0 97 3e a7 be da bd d8 82 d8 bc 29 38 3e be
       0.296269 -0.10680895 -0.026429579 -0.18576111
000380 32 2e 9e 3e 7e 1a 06 be 5a be 18 3e e1 72 dd 3d
       0.3089462 -0.13096043 0.14916363 0.10812927
000390 29 77 d6 3d 64 f9 3e be 55 cd 7b bc a4 e2 e7 3d
       0.10471947 -0.18649822 -0.015368779 0.11322525
0003a0 23 47 68 be 7e ff e5 bd 5e ab e0 bd ec 67 bc 3b
       -0.22683387 -0.11230372 -0.10970186 0.005749693
0003b0 12 13 db 3c 77 f9 34 3e 64 a6 19 be bf d8 f1 bd
       0.026742492 0.17673288 -0.15004879 -0.11808919
0003c0 a3 f8 80 be 98 95 01 3d c5 00 ad 3d 66 78 62 3e
       -0.25189695 0.031636804 0.084474124 0.22116241
0003d0 61 50 aa 3c 30 71 18 bd a7 a4 8f 3d 75 4a 11 be
       0.02079028 -0.03721732 0.07013827 -0.1418856
0003e0 38 a3 34 bd fc 1c 12 3e a3 b8 17 3b 68 d3 a4 3e
       -0.04410097 0.14268869 0.0023150824 0.3219254
0003f0 7b 05 ea bd 92 74 ff 3c 83 dc 02 3d fc 19 aa bd
       -0.114268266 0.031183515 0.031948578 -0.083057374

stem.conv1d.bias f4 [64]
000000 93 fc ed bd f8 10 dd bd 73 1f 38 be 14 08 04 3e
       -0.1162044 -0.10794252 -0.17980747 0.12893707
000010 3a dd a9 bb a2 49 b2 3d 39 9c 1e 3e c2 9a 07 3e
       -0.005183843 0.087054506 0.15489282 0.13242629
000020 77 e7 2b 3d 3c 40 b5 bd 5e 6e 27 3e 4e 20 0b 3c
       0.04196879 -0.08850142 0.16350695 0.008491589
000030 f3 9b 06 be f9 b0 49 3d 4f 7b 0a 3d 28 33 04 3e
       -0.13145427 0.04924104 0.033809002 0.1291014
000040 98 17 13 bb c7 2c 05 be b5 21 df bc b9 d5 15 be
       -0.0022444483 -0.13005362 -0.027237752 -0.1463231
000050 78 fe 7e 3d 0d 73 93 bd 51 62 12 be fa a7 af bc
       0.0622544 -0.071996786 -0.14295317 -0.021442402
000060 9a eb 8c 3d 1d c2 3d be 54 4d 2e bd ba 6d 0d be
       0.06880875 -0.1853108 -0.042554215 -0.13811389
000070 06 43 f8 3d 71 8b 11 3e 39 ad f9 bc c9 77 f4 3d
       0.12122159 0.14213349 -0.030478107 0.1193691
000080 41 d1 20 be 31 54 4f bd 37 90 10 3d 72 ff 1d 3e
       -0.15704824 -0.0506174 0.035293784 0.15429476
000090 3e e6 19 be 99 b6 74 3d 49 61 89 3d 43 69 17 3e
       -0.15029237 0.05974445 0.06708009 0.14786248
0000a0 28 1c 0b 3e cb 50 33 3d 51 cc a7 39 fc de ed 3c
       0.1358496 0.043778222 0.0003200495 0.029036991
0000b0 26 20 35 3e ec c3 2e bd 61 e2 1b bd a7 73 6e bd
       0.17688045 -0.042667314 -0.03805769 -0.058215763
0000c0 80 d6 8f bd 8f b8 32 be b8 da 85 3c 0c be 0b bc
       -0.070233345 -0.17453216 0.016339645 -0.008529197
0000d0 c8 49 3d 3e f3 12 a9 3d 21 83 2b be 37 dd 2e bd
       0.18485177 0.082555674 -0.1674924 -0.042691436
0000e0 ea 6d 86 bd d3 12 17 be be 75 9f bd c3 05 15 be
       -0.06563933 -0.14753275 -0.077861294 -0.14552979
0000f0 ed 58 84 bd a3 c9 ab 3d 9e 6e de bd 7e 5e 9a bd
       -0.06462274 0.083880685 -0.10860942 -0.07537554

stem.bn.weight f4 [64]
000000 f3 68 96 3f a9 21 91 3f 68 58 91 3f ed d8 93 3f
       1.1750778 1.1338397 1.1355104 1.1550575
000010 de 21 92 3f 78 4c 95 3f 43 fa 91 3f 66 36 9a 3f
       1.1416585 1.1663961 1.1404499 1.2047851
000020 c5 5f 94 3f a4 31 96 3f 34 aa 96 3f cf fa 8e 3f
       1.1591727 1.1733899 1.1770692 1.1170291
000030 e6 08 96 3f 04 61 92 3f a9 d4 94 3f bb a0 94 3f
       1.1721466 1.1435857 1.1627399 1.1611551
000040 75 e1 8e 3f a9 a8 92 3f 7e 00 93 3f 5c 49 96 3f
       1.1162554 1.1457721 1.1484525 1.1741138
000050 04 1a 94 3f bd 13 8f 3f b9 b0 8a 3f 6a ea 8f 3f
       1.1570439 1.1177899 1.0835181 1.1243412
000060 97 40 95 3f 86 0c 97 3f 50 36 92 3f d1 8d 92 3f
       1.1660336 1.1800697 1.1422825 1.1449529
000070 da ea 94 3f 13 3c 94 3f 08 b5 91 3f 74 8b 91 3f
       1.1634171 1.1580833 1.1383371 1.1370683
000080 53 53 91 3f ab 3c 91 3f 19 e8 92 3f 56 eb 94 3f
       1.1353554 1.1346639 1.147708 1.1634319
000090 dc 4e 8e 3f fe 84 98 3f 79 04 96 3f 69 1e 99 3f
       1.1117816 1.1915586 1.1720115 1.1962405
0000a0 d8 3a 92 3f 42 f9 99 3f 60 74 93 3f 8f ce 90 3f
       1.1424208 1.2029192 1.151989 1.1313037
0000b0 74 87 91 3f d8 1b 8a 3f 9a 0a 95 3f 05 27 90 3f
       1.1369462 1.0789747 1.164386 1.1261908
0000c0 18 be 92 3f 91 21 94 3f 1a 8a 95 3f b3 35 8f 3f
       1.1464262 1.1572744 1.168277 1.1188263
0000d0 e2 a0 8e 3f 27 2e 91 3f f9 00 8c 3f 3e 03 93 3f
       1.1142848 1.134221 1.0937797 1.1485364
0000e0 8e 94 8d 3f 1d 81 94 3f 60 99 8f 3f fc 7a 94 3f
       1.106096 1.1601902 1.1218681 1.1600032
0000f0 ac e2 86 3f a2 e5 95 3f 79 e3 94 3f 17 18 92 3f
       1.0537925 1.1710703 1.1631919 1.1413602

stem.bn.bias f4 [64]
000000 03 74 a6 3d c3 d2 f4 3d fb 3a ce 3d 7e 9b a4 3d
       0.08127596 0.11954262 0.100698434 0.0803747
000010 f1 54 d4 3d 2b 79 8c 3d ba db a6 3d 59 42 7c 3c
       0.10367764 0.068590485 0.08147378 0.015396678
000020 d5 be bb 3c b8 52 02 3e f2 46 ff 3d 29 c5 90 3d
       0.022918144 0.12726867 0.124647036 0.07068855
000030 7e d3 b0 3d 64 42 e4 3d d4 95 0a 3e 4b ac b3 3d
       0.08634089 0.111454755 0.13533717 0.08773097
000040 f6 30 cc 3d 6b 15 c5 3d c4 5a 76 3d 61 f9 99 3d
       0.09970276 0.09623226 0.060145155 0.075182684
000050 cb 65 ad 3d 20 d5 30 3d bd 45 b8 3d f0 e2 74 3d
       0.08466681 0.043172 0.089976765 0.059786737
000060 5d 9a 98 3d d6 68 45 3d f3 e0 c3 3d af b4 b4 3d
       0.074513175 0.048195682 0.0956439 0.08823525
000070 3f 1e f1 3d a9 bb 8b 3d 2e f1 7d 3d d8 03 9f 3d
       0.11773347 0.06822903 0.061997585 0.07764405
000080 87 7e e1 3d 03 3c ef 3d 9e bd 86 3d e6 d1 d3 3d
       0.11010461 0.11681368 0.06579135 0.10342769
000090 d7 3d 4c 3d ff 25 75 3d 1d 29 be 3d d7 22 a4 3d
       0.049863663 0.05985069 0.092851855 0.08014458
0000a0 e4 e7 b6 3d 30 a3 19 3c dd 86 cc 3d 05 fc 3b 3d
       0.089309484 0.009377286 0.09986661 0.04589464
0000b0 78 b4 b2 3d 54 ff af 3d a5 bc ae 3d 5b 44 08 3e
       0.08725828 0.08593622 0.08532075 0.13307326
0000c0 df f8 7e 3d 23 8c 2f 3d 18 93 c6 3d 1e 47 f8 bc
       0.06224906 0.042858254 0.09696025 -0.030307349
0000d0 04 d3 5b 3c 37 3d 5f 3d c9 ea 00 3d 7a 25 5a 3d
       0.013417009 0.05450174 0.03147391 0.053258397
0000e0 0e d5 b2 bb 21 c4 ec 3d a3 96 3e 3d 7d 57 ac 3d
       -0.005457527 0.11560846 0.046530377 0.084151246
0000f0 44 2c ab ba 41 28 d7 3d 35 00 7f 3d b2 b6 3d 3d
       -0.0013059457 0.10505725 0.062256057 0.04631681

stem.bn.running_mean f4 [64]
000000 db 62 ef bd 7e 54 d4 bd e5 30 49 be e0 af e4 3d
       -0.11688777 -0.10367678 -0.19647558 0.11166358
000010 72 db a2 bc a0 28 95 3d 92 db 0e 3e fa 78 04 3e
       -0.01988003 0.07283139 0.13950947 0.12936774
000020 61 0f 0d 3d d3 92 ec bd 6a 67 13 3e 09 7e b6 3c
       0.034438495 -0.11551442 0.14394918 0.022276895
000030 e5 66 1b be e3 15 f2 3c 75 04 a7 3c 93 db ec 3d
       -0.1517597 0.029551452 0.020387867 0.11565318
000040 56 d7 bb bc 14 cd 0a be b4 29 3f bd 7b 70 22 be
       -0.022929829 -0.13554794 -0.04667063 -0.1586322
000050 d7 ea 49 3d e4 da 83 bd 9f 42 09 be 0c 75 99 bc
       0.049296226 -0.064382344 -0.1340432 -0.01873257
000060 13 16 33 3d 75 a3 4a be 24 8d 77 bd cf 76 22 be
       0.043722223 -0.19788916 -0.060437337 -0.15865634
000070 97 e3 d3 3d 78 1c 0b 3e 12 2b 2d bd 59 fe 03 3e
       0.10346144 0.13585079 -0.042277403 0.12889995
000080 5b 6e 33 be 04 ad 8f bd 0f 46 2e 3d 73 8f 0a 3e
       -0.17522566 -0.07015422 0.04254728 0.13531284
000090 ab 42 25 be ab 0d 71 3d 27 06 33 3d 78 15 07 3e
       -0.16138713 0.058850925 0.04370704 0.13191783
0000a0 75 87 f8 3d e3 4c 2a 3d db de 86 bc bd 19 0b 3d
       0.121352114 0.04157723 -0.016463688 0.033960093
0000b0 25 79 2b 3e e2 36 dd bc 09 41 04 bd 25 d6 60 bd
       0.16745432 -0.02700371 -0.032288585 -0.054891724
0000c0 fb 4c b0 bd 12 7e 34 be 24 3f 23 bb fb 73 b1 bc
       -0.08608433 -0.17626217 -0.002490946 -0.02166175
0000d0 10 dd 45 3e 43 51 91 3d ef 47 2f be a9 04 60 bd
       0.1932261 0.070955776 -0.17117284 -0.054691944
0000e0 75 73 70 bd 77 71 26 be 2d 0e 9e bd 5a 65 2b be
       -0.05870386 -0.16254221 -0.077175476 -0.16737881
0000f0 b8 c5 52 bd 13 36 8b 3d 24 39 e4 bd a3 90 b1 bd
       -0.05145809 0.06797423 -0.11143711 -0.086701654

stem.bn.running_var f4 [64]
000000 53 3c 47 3d cb 5e 54 3d 71 47 31 3d 30 15 04 3d
       0.048641514 0.051848214 0.043281022 0.03224677
000010 c8 85 af 3c 95 d3 f8 3c f6 b4 22 3d 03 c5 43 3d
       0.021426097 0.030374328 0.03972336 0.047795307
000020 3d 60 c9 3c 84 90 76 3d b3 05 e6 3c 32 32 ea 3d
       0.024582023 0.060196415 0.02807889 0.11435355
000030 4d 38 85 3d 50 f3 d7 3c 4c a2 6f 3d 4c 78 94 3c
       0.06504879 0.026361138 0.058504388 0.018123768
000040 b9 f8 07 3d 0b 95 87 3d 79 0f 2d 3d af 3c 0d 3d
       0.033196185 0.066202246 0.042251084 0.0344817
000050 4a 19 e9 3c 3b c3 9a 3d 71 35 1d 3d 3e 93 40 3d
       0.028454442 0.075567685 0.038381044 0.04701542
000060 e8 b5 68 3d 5e d2 19 3d 58 8f e8 3c df b9 f2 3c
       0.056814104 0.037554137 0.028388664 0.029629646
000070 eb e0 e5 3c d8 3e d2 3d b6 d6 f0 3d 2d cc 5c 3d
       0.02806135 0.10265893 0.11759703 0.053905655
000080 d6 ac 59 3d 42 d1 23 3d 00 ba 8d 3d d4 77 9a 3d
       0.053143345 0.039994486 0.06920242 0.07542387
000090 a5 5d d1 3d 86 fc 13 3e f1 cd 57 3d 64 e0 f7 3c
       0.102229394 0.14451799 0.052686635 0.030258365
0000a0 f2 c5 fe 3c 0f 60 e0 3c 96 b2 10 3d 73 3a 39 3d
       0.031100247 0.027389554 0.035326563 0.045221757
0000b0 cc 3e 85 3d b0 56 d0 3d 90 0e 9f 3d c5 c9 b3 3c
       0.06506118 0.10172784 0.077664495 0.021946797
0000c0 12 e5 29 3d 5f 95 a4 3d 54 96 5a 3d d5 12 8d 3d
       0.041478224 0.08036303 0.05336602 0.068883575
0000d0 6c f5 99 3d 4c 29 2a 3d 57 96 88 3d 34 f7 ef 3c
       0.07517514 0.04154329 0.066693 0.02929268
0000e0 e5 ea fa 3d a1 01 d2 3c 1b 3c be 3d 14 40 43 3d
       0.12251834 0.025635542 0.09288808 0.04766853
0000f0 75 f5 b9 3d 36 28 02 3d 2c 52 eb 3d 7f 05 99 3c
       0.0908002 0.03177663 0.114902824 0.018679379

inception.branch1.1.depthwise.weight f4 [64, 1, 1]
000000 83 e6 23 bc b6 7f 71 3e 06 39 88 be 4d 22 56 bf
       -0.010003689 0.23583874 -0.26606005 -0.8364609
000010 de 7c 4f bf a9 8a 46 3f b7 a3 7d 3f 61 55 76 bf
       -0.8104991 0.7755533 0.99077934 -0.9622403
000020 f2 10 2f bf 40 9b 1c 3f 3e e5 76 be b8 ab 42 3f
       -0.6838523 0.6117439 -0.24110886 0.7604327
000030 d5 da e9 3e f0 72 da 3e a9 35 41 be e8 11 1c 3f
       0.45674768 0.42665815 -0.18868126 0.6096482
000040 ad cb 3a be ac 3b 02 3f 38 55 d3 3e 43 0d 4d 3f
       -0.18241759 0.508723 0.41275954 0.8009836
000050 fd 77 42 bf 8c b4 61 bd be 03 06 3f 4e fd 58 bf
       -0.7596434 -0.055103824 0.5234946 -0.8476151
000060 58 05 97 3e d5 da 92 3f d6 8d 92 bf 0a d1 06 3f
       0.29496264 1.1473032 -1.1449535 0.5266272
000070 71 5a 40 3f 71 d7 62 3e 84 ff 23 3f 12 fa 6c 3f
       0.75138 0.22152497 0.6406176 0.92569077
000080 5e bc 35 3f c4 69 00 bf 4a 37 a0 3e dc 23 82 be
       0.7099055 -0.50161386 0.31292182 -0.25417984
000090 f4 68 ec bd 99 4e 60 bf 34 e6 8a bf 68 b5 10 bf
       -0.11543456 -0.8761993 -1.0851502 -0.56526804
0000a0 96 bf 18 bf 4e bc 75 3f 9d 3e 22 3f 0d ed 8b 3f
       -0.59667337 0.95990455 0.6337679 1.0931717
0000b0 56 9d 30 bf d1 7c e2 be 69 2b e2 3e 25 ad 6d bf
       -0.68990076 -0.44235852 0.44173744 -0.9284232
0000c0 73 a2 9e be b1 b6 0b 3f 3f c0 92 3f 36 9e 9c 3e
       -0.30983314 0.5457564 1.1464919 0.30589455
0000d0 d6 5a 4f bf a7 c0 8f be 3e e5 77 3e da be 6c bf
       -0.8099798 -0.2807667 0.24208543 -0.92478716
0000e0 8a 2e 2f 3d b2 9b 34 bf c9 46 11 bf ac 17 12 bf
       0.042768992 -0.7055007 -0.56748635 -0.5706737
0000f0 53 fd 5c bf c3 0f 06 3f b6 71 ac 3b 1f 9d 8c 3f
       -0.8632404 0.523678 0.005262579 1.098545

inception.branch1.1.depthwise.bias f4 [64]
000000 a0 a1 68 3f ba b9 13 bf 02 81 67 bf 83 37 80 3f
       0.9087162 -0.5770527 -0.90431225 1.0016941
000010 7b 71 7c 3f 33 7d 1c 3c 37 95 4b bf 55 3f 4a 3e
       0.9861066 0.009551334 -0.7952456 0.19750722
000020 f6 3a 38 3f a7 47 5b 3f c0 ab 17 3f 4e b1 25 bf
       0.7196497 0.8565621 0.59246445 -0.6472367
000030 6d 7d 49 be bb 2d 2b bf 37 8e 4b 3e 97 99 c8 3e
       -0.19676752 -0.66866654 0.1987847 0.3917968
000040 cc b6 0a 3f 12 4c 81 bf 36 39 53 3f 4b e8 44 bf
       0.54185176 -1.010134 0.8250917 -0.7691695
000050 0e 3b 45 3c 51 3f 17 3f b9 e3 5c bf 17 e2 ee be
       0.0120380055 0.5908099 -0.8628498 -0.46656868
000060 b3 23 a4 3d fa 5a ea 3e f7 e2 31 bf 00 f5 6a 3f
       0.080146216 0.45772535 -0.69486946 0.9178009
000070 a0 a3 73 3f 17 91 64 3f 43 8f a9 be 1c 9d dc 3d
       0.95171547 0.8928389 -0.33117113 0.10772154
000080 2b 16 b8 3e 51 37 cf be 9b 2a 18 bf 91 02 cd 3e
       0.35954413 -0.4047189 -0.5944001 0.4004102
000090 64 e3 11 bf 2d ca 30 bf 2c 5a 10 bf ed 7a 61 be
       -0.56987596 -0.69058496 -0.5638759 -0.22019549
0000a0 3c a0 ab 3e c7 0d 96 3d d3 4f 37 bf 9d db 75 3f
       0.33520687 0.073268466 -0.7160618 0.9603823
0000b0 3d c5 39 be 3c fa 84 be 22 d9 7a 3f ef 41 a6 be
       -0.18141647 -0.25972164 0.9798757 -0.32472178
0000c0 a0 7e 8b 3e 1b bc 50 3f 48 99 ce 3e ea a2 6f bf
       0.27245045 0.81537026 0.4035132 -0.9360796
0000d0 77 92 b3 3e 83 db ba bd e5 7d 50 3f a6 f7 f9 be
       0.3507268 -0.091239 0.814421 -0.48821753
0000e0 46 11 e6 3e 22 7e 73 bf 14 fa 48 bf 55 93 ea 3e
       0.44935054 -0.9511434 -0.7850659 0.4581553
0000f0 b1 ae cf 3e 30 63 c3 be fa f5 00 3f b8 11 ef be
       0.40562966 -0.38161612 0.5037533 -0.46693206

inception.branch1.1.pointwise.weight f4 [32, 64, 1]
000000 e9 29 0a 3d 3a 01 b1 3d f5 e4 1d bd 33 48 4f 3e
       0.033731375 0.08642812 -0.03854843 0.20242386
000010 8f 98 5f 3e 28 35 b4 3d 42 7e 5a bd 77 d7 aa be
       0.2183554 0.08799201 -0.053343065 -0.33367512
000020 b9 13 99 3d 84 47 32 3e 44 98 91 bc 3f 95 38 3e
       0.07474465 0.17410094 -0.017772801 0.18025683
000030 83 0e d7 bd c0 fd ac bc ce f0 57 3e 28 be 50 bd
       -0.10500815 -0.021117091 0.21087953 -0.050962597
000040 ab df 50 3c 57 a5 91 bd c5 3a a0 3d 96 2e e1 3d
       0.012748639 -0.07111614 0.078237094 0.10995214
000050 5d 85 c3 3d d1 54 7b bd df 26 00 3e 1f 7a 1e be
       0.095469214 -0.061360184 0.12514828 -0.15476273
000060 6a f9 97 bb d6 92 b1 3d be 4b 04 3d dc 10 af 3d
       -0.004637887 0.08670585 0.032298796 0.085481375
000070 20 95 04 3d fe 90 37 3d 55 5b 9b bd b7 bd 69 be
       0.03236878 0.04481601 -0.075857796 -0.22826277
000080 31 9e 3a 3c 75 0d 96 3d 26 01 65 bc 4c be b0 3d
       0.011390255 0.073267855 -0.013977325 0.08630046
000090 a0 f2 76 3d 8c 57 5d 3e 9a 99 04 be 72 6b ec bc
       0.06028998 0.21615428 -0.1294922 -0.028859828
0000a0 4f 15 d1 3d 14 b9 24 bd 41 87 51 be 72 6e e5 bc
       0.102091424 -0.040215567 -0.20461752 -0.028006766
0000b0 da 9f 3c be 4a d6 5c 3d 71 69 de bc ec e1 5c be
       -0.18420354 0.0539153 -0.027149888 -0.21570557
0000c0 f9 47 2f bd e7 ae 84 bd de 89 22 3e dd 8a 2f 3d
       -0.042793248 -0.064786725 0.15872905 0.04285704
0000d0 7b 7f 59 be d6 a6 30 be 38 6e 87 3d ef a8 3d 3b
       -0.21240036 -0.17251143 0.066128194 0.0028939804
0000e0 82 ed 9b bc 24 09 1f 3d ae 8d 08 3d 24 7a 4d 3e
       -0.019034151 0.038827077 0.03333824 0.20066124
0000f0 56 85 a9 bd 1c 30 0d be 30 b4 2d bd 89 7c 24 be
       -0.08277385 -0.13787884 -0.04240817 -0.16063131
000100 6b 83 c4 bd 36 7e 5d 3d e3 3e 60 bc ef 4f 21 be
       -0.095953785 0.054075442 -0.013686868 -0.15753148
000110 d8 1a f8 bc 20 5a f2 3b b8 a8 2c 3e 0d 05 66 3e
       -0.030286238 0.0073959976 0.16861236 0.22462864
000120 54 44 b6 be 9e f7 91 bd 39 ab 46 3d 1d fb d2 bc
       -0.35599005 -0.07127307 0.048503134 -0.025754506
000130 00 a1 04 bd 6e d8 83 3c 48 6a 83 3d a9 87 0b 3e
       -0.032380104 0.016094413 0.06416756 0.13625969
000140 9d 44 a7 bd ef ee b6 bd dc ca 16 3e fa 5c 45 be
       -0.08167384 -0.08932292 0.14725822 -0.19273749
000150 d1 fc 9e be 58 0e 82 bd f6 32 4e be c7 51 e1 3d
       -0.3105226 -0.06350392 -0.20136628 0.11001926
000160 12 75 9f bd 4f 31 81 3d d4 2d 9b 3d 0d 94 27 bd
       -0.07786001 0.06308233 0.075771004 -0.040912677
000170 98 d7 8b bd 44 f4 03 3e ce 86 19 be 64 c7 26 3e
       -0.068282306 0.12886149 -0.1499283 0.16286999
000180 a2 29 42 3e 80 30 ae bd 2c 56 0c be 61 48 89 3d
       0.18961194 -0.085053444 -0.13704747 0.06703258
000190 b6 9d b6 3d 23 76 80 bd 93 78 3b bd 39 ce 97 bd
       0.089168 -0.06272533 -0.045769285 -0.07412381
0001a0 56 b3 9b be 64 14 60 3e 92 f7 81 3e 5b 41 30 3e
       -0.3041026 0.21882778 0.25384194 0.17212431
0001b0 fe a1 18 3e f0 04 24 be 43 d2 21 3e 24 bb ca 3c
       0.14905545 -0.16017509 0.15802865 0.024747439
0001c0 e9 ba 91 be ec 22 2a 3e 91 e6 76 3d a1 6f 1e 3e
       -0.28462914 0.16614884 0.06027848 0.1547227
0001d0 fc 42 9e be f6 53 bc bd d7 20 89 bd 2d 21 3b bc
       -0.3091048 -0.09195702 -0.06695717 -0.011421484
0001e0 1e 4e ae bd d2 c1 37 3d f7 d5 28 3c 10 83 b1 3d
       -0.085109934 0.044862576 0.010304919 0.08667576
0001f0 e9 ce 7f 3e 3a ff 51 3e 62 6b a1 3d f9 25 e6 3e
       0.24981274 0.20507517 0.0788181 0.44950846
000200 45 c4 9d 3d 6e e8 e9 bd 9b 58 b4 bd b1 01 36 be
       0.07703451 -0.114212856 -0.08805963 -0.17774083
000210 a0 fa 4b bd 2e a3 4c be 3c af 30 3e 30 a0 5a 3e
       -0.04979956 -0.19984123 0.17254347 0.21350169
000220 e9 07 32 3d 4b 2d bc 3c fd 26 b0 3d 88 ff 32 bd
       0.043464575 0.022970816 0.086011864 -0.043700725
000230 c3 cb 6e bd 0f 5d a2 bd ae f1 4e bd 20 73 4f 3e
       -0.05829979 -0.07927906 -0.050523452 0.2025876
000240 93 55 84 3c f0 f3 84 3c 1d e3 75 bd e8 83 04 be
       0.016154086 0.0162296 -0.060031045 -0.12940943
000250 a8 cf 5f be e1 35 5c bd c8 59 97 bd 81 58 35 be
       -0.21856558 -0.05376232 -0.07390171 -0.17709543
000260 ce 92 e3 bd cc 87 92 3c 8c c7 e8 bd db 63 46 bc
       -0.11111985 0.017887019 -0.113661855 -0.012108768
000270 d5 11 42 bd 10 ce 0a bd 5e 88 c4 3c 87 29 63 3e
       -0.047380287 -0.033887923 0.023990806 0.2218381
000280 cc cd 13 3d a5 19 a0 3d d7 4d 09 be fb 8c b4 3c
       0.036084935 0.07817391 -0.134086 0.022039881
000290 21 ea 05 be d7 71 0e 3d b8 5b 2a 3e 1c c1 08 3e
       -0.13077594 0.034776535 0.1663655 0.13354915
0002a0 f5 82 96 bd d5 f4 59 3e 0f b2 5e 3e ed a0 cc 3c
       -0.07349197 0.21284802 0.21747611 0.02497908
0002b0 1c 30 47 3d e7 26 21 be 25 f8 18 3e 0b 0b d6 3d
       0.048629865 -0.15737496 0.1493841 0.10451325
0002c0 92 de b0 bd 08 28 34 3e 48 86 04 be d6 65 fe bd
       -0.08636202 0.17593396 -0.12941849 -0.124217674
0002d0 d6 65 ce 3d f4 95 02 3c 12 a7 12 3e 1d 96 5a be
       0.100780174 0.007970322 0.14321545 -0.21346326
0002e0 67 3c 89 3c 8c 87 8d bd 48 24 99 3c b4 91 01 be
       0.016752435 -0.06910619 0.018694058 -0.12653238
0002f0 14 4a eb 3c 38 32 70 3e 29 1f f8 bc 51 77 21 3e
       0.028721847 0.23456657 -0.030288296 0.15768172
000300 aa 4c 8a bc 08 60 df 3c 32 07 ce bb b6 aa 0c 3d
       -0.01688226 0.027267471 -0.006287479 0.03434249
000310 65 54 50 3e fc 76 46 3e f9 4b 7d be b5 53 5a be
       0.20344694 0.19381326 -0.24736013 -0.21320994
000320 b5 e9 c8 3b 89 97 23 3e 98 03 97 3d e1 b3 d6 bc
       0.0061313757 0.15975775 0.07373732 -0.02620882
000330 0d 17 d0 bd c2 29 53 3c 98 c8 4e 3e f0 f3 53 bd
       -0.101606466 0.012888374 0.20193708 -0.05174631
000340 b9 48 00 3e 08 04 9f bd 9f 80 d5 3d 58 68 86 3d
       0.12527741 -0.07764441 0.10424923 0.06562871
000350 04 eb ce bb 3a 1f 2b 3d c6 46 7d bc 73 a9 1b bd
       -0.006314637 0.041777827 -0.015458768 -0.038003396
000360 cb 97 d5 bc 4d f6 14 3d 63 9d 1d 3d 8d 85 0a 3e
       -0.026073357 0.036367703 0.038480174 0.13527508
000370 be ff 82 bd 07 5a 02 bd df 3d 3b be 2a 0a b1 bd
       -0.06396435 -0.031824138 -0.1828532 -0.08644517
000380 c9 90 32 be 6b 77 12 be a9 46 bd 3d 12 b6 0f 3d
       -0.17438044 -0.14303367 0.09241993 0.035085745
000390 65 c5 d5 bd a4 86 b3 3c b2 45 89 bd 0b 9b d0 bc
       -0.10438041 0.021914788 -0.067027465 -0.025464555
0003a0 f5 9c 11 3e 6b 2c 3b 3c 53 fb 27 be c4 22 42 3d
       0.1422003 0.011424164 -0.16404466 0.047396436
0003b0 88 b1 bf bd a3 b7 f1 3d 4f 51 cf bc 9b 51 34 bd
       -0.09360033 0.11802604 -0.025307326 -0.044023138
0003c0 65 32 e3 bd 5a 7a e7 bd 78 bc 72 3e 63 32 05 3c
       -0.11093596 -0.113026336 0.23704708 0.008129689
0003d0 82 ac 32 be e5 98 43 bd 7b ad 5e bd c3 0f f6 3d
       -0.17448619 -0.047753233 -0.054364663 0.12014725
0003e0 36 d0 8e 3d 87 87 85 bd 4a b6 5f bd 36 3e de 3c
       0.06973307 -0.065199904 -0.054617204 0.027129274
0003f0 0f 3b 4c bc 3c 13 2c be 19 ba 45 3d 72 67 61 be
       -0.012465253 -0.16804212 0.04827318 -0.22012118

inception.branch1.1.pointwise.bias f4 [32]
000000 ef 21 7f bd 12 8c 9d bd c6 84 e2 bc 8b ab e5 3d
       -0.06228822 -0.07692732 -0.027651202 0.1121436
000010 98 7e 26 3e db f4 77 bc db 6d 0b 3e 38 29 42 bd
       0.16259229 -0.015134062 0.13616125 -0.04740259
000020 6f 37 e5 3d 80 0c d7 3d ee 1d 24 3c 34 30 85 3c
       0.11192214 0.10500431 0.010016901 0.016258337
000030 35 c8 c6 3c 8b 23 fe 3d 8d ee a4 bd 57 b4 67 3d
       0.024265388 0.12409123 -0.080533125 0.05656847
000040 c1 57 fb 3d 25 54 96 bc 55 97 4b 3d cc fb d5 bb
       0.12272597 -0.01835067 0.04970487 -0.0065302607
000050 d6 bc 19 3e 2d 06 8e 3d ef 4e ea 3c 84 cc 3f 3d
       0.15013441 0.06934772 0.028602092 0.0468259
000060 0d 4e fa 3d 33 2a 04 3d bb 13 43 3d 28 3e 17 3e
       0.12221918 0.032266807 0.04762624 0.14769804
000070 0a d3 2d 3e 3a e8 05 3e e5 11 ab bc 4d dd e8 3d
       0.16975036 0.13076869 -0.020882556 0.11370335

inception.branch2.0.depthwise.weight f4 [64, 1, 1]
000000 c9 21 e0 3e 90 1a 8d 3e 72 b8 15 3f be aa 5a 3f
       0.43775776 0.27559328 0.58484566 0.8541678
000010 a9 5c 8d 3f 43 82 f3 be f2 1a 53 bf a3 89 79 3e
       1.1043903 -0.4756032 -0.8246299 0.2436891
000020 c4 34 1c 3f fd c2 8a bf 2a 2b 65 bf ae 16 b8 be
       0.61018014 -1.0840756 -0.8951899 -0.35954803
000030 07 ad 95 bf 03 0b 76 be 12 c5 e0 be 51 a2 93 3f
       -1.1693429 -0.24027638 -0.43900353 1.153391
000040 9b 99 80 bf a1 63 88 bf fd 7b 88 bf 89 b3 87 bf
       -1.0046877 -1.0655404 -1.0662838 -1.0601665
000050 9e d7 e2 be b1 c9 5f bf c4 51 8b 3e 6d 09 49 be
       -0.44305128 -0.8741713 0.2721082 -0.19632502
000060 d2 37 ae 3e ab 49 71 bf c5 44 f1 3d cd aa 92 3f
       0.34026963 -0.94253033 0.11780695 1.1458374
000070 53 bd 65 bf fc 72 cc 3e 56 61 67 3f c8 14 a2 3e
       -0.8974201 0.39931476 0.903829 0.3165648
000080 a5 69 08 3f bc 88 13 bf 1c 29 d6 be 43 c1 1c 3f
       0.532862 -0.57630515 -0.4182824 0.61232394
000090 4a 28 83 bf f6 38 11 bf 17 c9 52 bf 90 f2 4c 3f
       -1.024667 -0.5672754 -0.8233809 0.8005762
0000a0 12 94 db 3e eb 1d 27 3f bf 2b 1b 3f 70 cb 0c bf
       0.42886406 0.65280026 0.60613626 -0.5499792
0000b0 f8 ee 9a be 2d 2f 0f 3f fb 89 45 3e 41 9a 49 bf
       -0.30260444 0.5593136 0.19290917 -0.78751
0000c0 a7 83 17 bf 41 85 8a 3f 3f 6f 37 3f 04 a8 8d 3e
       -0.5918526 1.0821916 0.71654123 0.27667248
0000d0 37 28 19 3e e6 98 b8 3e b3 db 65 3e 9a da 0c be
       0.14956747 0.36054152 0.2244709 -0.13755265
0000e0 d2 9c 84 3f cd 60 f4 3e b3 77 9e 3d 6d cb 4a bf
       1.0360358 0.47730103 0.077376746 -0.79216653
0000f0 61 bb d5 be 0e a4 55 3f 88 2a 06 bf d8 bc 86 bf
       -0.4174452 0.8345345 -0.5240865 -1.052638

inception.branch2.0.depthwise.bias f4 [64]
000000 48 2e 28 bf 86 d1 17 3f 81 ae 17 bf 58 1a c7 3e
       -0.6569562 0.5930408 -0.59250647 0.38887286
000010 b9 67 36 3f 6c 63 61 3f 5d 45 63 3f d2 94 18 bf
       0.7125202 0.8804233 0.88777715 -0.5960208
000020 6e ed a7 3e c7 d9 06 3f 15 76 3e bf fe a7 f1 be
       0.32798332 0.5267605 -0.7439893 -0.4719848
000030 74 0d 70 bf f6 63 18 3f 01 e5 5c bf cc e4 98 be
       -0.9377053 0.5952753 -0.8628693 -0.29862058
000040 37 30 38 bf 5c 21 9c bd f9 69 3f be 37 2c e2 bd
       -0.7194857 -0.0762355 -0.18692769 -0.110435896
000050 96 58 66 3d e3 f9 6d bf 14 89 60 3f 45 8e 41 3e
       0.056236826 -0.9295942 0.87709165 0.18901928
000060 e6 dc 76 3f 05 04 bd be 67 85 16 be 10 89 9f bd
       0.96430814 -0.3691713 -0.14699326 -0.077898145
000070 d0 76 6a bd e1 cf cb 3d c6 27 91 3e 6c 94 68 bf
       -0.057242215 0.09951759 0.28350657 -0.90851474
000080 85 4e 09 bd 24 32 bb 3e ba 42 89 be 74 7b 44 3c
       -0.033522148 0.36561692 -0.2680872 0.011992324
000090 2d ef 64 3f 82 1c 5f bf 0b 6c b9 be 6b 60 e9 be
       0.89427453 -0.87152874 -0.36215243 -0.45581374
0000a0 b6 a2 a3 3e ef 41 05 3f af 7d 11 be ab 72 63 bf
       0.31960076 0.5205373 -0.142081 -0.88846844
0000b0 3f 8e b7 be bf fd 8c 3d de ff 03 3f 14 d7 b3 3e
       -0.35850713 0.06884336 0.515623 0.3512503
0000c0 c1 cf d8 be 4d 63 49 bf a4 0b d2 be f6 72 75 bf
       -0.42346004 -0.78667146 -0.41024506 -0.9587854
0000d0 79 83 3d 3e 2b 7f 3d 3e 26 70 25 bf 4b 73 30 bf
       0.18507184 0.18505542 -0.6462425 -0.68925923
0000e0 09 74 2e 3f 5f 31 00 bf bb b2 15 3f 53 29 51 3f
       0.68145806 -0.50075334 0.58475846 0.8170368
0000f0 f6 01 8a 3d 40 4e 87 be 9f 48 68 3f 0a 95 79 3e
       0.06738655 -0.26426888 0.9073581 0.2437326

inception.branch2.0.pointwise.weight f4 [32, 64, 1]
000000 d0 a8 1f 3e d4 2e 5a 3c 06 ef 61 be 58 c8 07 bd
       0.1559174 0.013316829 -0.22063836 -0.033150047
000010 a4 16 22 be c4 29 5c bd 6b ae 36 bc 7c 65 42 bd
       -0.15828949 -0.05375077 -0.011149983 -0.047460064
000020 73 f0 b0 bc 40 2a 08 be 93 9a 0b 3d af ca 12 bd
       -0.02159903 -0.13297367 0.03408296 -0.035837825
000030 a1 8b 11 bd 27 5e 02 bc 90 f1 b0 bd 14 7f ba bd
       -0.03553355 -0.007957018 -0.086398244 -0.091062695
000040 c2 8a a6 bd 4d 26 54 3e e1 f0 03 be 50 c4 e4 bd
       -0.08131935 0.20717736 -0.12884857 -0.11170256
000050 c6 07 b8 3c 9c eb 4a bd 82 fa a0 bd ae ab be bc
       0.022464644 -0.0495411 -0.078602806 -0.023275223
000060 f6 eb c5 3d 68 db f9 3c c8 a2 2a be 8c 57 0d 3e
       0.096641466 0.030500129 -0.16663659 0.13802928
000070 63 e5 28 3d bc 0c d9 3c 07 e4 a5 bd 43 e9 43 be
       0.041234385 0.02649533 -0.081001334 -0.19131951
000080 ab 48 81 bc da c6 97 be c7 50 02 be 22 94 cf 3d
       -0.015781721 -0.296439 -0.12726127 0.10135676
000090 3a 52 1e 3d 92 dc 2f bd 33 ca 9c bd 1c 82 23 3e
       0.038652636 -0.04293496 -0.07655754 0.15967602
0000a0 45 2e 18 bd 12 62 2c 3e 4f d0 38 3d 36 e7 0a bd
       -0.0371535 0.16834286 0.045120534 -0.033911906
0000b0 42 db 9a bd fe a6 5b 3d a5 e2 e2 3d 48 48 20 3e
       -0.07561351 0.053626053 0.11078385 0.15652573
0000c0 4d b4 99 bd 8b 17 3f be b6 96 dc bc d1 ec 80 3d
       -0.07505093 -0.18661325 -0.026927333 0.06295169
0000d0 a4 40 35 bd 70 7e 45 3e 3b e2 da bd 70 76 7f 3d
       -0.0442511 0.19286513 -0.10687681 0.06236881
0000e0 bd c6 e9 bd 11 bb 9e bd d0 01 a7 bc 4a 7e 1b 3e
       -0.114148594 -0.07750524 -0.020386606 0.15184894
0000f0 fb f8 09 3e ac 12 0e 3d fb aa fa bd 9b 62 a2 bd
       0.13473885 0.034685776 -0.12239643 -0.07928964
000100 da 16 90 3c 6e 09 d4 bd 5b 4a 70 3d ec 8f 42 3e
       0.017589021 -0.10353361 0.05866466 0.19000214
000110 1a 84 98 3d ff 6c d1 3d 5f f5 34 bd 46 33 e4 bd
       0.074470714 0.102258675 -0.044179317 -0.11142592
000120 ba 98 6e 3d 3d 9c e0 3d 42 32 c8 bd b4 3d d4 3d
       0.05825112 0.109673 -0.09775211 0.103633314
000130 02 66 32 3c b8 c3 c5 bd b2 22 b7 bd 1a 05 30 3e
       0.010888578 -0.09656471 -0.089421645 0.17189446
000140 28 f4 fb 3b 71 3f 04 be 0f 00 0b be 1c 1c a0 3b
       0.007689018 -0.12914826 -0.13574241 0.0048861634
000150 7a ca 7d be bc 3a 11 3e cf 10 b8 3d 55 fc da bc
       -0.2478427 0.14182562 0.08987581 -0.02673165
000160 ea 88 f5 bc 9b f0 98 3d c5 14 e1 bd 29 4e 35 3e
       -0.029972512 0.07467767 -0.109902896 0.17705597
000170 14 f6 ef 3d fb 07 1a bd 04 f8 1b bd 09 2a 46 bd
       0.117168576 -0.037605267 -0.038078323 -0.04837993
000180 d8 77 b5 3d 03 cd 09 be 9c 53 27 3e be 8e f3 3a
       0.08860749 -0.13457112 0.16340488 0.0018581969
000190 d5 d9 1c be 21 6f 54 bd a2 03 d9 bb b9 e6 80 3b
       -0.15317471 -0.051863793 -0.0066227475 0.0039337543
0001a0 0f 74 f3 3c 9e 16 06 bc 48 d3 1b 3e d4 c6 99 3d
       0.029718427 -0.008184103 0.15217316 0.075086266
0001b0 d9 cb 7b bd 31 b4 88 bc 2a f9 54 bd 37 e0 33 3e
       -0.0614737 -0.016687484 -0.051995434 0.17566
0001c0 95 e3 69 bd 2b bd 27 3d 93 9f 1c bd 94 3d 38 39
       -0.057101805 0.04095189 -0.03823812 0.00017570547
0001d0 6b 96 02 3e fb 7c 28 3c da 4c 9f bd 4b 6c 39 bc
       0.12752692 0.010283704 -0.0777833 -0.011317323
0001e0 fb 47 e9 3d 5f 44 a2 3b 94 41 f9 bd 14 2b 98 bd
       0.11390682 0.004951998 -0.12170711 -0.074300915
0001f0 ba 45 8c 3d a5 e8 9a 3e f6 c2 15 3e 3d d2 15 be
       0.06849237 0.3025562 0.14625153 -0.14630981
000200 a5 f0 e4 bc d7 45 06 be c4 5d 61 3e 83 a5 1f 3e
       -0.02794678 -0.1311258 0.22008425 0.15590481
000210 36 f7 9a bb 1c aa 84 bd 11 2a 13 be 56 07 ec 3d
       -0.004729177 -0.06477758 -0.14371516 0.11524837
000220 70 a9 1a bd 4c 26 a4 3e 5f ee 9a 3d 0c 32 47 3e
       -0.037759244 0.32060468 0.07564997 0.19452685
000230 ee 91 33 3e c7 4b 19 bd e1 9b da bd 73 e8 6d 3d
       0.17536137 -0.037425783 -0.10674263 0.05808301
000240 c0 c6 12 3e ed f0 a2 bd e9 7d f7 3d b0 f2 7a 3e
       0.1433363 -0.07956109 0.12084562 0.2450664
000250 54 57 28 be 02 62 5b bd 13 15 a6 3d f8 4b 92 be
       -0.16439563 -0.053560264 0.08109488 -0.28573585
000260 2c a0 08 be b2 f0 2c 3e 0a 62 aa bd c1 18 39 be
       -0.1334235 0.16888693 -0.08319481 -0.18075849
000270 34 f8 5e 3e 95 b1 91 be 09 ea 7a 3d 71 b0 18 3d
       0.2177437 -0.28455797 0.06125835 0.037277643
000280 ae a3 22 bd 2c ae b5 3c 03 7a 7d 3d 46 3e 2f be
       -0.03970688 0.022177778 0.061883938 -0.17113599
000290 6a a3 6b 3d 47 38 a3 3d 2e bb ce 3d 82 f8 43 bd
       0.05752889 0.079697184 0.100942954 -0.047844417
0002a0 8a 1d 7e 3d c2 b4 2c 3d 75 a6 b1 3d 6e 21 06 3e
       0.06203989 0.04216457 0.08674327 0.1309869
0002b0 f9 a1 0c 3c 13 b0 95 3c 66 ee ec 3d 70 9c 0a be
       0.008583539 0.018272435 0.115689084 -0.13536239
0002c0 15 16 c1 3d 84 d8 1c 3d 35 bc 85 be 4c 18 5c bd
       0.0942804 0.038292423 -0.26120153 -0.05373411
0002d0 61 8b 4c bd 3e 6c de b9 be 88 17 3e b7 a5 e5 3c
       -0.04993761 -0.00042423786 0.14798257 0.02803312
0002e0 d3 61 de 3d 37 3a 98 bb 42 a0 65 3d 38 9f eb bd
       0.10858502 -0.0046456116 0.056061037 -0.11504978
0002f0 52 b6 bf bc 8b 51 96 3e 94 85 ba 3d 61 3f 4f bd
       -0.023402367 0.29359087 0.09107509 -0.050597552
000300 a9 48 31 3c 4f 2f 0d 3e b0 23 3b bd 2d 8b 97 bd
       0.010820546 0.13787578 -0.04568833 -0.073995925
000310 75 d8 f6 bd d7 a1 14 3e 6c 61 6d 3e e3 f0 05 3c
       -0.12053005 0.14514862 0.23181695 0.008175108
000320 98 be 42 3e 9a 36 b1 be ae 4e 27 3e a3 93 83 3d
       0.19018018 -0.3461197 0.16338608 0.06424644
000330 1c 88 fe 3c 5c 9c 8a bc 85 7a a8 bd 32 5b 97 3d
       0.031070761 -0.016920261 -0.08226494 0.07390441
000340 1e cd 2f bd 58 d9 51 3e b3 c0 89 bd ae 42 cf 3d
       -0.042920224 0.20493066 -0.067262076 0.1012014
000350 7e 38 04 3e 3e a8 95 3c 05 61 a1 bd 1b 49 fa 3d
       0.12912175 0.0182687 -0.07879833 0.12220975
000360 55 61 a6 bd 68 36 04 bd ca df 93 3c 5e 2c 20 3e
       -0.08124033 -0.03227845 0.018051047 0.15641925
000370 3b 9c ad 3d 00 96 1b 3e 8e 87 e6 bd 94 68 15 be
       0.08477064 0.15193939 -0.11256324 -0.14590675
000380 7e f8 3a be f8 ce 2a be 91 79 9b 3c bb aa a3 3e
       -0.18258855 -0.16680515 0.018978866 0.31966195
000390 15 29 e4 bd 6c e5 5a 3c 84 ab 2e be 86 19 87 3e
       -0.11140648 0.0133603625 -0.17057616 0.2638666
0003a0 8c 77 ca bc dc 5a 02 3e b9 3b 71 3d cc cc 89 3d
       -0.024715208 0.12729973 0.058894847 0.06728515
0003b0 6a c6 0b bd b9 6b 7d 3d 93 08 c7 bc c2 08 12 be
       -0.03412477 0.06187031 -0.02429608 -0.14261153
0003c0 0b 66 0d be 7d d1 dc 3b 36 21 18 3e ab 0e 83 3d
       -0.13808458 0.00673884 0.14856419 0.06399282
0003d0 73 bd ab bd dd 28 57 3d 57 71 0e be d7 34 0a 3d
       -0.08385744 0.052529205 -0.13910423 0.0337418
0003e0 44 ce 4c bd c9 08 18 3d de db 54 bc 0f da 37 3e
       -0.050001398 0.037117753 -0.012991874 0.17954277
0003f0 06 67 61 bd 0b 82 e5 bd df ee 74 bd 47 61 b8 3d
       -0.05502989 -0.11206444 -0.059798118 0.09002929

inception.branch2.0.pointwise.bias f4 [32]
000000 b8 c2 de ba 42 63 d3 3d e8 49 bc b9 f7 e5 e2 3d
       -0.0016995287 0.10321666 -0.0003591322 0.110790186
000010 55 12 b8 3d 05 cb 4a bd 16 b3 db 3d 63 08 b3 3d
       0.089878716 -0.04951002 0.10727517 0.08741834
000020 7b 81 42 bd af 85 6b bd 43 31 41 3d 69 5d a7 3d
       -0.047486763 -0.057500537 0.04716612 0.081721134
000030 03 8c ae 3c f5 b4 ac 3d 6a ce d5 bd 16 26 bb bd
       0.021306997 0.08432952 -0.10439761 -0.09138124
000040 bf cd b8 3d 97 83 02 3d 3f fa d9 bb 89 44 43 be
       0.09023618 0.031863775 -0.006652146 -0.19069113
000050 a8 61 96 bd 8b 7e 0c 3d 76 11 08 be 0d 8a a5 3d
       -0.07342845 0.03430037 -0.13287911 0.08082972
000060 c6 ac 42 bd d3 03 fb 3c 89 3c f8 bc 1e d7 64 3d
       -0.04752805 0.030641472 -0.030302303 0.055869214
000070 f3 ec d0 3c 5c 90 a9 bd 97 76 b6 bc 0d 50 bb bc
       0.025503611 -0.082794875 -0.022273345 -0.02286532

inception.branch2.1.depthwise.weight f4 [32, 1, 1]
000000 80 c1 e4 3e de 1e 23 3f 9f 12 f8 3e 4d 81 69 bf
       0.4467888 0.63718975 0.48451707 -0.9121292
000010 e8 88 9a 3e 21 23 80 3f 0b de 58 bf a0 85 7c bf
       0.30182576 1.001072 -0.8471381 -0.98641396
000020 83 e4 63 3f 58 10 84 3f 36 1d 5b 3e 59 15 0e bf
       0.89020556 1.0317488 0.21397862 -0.55501324
000030 f9 3d 40 3f 67 6f 75 bf f1 85 7f 3f bb 93 b9 be
       0.7509456 -0.9587311 0.99813753 -0.36245522
000040 dd e7 77 bf 6c 66 17 bf 6f 0d 5a be 9c 00 f3 3e
       -0.9683817 -0.5914066 -0.21294187 0.47461402
000050 2c cc ed be 4b 52 9c 3f 59 b9 89 3f 14 2c 87 be
       -0.46444833 1.2212614 1.0759689 -0.26400816
000060 8c a1 8d 3f f5 c7 7e 3f ca b2 f0 be 16 5d 63 3f
       1.1064925 0.9952386 -0.47011405 0.8881391
000070 d0 bc 97 3f 55 34 53 3e 31 61 0a 3f f4 ff 85 3f
       1.1854496 0.20625432 0.5405455 1.0468736

inception.branch2.1.depthwise.bias f4 [32]
000000 40 53 7a 3f a1 87 ac be 8c aa db 3e 1a 3a a4 3d
       0.9778328 -0.33697227 0.42903554 0.080188945
000010 01 38 6f 3f 28 7f db 3e cf 17 50 bf 6e 7a 33 3e
       0.9344483 0.4287045 -0.8128633 0.17527172
000020 f1 09 62 3f 7c b0 56 3f a5 f5 14 3f 7f 94 4e be
       0.8829642 0.83863044 0.58187324 -0.20173834
000030 1f 17 c7 bd 6a b6 4d 3f 08 84 21 bf ad 3f 1c 3f
       -0.09721207 0.80356467 -0.6309209 0.6103466
000040 88 34 5c 3c a0 bd a5 3e 2d fc 76 bf da ad fb be
       0.013440259 0.32371235 -0.9647854 -0.49156076
000050 c8 62 84 3f 6f 8c 51 bf 86 31 53 3f 1a c9 2b 3f
       1.0342646 -0.8185491 0.8249744 0.6710373
000060 9c f5 be 3e 98 d5 c6 be 07 7d 7f bf 7e d3 0c 3f
       0.3729676 -0.38834834 -0.9980015 0.5501021
000070 63 ac 86 be f0 77 b0 3e 41 68 17 3f 23 6c ff 3e
       -0.26303396 0.34466505 0.59143454 0.4988719

inception.branch2.1.pointwise.weight f4 [32, 32, 1]
000000 21 14 87 bd e8 7f 37 3d 39 29 1c 3e 41 ce 2c be
       -0.06595636 0.044799715 0.152501 -0.16875555
000010 a5 19 e7 bd fb cd 69 bd a4 37 29 be 89 e7 5d 3d
       -0.11284188 -0.057081204 -0.16525131 0.054175887
000020 58 0b 2c 3d 52 7a 32 3e f6 d3 63 3d 8b 13 21 be
       0.042003006 0.17429474 0.055622064 -0.15730111
000030 20 69 48 be 01 47 62 3e 10 76 68 be 3f a2 3a 3e
       -0.19571352 0.22097398 -0.22701287 0.18225954
000040 43 7e 71 bd 3a ce 34 3e ab f0 a6 3b d6 17 5b bd
       -0.058958303 0.17656794 0.005094608 -0.05348953
000050 1e 8b 38 3e 55 69 49 be a5 e7 67 3d d4 16 9c bd
       0.18021819 -0.19669087 0.056617398 -0.076215416
000060 48 61 f7 bd 90 46 6e be 13 30 09 bc 04 0f b3 bd
       -0.12079102 -0.23269105 -0.008373278 -0.087430984
000070 5e c2 94 be e1 37 c2 bd 54 14 8b bb 1a 36 14 be
       -0.2905454 -0.09483314 -0.0042443667 -0.14473763
000080 ba 5c fe bd 3d 1a 14 be 89 b6 16 be 6b 48 c1 bc
       -0.1242003 -0.14463134 -0.14718069 -0.023594102
000090 74 89 5f bd 20 dd d5 bb f3 24 72 3c 6e eb 36 3e
       -0.054574445 -0.0065266043 0.014779317 0.17863247
0000a0 5f b4 ba bc bf 8a dc bd ff d9 25 be 7f 70 09 3e
       -0.022791086 -0.10768651 -0.1619644 0.1342182
0000b0 40 1e b7 3d 22 20 02 be 0d 30 7f bd 02 74 4c 3d
       0.089413166 -0.1270757 -0.062301684 0.04991532
0000c0 0d 64 90 3d 87 0a 9f bd ce 54 21 be 8c 7c aa 3d
       0.07050333 -0.0776568 -0.15755007 0.08324537
0000d0 da 06 18 be 86 2a cb 3c 59 8c 53 3d f4 84 bc 3d
       -0.14846364 0.02480055 0.051647518 0.09205046
0000e0 6c b0 ca bc ef e4 97 bd b5 02 d6 bd 90 c5 cb 3c
       -0.024742328 -0.074167125 -0.10449735 0.024874479
0000f0 3a ac 52 bc d1 3f e0 3b e9 86 0d bd 77 b3 19 3e
       -0.012858445 0.006843545 -0.03455249 0.15009867
000100 ef 41 8b 3d 22 27 1c be 3f 8e be 3d e5 83 d6 bd
       0.06799685 -0.15249303 0.09304475 -0.10474376
000110 9d ee ba bd 5a 10 49 bd 62 15 e8 bb 7b 64 01 3d
       -0.09127543 -0.04908786 -0.007082627 0.031589966
000120 de fe e2 3d 86 ab bf bd bb 21 06 be 16 68 43 bd
       0.11083768 -0.093588874 -0.13098805 -0.047706686
000130 c1 3e a1 bd 5f d1 07 be a1 92 22 3e 0d e4 b3 bc
       -0.078732975 -0.13263462 0.15876247 -0.021959329
000140 7f ec f9 bc 70 16 02 3c d6 c1 27 3e 70 ce d9 3d
       -0.030508278 0.00793992 0.16382536 0.10635078
000150 8c c6 1a be 2d 70 1e 3e 93 ab 26 be 28 c8 bb bd
       -0.15114802 0.15472479 -0.16276388 -0.09169036
000160 86 05 09 bc 3f 4d 94 3d ee 79 51 bd 0e 75 8c 3c
       -0.008363133 0.07241296 -0.05114167 0.01714566
000170 ef b1 0f bd 8a 1d e3 bd 54 0b cf 3d d2 a3 e4 3d
       -0.0350818 -0.110896185 0.101095825 0.11164059
000180 17 6f 5a 3e 25 4a a6 3c 1b 1f e9 bd d2 ec 29 bd
       0.2133144 0.020299027 -0.11382886 -0.041485615
000190 46 92 3f 3e 3e 4a d8 3d 7d 5b 6d bd e8 5c 0f be
       0.18708143 0.105610356 -0.05794858 -0.14000285
0001a0 a9 05 2c 3e 58 a1 82 bd 74 c0 09 3d 75 40 cf bd
       0.16799034 -0.0637843 0.033630803 -0.10119716
0001b0 97 33 6f be b2 46 0f 3e 95 30 88 be a4 1f 22 3e
       -0.23359524 0.13991812 -0.26599565 0.15832382
0001c0 e0 77 1e be c9 82 e2 bc 8d ce 82 3c 38 bd 76 bd
       -0.15475416 -0.027650254 0.015967632 -0.060239047
0001d0 2f 90 2f bd 0d 17 94 bd 62 4d 59 be 41 a8 22 3e
       -0.042862114 -0.07230959 -0.21220925 0.15884496
0001e0 06 11 43 be 4b 21 5d be ce c1 2a be fa 56 8a bc
       -0.19049463 -0.21594732 -0.16675493 -0.016887177
0001f0 e8 42 02 be 18 cc 56 bd dc 7d 3c 3d 2a e2 d1 bd
       -0.12720835 -0.052440733 0.046018466 -0.102482155
000200 6d c5 1f 3d 59 ca 5c 3e b7 a6 48 3c 20 74 10 be
       0.03900664 0.21561565 0.012246779 -0.14106798
000210 68 91 85 bc b2 34 26 be 80 fd d0 3d 91 98 6c 3e
       -0.016304687 -0.16231039 0.10204601 0.23105074
000220 18 83 ab 3e 6f 7a 8b 3d df 94 74 3d e4 dd 54 3d
       0.33498454 0.06810462 0.059712287 0.051969424
000230 f4 9e 5a be 9d 02 e2 bd 60 ba e8 bc 80 75 6b bc
       -0.21349698 -0.11035655 -0.028409183 -0.014371276
000240 72 6a 93 bd e6 87 84 3e 60 06 b0 3d ff 4a 47 bc
       -0.07198037 0.25884932 0.08594966 -0.012163877
000250 dc 48 5c ba 72 4c 45 be 4a 5e 35 be 20 59 a3 bd
       -0.0008403191 -0.19267443 -0.1771175 -0.079759836
000260 ff f0 36 3d eb 8c 5e be de cf 43 be 65 ea 7d 3e
       0.044663426 -0.21733443 -0.19122264 0.24796446
000270 a8 85 8d bb 3e eb 5c bc 71 3a a8 3e 79 44 0a 3e
       -0.0043189116 -0.0134838205 0.32857087 0.13502683
000280 29 10 0d bd 00 98 52 bd 73 43 55 be 4c 33 a6 3d
       -0.03443924 -0.05141449 -0.20826511 0.08115253
000290 c0 73 55 3e e2 af cc 3d 4a c0 36 3e e0 10 ac bc
       0.20844936 0.099944845 0.1784679 -0.02100414
0002a0 d7 39 cd bd c5 00 a8 3a ff a8 5b 3d 45 f0 db bd
       -0.10020798 0.0012817612 0.053627964 -0.10739187
0002b0 33 f5 36 3e c3 15 58 3e be cd 80 3e f5 ee 05 3e
       0.17866974 0.21102051 0.2515697 0.13079436
0002c0 11 16 61 3e 61 2f 85 be c0 14 59 3c f0 52 63 be
       0.21981074 -0.2601271 0.013249576 -0.22199607
0002d0 3f 87 0c 3e 6d ac 6c 3e 25 38 33 3e 5b fa 85 bc
       0.13723467 0.2311265 0.17501886 -0.01635473
0002e0 86 99 8c 3d 2c b8 f1 3d 1b 8a a6 bb c6 a5 82 be
       0.0686522 0.11802706 -0.0050823814 -0.255171
0002f0 81 66 a6 3e 52 2b 22 3e da cc 3e be 38 02 90 3e
       0.3250008 0.15836838 -0.18632832 0.28126693
000300 6a 24 1f 3e b9 bb 44 3e cf e2 86 3c 0f 0c 9d bd
       0.15541235 0.19212236 0.016465573 -0.076683156
000310 51 16 b8 bb fc 2d 0d be b0 4d 3c be c5 8d d2 bd
       -0.0056178947 -0.13787073 -0.1838901 -0.10280947
000320 2c 6a b2 bd 23 fd 82 bd 06 53 a4 bd f4 70 2f be
       -0.08711657 -0.06395938 -0.08023648 -0.17132932
000330 c0 61 32 be 98 e3 50 3e 03 e7 1c be 46 38 83 3d
       -0.17420101 0.2039932 -0.15322499 0.06407218
000340 e8 b3 a6 bd 37 90 05 3e 13 0a 15 be 96 13 19 be
       -0.08139783 0.13043295 -0.14554624 -0.14948878
000350 89 6c b9 3d b9 77 13 be c4 55 fc bd 8d 4f f2 3d
       0.090539046 -0.1440114 -0.12321046 0.11831579
000360 75 11 35 3d cd ee 73 be 5f 4a be bd 54 e7 52 3e
       0.0442061 -0.23821564 -0.09291529 0.20596057
000370 c8 78 15 3d f1 23 02 3e 1c fb 1b 3e aa 28 8e 3c
       0.03649214 0.12709023 0.1523251 0.017353375
000380 fc 5e 9b 3d de eb 27 3e a0 7f bc bc 5d d2 21 be
       0.07586476 0.1639857 -0.023010075 -0.15802903
000390 38 a8 16 be 24 ff 32 be 5e a7 ba bd 75 d3 8f 3d
       -0.14712608 -0.17480141 -0.09113954 0.07022754
0003a0 26 78 47 3e a5 5c 09 be 4b bf 05 3e b7 3f f2 3d
       0.19479427 -0.13414247 0.13061254 0.11828559
0003b0 ba ec f8 bc 64 88 69 bd cf 33 5e be 09 13 9f 3d
       -0.030386318 -0.057014838 -0.21699451 0.077673025
0003c0 6f 98 10 be c9 36 f2 3e fe bf 63 3c cb bd 4f 3a
       -0.14120649 0.47307423 0.013900755 0.00079247047
0003d0 2f 23 b0 bc 76 13 9c be 67 28 ba be 17 08 57 3e
       -0.021501152 -0.30483598 -0.3635895 0.2099918
0003e0 3c 2a 39 be 0e ff 98 be ee c9 4c be 18 43 3f 3e
       -0.18082517 -0.2988209 -0.19998905 0.18677938
0003f0 39 59 c0 bd 34 fc 55 3c 87 cb 2e 3e 3c df f4 3d
       -0.09392018 0.013060618 0.17069827 0.11956641

inception.branch2.1.pointwise.bias f4 [32]
000000 da d1 66 3e 25 d1 01 bd 0f 10 1c 3c 56 d6 57 3e
       0.2254099 -0.031693596 0.009525313 0.21077856
000010 1d 49 62 3e 4f ce 98 bc 92 bf e8 3b c5 f4 f8 bd
       0.22098203 -0.018653063 0.007102915 -0.12156061
000020 05 76 93 bd 89 0b c5 3c e8 00 09 3e b0 49 9d 3c
       -0.07200245 0.024053352 0.13379252 0.019200176
000030 14 0e 0a 3e 3a 82 12 bd 36 cb 6b bd f3 91 f1 bd
       0.13481933 -0.035768725 -0.057566844 -0.11795416
000040 d9 af a6 bd 4e 72 28 bd 84 b5 41 3e d4 84 69 3b
       -0.08139009 -0.041124634 0.18916899 0.003563215
000050 e2 4a 0c 3c 5f 68 13 3e f3 95 15 bd b4 83 d9 bb
       0.008562775 0.14395283 -0.036519956 -0.0066380147
000060 a0 7d da 3d f0 48 37 3e 91 d8 2a 3d 7f 48 81 bb
       0.10668492 0.17898917 0.04171044 -0.00394541
000070 9d e3 c4 3d ab 93 da bc c8 5b 73 3d 0e f9 0e 3e
       0.09613726 -0.026681742 0.0594137 0.13962194

inception.branch3.0.depthwise.weight f4 [64, 1, 1]
000000 fd 82 15 3e bf 94 9e bd 1b 47 ba 3e e4 c9 3f 3e
       0.1460075 -0.07743215 0.36382374 0.18729359
000010 5f 70 97 3e ab 09 4f bf c4 6d ec 3d 9b 7d de be
       0.2957792 -0.8087413 0.11544374 -0.43455204
000020 8d e0 29 bf 29 65 31 bf f4 e3 51 bf de f3 32 3f
       -0.6635826 -0.69294983 -0.81988454 0.6990336
000030 53 2d c6 be e6 64 39 bf 0b 57 6d bf 4f 34 81 3f
       -0.38706455 -0.72419584 -0.9271094 1.0094088
000040 a4 9f 43 bf ed c2 f7 bd c0 82 8c bf 99 89 8a be
       -0.7641547 -0.12097726 -1.0977402 -0.27058104
000050 9a 8f 96 be 16 ee 0b bf 20 0d c8 3e 00 ba 6e bf
       -0.29406434 -0.54660165 0.39072514 -0.93252563
000060 2d 07 8c 3e f4 61 29 be 23 0a 7f bf a7 a4 08 bf
       0.27349225 -0.16541272 -0.9962484 -0.5337624
000070 8a 72 21 bf fd f0 3a bf 6c b7 b6 3c 1e 33 73 3f
       -0.630654 -0.7302397 0.02230426 0.94999874
000080 eb f1 81 bf 8c 08 89 bf 51 3a 26 be 97 35 3b be
       -1.0151953 -1.0705733 -0.16233183 -0.18282162
000090 27 7b 6c bf ae cd bb bd ba 7e cb 3e 10 bf 59 bf
       -0.92375416 -0.0917009 0.39745122 -0.85057163
0000a0 37 14 04 bf 71 f7 bc 3e 5f 2d 25 3f 24 57 67 3d
       -0.51593345 0.36907533 0.64522356 0.05647959
0000b0 75 3a 89 3f 02 de c9 3d cf 30 52 3e dd 05 71 3e
       1.0720965 0.09856798 0.20526432 0.23537393
0000c0 dc 6d 0f 3f fe 66 19 be 54 d3 40 3e fe db 6e bf
       0.5602701 -0.14980695 0.18830615 -0.9330443
0000d0 d4 fe 86 bf 72 57 51 bf 6e 2b c4 be 6f b9 07 3d
       -1.0546517 -0.81774056 -0.38314384 0.033135828
0000e0 8d 81 bf be 2a 10 48 be 58 59 01 3f 88 f9 39 bf
       -0.37403527 -0.19537416 0.5052695 -0.7264638
0000f0 eb a9 20 bf ed 49 d3 3e e5 fa 40 3f 41 d9 d9 3d
       -0.62759274 0.41267338 0.75382835 0.10637141
