experiments/1005/pretask_mHealth_4rot.pth (torch, 160347 bytes, 48 tensors)

stem.conv1d.weight f4 [64, 23, 3]
0.20201644 0.068434276 0.13719946 -0.035023287 -0.053127278 -0.051807575 -0.15260068 -0.085228
0.012065315 0.062971175 0.10343457 0.027014963 -0.005299637 0.031667776 -0.035080124 -0.0731897
0.03992503 -0.11390344 0.057012197 0.08385402 0.16658004 -0.070361525 -0.06715068 -0.017331187
0.016476411 -0.080467306 -0.07485514 0.1719307 -0.0069372435 0.01300185 0.07146752 0.0074732937
-0.108241916 0.0037730765 -0.013416135 0.015787845 0.028168453 -0.04717918 0.023726365 -0.01648244
0.051843274 -0.038136274 0.10372303 -0.0362043 -0.10677877 -0.008103408 0.14651257 0.022024285
-0.022981023 -0.059985287 -0.010328538 -0.07837561 0.121539675 0.12762597 0.038937826 0.12531471
0.11151594 0.105443135 0.07823446 0.025110101 -0.0016409423 -0.04167852 0.05290247 -0.026324121
-0.018026164 0.04999539 0.017563028 -0.023263112 0.008476625 0.033322293 0.06709864 0.02964036
0.12714575 0.065980606 0.06141972 0.03705453 -0.09100678 -0.04318732 -0.06586464 0.121828064
0.006812381 -0.008978317 0.012193695 0.003317739 -0.17008577 -0.04579291 -0.10153548 0.110565916
0.014372568 0.20446463 -0.049840607 -0.06480079 -0.11917017 -0.13660178 -0.10151604 -0.15285833
0.05042529 0.029735455 -0.010863394 0.023306506 0.14198114 0.098905 -0.022205057 -0.0005622937
0.028120397 -0.019309962 0.016004372 -0.000464159 0.025293918 -0.033716813 0.011237289 -0.029157259
0.056958873 -0.10927149 0.055593807 -0.07812469 0.07677166 0.024897091 0.0048178616 0.0029373462
-0.070495166 -0.09765328 -0.0111723915 -0.060113117 -0.089062326 0.044704903 -0.16043155 -0.05817727
-0.18568 -0.046996452 0.043530423 0.0070536234 -0.024439156 0.055559922 -0.029453034 -0.039678685
0.049704444 -0.009901211 -0.14558913 -0.1375674 -0.1547899 0.11221976 0.14414209 0.057235055
-0.050281156 -0.02444549 -0.113751985 0.06441462 0.027881807 -0.014567242 -0.09867241 0.012839213
0.07238819 -0.15918411 -0.24008745 -0.035820533 0.004778506 -0.037263274 -0.016703464 -0.031896014
-0.043842502 -0.12458456 -0.15857495 -0.18670133 -0.061413147 0.1386686 0.041364644 0.15600964
0.12610586 0.12563254 0.09255078 0.03741984 -0.017913632 -0.013362639 0.00398604 -0.009958993
0.010825088 0.034264393 -0.019841626 -0.007066572 -0.08116993 0.08081539 -0.08481826 0.04525952
-0.18011607 -0.035547037 0.08943365 0.04167856 0.018402405 0.050873384 0.09462736 0.118817925
-0.1296829 -0.14838634 -0.05550701 -0.20098282 -0.0796343 -0.1963821 0.05323706 -0.09842644
0.048636775 -0.039371423 0.041023422 0.0010249787 0.05428686 -0.09451378 0.045757357 0.08025177
0.03694636 0.15231353 -0.05162773 -0.06266604 -0.12649736 -0.08286068 -0.04072969 -0.08541866
0.047086507 0.059546743 -0.07850051 -0.0070934207 -0.098355405 -0.025990179 0.10489838 0.15242362
0.118673116 0.08456392 -0.040042564 0.1264349 -0.0033242663 -0.17175627 0.037480265 0.13249762
0.041318078 0.059296876 -0.01836816 0.10103797 0.0054861177 0.13222376 0.11484303 0.034145404
-0.015771985 0.0036406636 0.010143524 0.01775379 -0.018611891 -0.004010265 -0.051350348 0.04224219
0.009711362 0.0068838964 0.11888359 -0.01987174 0.059007097 -0.08087034 0.052135475 0.035261646
00000000: 66dd 4e3e 4527 8c3d 047e 0c3e 9474 0fbd
00000010: fd9b 59bd 2e34 54bd 5a43 1cbe 058c aebd
00000020: 99ad 453c 08f7 803d 81d5 d33d 7c4e dd3c
00000030: 94a8 adbb 12b6 013d 2db0 0fbd 7be4 95bd
00000040: 6e88 233d 3546 e9bd 9f85 693d a8bb ab3d
00000050: f593 2a3e b419 90bd 4c86 89bd 22fa 8dbc
00000060: 8af9 863c 0bcc a4bd a74d 99bd 9a0e 303e
00000070: d151 e3bb b605 553c 905d 923d 88e2 f43b
00000080: f0ad ddbd b845 773b 59cf 5bbc 8355 813c
00000090: 87c1 e63c f53e 41bd cb5d c23c 2f06 87bc
000000a0: 9d59 543d c834 1cbd bd6c d43d f64a 14bd
000000b0: d4ae dabd 28c4 04bc 6407 163e 466c b43c
000000c0: b342 bcbc 22b3 75bd 0739 29bc 6483 a0bd
000000d0: cbe9 f83d 62b0 023e 457d 1f3d 8052 003e
000000e0: 7862 e43d 92f2 d73d 6339 a03d b3b3 cd3c
000000f0: e314 d7ba 19b7 2abd 43b0 583d afa5 d7bc
00000100: 9bab 93bc f7c7 4c3d 57e0 8f3c 4892 bebc
00000110: 8be1 0a3c f57c 083d 036b 893d 57d0 f23c
00000120: 7f32 023e d720 873d 3f93 7b3d 7ec6 173d
00000130: c361 babd 30e5 30bd 0ae4 86bd fe80 f93d
00000140: 653a df3b ca19 13bc 10c8 473c 6d6e 593b
00000150: f72a 2ebe 5991 3bbd d5f1 cfbd 6270 e23d
00000160: eb7a 6b3c 2d5f 513e aa25 4cbd 47b6 84bd
00000170: 7d0f f4bd 56e1 0bbe a4e7 cfbd e586 1cbe
00000180: c08a 4e3d c597 f33c 60fc 31bc 49ed be3c
00000190: 8163 113e b48e ca3d 61e7 b5bc e466 13ba
000001a0: bf5c e63c ed2f 9ebc 9a1b 833c 5e5a f3b9
000001b0: 3135 cf3c a41a 0abd 9b1c 383c 34db eebc
000001c0: b54d 693d bbc9 dfbd 55b6 633d d6ff 9fbd
000001d0: 763a 9d3d fcf4 cb3c 27df 9d3b 7e80 403b
000001e0: c55f 90bd 71fe c7bd 680c 37bc 2c39 76bd
000001f0: 4f66 b6bd 7d1c 373d 2b48 24be 4a4b 6ebd
00000200: e622 3ebe 5a7f 40bd f54c 323d 1522 e73b
00000210: a034 c8bc cd92 633d 7d47 f1bc 1e86 22bd
00000220: e396 4b3d b038 22bc 5115 15be 78de 0cbe
00000230: 3e81 1ebe 79d3 e53d fc99 133e 4e6f 6a3d
00000240: 9df3 4dbd e941 c8bc cdf6 e8bd d0eb 833d
00000250: 6368 e43c 71ab 6ebc c314 cabd 905b 523c
00000260: 4240 943d 2901 23be 7cd9 75be 8db8 12bd
00000270: 0395 9c3b 60a1 18bd b4d5 88bc 65a5 02bd
00000280: 3294 33bd 3126 ffbd 7961 22be a22e 3fbe
00000290: 5a8c 7bbd 24ff 0d3e f96d 293d fec0 1f3e
000002a0: e521 013e d1a5 003e 438b bd3d 8c45 193d
000002b0: 9cbf 92bc f8ee 5abc 549d 823b 0b2b 23bc
000002c0: b65b 313c d258 0c3d e88a a2bc b48e e7bb
000002d0: 6c3c a6bd 8a82 a53d 32b5 adbd 0c62 393d
000002e0: 5970 38be c599 11bd fd28 b73d 23b7 2a3d
000002f0: a4c0 963c 9c60 503d fdcb c13d d056 f33d
00000300: 98cb 04be 97f2 17be 525b 63bd 71ce 4dbe
00000310: 4f17 a3bd 6418 49be 1a0f 5a3d cd93 c9bd
00000320: 5b37 473d ee43 21bd 2d08 283d 9458 863a
00000330: e65b 5e3d 7190 c1bd 116c 3b3d 0a5b a43d
00000340: 1155 173d 14f8 1b3e 9977 53bd 0e57 80bd
00000350: 8688 01be dcb2 a9bd 2dd4 26bd faef aebd
00000360: c8dd 403d 49e7 733d e0c4 a0bd ed6f e8bb
00000370: 8f6e c9bd 5be9 d4bc f6d4 d63d f014 1c3e
00000380: e40a f33d d92f ad3d ac03 24bd 2778 013e
00000390: efdb 59bb e0e0 2fbe e884 193d 75ad 073e
000003a0: 253d 293d 48e1 723d d378 96bc ffec ce3d
000003b0: e4c4 b33b aa65 073e d332 eb3d 0ddc 0b3d
000003c0: 4034 81bc 3398 6e3b 0631 263c 6570 913c
000003d0: f777 98bc 8b68 83bb be54 52bd 2606 2d3d
000003e0: 681c 1f3c 4f92 e13b 3d79 f33d 0fca a2bc
000003f0: 6db1 713d 599f a5bd 028c 553d 846e 103d

stem.conv1d.bias f4 [64]
-0.07790103 -0.025392372 0.08413817 0.08687578 0.06533795 0.088763826 -0.062129445 0.057217065
0.10412224 -0.083602905 -0.060273327 0.11837175 -0.05869502 -0.10969197 0.08047778 0.013076756
-0.023387033 0.0057001514 -0.05881477 -0.11624502 0.032459594 -0.022397678 0.087478355 -0.041095287
-0.0466445 -0.020115055 -0.0669067 0.033812 0.1056472 0.07189044 -0.11456079 -0.015336701
-0.009117017 -0.022212949 -0.07171107 0.028954407 -0.10524582 0.07817191 -0.004534672 0.11449636
0.11110893 0.059750687 -0.0915647 0.08820957 -0.1001043 0.060760513 0.06879716 -0.03469516
-0.11891883 0.08189909 -0.026116788 0.071406126 -0.08761641 0.027212925 -0.04675713 -0.04964699
0.07706845 0.0734063 0.04297552 0.091305 0.08775393 0.070963755 -0.04939215 -0.035636723
00000000: 938a 9fbd aa03 d0bc a250 ac3d eeeb b13d
00000010: e7cf 853d cfc9 b53d 727b 7ebd 715c 6a3d
00000020: 0a3e d53d 0038 abbd 2ae1 76bd e36c f23d
00000030: 306a 70bd 2fa6 e0bd 89d1 a43d e43f 563c
00000040: 2a96 bfbc 56c8 ba3b c2e7 70bd de11 eebd
00000050: 5af4 043d 567b b7bc da27 b33d 8853 28bd
00000060: 4e0e 3fbd 54c8 a4bc 6106 89bd 747e 0a3d
00000070: 8f5d d83d 4c3b 933d d99e eabd c946 7bbc
00000080: 8a5f 15bc eef7 b5bc 41dd 92bd cb31 ed3c
00000090: 1f8b d7bd 9818 a03d 9697 94bb 117d ea3d
000000a0: 148d e33d 23bd 743d 4686 bbbd 38a7 b43d
000000b0: 7c03 cdbd 04e0 783d 87e5 8c3d 831c 0ebd
000000c0: b78b f3bd b6ba a73d e0f2 d5bc 603d 923d
000000d0: 3b70 b3bd a4ed de3c 6884 3fbd a45a 4bbd
000000e0: 10d6 9d3d 0b56 963d 1907 303d 1efe ba3d
000000f0: 55b8 b33d 7255 913d 6c4f 4abd d0f7 11bd

stem.bn.weight f4 [64]
1.0815103 1.103155 1.1176343 1.0911212 1.0533963 1.0984629 1.0833572 1.082453
1.0833561 1.0850266 1.0982608 1.0874358 1.0871937 1.1241285 1.1277204 1.074301
1.1168833 1.1372037 1.0996315 1.1017703 1.1271417 1.1002682 1.2167188 1.1182784
1.1175607 1.1460874 1.0991222 1.1551273 1.1353767 1.0763896 1.0878383 1.1480238
1.0772837 1.1175281 1.1153864 1.0904939 1.0933185 1.1052293 1.1039432 1.080013
1.1341641 1.0882887 1.1054455 1.1156127 1.1210673 1.1389378 1.0892189 1.1165851
1.1081556 1.0520307 1.1393634 1.0865432 1.0777984 1.1123114 1.2379922 1.1220468
1.1342418 1.1150928 1.0969346 1.0933884 1.0936365 1.093825 1.0716197 1.1503184
00000000: ee6e 8a3f 2f34 8d3f a40e 8f3f dca9 8b3f
00000010: b1d5 863f 6f9a 8c3f 73ab 8a3f d28d 8a3f
00000020: 6aab 8a3f 27e2 8a3f cf93 8c3f 1931 8b3f
00000030: 2a29 8b3f 71e3 8f3f 2459 903f b282 893f
00000040: 08f6 8e3f e48f 913f bac0 8c3f cf06 8d3f
00000050: 2e46 903f 97d5 8c3f 71bd 9b3f bf23 8f3f
00000060: 3b0c 8f3f feb2 923f 09b0 8c3f 36db 933f
00000070: 0654 913f 22c7 893f 493e 8b3f 72f2 923f
00000080: 6fe4 893f 290b 8f3f fbc4 8e3f 4e95 8b3f
00000090: dcf1 8b3f 2778 8d3f 034e 8d3f de3d 8a3f
000000a0: 4a2c 913f 0b4d 8b3f 3d7f 8d3f 66cc 8e3f
000000b0: 227f 8f3f b7c8 913f 866b 8b3f 43ec 8e3f
000000c0: 0bd8 8d3f f1a8 863f a9d6 913f d913 8b3f
000000d0: 4cf5 893f 3860 8e3f 8776 9e3f 3b9f 8f3f
000000e0: d62e 913f 5cbb 8e3f 5a68 8c3f 27f4 8b3f
000000f0: 48fc 8b3f 7502 8c3f d62a 893f a23d 933f

stem.bn.bias f4 [64]
0.06624249 0.09576357 0.098305866 0.091115765 0.0072065433 0.090801455 0.08233114 0.08466106
0.089460135 0.08356919 0.057029467 0.06942584 0.04107401 0.10727165 0.051793046 0.048274927
-0.0042935433 0.085315436 0.09043635 0.08006875 0.08185278 0.09852133 0.100791775 0.08377282
0.0873335 0.050654452 0.092597805 0.100719266 0.055614576 0.082775444 0.07606309 0.087779194
0.0813544 0.09995791 0.10098643 0.08543195 0.09703036 0.06725369 0.050787043 0.08961487
0.07399841 0.09446607 0.04506332 0.04638893 0.07151227 0.08320693 0.08046154 -0.041831195
0.092405684 0.063279204 0.069072574 0.09572762 0.073324226 0.0845965 0.11291822 0.09399402
0.09265674 0.10363286 0.10080543 0.029340072 0.09931549 0.098002315 0.07742771 0.104634084
00000000: 25aa 873d b11f c43d 9654 c93d e79a ba3d
00000010: de24 ec3b 1df6 b93d 3b9d a83d c762 ad3d
00000020: e036 b73d 5326 ab3d bb97 693d 232f 8e3d
00000030: 393d 283d 3db1 db3d f224 543d eebb 453d
00000040: dab0 8cbb dcb9 ae3d b136 b93d 16fb a33d
00000050: 6ea2 a73d 8dc5 c93d eb6b ce3d 1691 ab3d
00000060: e8db b23d 0b7b 4f3d eba3 bd3d e745 ce3d
00000070: 1ccc 633d 2c86 a93d f7c6 9b3d 94c5 b33d
00000080: 239d a63d bcb6 cc3d f9d1 ce3d f2f6 ae3d
00000090: dab7 c63d 4dbc 893d 1306 503d 0088 b73d
000000a0: 7a8c 973d 6d77 c13d 5194 383d 5202 3e3d
000000b0: 0675 923d 6568 aa3d 05c9 a43d 3057 2bbd
000000c0: 313f bd3d 8798 813d ec75 8d3d d80c c43d
000000d0: 032b 963d ee40 ad3d ab41 e73d f07f c03d
000000e0: d1c2 bd3d 773d d43d 1473 ce3d 975a f03c
000000f0: eb65 cb3d 70b5 c83d 6b92 9e3d 654a d63d

stem.bn.running_mean f4 [64]
0.11934961 0.13427494 0.5582968 0.4560121 0.6315381 0.05325526 -0.13264033 -0.025019273
0.10268498 -0.17864959 -0.6251793 -0.13498184 -0.06653228 0.66874045 -0.1080513 -0.26624906
-0.41851613 0.521257 0.1623551 -0.15525074 0.2535142 0.5314465 0.39353853 -0.025764486
-0.20448348 -0.45238164 0.24655166 0.36389485 0.7895844 0.308199 -0.14044379 0.09008694
0.2962416 0.7223128 0.42918998 0.6744673 0.26423246 0.00018262873 0.49844855 0.4308585
-0.14894556 0.03148294 -0.13774158 -0.37048888 0.28140828 -0.03763806 0.5495388 -0.44878408
0.6061754 0.38102823 -0.27721658 0.4443118 0.19296108 0.04193169 0.35376707 0.30749875
-0.17731014 0.23092067 0.14599396 0.6753614 0.031520166 0.637358 -0.27788824 0.3895603
00000000: 916d f43d 5f7f 093e 8aec 0e3f 6b7a e93e
00000010: 7bac 213f 3022 5a3d ded2 07be 38f5 ccbc
00000020: 814c d23d ebef 36be c00b 20bf ae38 0abe
00000030: 1342 88bd 9332 2b3f 004a ddbd cc51 88be
00000040: bf47 d6be 1971 053f 6a40 263e 0dfa 1ebe
00000050: 9dcc 813e e10c 083f e27d c93e 0b10 d3bc
00000060: 1e64 51be 919e e7be 0a78 7c3e 6d50 ba3e
00000070: 3422 4a3f 42cc 9d3e 7fd0 0fbe 807f b83d
00000080: fbac 973e 7ee9 383f cabe db3e e4a9 2c3f
00000090: 7a49 873e 0780 3f39 a634 ff3e 7c99 dc3e
000000a0: 2f85 18be 41f4 003d 210c 0dbe b8b0 bdbe
000000b0: bf14 903e 5e2a 1abd 93ae 0c3f 07c7 e5be
000000c0: 502e 1b3f 2216 c33e 55ef 8dbe d67c e33e
000000d0: 9797 453e 90c0 2b3d f520 b53e 7a70 9d3e
000000e0: ca90 35be 7876 6c3e 717f 153e 7ce4 2c3f
000000f0: 4a1b 013d e529 233f 5e47 8ebe 7374 c73e

stem.bn.running_var f4 [64]
42.7049 35.6234 46.5774 36.390644 330.719 72.124535 38.48498 37.944466
74.61741 47.809692 44.191673 38.924225 36.582233 63.733078 32.567722 42.53249
37.094727 33.11642 44.152706 30.911434 47.561646 43.585 9.010777 26.995308
39.701942 44.461624 36.789196 16.004398 13.403866 41.386127 43.115032 19.43757
72.26532 58.2005 70.47159 35.687565 43.006775 40.21461 24.618721 75.35713
24.604668 60.71717 25.297775 23.235035 57.188755 16.10832 50.57963 24.424986
65.509094 62.576534 30.282267 38.124123 84.09063 38.783566 8.449105 18.15261
26.585495 44.461952 65.347916 55.197216 77.64213 35.948723 60.53914 24.086037
00000000: d1d1 2a42 5d7e 0e42 424f 3a42 0590 1142
00000010: 085c a543 c33f 9042 9ff0 1942 22c7 1742
00000020: 1d3c 9542 203d 3f42 46c4 3042 68b2 1b42
00000030: 3554 1242 acee 7e42 5945 0242 4521 2a42
00000040: 0061 1442 3777 0442 5f9c 3042 9e4a f741
00000050: 203f 3e42 0a57 2e42 252c 1041 64f6 d741
00000060: cace 1e42 b4d8 3142 2328 1342 0209 8041
00000070: 3c76 5641 658b 2542 cb75 2c42 2580 9b41
00000080: d887 9042 50cd 6842 74f1 8c42 11c0 0e42
00000090: f006 2c42 c3db 2042 24f3 c441 dab6 9642
000000a0: 5cd6 c441 62de 7242 d861 ca41 5ae1 b941
000000b0: 49c1 6442 d7dd 8041 8b51 4a42 5f66 c341
000000c0: a804 8342 5f4e 7a42 1542 f241 1a7f 1842
000000d0: 672e a842 5f22 1b42 892f 0741 8c38 9141
000000e0: 18af d441 0ad9 3142 22b2 8242 f3c9 5c42
000000f0: c548 9b42 7ecb 0f42 1428 7242 34b0 c041

inception.branch1.1.depthwise.weight f4 [64, 1, 1]
0.9603749 0.94081664 0.31336498 -0.13035035 -0.36448917 -1.0159032 0.8872522 -0.864021
-0.5074271 0.015698146 -0.11703081 -1.0530839 0.49911368 -0.59545946 0.40111586 -1.0665326
1.0467896 0.13632427 0.92993844 -0.02551822 0.46375123 1.0614482 -0.61643636 -0.38174403
-0.7899259 -0.5462491 0.59638035 -0.20600052 -0.4234489 -0.13909751 -1.0146892 -0.37208512
0.7818489 -0.42068183 -1.0222055 -0.35301718 -0.5105905 -0.8495718 0.11349673 0.7151118
-0.64510196 0.6484766 -0.6405913 0.5672469 0.27852246 0.44623813 -0.9785407 -0.3572198
-0.72795767 0.7577507 0.24844283 0.8575708 0.19646066 -0.44175252 -0.7727359 -0.8252701
-0.70107824 0.20267387 -0.85827976 0.563686 -0.26871717 -0.6906787 -1.0658417 0.71641415
00000000: 21db 753f 5cd9 703f 6071 a03e 907a 05be
00000010: 539e babe 1e09 82bf f622 633f 7b30 5dbf
00000020: bee6 01bf 6699 803c d9ad efbd 74cb 86bf
00000030: d48b ff3e 0870 18bf 0f5f cd3e 2484 88bf
00000040: 34fd 853f 9798 0b3e 7210 6e3f 960b d1bc
00000050: cd70 ed3e 89dd 873f c6ce 1dbf f473 c3be
00000060: 9538 4abf fbd6 0bbf 62ac 183f cdf1 52be
00000070: 4bce d8be 946f 0ebe 56e1 81bf f181 bebe
00000080: 4027 483f 9c63 d7be a1d7 82bf abbe b4be
00000090: 0fb6 02bf 8a7d 59bf f970 e83d 9111 373f
000000a0: 6725 25bf 9002 263f cbfd 23bf 1837 113f
000000b0: 7f9a 8e3e 5379 e43e a581 7abf 83e5 b6be
000000c0: 6f5b 3abf f3fb 413f cc67 7e3e c389 5b3f
000000d0: fc2c 493e 632d e2be 05d2 45bf e744 53bf
000000e0: dd79 33bf bd89 4f3e 39b8 5bbf ba4d 103f
000000f0: 4c95 89be 52d0 30bf 806d 88bf eb66 373f

inception.branch1.1.depthwise.bias f4 [64]
-0.056634735 0.64965695 0.9523488 0.82887685 0.6572849 0.8723193 -0.5190215 -0.22330777
-0.9179804 -0.8505298 0.074770376 -0.84636116 -0.24015774 -0.36926284 -0.675321 0.4326255
-0.90108013 0.44494304 0.50556433 0.6812001 -0.3380175 -0.13841526 -0.48168403 -0.6092483
0.20967934 0.5322779 -0.8913269 -0.82789147 -0.35012308 0.3778505 0.8588505 0.4960978
-0.6235119 -0.6995685 0.034453087 -0.8067468 -0.24278046 0.6572842 0.81311095 0.3734513
0.89401865 0.4151712 -0.27470687 -0.065433435 1.0161322 0.3927316 0.29440272 -0.6073879
-0.23072062 0.14044328 -0.6012979 -0.49661556 -0.70836407 0.058499403 0.38429677 0.14738236
0.85894877 0.29873082 0.25936055 -0.34182316 -0.28365135 0.9376279 0.16585843 -0.1952866
00000000: d3f9 67bd eb4f 263f 22cd 733f 4631 543f
00000010: d343 283f 5150 5f3f 98de 04bf cbaa 64be
00000020: c300 6bbf 52bc 59bf 3621 993d 20ab 58bf
00000030: e9eb 75be 0510 bdbe d6e1 2cbf 1781 dd3e
00000040: 30ad 66bf 93cf e33e aa6c 013f 2163 2e3f
00000050: a110 adbe bbbc 0dbe 4a9f f6be b2f7 1bbf
00000060: 2eb6 563e 5d43 083f 002e 64bf b2f0 53bf
00000070: 5543 b3be 9f75 c13e a0dd 5b3f 8800 fe3e
00000080: 7a9e 1fbf ec16 33bf ae1e 0d3d f586 4ebf
00000090: 719b 78be c743 283f 0a28 503f 0235 bf3e
000000a0: 68de 643f 5291 d43e 61a6 8cbe f701 86bd
000000b0: 9f10 823f 1e14 c93e f4bb 963e c67d 1bbf
000000c0: 0742 6cbe 5dd0 0f3e a9ee 19bf 6544 febe
000000d0: 5957 35bf 129d 6f3d 8cc2 c43e 67eb 163e
000000e0: 11e4 5b3f 3ff3 983e e8ca 843e 7203 afbe
000000f0: c03a 91be 6208 703f cbd6 293e 36f9 47be

inception.branch1.1.pointwise.weight f4 [32, 64, 1]
0.029699279 0.012916088 0.0479413 0.12796526 -0.041815512 0.12715249 -0.0014797034 -0.1589519
0.0145096565 -0.015647378 -0.011713535 0.054478347 -0.13043226 -0.0621174 0.037516046 0.16095458
0.19255432 0.04467664 0.065431215 0.08012022 -0.090322495 0.10436678 -0.06254107 -0.04488815
-0.073228955 0.016247397 -0.015743492 0.028087324 0.0366505 -0.0114778085 -0.03820152 -0.002053153
0.061669454 0.03691797 -0.08468792 0.056542736 0.1652184 -0.18716642 0.0555093 0.09271363
0.0746133 -0.02324485 -0.120680094 0.17707042 0.13837886 0.09164967 0.000534715 0.023253778
-0.19933328 -0.014571316 -0.0032378274 -0.0697164 -0.03721829 -0.061528537 0.12384815 0.052816425
-0.08750624 0.028441314 -0.19558848 -0.10241755 -0.096544795 -0.13329758 0.054644573 -0.08463889
0.0529539 0.04166311 0.1493063 -0.04989562 0.01005792 -0.17969316 0.060340565 0.15908071
-0.03460662 -0.031396568 -0.0621238 -0.0015064597 -0.05829278 -0.12000609 -0.024028251 -0.00013887283
0.02637577 0.16029628 0.10528527 0.02923556 -0.030042687 0.013872836 -0.16100575 -0.140077
0.15157272 0.17043062 -0.011547216 -0.0056453845 -0.08216018 0.12078045 -0.16218656 -0.14729694
-0.13298433 -0.0074126855 0.13740349 0.13180481 -0.098186284 0.06048501 0.006125866 -0.13859588
0.05971651 0.009617635 0.12344214 -0.026707254 0.016002705 0.093335494 -0.12707151 -0.14261235
-0.010704865 -0.007297193 0.07371126 -0.02181302 -0.096320614 -0.12050843 0.16867106 0.17704642
0.08984446 0.013818851 -0.038758736 -0.08484664 0.039411746 -0.057425976 0.12816246 -0.011844012
0.16098055 0.13155551 -0.035008475 -0.081165686 0.02686411 0.06335215 -0.13020761 -0.14193706
-0.04367034 -0.08519471 0.16083124 -0.16286983 -0.0076669212 0.052781366 0.0843602 0.04957265
-0.10413161 0.15184091 -0.015529783 0.12040079 0.075486094 0.18550953 -3.915733e-06 0.08178323
-0.11754878 -0.041296475 -0.020181827 0.032771677 -0.03944764 -0.096329644 -0.19472332 0.030651689
0.043814715 0.106096715 0.13090512 -0.16152543 0.08359765 -0.14960606 0.074182756 -0.025395865
0.03911617 -0.1038847 -0.17064495 0.19138284 0.006252833 0.110929616 0.17489289 0.004805959
-0.16374545 0.03339991 -0.10887805 -0.04636199 -0.10247503 0.040182076 0.05245755 -0.0008072067
-0.08407643 -0.04728196 -0.13589016 -0.17786787 -0.001483352 0.051498137 -0.08993253 -0.06707517
0.06045353 -0.13798718 -0.05225874 0.025248215 0.13338487 -0.008937521 -0.052969158 -0.04795337
0.030610802 0.0511572 -0.07000119 -0.16225815 0.037487205 -0.122891776 0.0007977885 -0.09444964
-0.1060269 -0.039813735 -0.02368882 0.09359183 0.06124155 0.101348564 -0.03148907 -0.14606833
0.053271342 0.07629425 -0.050873563 -0.054737903 -0.15309007 0.047198407 0.13691147 -0.10192515
0.07205769 -0.07621575 0.02954048 -0.1357622 -0.015741806 0.17120455 0.018686496 -0.08521366
0.014408108 0.004622993 -0.067377664 0.069415964 0.028517647 0.019375443 0.0064339354 0.0933676
0.042220976 -0.0982455 0.023187246 0.119393416 0.0897736 -0.16747415 0.043626647 -0.012701391
-0.014372205 0.1304789 0.012007539 0.13827907 0.053649668 0.06546562 -0.08730751 0.074084245
00000000: e74b f33c 009e 533c 195e 443d 5309 033e
00000010: be46 2bbd 4334 023e 9bf2 c1ba 49c4 22be
00000020: e9b9 6d3c ee2e 80bc 20ea 3fbc b024 5f3d
00000030: 0990 05be d16e 7ebd 6daa 193d 47d1 243e
00000040: f62c 453e dafe 363d cd00 863d 1216 a43d
00000050: 00fb b8bd 40be d53d 8815 80bd a3dc 37bd
00000060: 10f9 95bd 4319 853c 7ff8 80bc 6317 e63c
00000070: d61e 163d 6b0d 3cbc 3279 1cbd 318e 06bb
00000080: 1c99 7c3d 4c37 173d dc70 adbd 5b99 673d
00000090: 032f 293e 8ea8 3fbe b85d 633d a5e0 bd3d
000000a0: dcce 983d fc6b bebc 2027 f7bd f351 353e
000000b0: 30b3 0d3e d2b2 bb3d 1e2c 0c3a b57e be3c
000000c0: 061e 4cbe 87bc 6ebc bb31 54bb 79c7 8ebd
000000d0: 3572 18bd 5905 7cbd 19a4 fd3d 0956 583d
000000e0: 7936 b3bd c2fd e83c 5948 48be 4bc0 d1bd
000000f0: 47b9 c5bd 297f 08be fdd2 5f3d 2857 adbd
00000100: 30e6 583d f0a6 2a3d c0e3 183e 5a5f 4cbd
00000110: f9c9 243c 7c01 38be ab27 773d 0ee6 223e
00000120: acbf 0dbd b099 00bd 8775 7ebd 6674 c5ba
00000130: 69c4 6ebd c1c5 f5bd e5d6 c4bc 649e 11b9
00000140: 0012 d83c b524 243e ce9f d73d 6a7f ef3c
00000150: 151c f6bc e44a 633c b1de 24be 5870 0fbe
00000160: e135 1b3e 5d85 2e3e 8930 3dbc ebfc b8bb
00000170: 9943 a8bd be5b f73d 3c14 26be 02d5 16be
00000180: 0b2d 08be 1de6 f2bb 80b3 0c3e d7f7 063e
00000190: e415 c9bd 21bf 773d 7dbb c83b 14ec 0dbe
000001a0: 4d99 743d 4993 1d3c 3ccf fc3d 2cc9 dabc
000001b0: 1b18 833c ae26 bf3d 091f 02be f908 12be
000001c0: 7563 2fbc 4b1d efbb eef5 963d 38b1 b2bc
000001d0: be43 c5bd 20cd f6bd 1bb8 2c3e a84b 353e
000001e0: 5f00 b83d 7668 623c 7bc1 1ebd 13c4 adbd
000001f0: 366e 213d 8037 6bbd 053d 033e 630d 42bc
00000200: 16d8 243e 7db6 063e 0c65 0fbd 323a a6bd
00000210: 1f12 dc3c c6be 813d 2555 05be f357 11be
00000220: acdf 32bd 907a aebd f2b0 243e 59c7 26be
00000230: cc3a fbbb 4631 583d 0ac5 ac3d b10c 4b3d
00000240: f442 d5bd 2f7c 1b3e a270 7ebc b094 f63d
00000250: 7498 9a3d 36f6 3d3e e463 83b6 f77d a73d
00000260: 6abd f0bd 7e26 29bd 5c54 a5bc 983b 063d
00000270: d993 21bd 7a48 c5bd 8d65 47be 4019 fb3c
00000280: 0f77 333d 3c49 d93d fe0b 063e ec66 25be
00000290: 3f35 ab3d 5532 19be 21ed 973d fd0a d0bc
000002a0: 4738 203d 80c1 d4bd 8dbd 2ebe ddf9 433e
000002b0: 91e4 cc3b 112f e33d 1f17 333e 4e7b 9d3b
000002c0: e3ac 27be 58ce 083d 75fb debd 12e6 3dbd
000002d0: 6ede d1bd f695 243d badd 563d ba9a 53ba
000002e0: 4330 acbd baaa 41bd ca26 0bbe ff22 36be
000002f0: 096d c2ba b6ef 523d 8c2e b8bd b55e 89bd
00000300: 1f9e 773d 834c 0dbe 430d 56bd 58d5 ce3c
00000310: 0b96 083e ae6e 12bc 30f6 58bd c16a 44bd
00000320: 81c3 fa3c 368a 513d c95c 8fbd 0027 26be
00000330: 2f8c 193d afae fbbd ae22 513a d06e c1bd
00000340: a224 d9bd ba13 23bd 0e0f c2bc 13ad bf3d
00000350: 6bd8 7a3d d68f cf3d affa 00bd f092 15be
00000360: 0d33 5a3d 2940 9c3d cc60 50bd da34 60bd
00000370: a5c3 1cbe 1e53 413d 8532 0c3e 22be d0bd
00000380: fb92 933d 0117 9cbd e0fe f13c 3f05 0bbe
00000390: f6f4 80bc 3f50 2f3e 6c14 993c 8084 aebd
000003a0: fc0f 6c3c 7a7c 973b 4dfd 89bd f529 8e3d
000003b0: d79d e93c 40b9 9e3c c3d3 d23b 8337 bf3d
000003c0: e7ef 2c3d f034 c9bd 2ef3 bd3c 8984 f43d
000003d0: 39db b73d 587e 2bbe dbb1 323d 7f19 50bc
000003e0: 6679 6bbc 439c 053e 45bb 443c 0799 0d3e
000003f0: c1bf 5b3d d712 863d 48ce b2bd 7bb9 973d

inception.branch1.1.pointwise.bias f4 [32]
0.080023654 0.10502194 0.0069176615 0.062362973 0.029083835 -0.016227594 -0.049503274 0.1151439
0.08312499 0.10764865 0.13248889 -0.017422436 -0.09342595 0.054583464 0.11778794 -0.07943835
-0.031442188 -0.009317356 0.034054097 0.086735345 0.036154192 -0.0010291026 0.045358315 -0.03575645
-0.0649557 0.109458685 0.02991028 0.1473297 0.12959398 0.09408865 -0.07910426 0.101643264
00000000: 71e3 a33d be15 d73d 8dad e23b 5170 7f3d
00000010: 3941 ee3c bbef 84bc f2c3 4abd 91d0 eb3d
00000020: 6f3d aa3d e576 dc3d 2bab 073e 7fb9 8ebc
00000030: 1b56 bfbd e992 5f3d ce3a f13d 93b0 a2bd
00000040: 86c9 00bd d3a7 18bc 4f7c 0b3d 4da2 b13d
00000050: 6b16 143d f4e2 86ba a4c9 393d 5b75 12bd
00000060: 7e07 85bd e02b e03d 6706 f53c 99dd 163e
00000070: 49b4 043e 8db1 c03d 6a01 a2bd 582a d03d

inception.branch2.0.depthwise.weight f4 [64, 1, 1]
-0.16042502 -1.0854824 0.7539856 0.39963317 -0.054345068 0.5105739 -0.9846006 -0.91729957
0.6555214 0.56716835 0.40461636 0.89512455 -0.80195415 -0.94626015 0.33262417 0.1200787
0.39651835 1.0728594 0.80441743 0.15254843 -0.7960595 -0.9385934 0.9432217 0.96267694
0.74913144 0.1090308 -0.32494438 0.094251424 0.4732756 0.21948504 0.5100006 0.504325
0.7201414 -1.0881166 -1.1484513 0.37944335 -1.0915414 -0.95117486 -0.42794698 0.064612165
0.15138176 1.0324061 -0.8795198 -0.36537337 0.96573675 -0.6489007 1.0830044 0.31939676
-0.19215752 0.49623337 -0.8509473 -0.76296234 -0.16690783 -1.0441729 0.7630618 0.91857237
0.82819134 -0.62043405 1.0261858 0.028436067 0.036408972 -0.8608975 -0.5885468 0.6185689
00000000: 7546 24be 16f1 8abf 3305 413f b89c cc3e
00000010: ef98 5ebd f9b4 023f c90e 7cbf 25d4 6abf
00000020: 40d0 273f f231 113f e029 cf3e e226 653f
00000030: de4c 4dbf 1b3e 72bf b74d aa3e d2eb f53d
00000040: 7404 cb3e 7553 893f 4dee 4d3f a835 1c3e
00000050: 8eca 4bbf a847 70bf fa76 713f ff71 763f
00000060: 14c7 3f3f 8a4b df3d 1c5f a6be e406 c13d
00000070: 2e51 f23e b0c0 603e 668f 023f 711b 013f
00000080: 305b 383f 6847 8bbf 7400 93bf 6646 c23e
00000090: a1b7 8bbf 3280 73bf de1b dbbe 6253 843d
000000a0: d203 1b3e e225 843f 3628 61bf 3812 bbbe
000000b0: 863a 773f 5b1e 26bf e39f 8a3f f987 a33e
000000c0: f1c4 44be 4d12 fe3e afd7 59bf 8051 43bf
000000d0: e3e9 2abe 75a7 85bf 0558 433f 8f27 6b3f
000000e0: 5904 543f c4d4 1ebf 0e5a 833f c1f2 e83c
000000f0: 9321 153d c763 5cbf 01ab 16bf 885a 1e3f

inception.branch2.0.depthwise.bias f4 [64]
-0.6956091 0.81729585 0.49211738 -0.10671594 0.85378546 0.27056327 -0.5287605 -0.58401436
-0.3655121 0.30012354 -0.32849413 0.80131954 -0.3308582 -0.8622435 0.92505366 0.92526114
0.49283105 -0.13593896 0.19700395 -0.37199506 -0.1610227 0.77276075 0.597876 0.9108926
0.9060308 -0.7995636 -0.020605361 -0.8027229 0.0784894 0.064423785 -0.5204433 -0.03156431
0.4859376 -0.5870974 0.34537148 -0.09852641 -0.6408291 0.9247844 0.92720073 0.5007715
0.612434 0.41689768 0.42846313 0.045336563 -0.12542744 -0.35084385 0.12869851 -0.43868247
-0.8860556 -0.68501633 -0.26006335 0.9240789 -0.87915796 0.2765408 -0.48025358 0.60513365
0.54903275 0.89760345 0.37296638 -0.120210424 0.7540992 0.58301336 -0.4006545 -0.47836518
00000000: 7013 32bf 4d3a 513f cff6 fb3e e38d dabd
00000010: af91 5a3f 4587 8a3e d95c 07bf f781 15bf
00000020: 6724 bbbe cba9 993e 6230 a8be 4723 4d3f
00000030: 3f66 a9be fdbb 5cbf 51d0 6c3f eadd 6c3f
00000040: 5a54 fc3e 9533 0bbe 67bb 493e 2376 bebe
00000050: 22e3 24be a6d3 453f 670e 193f 4230 693f
00000060: a2f1 673f 33b0 4cbf 93cc a8bc 3f7f 4dbf
00000070: 0dbf a03d 9ef0 833d c63b 05bf 9449 01bd
00000080: d0cc f83e 044c 16bf 88d4 b03e 37c8 c9bd
00000090: 600d 24bf acbe 6c3f 075d 6d3f 9032 003f
000000a0: 7ac8 1c3f 9d73 d53e 855f db3e d5b2 393d
000000b0: 0d70 00be cea1 b3be 8bc9 033e fd9a e0be
000000c0: 8ad4 62bf 3b5d 2fbf 0627 85be 6f90 6c3f
000000d0: 7f10 61bf c196 8d3e cce3 f5be 0aea 1a3f
000000e0: 698d 0c3f 57c9 653f 73f5 be3e e230 f6bd
000000f0: a50c 413f 5d40 153f 9622 cdbe 48ec f4be

inception.branch2.0.pointwise.weight f4 [32, 64, 1]
-0.12085478 0.08372291 -0.03578661 -0.12994838 -0.087037206 -0.061942082 -0.15082821 -0.040745996
-0.07502137 0.002720583 0.12068968 0.103813514 -0.014346069 -0.016540365 -0.11905769 -0.02859858
0.076116316 -0.16462862 0.14375503 -0.08593526 0.12664863 0.15681505 -0.0015819317 -0.014820873
-0.03678154 -0.007074753 0.10361551 -0.10443051 -0.08016332 -0.12285276 -0.015868876 0.10028702
-0.12115459 -0.17818432 0.013534631 -0.020532435 -0.16292958 0.12804838 0.13726963 0.095397666
0.12829985 0.07393086 0.08864621 0.16540346 0.020139044 -0.02362195 0.14438976 0.037628103
0.02496072 -0.1261008 -0.124891266 0.031982 -0.003611857 -0.16305806 -0.08081484 0.0024977424
-0.07376546 0.07955979 -0.10242005 -0.0109378435 0.013842708 -0.073815554 0.063274726 0.07390438
-0.06533687 -0.003902986 -0.11198318 0.1600809 -0.10113436 0.12501372 0.12819317 -0.098122746
0.115935914 -0.0394935 -0.042056415 0.029775824 -0.030969858 0.08239208 0.06045197 -0.08730573
-0.017528912 0.17355551 0.025637463 -0.10426602 -0.14388551 -0.12065139 -0.06658191 0.004964821
-0.083473116 0.05550785 0.09294594 0.069236405 0.106677435 0.12567149 -0.03328723 0.2449745
0.010591318 0.018905861 0.19444461 -0.015395007 0.12670664 -0.07234704 0.08305474 -0.014633347
0.086422324 -0.09622541 -0.15423067 0.011762265 -0.15306564 -0.035602845 -0.0682683 0.009440068
-0.034390923 -0.06441142 0.16835915 -0.0045390525 0.058392305 0.21224253 0.016248034 -0.09468251
0.0531418 0.016559042 0.12322604 -0.044598024 -0.03502272 -0.120256186 -0.07692617 -0.07555334
0.012905207 -0.00859194 0.023620032 0.15534441 -0.10873321 -0.1953553 -0.1957777 -0.043277267
-0.11155785 -0.00090923306 0.06360955 -0.14479631 0.12041557 5.3258853e-05 0.03981998 0.0016654504
-0.05406948 -0.19202377 0.03573304 -0.045429368 0.13974826 -0.15363555 0.14003025 0.021963483
-0.039519068 -0.044350035 0.002388267 0.08798641 -0.16329709 -0.07467536 0.005134726 -0.10146617
-0.029765036 0.092204854 -0.0033322184 -0.0027338595 -0.12142397 0.11593833 0.08304854 -0.12801221
0.06734211 0.1532787 0.047695473 -0.061814196 -0.02918833 -0.07900108 0.18817723 0.08005346
-0.05647357 0.16085014 -0.1720077 -0.024871329 -0.04989182 0.07925795 0.017904788 -0.016322598
0.06125408 -0.14539972 0.024580704 0.1365943 0.025459446 0.19840974 0.013202167 -0.10219626
-0.014439839 0.18486951 -0.10699287 0.11395295 -0.032856572 -0.1530935 -0.08823549 -0.08567591
-0.11919533 0.16303563 -0.07801844 -0.028206306 0.067595884 0.14438921 -0.057569504 0.09728437
-0.083415516 -0.07080657 -0.17671269 0.14000733 0.067936055 -0.14816155 -0.09927455 0.015778149
0.006769031 -0.050198447 -0.11581797 0.11075942 -0.045705795 -0.21096665 -0.09478435 -0.056324176
0.1518458 -0.052108094 -0.23176438 0.14786112 -0.10386536 0.12664603 0.022768963 0.066571236
-0.051087495 0.17797977 -0.10790161 -0.09045379 -0.15238608 -0.0870693 0.06801153 -0.105803005
0.11032755 0.12727804 -0.16157928 0.0070530097 -0.078984536 0.0073455186 0.029869707 0.09561877
0.022737527 0.053394243 -0.106836796 -0.093659535 0.047869205 0.030347047 0.0003329928 0.019038739
00000000: b682 f7bd eb76 ab3d fb94 12bd 3011 05be
00000010: 9040 b2bd fbb6 7dbd b672 1abe 46e5 26bd
00000020: cea4 99bd cf4b 323b 272c f73d 2e9c d43d
00000030: c60b 6bbc a97f 87bc 85d4 f3bd 9247 eabc
00000040: dfe2 9b3d 6894 28be 8534 133e d3fe afbd
00000050: 2eb0 013e 2094 203e d258 cfba 3fd3 72bc
00000060: 3da8 16bd 54d3 e7bb 5e34 d43d aadf d5bd
00000070: ab2c a4bd 3a9a fbbd 72ff 81bc 4863 cd3d
00000080: e61f f8bd f375 36be 5bc0 5d3c a333 a8bc
00000090: 03d7 26be 1d1f 033e 6990 0c3e da5f c33d
000000a0: 0961 033e 1069 973d 258c b53d 865f 293e
000000b0: a3fa a43c d282 c1bc e9da 133e ed1f 1a3d
000000c0: 6d7a cc3c 9120 01be fec6 ffbd 8fff 023d
000000d0: e8b4 6cbb b1f8 26be 4082 a5bd 2ab1 233b
000000e0: 5812 97bd 3ef0 a23d 9ac1 d1bd a434 33bc
000000f0: 87cc 623c 9c2c 97bd 2e96 813d 2e5b 973d
00000100: 56cf 85bd 3dc9 7fbb 7057 e5bd 3fec 233e
00000110: 881f cfbd 9903 003e 1245 033e 94f4 c8bd
00000120: cf6f ed3d f0c3 21bd 5943 2cbd 6eec f33c
00000130: 80b4 fdbc 2ebd a83d 7c9c 773d 59cd b2bd
00000140: cb98 8fbc 89b8 313e a805 d23c 6c89 d5bd
00000150: b956 13be 1318 f7bd 195c 88bd f0af a23b
00000160: f4f3 aabd 335c 633d 715a be3d d1cb 8d3d
00000170: b379 da3d 07b0 003e 3158 08bd 98da 7a3e
00000180: 3587 2d3c 77e0 9a3c 7d1c 473e 573b 7cbc
00000190: 63bf 013e af2a 94bd 9b18 aa3d b5c0 6fbc
000001a0: 30fe b03d d411 c5bd a5ee 1dbe 84b6 403c
000001b0: 3dbd 1cbe 4ad4 11bd 40d0 8bbd 84aa 1a3c
000001c0: 7fdd 0cbd 22ea 83bd 5766 2c3e 55bc 94bb
000001d0: c52c 6f3d 1b56 593e 991a 853c e7e8 c1bd
000001e0: 37ab 593d d4a6 873c ef5d fc3d 6bac 36bd
000001f0: fc73 0fbd e048 f6bd 788b 9dbd b6bb 9abd
00000200: 5d70 533c 35c5 0cbc cc7e c13c 9b12 1f3e
00000210: 84af debd 380b 48be f379 48be 8143 31bd
00000220: 7178 e4bd 9959 6eba b945 823d 7c45 14be
00000230: 709c f63d 4262 5f38 461a 233d 3e4b da3a
00000240: f677 5dbd e1a1 44be cf5c 123d 2514 3abd
00000250: 2b1a 0f3e a352 1dbe 1764 0f3e c3ec b33c
00000260: bfde 21bd 62a8 35bd 7984 1c3b 3832 b43d
00000270: 5a37 27be 65ef 98bd 3441 a83b 7fcd cfbd
00000280: ced5 f3bc e6d5 bc3d 5961 5abb 8d2a 33bb
00000290: 21ad f8bd 1371 ed3d 5a15 aa3d a215 03be
000002a0: a9ea 893d 17f5 1c3e 545c 433d e230 7dbd
000002b0: 5d1c efbc 51cb a1bd 88b1 403e 12f3 a33d
000002c0: d550 67bd e6b5 243e c922 30be f5be cbbc
000002d0: 5d5b 4cbd fe51 a23d 10ad 923c f8b6 85bc
000002e0: 8fe5 7a3d aae3 14be 795d c93c 60df 0b3e
000002f0: 5490 d03c ec2b 4b3e e74d 583c 464c d1bd
00000300: 1395 6cbc 6f4e 3d3e 141f dbbd 2a60 e93d
00000310: 9d94 06bd 8bc4 1cbe cfb4 b4bd da76 afbd
00000320: ae1c f4bd d0f2 263e 22c8 9fbd e910 e7bc
00000330: b66f 8a3d c4da 133e 00ce 6bbd 073d c73d
00000340: c1d5 aabd 0903 91bd 2cf4 34be 155e 0f3e
00000350: 0f22 8b3d a9b7 17be 7550 cbbd 2d41 813c
00000360: bfce dd3b e39c 4dbd f931 edbd d6d5 e23d
00000370: 0036 3bbd a407 58be 4c1e c2bd 2eb4 66bd
00000380: 777d 1b3e 4c6f 55bd a453 6dbe e868 173e
00000390: 5db7 d4bd 7faf 013e fa85 ba3c 8056 883d
000003a0: 1f41 51bd 5440 363e 85fb dcbd d63f b9bd
000003b0: 190b 1cbe 6451 b2bd a149 8b3d 3faf d8bd
000003c0: 69f3 e13d 2d55 023e 0a75 25be ef1c e73b
000003d0: a5c2 a1bd adb2 f03b 51b1 f43c c6d3 c33d
000003e0: 0d44 ba3c ecb3 5a3d 40cd dabd 92d0 bfbd
000003f0: 8012 443d 5f9a f83c 8995 ae39 21f7 9b3c

inception.branch2.0.pointwise.bias f4 [32]
0.073147796 -0.0004900356 -0.061330426 -0.016548336 -0.08517236 0.016180325 -0.07794696 0.16371398
-0.1252364 0.015803106 0.02063404 -0.03961089 -0.14416584 -0.024897637 0.035038754 0.02998793
-0.1171743 0.0989336 0.07105952 0.049189247 -0.10529151 0.05223274 -0.03469199 -0.04193973
0.025296059 0.020091413 0.031455837 -0.07529395 -0.020770077 0.041900687 0.03421116 0.06639563
00000000: 83ce 953d bc75 00ba 9d35 7bbd 6090 87bc
00000010: d96e aebd 9a8c 843c a8a2 9fbd a3a4 273e
00000020: f93d 00be 8475 813c b808 a93c 073f 22bd
00000030: 36a0 13be 21f6 cbbc cc84 0f3d 3fa9 f53c
00000040: 14f9 efbd b39d ca3d a787 913d aa7a 493d
00000050: 13a3 d7bd fff1 553d 3019 0ebd ffc8 2bbd
00000060: ae39 cf3c bf96 a43c d6d7 003d b733 9abd
00000070: 0226 aabc 0ea0 2b3d 0021 0c3d 6ffa 873d

inception.branch2.1.depthwise.weight f4 [32, 1, 1]
-0.7353711 -0.5629388 0.6268651 -0.5359489 -0.51008713 -1.0887251 -0.09383448 0.17575108
0.65166736 0.9771916 -0.6609796 -0.9861669 0.7158262 0.3208358 0.69957364 -0.7722949
-0.24742043 0.35670367 0.84074885 0.12252391 -0.3708214 -0.5749835 0.21828263 -0.41766116
0.58858776 0.1587319 -0.46275195 0.25701937 -0.9452837 -0.23453772 -0.95580447 0.8668407
00000000: 4841 3cbf c21c 10bf 3b7a 203f f233 09bf
00000010: 1295 02bf 585b 8bbf 4b2c c0bd 17f8 333e
00000020: acd3 263f 3b29 7a3f f635 29bf 6f75 7cbf
00000030: 6340 373f 9744 a43e 4217 333f 1eb5 45bf
00000040: c85b 7dbe dda1 b63e 513b 573f d1ed fa3d
00000050: 4ddc bdbe 1e32 13bf 7b85 5f3e afd7 d5be
00000060: b0ad 163f 9d8a 223e d3ed ecbe 0b98 833e
00000070: 1dfe 71bf a82a 70be 9aaf 74bf 46e9 5d3f

inception.branch2.1.depthwise.bias f4 [32]
-0.708838 0.4383611 -0.679286 -0.038558513 -0.8617001 -0.86089593 0.609176 0.15535364
-0.7997176 -0.47810385 0.7424601 0.9670397 0.17397003 -0.6897582 -0.38982433 -0.09547445
0.27959153 0.6314214 -0.78300256 -0.23950648 0.22153927 -0.75846875 -0.88933045 -0.0063654967
0.027855843 -0.19429749 0.8954085 -0.5467569 0.3066161 -0.5753513 -0.80869067 -0.5408679
00000000: 6876 35bf de70 e03e b0e5 2dbf 88ef 1dbd
00000010: 6198 5cbf ad63 5cbf f5f2 1b3f 0615 1f3e
00000020: 4bba 4cbf 07ca f4be dd11 3e3f ea8f 773f
00000030: 3325 323e fe93 30bf 0e97 c7be 1c88 c3bd
00000040: 9f26 8f3e d5a4 213f db72 48bf 3041 75be
00000050: 31db 623e 022b 42bf 29ab 63bf a895 d0bb
00000060: f031 e43c ecf5 46be 7e39 653f 43f8 0bbf
00000070: c9fc 9c3e 394a 13bf 5a06 4fbf 5276 0abf

inception.branch2.1.pointwise.weight f4 [32, 32, 1]
0.17668296 -0.08557748 -0.106598146 -0.061799087 0.058805402 0.0128534995 -0.1999668 -0.20711985
0.074648306 -0.04457043 -0.09593296 0.109768026 0.19380447 0.15260541 0.18386064 -0.09844786
-0.16324224 -0.17873499 -0.017571617 0.056871068 -0.08818593 0.090652615 0.102054514 -0.17248553
0.14612217 0.06309331 0.102878965 0.11948437 -0.095392674 -0.12009742 -0.08198227 -0.124973565
0.017053774 0.11558448 0.114058584 0.0021513992 -0.18884405 0.047552004 -0.014481364 0.0751319
0.21917826 0.17732224 0.19522801 0.12894304 0.03584248 -0.106132306 0.16877273 0.15704168
0.007264398 0.1819292 -0.046996403 0.12557934 0.041517477 -0.023123551 0.042348858 -0.027096251
0.08415492 0.060813915 -0.18585461 -0.09692321 0.014311383 -0.15357803 -0.04475921 -0.29948848
-0.16370368 -0.13013572 0.02507559 0.17302342 -0.05784361 0.032767598 0.16652179 0.035147466
-0.12442703 0.062686026 -0.10460735 -0.15317187 -0.30482784 0.013037448 0.20716411 -0.24953876
0.052307148 0.15780358 -0.21263663 -0.17756318 -0.03334077 -0.023980498 -0.17088394 -0.15827826
-0.007940798 -0.20351464 0.03877634 -0.17913105 -0.22742754 -0.18127047 0.09552056 0.1324849
-0.1467571 0.07551624 0.032688547 0.09001863 -0.10674148 -0.23709236 0.09777877 -0.09945209
0.036950316 -0.04100459 -0.09520304 0.047897745 0.3157455 -0.21221322 -0.12963137 0.051498845
0.12364247 -0.14432736 0.22779508 -0.04512147 -0.061823394 0.099250935 0.028663188 0.1566841
-0.18727516 -0.17071375 0.11410779 -0.11782661 -0.101651855 0.060587946 0.057888743 0.016728492
0.14412801 -0.057015926 -0.17840607 0.099197924 -0.12948143 -0.1020334 0.0043292516 0.056152076
0.04783581 -0.21160983 0.115018666 0.08664199 -0.2974103 0.11942007 -0.062149934 -0.25021216
0.048507314 0.15500988 -0.10480352 -0.105362825 0.15992664 -0.082937434 0.16845584 -0.31728303
0.16146977 0.06990756 -0.0055369125 -0.023669232 -0.042593416 0.07345553 -0.117933944 0.19824418
-0.019920338 0.13430741 -0.17841256 -0.048731275 0.027397914 -0.024079295 0.14998804 0.085697174
-0.25076175 -0.1730947 0.009235939 -0.152996 -0.1057155 0.06741556 0.05430491 0.015418567
0.13865818 0.017850192 -0.15276583 -0.028763192 0.22386241 -0.056793515 0.02141952 -0.04116438
0.06988262 -0.105098575 0.10031742 -0.02325472 -0.112414256 -0.025794888 0.033692453 0.21509579
0.029447325 -0.111960515 0.162109 -0.07132333 -0.22115016 0.10741191 0.09137571 0.09928166
0.20598139 -0.15348803 0.22829355 0.18479922 -0.23055181 -0.097147584 0.11111268 -0.039254956
0.15237707 0.124066606 -0.18164091 -0.08248002 0.015268095 0.047312666 -0.0973281 -0.2841124
-0.03052202 -0.17531553 -0.19096017 0.08971042 -0.023930497 -0.08845584 0.054563835 -0.20324196
0.04020012 0.21856715 -0.040591702 -0.13413857 -0.18659931 0.1866174 -0.02211896 -0.050385203
0.14757463 0.16918017 0.18224812 0.17361316 -0.004272714 -0.14726008 -0.13636841 0.06514105
-0.17097491 -0.020998433 0.107864246 -0.136268 -0.1544338 -0.10570231 -0.16159517 0.2186752
-0.23059165 0.034280777 -0.01267674 -0.082159474 -0.041759614 -0.015266073 0.07783924 -0.038378
00000000: 61ec 343e 3f43 afbd 2150 dabd 0a21 7dbd
00000010: efdd 703d 7c97 523c 19c4 4cbe 3a17 54be
00000020: 36e1 983d 7c8f 36bd 8078 c4bd 0fce e03d
00000030: ae74 463e 9844 1c3e f745 3c3e 089f c9bd
00000040: f928 27be 4e06 37be 5af2 8fbc a3f1 683d
00000050: d39a b4bd 14a8 b93d f501 d13d 0ca0 30be
00000060: 0da1 153e 1137 813d 35b2 d23d 39b4 f43d
00000070: 3c5d c3bd a3f5 f5bd 52e6 a7bd 24f2 ffbd
00000080: 5bb4 8b3c 8eb7 ec3d 8c97 e93d 7dfe 0c3b
00000090: 5660 41be e4c5 423d 3e43 6dbc c1de 993d
000000a0: 4470 603e f693 353e dae9 473e a509 043e
000000b0: 90cf 123d e55b d9bd c2d2 2c3e 89cf 203e
000000c0: 300a ee3b a64b 3a3e 4d7f 40bd df97 003e
000000d0: 3b0e 2a3d 9a6d bdbc ff75 2d3d f5f8 ddbc
000000e0: 6a59 ac3d 0318 793d ac50 3ebe ad7f c6bd
000000f0: 4a7a 6a3c 8f43 1dbe 6f55 37bd 8e56 99be
00000100: f0a1 27be 4c42 05be 536b cd3c 0d2d 313e
00000110: 6ced 6cbd 5137 063d b084 2a3e caf6 0f3d
00000120: 99d3 febd 8861 803d 613c d6bd 16d9 1cbe
00000130: 6512 9cbe 059b 553c d422 543e 1787 7fbe
00000140: 0540 563d 4397 213e 6bbd 59be 1fd3 35be
00000150: 5590 08bd c072 c4bc 33fc 2ebe b213 22be
00000160: 1f1a 02bc 2466 50be f1d3 1e3d 216e 37be
00000170: c4e2 68be f79e 39be 49a0 c33d 1faa 073e
00000180: 7e47 16be 42a8 9a3d 6de4 053d b05b b83d
00000190: 479b dabd 57c8 72be 3c40 c83d 8aad cbbd
000001a0: 3759 173d 6ef4 27bd d0f9 c2bd 6d30 443d
000001b0: 65a9 a13e 6c4e 59be 16be 04be 74f0 523d
000001c0: 4338 fd3d 8dca 13be 1d43 693e 4ad1 38bd
000001d0: 873a 7dbd 1344 cb3d 10cf ea3c cc71 203e
000001e0: 0fc5 3fbe 96cf 2ebe 58b1 e93d 144f f1bd
000001f0: d92e d0bd 112b 783d bf1c 6d3d 310a 893c
00000200: 4b96 133e 8889 69bd 15b0 36be 4828 cb3d
00000210: c896 04be e3f6 d0bd 65dc 8d3b b8ff 653d
00000220: 7bef 433d 3fb0 58be e88e eb3d 5b71 b13d
00000230: 2a46 98be 8292 f43d ee90 7ebd cf1b 80be
00000240: 9baf 463d e9ba 1e3e 3aa3 d6bd 77c8 d7bd
00000250: cfc3 233e 1adb a9bd b07f 2c3e ec72 a2be
00000260: 5558 253e b22b 8f3d fd6e b5bb fae5 c1bc
00000270: 6f76 2ebd da6f 963d 5a87 f1bd 8600 4b3e
00000280: fa2f a3bc e287 093e c8b1 36be 729a 47bd
00000290: 9771 e03c f141 c5bc 7796 193e 0082 af3d
000002a0: d863 80be bd3f 31be 5652 173c fcaa 1cbe
000002b0: 5e81 d8bd 2b11 8a3d d36e 5e3d 289e 7c3c
000002c0: 69fc 0d3e 913a 923c a56e 1cbe c9a0 ebbc
000002d0: 303c 653e 51a0 68bd fd77 af3c fb9b 28bd
000002e0: 9e1e 8f3d ec3d d7bd 3873 cd3d af80 bebc
000002f0: 7239 e6bd cd4f d3bc 1901 0a3d 1242 5c3e
00000300: 843b f13c 8e4b e5bd e7ff 253e f711 92bd
00000310: 3075 62be c7fa db3d 3023 bb3d 2f54 cb3d
00000320: c9ec 523e f72b 1dbe c9c5 693e 023c 3d3e
00000330: c615 6cbe 50f5 c6bd 0b8f e33d cec9 20bd
00000340: bc08 1c3e a216 fe3d 1300 3abe 49eb a8bd
00000350: 0827 7a3c edca 413d f453 c7bd 2e77 91be
00000360: 5109 fabc ea85 33be 108b 43be 19ba b73d
00000370: e409 c4bc 5628 b5bd 547e 5f3d a91e 50be
00000380: e2a8 243d 11d0 5f3e 7c43 26bd 9f5b 09be
00000390: e413 3fbe a218 3f3e d232 b5bc b760 4ebd
000003a0: ce1d 173e 913d 2d3e 409f 3a3e a6c7 313e
000003b0: 1f02 8cbb 59cb 16be 29a4 0bbe ac68 853d
000003c0: 0c14 2fbe e804 acbc eee7 dc3d d789 0bbe
000003d0: e523 1ebe 747a d8bd 3479 25be 64ec 5f3e
000003e0: 3820 6cbe 006a 0c3d 1ab2 4fbc 3a43 a8bd
000003f0: 210c 2bbd 8d1e 7abc 2e6a 9f3d 4032 1dbd

inception.branch2.1.pointwise.bias f4 [32]
-0.07851613 0.17895296 0.1866531 -0.10812005 0.18918484 0.10268311 -0.030504901 -0.118699715
-0.065456904 -0.14138675 0.042393364 -0.02984312 -0.101008125 0.010139609 -0.024735918 -0.07153477
-0.039054774 -0.1314332 0.19554193 -0.10351627 0.09488182 0.008706654 -0.07981715 0.13070439
-0.07788898 0.09126505 0.06314381 0.01118937 -0.10596205 0.1456447 -0.113748826 -0.09021316
00000000: 11cd a0bd 723f 373e fe21 3f3e 0b6e ddbd
00000010: acb9 413e 864b d23d 6ae5 f9bc d618 f3bd
00000020: 450e 86bd b0c7 10be aaa4 2d3d 8f79 f4bc
00000030: 59dd cebd 9a20 263c fba2 cabc d280 92bd
00000040: e6f7 1fbd 6d96 06be 253c 483e 5700 d4bd
00000050: 6651 c23d 5ba6 0e3c 2d77 a3bd 5fd7 053e
00000060: 4284 9fbd 2ce9 ba3d 8b51 813d 9f53 373c
00000070: a202 d9bd e223 153e 25f5 e8bd adc1 b8bd

inception.branch3.0.depthwise.weight f4 [64, 1, 1]
0.49251205 -0.57664704 -0.64929265 0.08439545 0.28273273 0.8252363 -0.81692827 0.71559197
-0.3592831 0.531772 -1.0862125 -0.56197065 -0.36659917 -0.71874297 -1.1129618 -0.5409982
-0.7497959 -0.32072586 0.6252933 -0.76340413 0.34674764 -1.1314508 -1.0968704 -0.67375535
0.7916599 -0.9679514 0.20989448 1.1585139 0.6258456 0.38958287 0.309731 -0.063150056
0.8339147 -0.7127313 -0.49072984 -0.7869819 -0.2265549 0.1846368 0.76308876 -0.68589544
0.4468387 -0.5221696 -0.28829908 -0.19245741 0.90395063 0.42092553 0.31294286 0.77695155
-0.99730426 0.25465614 -0.6557932 0.7515921 -0.3751479 0.92190516 -0.75197995 -0.94426817
0.80770403 -0.9234296 0.96423674 -0.99906915 -0.24547486 0.53166384 -0.2630347 -1.0697021
00000000: 8a2a fc3e 249f 13bf 0b38 26bf 86d7 ac3d
00000010: 58c2 903e b042 533f 3622 51bf 0931 373f
00000020: f4f3 b7be 3622 083f 0309 8bbf 4fdd 0fbf
00000030: e3b2 bbbe 8aff 37bf 8875 8ebf dc7e 0abf
00000040: a0f2 3fbf 2e36 a4be 3913 203f 746e 43bf
00000050: e888 b13e 61d3 90bf 4066 8cbf 3b7b 2cbf
00000060: 39aa 4a3f aacb 77bf 94ee 563e 2f4a 943f
00000070: 6b37 203f 6877 c73e 1095 9e3e d154 81bd
00000080: 6f7b 553f 8f75 36bf f140 fbbe a577 49bf
00000090: 02fe 67be 6e11 3d3e c959 433f d896 2fbf
000000a0: 0bc8 e43e e8ac 05bf f09b 93be 8e13 45be
000000b0: 4f69 673f 8d83 d73e 0c3a a03e 4ce6 463f
000000c0: 554f 7fbf 4a62 823e 10e2 27bf 5768 403f
000000d0: 6313 c0be fa01 6c3f c281 40bf 8fbb 71bf
000000e0: b1c5 4e3f e265 6cbf 38d8 763f ffc2 7fbf
000000f0: c35d 7bbe 1f1b 083f 7cac 86be 00ec 88bf

inception.branch3.0.depthwise.bias f4 [64]
0.94396853 0.7820954 -0.9356452 0.7416269 0.73143536 -0.39898393 -0.22284043 0.7851387
-0.361885 0.88015795 -0.8983154 -0.8626395 0.82108027 0.058451843 -0.034492224 -0.9929747
0.24626182 -0.3182939 -0.59408826 -0.9964629 -0.23985621 -0.8364644 -0.48516336 0.2657533
0.4513868 0.25185338 0.078127965 0.52153033 0.69886047 0.055531267 -0.6891672 0.59510064
0.71246326 0.27697715 -0.7302643 -0.9788468 0.7957338 0.24033788 0.034256205 0.052701063
-0.9393063 -0.7213378 0.59296674 -0.015630577 0.3580244 0.27638453 0.13682222 0.22178355
-0.17399043 0.9853534 -0.7131718 0.7692237 0.0062076948 -0.4155252 -0.8007285 -0.34897912
-0.8003947 0.91195977 -0.39978996 -0.72295195 -0.5154569 0.7863436 0.40085113 -0.8166727
00000000: eca7 713f 6737 483f 7286 6fbf 43db 3d3f
00000010: 593f 3b3f 9f47 ccbe 4830 64be dafe 483f
00000020: fe48 b9be 0852 613f 00f8 65bf f1d5 5cbf
00000030: 5132 523f 336b 6f3d b847 0dbd 9733 7ebf
00000040: 0f2c 7c3e 6bf7 a2be 2b16 18bf 3118 7fbf
00000050: de9c 75be 8822 56bf 5567 f8be d110 883e
00000060: 2c1c e73e edf2 803e 8e01 a03d 0383 053f
00000070: 85e8 323f c174 633d 436d 30bf 8458 183f
00000080: fe63 363f f3cf 8d3e 9af2 3abf b495 7abf
00000090: 36b5 4b3f 221b 763e 3c50 0c3d 12dd 573d
000000a0: 6176 70bf 98a9 38bf abcc 173f b20b 80bc
000000b0: f94e b73e 4682 8d3e 201b 0c3e 3a1b 633e
000000c0: 8c2a 32be 1f40 7c3f 6d92 36bf d8eb 443f
000000d0: eb69 cb3b b8bf d4be 8bfc 4cbf 64ad b2be
000000e0: abe6 4cbf 3276 693f 45b1 ccbe 6113 39bf
000000f0: fcf4 03bf d04d 493f 5c3c cd3e 7611 51bf
