experiments/1005/pretask_WISDM_8rot.pth (torch, 146925 bytes, 48 tensors)

stem.conv1d.weight f4 [64, 3, 3]
0	0xbd2219f8	-0.039575547
1	0x3e6875ae	0.22701141
2	0xbe58c563	-0.21169047
3	0x3e0449c0	0.12918758
4	0x3d9f8ac4	0.07790139
5	0xbdbced27	-0.09224921
6	0x3da99702	0.082807556
7	0xbe253118	-0.16132009
8	0xbea7a600	-0.32743835
9	0x3b915430	0.0044350848
10	0x3e72fb44	0.23728663
11	0x3ce2dbc2	0.02769268
12	0x3eb589e2	0.3545676
13	0x3ea0cc50	0.31405878
14	0xbdd004f3	-0.10157194
15	0x3e5ac1b3	0.21362953
16	0x3e043e17	0.1291431
17	0xbd2d13c1	-0.042255167
18	0x3d7d9b5f	0.06191575
19	0xbe9e3c8e	-0.30905575
20	0xbc44f3a8	-0.012020983
21	0x3d90168b	0.0703555
22	0x3e5b6d36	0.2142838
23	0x3dea1661	0.1143005
24	0xbeaebf0c	-0.34130132
25	0x3c7c63e2	0.015404673
26	0x3e93c52b	0.28861365
27	0x3e6e501b	0.23272745
28	0x3d90b348	0.07065445
29	0x3d8560a1	0.06512571
30	0x3e742057	0.23840462
31	0x3d674c5d	0.05646931
32	0xbe82d8d2	-0.25556046
33	0x3e43f1e0	0.19135237
34	0x3e315c0b	0.17320268
35	0x3e459359	0.1929449
36	0xbe90dde1	-0.2829428
37	0xbe094808	-0.13406384
38	0x3e89efaa	0.26940662
39	0x3e16d169	0.14728321
40	0xbe3b6d39	-0.18303384
41	0x3e61189f	0.21982048
42	0x3e6793a5	0.22614916
43	0xbdd321da	-0.10309191
44	0xbe85f373	-0.261623
45	0xbe8b1cbb	-0.27170357
46	0x3e897cc0	0.2685299
47	0x3d9d3178	0.07675451
48	0xbe43a38f	-0.19105361
49	0x3e09a645	0.13442333
50	0x3da7cd15	0.08193413
51	0xbe25fe57	-0.16210304
52	0x3e7697cd	0.24081345
53	0xbdae70bf	-0.08517598
54	0xbe03b441	-0.1286173
55	0xbc0069e2	-0.007837744
56	0xbc8e664c	-0.017382763
57	0xbe9db98a	-0.30805618
58	0x3e1c8570	0.15285277
59	0x3ec1556e	0.3776049
60	0x3e949dae	0.2902655
61	0x3e85b503	0.26114663
62	0xbddec1b1	-0.108767875
63	0x3e2b7ad8	0.1674608
64	0xbdbfc635	-0.09363977
65	0x3e9eb904	0.3100053
66	0xbe1f3f09	-0.1555139
67	0xbd224c50	-0.03962356
68	0x3e895178	0.26819968
69	0xbea21717	-0.3165824
70	0xbed111fb	-0.4083403
71	0x3cfa3524	0.030542918
72	0x3e58e2b1	0.21180226
73	0xbdd2e89f	-0.10298275
74	0xbe18a363	-0.14906077
75	0x3e8ac154	0.27100623
76	0xbe27b087	-0.16375934
77	0xbe54461b	-0.20729868
78	0xbe3ae382	-0.1825085
79	0x3c72546d	0.0147906365
80	0x3e57ca15	0.21073182
81	0x3dd4b690	0.103863835
82	0xbdf1de96	-0.11810033
83	0xbe7d75ff	-0.24752043
84	0xbc94d097	-0.01816587
85	0xbe708345	-0.23487575
86	0xba8eff69	-0.0010909858
87	0xbcbb2c83	-0.022848373
88	0x3e6590e8	0.22418559
89	0xbd08c153	-0.033387493
90	0xbdbf52f1	-0.09341992
91	0xbe92a39b	-0.28640446
92	0xbe402f24	-0.18767983
93	0xbd0e3c36	-0.03472539
94	0xbdc4b2b5	-0.09604398
95	0x3b958cc0	0.004563898
96	0xbe568d07	-0.20952235
97	0x3dfe4668	0.12415773
98	0x3d5c95f6	0.05385395
99	0x3e71d275	0.23615439
100	0xbe81119b	-0.25208744
101	0x3de5864c	0.11207256
102	0x3e36e351	0.17860152
103	0xbd98a94d	-0.074541666
104	0x3ddc174d	0.10746632
105	0xbe171f1c	-0.14757961
106	0xbea90b59	-0.3301647
107	0xbddfea00	-0.10933304
108	0x3d965475	0.07340328
109	0xbc9e8dc2	-0.019354705
110	0x3d75059e	0.05981981
111	0xbe6435f9	-0.22286214
112	0xbdf44693	-0.119275235
113	0x3e86f3d5	0.26357904
114	0x3df06198	0.117373645
115	0xbe68da4d	-0.22739525
116	0xbebf76d1	-0.37395337
117	0xbe35b13c	-0.17743391
118	0x3e420609	0.18947615
119	0x3d981cd2	0.07427372
120	0x3e6d54e8	0.2317692
121	0xbe049a9f	-0.12949608
122	0x3d882ce1	0.06649185
123	0xbe9f9274	-0.31166422
124	0x3b1d4467	0.002399707
125	0xbe8b66a9	-0.2722676
126	0xbd1327cb	-0.03592662
127	0x3e720a4f	0.23636745
128	0xbe0a656f	-0.13515256
129	0xbe2bca29	-0.16776337
130	0x3e5d7704	0.21627432
131	0xbe8ea996	-0.2786376
132	0xbedd81df	-0.43263146
133	0xbe8cd8ea	-0.27509242
134	0xbd212752	-0.03934414
135	0xbe8d89ef	-0.27644297
136	0x3d88e5ff	0.06684493
137	0x3db35bd2	0.08757748
138	0xbe14a5f0	-0.14516425
139	0x3e50a906	0.20376977
140	0xbe7efaba	-0.24900332
141	0xbe5a0c10	-0.21293664
142	0xbebd830e	-0.3701405
143	0x3e04ac94	0.12956458
144	0xbe964aab	-0.29353842
145	0xbe4bcb47	-0.19901763
146	0x3ea3dd24	0.32004654
147	0xbe4a8ade	-0.19779536
148	0x3d5ebfde	0.054382198
149	0x3e6905e6	0.22756156
150	0x3e27a501	0.16371538
151	0xbe9f3d38	-0.31101394
152	0x3df3f5e3	0.119121335
153	0xbd984820	-0.07435632
154	0xbe328464	-0.17433316
155	0x3e99ac1c	0.30014122
156	0x3e1a8ce0	0.15092802
157	0x3e872881	0.2639809
158	0x3d3e803d	0.046509016
159	0x3e4c71ee	0.19965336
160	0xbe1b5fba	-0.15173236
161	0xbea8676f	-0.32891414
162	0x3d4657c1	0.048423532
163	0xbc320f08	-0.010867842
164	0xbead717c	-0.33875644
165	0xbeb4ee0e	-0.3533787
166	0x3df3c028	0.11901885
167	0xbc8e3b76	-0.017362338
168	0xbc08ae84	-0.008342389
169	0xbe756a82	-0.23966411
170	0xbe34b3dc	-0.17646736
171	0xbd88ad77	-0.06673711
172	0x3e29a7be	0.16567895
173	0x3df30eb1	0.118680365
174	0x3c130104	0.00897241
175	0xbe851304	-0.2599107
176	0xbe1049a8	-0.14090598
177	0x3d8a4fb9	0.06753487
178	0x3df78289	0.120854445
179	0x3ba64521	0.005074159
180	0xbe5d6ff2	-0.21624735
181	0x3ea8435e	0.32863897
182	0x3e1994a7	0.14998113
183	0x3de9c935	0.1141533
184	0xbe47da44	-0.19516855
185	0x3e3a0ca3	0.18168883
186	0xbe9bb345	-0.3041021
187	0x3e5e590d	0.21713658
188	0x3e5062fc	0.2035026
189	0x3d1fe93d	0.039040793
190	0x3e2cf03d	0.16888519
191	0x3e921b40	0.28536415
192	0xbdf02bcf	-0.11727106
193	0x3daef210	0.085422635
194	0x3e5ec8f9	0.21756352
195	0x3ddb065e	0.10694574
196	0xbe2ab50c	-0.16670626
197	0x3e9af1bc	0.30262554
198	0xbe10e7d4	-0.14150935
199	0xbeb425b8	-0.35185027
200	0xbe1b3c54	-0.15159732
201	0x3c7902b0	0.015198395
202	0x3e8ddd69	0.27707985
203	0x3d93947c	0.072060555
204	0xbe88ce5f	-0.2671995
205	0x3d940070	0.07226646
206	0x3e327b6b	0.17429893
207	0xbd2183c4	-0.039432302
208	0x3e9da8de	0.30792898
209	0xbe8acea3	-0.27110776
210	0x3e950caa	0.29111224
211	0x3e818535	0.2529694
212	0xbcd9712a	-0.026543219
213	0x3e320f53	0.17388658
214	0x3d62d045	0.055374403
215	0x3e85a34b	0.26101145
216	0xbe87523b	-0.26429924
217	0x3d0d9655	0.034567196
218	0x3d94d6ce	0.07267533
219	0x3d21a944	0.039468065
220	0x3d0883f9	0.033328984
221	0xbccfc035	-0.025360206
222	0xbe66235d	-0.22474428
223	0xbd0044be	-0.031315558
224	0xbe8191c9	-0.25306538
225	0xbed2181d	-0.41034022
226	0x3e83c323	0.25734815
227	0xbd9df39c	-0.077124804
228	0xbe0e4b88	-0.13896
229	0x3e452680	0.19252968
230	0xbcd71e31	-0.026259514
231	0x3e0092a0	0.12555933
232	0xbe3477e3	-0.17623858
233	0x3dfa5310	0.12222874
234	0xbe940fa6	-0.2891819
235	0x3e895936	0.26825875
236	0xbda2170b	-0.07914551
237	0xbe5fb575	-0.21846564
238	0x3e754f75	0.23956092
239	0xbd3d5394	-0.046222284
240	0x3d7e75ea	0.06212417
241	0xbe5fa50a	-0.21840301
242	0xbc739915	-0.014868041
243	0xbe2976a9	-0.16549172
244	0xbe84f528	-0.2596829
245	0x3e3792aa	0.17927042
246	0x3d02010f	0.03173929
247	0x3eacd61a	0.33757097
248	0xbd0889fc	-0.033334717
249	0x3e1d21a4	0.15344864
250	0xbe304821	-0.17215015
251	0x3e485458	0.19563425
252	0xbe241b7e	-0.16026112
253	0xbd86c01c	-0.06579611
254	0x3e4ee08a	0.20202842
255	0x3ea1a224	0.31569016

stem.conv1d.bias f4 [64]
0	0xbdf89f49	-0.12139756
1	0x3d3e698f	0.046487387
2	0x3d9396dc	0.072065085
3	0x3e2e1175	0.16998847
4	0x3e9a5691	0.3014417
5	0x3ea36c10	0.31918383
6	0x3e47ff88	0.19531071
7	0x3dfd12ed	0.123571254
8	0xbea550ec	-0.322883
9	0x3e763ec1	0.24047376
10	0xbe7cfbeb	-0.24705474
11	0x3e9a0121	0.30078986
12	0x3e80e7b6	0.2517678
13	0xbea7b60f	-0.32756087
14	0x3e8c1ee8	0.2736733
15	0xbe1c9ec8	-0.15294945
16	0x3cb0fabe	0.021603938
17	0xbd8b0646	-0.06788306
18	0xbe7cd5d8	-0.2469095
19	0x3ca1c2ab	0.019746145
20	0x3db8ecc6	0.09029536
21	0x3e5716e7	0.2100483
22	0xbe7ee27c	-0.24891084
23	0x3e6c2c46	0.23063764
24	0xbbb2079c	-0.005433036
25	0xbd6f2b42	-0.058390863
26	0xbd4015b4	-0.046895698
27	0x3e660841	0.22464086
28	0xbdeab3fc	-0.114601105
29	0xbe04afc7	-0.12957679
30	0xbd2cdcc1	-0.042202715
31	0xbe72dcf1	-0.23717095
32	0xbc963216	-0.01833443
33	0x3cf83fb8	0.030303821
34	0x3e2b6ed5	0.16741498
35	0xbea8ebd4	-0.32992423
36	0x3e9e419d	0.30909434
37	0xbda7ce66	-0.08193664
38	0x3e5196a4	0.20467621
39	0x3e860096	0.26172322
40	0xbe44fc3c	-0.19236845
41	0xbe1319a9	-0.14365257
42	0x3e83c692	0.25737435
43	0x3e1f281f	0.15542649
44	0x3e271c7c	0.1631946
45	0xbe8c1530	-0.27359915
46	0xbe3e8d25	-0.1860853
47	0xbe47caa5	-0.19510897
48	0xbe9f0978	-0.31061912
49	0x3e382c73	0.17985706
50	0x3cf4f72a	0.029903013
51	0xbe03edf2	-0.12883738
52	0x3ea7825a	0.32716638
53	0xbe95e2b7	-0.29274532
54	0x3de7cf52	0.1131884
55	0xbe9931a0	-0.29920673
56	0x3e7a527b	0.24445526
57	0x3da92fe9	0.08261091
58	0xbe5c2cd1	-0.21501471
59	0xbe7821e4	-0.24231678
60	0xbe2c0280	-0.16797829
61	0xbc789a42	-0.015173497
62	0xbe030e9c	-0.12798542
63	0x3e803a56	0.25044507

stem.bn.weight f4 [64]
0	0x3f9f03ff	1.2423095
1	0x3f88ae95	1.0678278
2	0x3f90d727	1.1315659
3	0x3f8ac8b8	1.0842505
4	0x3f919b52	1.1375525
5	0x3f9707cc	1.1799254
6	0x3f8bb491	1.091448
7	0x3f99283a	1.1965401
8	0x3f956983	1.1672825
9	0x3f8ca76b	1.0988592
10	0x3f8dfaa0	1.109211
11	0x3f9d18ae	1.2273157
12	0x3f9ea210	1.2393208
13	0x3f963c93	1.1737236
14	0x3f9573cb	1.1675962
15	0x3f950363	1.1641659
16	0x3f9130b3	1.1342987
17	0x3f8e5f9c	1.1122928
18	0x3f971233	1.1802429
19	0x3f8f3ef4	1.1191087
20	0x3f8fd188	1.1235819
21	0x3f8a414f	1.0801181
22	0x3f903c01	1.1268312
23	0x3f8944cd	1.0724121
24	0x3f9c7699	1.2223693
25	0x3f81ccf9	1.0140678
26	0x3f9ed528	1.24088
27	0x3f940a81	1.1565706
28	0x3f93747c	1.1519923
29	0x3f8f8930	1.1213741
30	0x3f8f5d01	1.1200258
31	0x3f8da9f7	1.1067494
32	0x3f8d2b83	1.1028904
33	0x3f9a073f	1.2033461
34	0x3f9637a5	1.1735731
35	0x3fa28621	1.2697183
36	0x3f97ae6f	1.1850108
37	0x3f954832	1.1662657
38	0x3f8c41c3	1.0957569
39	0x3f9f9213	1.2466453
40	0x3f9f3f2c	1.2441154
41	0x3f8ee5bb	1.1163858
42	0x3f8e72af	1.1128749
43	0x3f8baadc	1.0911517
44	0x3f8c7c12	1.0975363
45	0x3f917359	1.1363326
46	0x3f9097e8	1.1296358
47	0x3f91d8ee	1.1394327
48	0x3f8ac6b7	1.0841893
49	0x3f8f3138	1.1186895
50	0x3f98feb4	1.1952729
51	0x3f88e854	1.0695901
52	0x3f91858b	1.1368879
53	0x3f8c06c6	1.0939567
54	0x3f8ffe55	1.1249491
55	0x3f881343	1.0630878
56	0x3f8faef7	1.122527
57	0x3f8fdf79	1.1240073
58	0x3f921bbd	1.1414715
59	0x3f9f526e	1.244703
60	0x3f924fdd	1.1430622
61	0x3f9b2c11	1.2122823
62	0x3f8b4eac	1.0883384
63	0x3f91864f	1.1369113

stem.bn.bias f4 [64]
0	0x3dc48c6f	0.09597098
1	0x3d7c4830	0.06159228
2	0x3d5ff198	0.05467376
3	0x3db45e8d	0.08807097
4	0x3d248997	0.04017028
5	0x3d7c9544	0.06166579
6	0x3d501d1d	0.050809015
7	0x3dca6778	0.09883016
8	0x3d18c90b	0.037301105
9	0x3d12eb81	0.035869125
10	0x3dd018ee	0.10161005
11	0x3d5fd537	0.054646697
12	0x3df180e0	0.11792159
13	0x3dad3227	0.084568314
14	0x3dd08dfb	0.101833306
15	0x3dc5fe83	0.09667685
16	0x3dc2ad97	0.09505766
17	0x3dd1c611	0.10242856
18	0x3e0f64ed	0.14003344
19	0x3d8d72df	0.069066755
20	0x3d92a8ec	0.071611255
21	0x3d869c1e	0.06572746
22	0x3db57f41	0.088621624
23	0x3e05c2f1	0.13062645
24	0x3dbe6826	0.092972085
25	0x3d7da2a8	0.0619227
26	0x3d79bda6	0.06097188
27	0x3d803f03	0.062620185
28	0x3e086074	0.13318044
29	0x3d497852	0.049187012
30	0x3da54413	0.08069625
31	0x3d232471	0.039829675
32	0x3d91cb4f	0.07118856
33	0x3dad04ee	0.08448206
34	0x3da57e8b	0.08080777
35	0x3dbffea4	0.09374741
36	0x3e0f7b6d	0.14011927
37	0x3d59dd12	0.053189345
38	0x3d93b419	0.07212085
39	0x3ddfd687	0.1092959
40	0x3e0fe7d9	0.14053287
41	0x3c7190c7	0.01474399
42	0x3de93cc1	0.11388541
43	0x3d2705ca	0.040777005
44	0x3da6ed2d	0.081507064
45	0x3d98f3e7	0.07468396
46	0x3e019ddf	0.1265788
47	0x3bfaa44c	0.0076489802
48	0x3d83a139	0.06427235
49	0x3d0fa1fc	0.03506659
50	0x3d996fc5	0.074920215
51	0x3dc7b7e0	0.09751868
52	0xbbd848a7	-0.0066004577
53	0x3e002c31	0.12516858
54	0x3d9ab37b	0.075537644
55	0x3ddbd361	0.10733677
56	0x3e164fc1	0.14678861
57	0x3d0dc3e0	0.03461063
58	0x3cc65f91	0.024215491
59	0x3e0e004d	0.13867302
60	0x3d90362c	0.070415825
61	0x3e09de8a	0.13463798
62	0x3d997979	0.07493872
63	0x3d097188	0.033555537

stem.bn.running_mean f4 [64]
0	0xbf214fd5	-0.6301244
1	0x3ecd9dae	0.40159363
2	0x3c36e4d5	0.011162956
3	0x3f5cc44f	0.86237043
4	0x3df8f98a	0.12156971
5	0x3ea0f467	0.31436464
6	0x3f3cebe2	0.7379743
7	0xbf3dd478	-0.74152327
8	0xbe88514d	-0.26624528
9	0x3eeae439	0.45877245
10	0xbe90bb0e	-0.2826771
11	0xbedfbcdc	-0.43698776
12	0xbeb1a1cf	-0.34693763
13	0xbf86a83b	-1.052009
14	0xbf255888	-0.6458821
15	0xbf368273	-0.712928
16	0xbcadefdd	-0.02123254
17	0xbeddeb33	-0.43343505
18	0xbf44b4d3	-0.76838416
19	0x3e8d1612	0.275559
20	0x3e717d89	0.23583044
21	0x3f01187a	0.50427973
22	0xbe94104f	-0.28918692
23	0x3f51dce3	0.8197767
24	0xbf234ad6	-0.63786066
25	0x3cd21f15	0.025649587
26	0xbe85c3bb	-0.26125893
27	0x3edb3d35	0.42820135
28	0xbf12e8dd	-0.5738657
29	0xbd854ffe	-0.06509398
30	0xbecb7266	-0.39735717
31	0xbce9bdaa	-0.028532822
32	0xbe9b7808	-0.30365014
33	0xbe9f52a2	-0.3111773
34	0x3dfda155	0.12384287
35	0xbf09e4cc	-0.5386474
36	0xbd9ab64e	-0.07554303
37	0xbef57a2b	-0.4794477
38	0x3f2eed96	0.6833128
39	0xbed9780d	-0.42474404
40	0xbf45b664	-0.7723143
41	0xbe502fb9	-0.20330705
42	0x3eef9e8a	0.46800643
43	0x3d522fa1	0.051314954
44	0x3dc30f4e	0.095244035
45	0xbe94b9dd	-0.29048052
46	0xbea63726	-0.3246395
47	0x3dd26eb7	0.102750234
48	0xbe4c787b	-0.19967835
49	0x3f1496d3	0.5804264
50	0xbf2c46af	-0.67295355
51	0x3d794310	0.06085497
52	0xbe040e7f	-0.12896155
53	0xbe99b232	-0.30018765
54	0x3e77ae33	0.24187545
55	0xbe9f5083	-0.31116113
56	0x3ef3b97e	0.47602457
57	0xbe9a7483	-0.30167016
58	0xbe0066b7	-0.12539183
59	0xbf30922a	-0.6897303
60	0xbf357ce4	-0.7089369
61	0xbf501958	-0.8128867
62	0xbe8f899b	-0.28034672
63	0x3e910849	0.28326634

stem.bn.running_var f4 [64]
0	0x40b237f2	5.5693293
1	0x41c0c56c	24.096397
2	0x416bb657	14.732017
3	0x415e500a	13.894541
4	0x40fcb674	7.897272
5	0x4076505a	3.8486543
6	0x41468b56	12.409018
7	0x4190e6e0	18.112732
8	0x40a96d08	5.2945595
9	0x41113005	9.0742235
10	0x418f5367	17.915724
11	0x41141f74	9.257679
12	0x410664dd	8.399625
13	0x41078173	8.469104
14	0x415822ae	13.508467
15	0x410fc835	8.986379
16	0x4108bc23	8.545932
17	0x417a3e7d	15.640256
18	0x4151fe15	13.124532
19	0x413d34ee	11.825422
20	0x410cce7d	8.800412
21	0x41887642	17.057743
22	0x41edc1a3	29.71955
23	0x419d7a0c	19.684593
24	0x40cd3096	6.412181
25	0x40b1c5e5	5.555407
26	0x40667309	3.6007712
27	0x4145ee24	12.37064
28	0x41a86b67	21.052443
29	0x403a7bf7	2.9138162
30	0x41483bbe	12.5145855
31	0x415e136c	13.879742
32	0x40e843f0	7.258293
33	0x40e42ce3	7.1304793
34	0x414ee4ba	12.930841
35	0x4011c61c	2.2777166
36	0x406c013d	3.6875756
37	0x4191b168	18.211624
38	0x41d17528	26.182205
39	0x410f7d48	8.968086
40	0x41127f24	9.15604
41	0x41cec817	25.8477
42	0x416d1d13	14.819598
43	0x41ebe8ee	29.488735
44	0x41dbba56	27.465984
45	0x40c795d5	6.23704
46	0x41f1e24c	30.235497
47	0x4194348f	18.525663
48	0x419e5398	19.790817
49	0x419e6858	19.80095
50	0x411bd1b9	9.738702
51	0x40d9d8ce	6.8077154
52	0x42006e3d	32.107655
53	0x410d32f3	8.824939
54	0x40a6d143	5.2130446
55	0x41784714	15.517353
56	0x416e0063	14.875094
57	0x41930251	18.376131
58	0x409b4744	4.8524494
59	0x40bc3694	5.8816624
60	0x420e2ddd	35.54479
61	0x41494f9f	12.581939
62	0x418d79fe	17.684566
63	0x40c89d4c	6.2692013

inception.branch1.1.depthwise.weight f4 [64, 1, 1]
0	0x3f37f5a5	0.718592
1	0xbec53b5d	-0.38521853
2	0xbf2bbeaa	-0.67087805
3	0x3e344800	0.17605591
4	0xbf7ed954	-0.99550366
5	0xbe82a687	-0.25517675
6	0xbf05c7a2	-0.5225774
7	0xbea6549b	-0.32486424
8	0x3f4a3942	0.7899362
9	0xbf0c5333	-0.5481445
10	0x3f859cf7	1.0438527
11	0xbe82ce2f	-0.2554793
12	0xbf93a672	-1.153517
13	0x3ec23d6a	0.3793748
14	0x3f705868	0.938849
15	0x3f7e08be	0.9923209
16	0xbf11441d	-0.5674456
17	0xbf5e4e64	-0.86838365
18	0xbeeedeb3	-0.4665428
19	0xbf01bd65	-0.5067962
20	0xbec65b1f	-0.38741395
21	0x3f822283	1.0166782
22	0x3efcc880	0.4937172
23	0xbf0145ba	-0.5049702
24	0xbf5d656d	-0.8648289
25	0xbf0b32af	-0.5437421
26	0x3f4fa34c	0.81108546
27	0x3f397cd5	0.72456104
28	0x3cd3a3f4	0.025835015
29	0xbf482a4c	-0.7818954
30	0x3eb6b81c	0.3568734
31	0xbf8930b4	-1.0717988
32	0x3f08a3e0	0.53375053
33	0xbf823382	-1.0171969
34	0xbf263d04	-0.6493685
35	0xbf863275	-1.0484148
36	0x3e48b02b	0.19598453
37	0xbeeecc99	-0.4664047
38	0xbeaeb458	-0.34121966
39	0x3e92c603	0.28666696
40	0x3f11a4bb	0.56891984
41	0x3f2d20e6	0.67628324
42	0xbf19c7f7	-0.6007075
43	0x3f4900ec	0.7851703
44	0x3f86091d	1.0471531
45	0xbe9c8065	-0.30566707
46	0xbea9659e	-0.3308534
47	0x3f3b3005	0.73120147
48	0x3f80dd25	1.0067488
49	0x3f2dddd4	0.6791661
50	0x3e5b92fc	0.21442789
51	0x3f42fa1f	0.76162905
52	0x3ef15eee	0.47142738
53	0xbf513659	-0.8172355
54	0xbf38d762	-0.7220365
55	0xbf0e3eea	-0.5556475
56	0x3c9b3b59	0.018949198
57	0xbeea6273	-0.45778236
58	0xbf1daed0	-0.6159487
59	0x3f61e845	0.8824504
60	0x3ead5cdb	0.33859906
61	0xbec0c3d6	-0.3764941
62	0x3f8988f9	1.0744926
63	0xbe26da16	-0.1629413

inception.branch1.1.depthwise.bias f4 [64]
0	0x3f696208	0.9116521
1	0x3f1baa5e	0.60806835
2	0xbf6e57b9	-0.93102604
3	0x3e230d25	0.15922983
4	0xbdf33282	-0.11874868
5	0x3eb60679	0.35551813
6	0x3f30d316	0.6907209
7	0x3f724a2e	0.9464444
8	0xbea88e44	-0.3292104
9	0xbe78ab0b	-0.24283998
10	0xbebcccd2	-0.36875015
11	0xbf28e725	-0.659777
12	0x3e78d00e	0.24298117
13	0x3ef913c9	0.48647907
14	0x3ddccb0f	0.10780918
15	0x3eaf61b2	0.34254223
16	0xbe95f146	-0.2928564
17	0xbf2d2e07	-0.6764836
18	0x3c712827	0.014719046
19	0xbd3ccafd	-0.046092022
20	0x3f81329a	1.0093567
21	0x3f0f19ef	0.55898947
22	0xbf1a2ac6	-0.6022152
23	0x3ec99221	0.393693
24	0x3f643d72	0.8915626
25	0x3f41c94e	0.7569779
26	0xbf3f000c	-0.74609447
27	0x3ef0e143	0.4704686
28	0x3f0fd3f5	0.56182796
29	0xbf7c6666	-0.9859375
30	0x3dcf5908	0.10124403
31	0x3f45f1fa	0.7732235
32	0xbdbd4844	-0.09242299
33	0x3f6597e5	0.896849
34	0x3ea95d20	0.3307886
35	0xbedef19c	-0.43543708
36	0xbf2e7584	-0.68148065
37	0xbea7d1ab	-0.3277715
38	0xbf68b47c	-0.909004
39	0xbea2a507	-0.3176653
40	0x3e102587	0.14076816
41	0xbf08d5ba	-0.5345112
42	0x3ef430f2	0.47693592
43	0x3d2046e3	0.039130103
44	0x3ddef598	0.10886687
45	0x3ec81e6e	0.39085716
46	0x3f7a49f6	0.97769105
47	0xbeeb8a77	-0.46004078
48	0xbf542edf	-0.8288402
49	0x3f7788d6	0.9669317
50	0xbf6fae45	-0.9362529
51	0xbd87e75e	-0.06635927
52	0xbf01462a	-0.50497687
53	0x3f809a69	1.0047122
54	0xbe86900f	-0.26281783
55	0xbf61eb15	-0.8824933
56	0x3f476bf3	0.7789909
57	0x3f38c79a	0.7217957
58	0x3e84a5e8	0.25907826
59	0x3f1bf2fe	0.6091765
60	0xbf157da7	-0.58394855
61	0xbec66881	-0.38751605
62	0xbe95feea	-0.29296046
63	0xbe0bf327	-0.13666974

inception.branch1.1.pointwise.weight f4 [32, 64, 1]
0	0x3ddc7b1c	0.10765669
1	0x3d1ab25a	0.037767746
2	0x3d7882c9	0.0606716
3	0xbc74756f	-0.0149205765
4	0x3b082a9d	0.0020777353
5	0x3e3a8458	0.18214548
6	0x3e169b8d	0.14707775
7	0x3d859172	0.06521882
8	0xbe8cf272	-0.2752872
9	0x3d17d061	0.03706396
10	0xbd6ce068	-0.057831198
11	0xbc1b0045	-0.0094605135
12	0xbba61258	-0.0050681047
13	0x3e25dc4c	0.16197318
14	0x3c50c2c4	0.012741748
15	0x3dbc602e	0.09198032
16	0x3bf659f4	0.0075180475
17	0xbe040fd4	-0.12896663
18	0x3c4ca3f5	0.012490262
19	0x3cfa0fbc	0.03052508
20	0x3c7f620e	0.015587343
21	0x3d2c9304	0.042132393
22	0xbdb554e0	-0.08854079
23	0x3e29a278	0.16565883
24	0x3c77738d	0.015103233
25	0x3d528cd4	0.051403835
26	0xbe57af9c	-0.21063083
27	0x3e165d3c	0.14684004
28	0x3e3cac71	0.18425156
29	0xbe0d23a8	-0.13783133
30	0x3dbafaa7	0.091298394
31	0x3d9fd022	0.0780337
32	0xbb3ed9fd	-0.002912163
33	0xbc98930d	-0.018624807
34	0x3cd5f9a1	0.026120009
35	0xbd9cd335	-0.07657472
36	0xbe02a2d4	-0.12757427
37	0xbd5e8fcc	-0.054336354
38	0xbc919472	-0.01777098
39	0xbcbe8dd8	-0.023260996
40	0xbd663bee	-0.056209497
41	0x3b948f7f	0.0045337076
42	0x3e081c26	0.13291988
43	0xbd2a91b3	-0.041642856
44	0xbd82aeaa	-0.06380971
45	0x3dbf35a8	0.09336406
46	0x3d8ecfd5	0.069732346
47	0xbe168b9b	-0.14701693
48	0xbd2086e2	-0.039191134
49	0xbcb9bd62	-0.022673313
50	0x3d416c10	0.047222197
51	0x3c4f8d28	0.012667932
52	0xbdcf27bf	-0.10115003
53	0x3d42c1d1	0.04754812
54	0xbe29decf	-0.16588901
55	0xbd9a8332	-0.07544555
56	0x3b262a20	0.0025354698
57	0x3d9246f8	0.071424425
58	0x3de18602	0.11011888
59	0xbe0151fa	-0.12628928
60	0x3c9c6897	0.019092841
61	0x3d696976	0.05698534
62	0xbe067444	-0.1313029
63	0xbd825da4	-0.06365517
64	0xbd30b3c0	-0.043140173
65	0x3c3818ca	0.011236379
66	0x3a75c68a	0.0009375593
67	0x3e0e44a5	0.13893373
68	0x3d5214bf	0.051289316
69	0xbd0daba9	-0.034587536
70	0x3c5a37f9	0.013319009
71	0xbdd8b2c2	-0.1058097
72	0xbd8b601a	-0.06805439
73	0xbc82c87d	-0.01596474
74	0xbdcd1e40	-0.10015535
75	0x3d126909	0.0357447
76	0xbb6fcf8b	-0.003659221
77	0x3e1e6b09	0.15470518
78	0xbd69fb73	-0.057124566
79	0x3c9048f4	0.017612912
80	0x3da001d2	0.07812847
81	0xbe05c566	-0.13063583
82	0x3e159e78	0.14611232
83	0xbd0dc269	-0.034609232
84	0x3d83b874	0.06431666
85	0x3e06f69e	0.13180014
86	0xbdfdf442	-0.12400104
87	0x3e3700ed	0.17871447
88	0x3dab2cea	0.08358176
89	0x3e0120fa	0.12610236
90	0xbdbe1901	-0.09282113
91	0xbc987618	-0.018610999
92	0xbc6a9d0b	-0.0143196685
93	0xbe3e8f51	-0.18609358
94	0x3cb563d5	0.02214233
95	0xbd0b772a	-0.03404919
96	0x3c28be05	0.01029921
97	0xbdd2920f	-0.10281765
98	0x3d8fa34b	0.070135675
99	0xbd5268c3	-0.05136944
100	0xbe15c428	-0.14625609
101	0xbe004110	-0.1252482
102	0xbdb0bdfa	-0.08629985
103	0x3d6b5ee8	0.057463557
104	0xbd671ca3	-0.056423794
105	0xbdc5090a	-0.09620865
106	0x3e2abec2	0.16674331
107	0x3dc70b48	0.097189486
108	0x3b87d1ae	0.004144869
109	0xbe0323de	-0.12806651
110	0x3e0baf2d	0.13641043
111	0xbdd71b88	-0.10503298
112	0x3dd81278	0.10550398
113	0xbdf628c4	-0.12019494
114	0x3d9c1f52	0.076231614
115	0x3d7b527f	0.06135797
116	0xbddccc33	-0.107811354
117	0x3ddcffcd	0.107909776
118	0x3badf672	0.0053089196
119	0xbe1c4922	-0.15262273
120	0xbd2241ed	-0.039613653
121	0x3db23abb	0.08702608
122	0xbd17303c	-0.036911234
123	0xbcdd4d90	-0.027014524
124	0xbdae631f	-0.085149996
125	0xbdb976cb	-0.09055861
126	0xbdc9bec2	-0.09850837
127	0x3db56bdb	0.088584624
128	0x3dd13185	0.10214523
129	0xbd77abcc	-0.060466573
130	0xbd62e23a	-0.055391528
131	0xbdd173db	-0.10227176
132	0xbd77a4e7	-0.060459998
133	0xbe1af485	-0.1513234
134	0xbe0f9e96	-0.1402534
135	0xbdc156ef	-0.094404094
136	0x3de5f1f6	0.11227791
137	0xbdee40c2	-0.11633445
138	0xbe3e0048	-0.18554795
139	0xbc3319c7	-0.010931439
140	0xbe8baab1	-0.27278665
141	0xbdca829e	-0.098881945
142	0x3e555d2f	0.20836328
143	0x3e066c95	0.13127358
144	0xbe053373	-0.13007908
145	0x3dd9960a	0.10624321
146	0xbe3fa5db	-0.18715613
147	0xbc67d26e	-0.014149291
148	0x3dbd69d6	0.09248702
149	0x3db8b1d4	0.09018293
150	0x3b0fa199	0.0021916388
151	0x3e1a076a	0.1504189
152	0xbc2a7174	-0.010403026
153	0xbd3056c1	-0.043051485
154	0xbcfb660a	-0.030688304
155	0x3d351308	0.044207603
156	0xbdbef097	-0.093232326
157	0xbd38aae0	-0.045084834
158	0xbbac6913	-0.0052615493
159	0x3e140276	0.14454064
160	0x3e375631	0.17903973
161	0x3dfdb3fb	0.12387844
162	0xbd748edf	-0.059706565
163	0x3dce349a	0.10068627
164	0x3cbd8171	0.023133012
165	0x3c126e37	0.00893741
166	0x3dacac50	0.084313035
167	0xbc749546	-0.014928168
168	0x3e028562	0.12746194
169	0xbd135dc7	-0.035978105
170	0x3b3aebf8	0.0028521996
171	0xbcef7893	-0.029232299
172	0xbe1106b9	-0.1416272
173	0xbcd2d345	-0.025735507
174	0x3d9c5c43	0.07634785
175	0xbdfa16ab	-0.12211355
176	0x3d70e6f5	0.058814008
177	0xbd1265bb	-0.03574155
178	0x3d037f54	0.03210385
179	0xbce4ff06	-0.027953636
180	0xbd3eff65	-0.046630282
181	0xbc9e2449	-0.019304411
182	0xbd1dbd48	-0.03851059
183	0x3a65ee85	0.0008771199
184	0x3dc55e0b	0.09637078
185	0xbd58541d	-0.05281459
186	0x3e17c283	0.14820294
187	0xbc276f02	-0.010219337
188	0xbd593a84	-0.05303432
189	0x3ca9bdac	0.020720325
190	0xbe13a03b	-0.14416592
191	0xbdf5077c	-0.11964318
192	0x3cabacae	0.020956364
193	0x3e1eefb3	0.15521125
194	0x3d91d1d8	0.07120103
195	0x3dea85b9	0.11451287
196	0xbd4d033b	-0.05005191
197	0xbd091e8c	-0.033476397
198	0xbd417466	-0.047230147
199	0xbdae1be0	-0.085014105
200	0x3e051c31	0.12999035
201	0x3d72595f	0.059167262
202	0x3e147d97	0.14501034
203	0xbd318a1d	-0.043344606
204	0x3dd8634a	0.10565813
205	0xbde77c6f	-0.11303031
206	0xbcdc785e	-0.026912864
207	0x3c44f9af	0.01202242
208	0xbdf52f68	-0.11971933
209	0x39879fe0	0.00025868323
210	0xbc1203c5	-0.008912032
211	0x3dc1a397	0.094550304
212	0xbd92647f	-0.07148074
213	0xbd4dc4eb	-0.050236624
214	0xbe053148	-0.1300708
215	0x3e220b4d	0.15824623
216	0x3d2080ec	0.03918545
217	0xbdc3d86f	-0.09562766
218	0x3da54acd	0.08070908
219	0x3ba66e48	0.0050790645
220	0xbbc9c292	-0.006157228
221	0x3c56eb8f	0.013117685
222	0x3910dfef	0.00013816332
223	0x3de3f5bb	0.11130854
224	0xbd8f2134	-0.06988755
225	0x3dcb3a84	0.0992327
226	0xbcb53ff5	-0.022125224
227	0x3e005b2e	0.12534782
228	0xbd60a5a7	-0.05484548
229	0x3d4a67d6	0.049415432
230	0xbc8d254b	-0.017229697
231	0xbda4a5f2	-0.08039464
232	0x3c662dce	0.014049007
233	0xbd034b23	-0.032054078
234	0x3d7e7edd	0.062132705
235	0x3d4f2886	0.050575756
236	0xbe0cc255	-0.13746007
237	0xbd40b098	-0.047043413
238	0x3d9e08f9	0.07716555
239	0x3e0a7c17	0.13523899
240	0x3dbc9a9e	0.092091784
241	0xbdcae5cf	-0.09907114
242	0x3cb7e303	0.022447115
243	0x3d4d1bed	0.05007546
244	0x3daa1620	0.08305001
245	0xbe07db73	-0.13267307
246	0xbd8e57f1	-0.06950367
247	0xbda78a9b	-0.08180734
248	0x3d8bb366	0.06821327
249	0xbda8d024	-0.08242825
250	0xbcce8a0c	-0.02521231
251	0x3d0f797b	0.035027962
252	0x3d065bd0	0.032802403
253	0x3d46879a	0.048469163
254	0x3d9a52cf	0.07535326
255	0xbcb29316	-0.021798652

inception.branch1.1.pointwise.bias f4 [32]
0	0xbd5a4a94	-0.05329378
1	0x3def3e74	0.11681834
2	0x3e12aacc	0.14322966
3	0x3dac27c4	0.08406022
4	0x3d8594cf	0.065225236
5	0xbe05e14b	-0.13074224
6	0x3dbda25b	0.092594825
7	0x3cc4a139	0.024002658
8	0x3d60a693	0.054846358
9	0x3dd1ebdf	0.10250067
10	0x3e064c8e	0.13115141
11	0x3cb1d1c6	0.021706473
12	0x3d7089d3	0.05872519
13	0xbd81fb65	-0.06346778
14	0x3db5353d	0.08848045
15	0x3de1b100	0.11020088
16	0xbda47584	-0.08030227
17	0xbb8d1bd2	-0.004306295
18	0xbd474de3	-0.048658263
19	0xbc779930	-0.015112206
20	0xbce315d2	-0.027720366
21	0x3d0395df	0.03212535
22	0x3dc80811	0.097671635
23	0x3e177011	0.14788844
24	0xbdb81ac3	-0.089894794
25	0x3d818d40	0.063257694
26	0x3dc071a0	0.09396672
27	0x3dbf76a2	0.09348799
28	0x3dd17f1b	0.102293216
29	0x3d2d86ed	0.042365003
30	0x3d2896df	0.041159507
31	0x3dd5f548	0.10447174

inception.branch2.0.depthwise.weight f4 [64, 1, 1]
0	0xbeccc304	-0.39992535
1	0xbf32b3ef	-0.69805807
2	0xbf83c952	-1.0295813
3	0x3f320053	0.69531745
4	0x3ecedbb5	0.40401998
5	0xbf2c895e	-0.67397106
6	0x3f0f04f9	0.5586696
7	0xbf42a2e4	-0.760298
8	0x3f210755	0.6290181
9	0xbe51ff21	-0.2050748
10	0xbece31a3	-0.40272245
11	0xbf34b235	-0.7058442
12	0x3f62786d	0.88465005
13	0x3f23c14a	0.6396681
14	0xbea5365a	-0.3226803
15	0xbd8a0978	-0.06740087
16	0x3ea4d7d3	0.3219591
17	0xbf261253	-0.6487171
18	0xbec183eb	-0.37795958
19	0x3f8481ae	1.0352075
20	0xbf4454c4	-0.7669184
21	0x3f7f0d41	0.996296
22	0xbf46a4e7	-0.7759537
23	0x3f5a1533	0.851886
24	0xbf6bebb3	-0.92156523
25	0x3f372b60	0.7155056
26	0xbe8ee075	-0.27905622
27	0xbf3e7592	-0.7439815
28	0x3f0403bb	0.5156819
29	0x3f1970ca	0.5993773
30	0xbf4bffc8	-0.79687166
31	0x3f65b101	0.8972321
32	0x3ecdf430	0.40225363
33	0x3eb3fd9c	0.35154426
34	0x3ec92374	0.3928486
35	0xbf996b77	-1.1985921
36	0x3f5aa651	0.8541003
37	0x3e7d437c	0.24732774
38	0x3f86e791	1.0539418
39	0xbf6ac967	-0.91713566
40	0x3e79d036	0.24395832
41	0xbf234cc3	-0.63789004
42	0xbf0c519d	-0.5481203
43	0xbf473b3e	-0.7782477
44	0xbf200adf	-0.6251659
45	0x3f07e902	0.53089917
46	0xbf55767a	-0.83383906
47	0x3f181fc7	0.5942349
48	0x3e7d56e2	0.24740174
49	0x3eb839e8	0.3598168
50	0x3f76bee4	0.96385026
51	0xbf4b0191	-0.79299265
52	0x3f885cf8	1.0653372
53	0xbf1338f4	-0.5750878
54	0x3f3b3192	0.73122513
55	0x3e9ce2f3	0.306419
56	0xbf2470d1	-0.64234644
57	0x3f80f0c8	1.0073481
58	0x3f43b985	0.76454955
59	0x3f59c849	0.85071236
60	0xbf07fe57	-0.53122467
61	0x3ebfb9f6	0.37446564
62	0x3f7c8f36	0.9865602
63	0xbf1d74b9	-0.6150623

inception.branch2.0.depthwise.bias f4 [64]
0	0xbebe9b50	-0.3722787
1	0xbf714316	-0.9424299
2	0x3da84a66	0.082173154
3	0x3e1596d1	0.14608313
4	0x3de8fd8d	0.11376486
5	0xbe80e144	-0.25171864
6	0xbeb9671d	-0.36211482
7	0xbf214874	-0.6300118
8	0xbf22a219	-0.6352859
9	0xbf768832	-0.9630157
10	0xbf68f5aa	-0.90999854
11	0x3e7cdc28	0.24693358
12	0xbed5986e	-0.41717857
13	0x3ed9ad85	0.42515197
14	0xbe6c5229	-0.23078217
15	0xbf237d10	-0.63862705
16	0xbec450f8	-0.38343024
17	0xbf2b32ba	-0.6687428
18	0xbf6df802	-0.92956555
19	0x3e0d308b	0.13788049
20	0xbea9ed95	-0.33189073
21	0xbf10d588	-0.5657582
22	0x3d9b4f4c	0.07583484
23	0xbf72cc4b	-0.94842976
24	0xbe5ec1d2	-0.21753624
25	0x3f1ea694	0.6197293
26	0x3f3cacfd	0.7370146
27	0xbf010082	-0.503914
28	0xbf26fefa	-0.65232813
29	0xbeccd4fc	-0.40006244
30	0x3dcaffca	0.09912069
31	0x3f52edad	0.82393914
32	0x3f700c84	0.937691
33	0x3e84cf65	0.2593948
34	0x3b94d9d6	0.0045425696
35	0x3de4f559	0.11179609
36	0x3f56a5fe	0.83847034
37	0xbecb59aa	-0.39716846
38	0x3f5ddd36	0.86665666
39	0xbe2c1c87	-0.16807757
40	0x3f039dc5	0.5141261
41	0x3f046d4e	0.51729286
42	0xbe2072e9	-0.15668835
43	0xbe9d4a3f	-0.30720708
44	0x3e09abc7	0.13444434
45	0xbf5338a2	-0.8250829
46	0xbe46957b	-0.1939296
47	0x3f03df6c	0.5151279
48	0x3f41fb7a	0.7577435
49	0x3f3df796	0.7420591
50	0x3d37c6f3	0.044867467
51	0x3f627125	0.88453895
52	0x3efb4413	0.49075374
53	0xbedb5195	-0.4283568
54	0x3f2fbe07	0.68649334
55	0xbf7261c9	-0.9468046
56	0x3ed647aa	0.4185155
57	0xbe33c235	-0.17554553
58	0x3eb296f4	0.34880793
59	0xbf08219a	-0.5317627
60	0xbec5307f	-0.38513562
61	0xbd850805	-0.0649567
62	0x3f1b2493	0.6060268
63	0x3ee3539d	0.4439973

inception.branch2.0.pointwise.weight f4 [32, 64, 1]
0	0x3e5257f3	0.20541362
1	0x3dce0ca6	0.10061006
2	0x3c114b9d	0.008868125
3	0xbdbc4da9	-0.091945
4	0xbdf2eec4	-0.11861947
5	0x3d85441d	0.06507132
6	0x3dfe7888	0.12425333
7	0xbe34dec0	-0.17663097
8	0x3d9a1755	0.075239815
9	0x3de8c6b5	0.11366025
10	0x3e6526a2	0.22378018
11	0xbe352077	-0.17688166
12	0x3e96d1f6	0.29457062
13	0x3d8a0926	0.06740026
14	0xbcbaec2d	-0.022817696
15	0x3d2f1d85	0.04275276
16	0x3e159e86	0.14611253
17	0xbd800346	-0.06250624
18	0x3d98b45a	0.07456274
19	0x3e5d50f5	0.21612914
20	0xbdd83c02	-0.105583206
21	0xbd55686c	-0.052101538
22	0xbd2bd44f	-0.04195052
23	0x3e3c35ba	0.1837987
24	0x3e08d44b	0.13362233
25	0x3ca43a12	0.020047221
26	0x3da6eb43	0.08150341
27	0xbde510be	-0.11184834
28	0x3e36e05d	0.17859025
29	0x3e158a91	0.1460364
30	0x3ddf9a69	0.10918123
31	0x3c50bf6b	0.01274095
32	0xbdd96c97	-0.10616415
33	0x3d9d49d9	0.07680101
34	0x3dfa9cb1	0.12236918
35	0x3d0e7795	0.03478201
36	0xbd9fc798	-0.07801741
37	0x3e60c42a	0.2194983
38	0x3c9396c4	0.018016227
39	0x3d7d67b1	0.061866466
40	0xbe02f529	-0.12788834
41	0x3dd3a926	0.10334997
42	0xbca7eb12	-0.020497832
43	0x3d956314	0.07294288
44	0xbd853401	-0.065040596
45	0xbb8ab10f	-0.004232533
46	0x3d4aff4a	0.04955987
47	0xbbd4d3d3	-0.006494978
48	0xbd8b29b2	-0.06795062
49	0xbe3a869b	-0.1821541
50	0x3e81820e	0.25294536
51	0xbd14163d	-0.03615402
52	0xbe76cf7a	-0.24102584
53	0xbcf78a35	-0.03021727
54	0xbdbb081e	-0.091324076
55	0x3aa22a16	0.0012372162
56	0xbe4c92c5	-0.19977863
57	0x3b50eea8	0.0031880531
58	0x3e1fd057	0.15606819
59	0x3e253c3b	0.16136257
60	0x3d937a1d	0.07201026
61	0x3e99c202	0.3003083
62	0xbda03955	-0.07823435
63	0x3e366056	0.17810187
64	0x3c1f1c4f	0.009711339
65	0x3dfb7db6	0.12279837
66	0x3e554dcc	0.20830458
67	0xbd9bf32e	-0.07614742
68	0xbdb39366	-0.087683484
69	0x3db236e9	0.087018795
70	0xbd4e2d48	-0.050336152
71	0xbe1a1db7	-0.15050398
72	0x3cd9b91d	0.026577527
73	0x3d8da827	0.06916838
74	0xbd8e3201	-0.06943131
75	0x3c073291	0.008251802
76	0x3e8799be	0.26484483
77	0xbd4a6412	-0.04941184
78	0xbe313032	-0.17303541
79	0xbd1032ff	-0.035204884
80	0xbdf2be67	-0.118527226
81	0x3e2240ef	0.15845083
82	0xbe223439	-0.15840234
83	0x3d583de8	0.052793413
84	0xbd9d2ad3	-0.07674184
85	0xbdc8f79a	-0.09812851
86	0xbd3879c0	-0.045037985
87	0xbd3ddc44	-0.04635264
88	0x3e10e10f	0.14148353
89	0xbd488276	-0.048952542
90	0xbca0ef2b	-0.019645294
91	0x3e01739e	0.1264176
92	0xbd208cfd	-0.039196957
93	0x3c32f462	0.010922523
94	0xbd557294	-0.052111223
95	0xbe3548f2	-0.17703608
96	0x3de37ac3	0.11107399
97	0xbdb18992	-0.086688176
98	0x3d571d40	0.05251813
99	0x3de67d4b	0.112543665
100	0x3deff03c	0.11715743
101	0x3dffe35c	0.12494537
102	0xbe0cca4a	-0.13749042
103	0x3ca03b3f	0.0195595
104	0x3d372d15	0.044720728
105	0x3da7ad18	0.08187312
106	0x3e00ed57	0.12590538
107	0x3e12dd1f	0.14342164
108	0x3e10cc5e	0.1414046
109	0xbd97fa6a	-0.074208096
110	0x3e1aabf7	0.15104662
111	0xbb7b9ce2	-0.003839307
112	0x3d0687a3	0.032844197
113	0x3e315159	0.17316188
114	0x3d829ff9	0.063781686
115	0x3d0e3f0f	0.034728106
116	0xbd2648d1	-0.040596787
117	0xbe2c9676	-0.16854271
118	0x3d6f9d62	0.0584997
119	0xbcfe2586	-0.031023752
120	0xbe36aa16	-0.1783832
121	0xbe2d17f8	-0.16903675
122	0x3da770c0	0.08175802
123	0x3e2a5517	0.16634022
124	0x3d2d7915	0.0423518
125	0x3e7b2629	0.24526276
126	0x3d018aff	0.031626698
127	0xbe022178	-0.1270808
128	0x3bdb1412	0.006685742
129	0x3d23caac	0.039988205
130	0xbd0d4f99	-0.03449974
131	0x3e61b1b8	0.2204045
132	0x3df7eaba	0.121053174
133	0xbd75c5c3	-0.060003053
134	0x3db5bd2c	0.08873972
135	0x3e266b11	0.1625178
136	0xbdae6f19	-0.08517284
137	0x3dde91c8	0.10867649
138	0x3dd6052d	0.10450206
139	0x3e51ac65	0.2047592
140	0xbdb97ecb	-0.09057387
141	0x3c8e79b2	0.017392013
142	0xba44ee18	-0.00075122854
143	0x3e02630f	0.127331
144	0x3df846b6	0.12122862
145	0x3de6c29d	0.11267588
146	0xbd0793f0	-0.03310007
147	0xbd5a0fd7	-0.053237762
148	0xbdd1c2b3	-0.10242214
149	0xbc8b90fa	-0.017036904
150	0x3db15306	0.086584136
151	0x3e627779	0.22115888
152	0x3dad0b6b	0.084494434
153	0xbdd8fec5	-0.105954684
154	0xbd353268	-0.044237524
155	0xbe0523c2	-0.13001922
156	0x3d07f6e7	0.03319445
157	0x3c279698	0.010228775
158	0x39b66021	0.00034785367
159	0xbd656c69	-0.05601159
160	0xbdc2cf9f	-0.09512257
161	0xbd6a6bb7	-0.05723163
162	0xbd2318b3	-0.039818477
163	0x3e1481cd	0.1450264
164	0xbd502c49	-0.050823484
165	0xbde38540	-0.111094
166	0x3db4e503	0.08832743
167	0x3cfa0ba6	0.030523133
168	0x3d19091f	0.037362214
169	0x3e12c77b	0.14333908
170	0xbdd13fe3	-0.102172635
171	0x3cc4c8e6	0.024021577
172	0x3d27e002	0.040985115
173	0x3c3a87cd	0.0113849165
174	0xbd4bd0ca	-0.049759664
175	0x3e192b32	0.14957884
176	0xbdaea5f5	-0.085277475
177	0xbde25750	-0.1105181
178	0xbe5f5494	-0.21809608
179	0xbe1a3adc	-0.15061516
180	0x3de52b52	0.11189903
181	0x3df22369	0.1182316
182	0xbcd14a18	-0.025548026
183	0x3d9806fd	0.07423208
184	0xbd0b330f	-0.03398424
185	0xbe573b92	-0.21018818
186	0xbd2acde7	-0.04170027
187	0xbd3be80f	-0.045875605
188	0xbdc1b128	-0.09457618
189	0x3d8b0b77	0.06789296
190	0xbc633344	-0.013867203
191	0x3e82f5fa	0.2557829
192	0xbda69cf7	-0.081354074
193	0x3cf32399	0.02968006
194	0x3e04cebb	0.12969486
195	0x3d2c6a52	0.042093582
196	0x3c6c3b58	0.0144184455
197	0xbe011523	-0.1260572
198	0xbd302cd3	-0.043011498
199	0xbe1fac07	-0.15592967
200	0xbdc71b07	-0.09721952
201	0x3db526f3	0.088453196
202	0xbbe17276	-0.0068801
203	0xbe06dfa7	-0.13171254
204	0xbeb737d4	-0.3578478
205	0x3cf10817	0.029422803
206	0x3d75defe	0.060027115
207	0xbdd8c350	-0.10584128
208	0xbe2e60e8	-0.17029154
209	0xbd172bcf	-0.036907014
210	0x3dbca009	0.09210212
211	0xbe22cad5	-0.15897687
212	0xbe14b71e	-0.14522979
213	0x3cc006df	0.023440776
214	0x3e4ea738	0.20180976
215	0xbe16c2aa	-0.14722696
216	0x3dc468eb	0.09590324
217	0xbdabfdc9	-0.08398015
218	0x3d8f5e12	0.07000364
219	0x3cc2c694	0.02377633
220	0xbe2b9a54	-0.1675809
221	0xbc2e6652	-0.010644512
222	0xbd845a45	-0.0646253
223	0x3e0b9ed8	0.13634813
224	0x3ba0b799	0.004904699
225	0x3d2ae1fb	0.041719418
226	0xbc5f1f84	-0.013618354
227	0xbdb759cc	-0.08952674
228	0xbd8d94b1	-0.06913126
229	0x3d3ee409	0.04660419
230	0x3da24fac	0.079253525
231	0xbe41e096	-0.18933329
232	0xbdd43f9d	-0.10363696
233	0x3e82e223	0.25563154
234	0xbcfffe9f	-0.031249342
235	0x3e3aa46a	0.18226781
236	0xbe68fa94	-0.22751838
237	0xbcc83587	-0.024439586
238	0x3e3c19ab	0.18369167
239	0xbd597a24	-0.053094998
240	0x3cf8cb58	0.0303704
241	0x3d4a2bf0	0.04935831
242	0xbd8483dc	-0.06470463
243	0xbce048b8	-0.027378425
244	0xbe537a8c	-0.20652217
245	0x3e03b46b	0.12861793
246	0xbd8fcd97	-0.07021635
247	0xbdf459c5	-0.11931185
248	0x3de468cf	0.11152803
249	0xbdced8a0	-0.10099912
250	0xbd510b91	-0.05103642
251	0xbe9cdf16	-0.3063895
252	0xba8193f3	-0.0009886011
253	0xbe8ddd50	-0.2770791
254	0xbc233240	-0.009960711
255	0x3e42a622	0.19008687

inception.branch2.0.pointwise.bias f4 [32]
0	0xbd4227f1	-0.047401372
1	0x3d2e161a	0.042501546
2	0xbdad984d	-0.08476315
3	0xbd9cbea4	-0.07653549
4	0x3d7f9c3f	0.062404867
5	0x3e47f3eb	0.19526641
6	0x3d3c4629	0.045965347
7	0x3d90add1	0.07064403
8	0x3c3b7017	0.0114402985
9	0x3d10eee4	0.035384074
10	0xbc32eb59	-0.010920369
11	0xbd669292	-0.056292124
12	0x3e067a7b	0.1313266
13	0xbd6b950a	-0.05751518
14	0x3c2dcd68	0.010608055
15	0x3cb83dc7	0.022490395
16	0xbcd4b303	-0.025964266
17	0xbe0fe5a8	-0.1405245
18	0x3d66d6a4	0.05635704
19	0xbd26a047	-0.040680196
20	0x3d9149d1	0.070941575
21	0xbbb038c2	-0.00537786
22	0x3d4c8ae6	0.04993715
23	0x3d4e2dcf	0.050336655
24	0x3d0dcf15	0.034621317
25	0xbc941859	-0.018078016
26	0xbd82da46	-0.063892886
27	0xbd333811	-0.04375464
28	0x3db0077a	0.08595176
29	0x3dcbb5a0	0.099467516
30	0xbc02d091	-0.007984296
31	0x3d9578db	0.07298442

inception.branch2.1.depthwise.weight f4 [32, 1, 1]
0	0x3eb37c32	0.3505569
1	0x3f6fa7b8	0.93615294
2	0xbdc5b335	-0.09653322
3	0x3f9aac29	1.2083789
4	0x3ed6b86d	0.4193758
5	0xbed834fe	-0.4222793
6	0xbf8d7a69	-1.1052982
7	0xbf377201	-0.7165833
8	0xbf7f22ad	-0.99662286
9	0xbf569b83	-0.8383104
10	0x3eed76a0	0.46379566
11	0xbdc696b9	-0.09696717
12	0xbebd899b	-0.37019047
13	0x3f07fa15	0.5311597
14	0x3f523797	0.82116073
15	0x3ea657ee	0.3248896
16	0xbf37dc41	-0.71820456
17	0x3f156c9d	0.58368856
18	0xbecc398e	-0.3988766
19	0x3f021cce	0.508252
20	0xbf2029bc	-0.6256368
21	0x3f720042	0.94531643
22	0x3e13ec03	0.144455
23	0xbea7cb12	-0.32772118
24	0xbec7000f	-0.38867232
25	0xbe41370d	-0.18868656
26	0xbf362abf	-0.71158975
27	0xbf5accce	-0.8546876
28	0xbf8b0d3e	-1.0863416
29	0x3f58e6dc	0.84727263
30	0x3f23a5f0	0.63925076
31	0x3e696787	0.22793399

inception.branch2.1.depthwise.bias f4 [32]
0	0xbf295ee6	-0.6616043
1	0xbf09a951	-0.5377398
2	0x3def9a36	0.11699335
3	0xbd8fe7b8	-0.07026619
4	0x3f6fc498	0.93659353
5	0xbf84b5ba	-1.0367959
6	0x3ec35d3a	0.38157064
7	0x3f25d6df	0.6478099
8	0xbf11d5c1	-0.5696679
9	0xbf3606d3	-0.7110416
10	0x3d15def0	0.036589563
11	0xbeed82a6	-0.4638874
12	0xbd951773	-0.07279863
13	0xbf1809b3	-0.593898
14	0xbef36e26	-0.47544974
15	0xbe1cab7e	-0.15299794
16	0xbecf0a99	-0.40437773
17	0xbf379ddf	-0.7172527
18	0xbd9bf7bc	-0.07615611
19	0x3f58ffa7	0.84765095
20	0x3ecd2e40	0.40074348
21	0xbf05d200	-0.5227356
22	0x3e31cea7	0.17363988
23	0xbf415eef	-0.7553548
24	0x3f42e099	0.7612396
25	0x3f13d26e	0.57742965
26	0x3f4655cc	0.77474666
27	0xbf34bf1a	-0.706041
28	0x3eb3f9e4	0.3515159
29	0x3ee45460	0.44595623
30	0xbea6751b	-0.3251122
31	0x3c8e61ef	0.017380683

inception.branch2.1.pointwise.weight f4 [32, 32, 1]
0	0xbe44e10b	-0.19226472
1	0xbddc686f	-0.107621066
2	0x3e0b1729	0.13583054
3	0xbb2e8aef	-0.0026633104
4	0xbe19782c	-0.14987248
5	0xbe1d7773	-0.15377598
6	0x3e047663	0.12935786
7	0x3d0e1f30	0.03469771
8	0x3e4e22f0	0.20130515
9	0xbba66f79	-0.0050792065
10	0x3e6d15ac	0.23152798
11	0xbe206404	-0.15663153
12	0x3d9a6624	0.07539013
13	0xbb1c330b	-0.0023834135
14	0xbd6e3aa0	-0.058161378
15	0xbdae5c9c	-0.085137576
16	0xbe193698	-0.14962232
17	0x3df0de26	0.117611215
18	0x3dc935d2	0.098247185
19	0xbe05710b	-0.13031404
20	0x3cae4d08	0.021276966
21	0x3dd5dbdc	0.104423255
22	0xbd9c111d	-0.076204516
23	0x3de63920	0.112413645
24	0xbe1d6d41	-0.15373708
25	0x3e243066	0.16034088
26	0x3d2a51a3	0.04158176
27	0xbe01835f	-0.1264777
28	0x3e12bd36	0.1432999
29	0x3e31a6a8	0.1734873
30	0xbe2863c8	-0.16444314
31	0x3bc2b3ff	0.0059418674
32	0xbe35c5b3	-0.17751198
33	0x3db20417	0.08692186
34	0xbda30881	-0.07960606
35	0xbe2ec680	-0.17067909
36	0x3cc178a2	0.023617093
37	0x3d6419c4	0.055688635
38	0xbe9d7119	-0.3075035
39	0xbc85fa91	-0.016354831
40	0xbe5a1ebb	-0.21300785
41	0x3e173620	0.14766741
42	0x3d4e4380	0.05035734
43	0xbabba37a	-0.0014315688
44	0xbdf31874	-0.118698984
45	0xbe56437a	-0.20924178
46	0x3c195b70	0.009360179
47	0xbca03bec	-0.019559823
48	0xbe15547a	-0.14583007
49	0xbdf16ee3	-0.11788728
50	0xbe29d94a	-0.16586795
51	0x3d475c50	0.04867202
52	0x3ba201c8	0.00494406
53	0xbe012b19	-0.12614097
54	0xbb756e78	-0.0037449878
55	0xbe655003	-0.22393803
56	0x3dcb379e	0.099227175
57	0x3d9507de	0.07276891
58	0x3d0fd03b	0.035110693
59	0xbe6ee5df	-0.23329876
60	0x3c31fcba	0.010863477
61	0xbdcdd87d	-0.100510575
62	0xbd8ac5c4	-0.06776002
63	0xbda4a741	-0.08039714
64	0x3e18f47c	0.14937013
65	0xbcd119c8	-0.025524989
66	0xbe2000c9	-0.156253
67	0x3e47e180	0.19519615
68	0xbe58f3ab	-0.21186702
69	0xbe1a96a3	-0.15096526
70	0x3dbfb53e	0.09360741
71	0xbe580714	-0.2109645
72	0x3db3ad2b	0.087732635
73	0xbd1248b3	-0.035713863
74	0xbe0b32c8	-0.1359359
75	0x3ddeae2b	0.10873064
76	0x3e48a042	0.19592384
77	0x3e8fad89	0.28062084
78	0x3e894525	0.26810566
79	0x3e5ae34b	0.21375768
80	0xbd2fb1c9	-0.04289416
81	0x3eb1b695	0.34709612
82	0xbdf3f827	-0.11912566
83	0x3d62ea72	0.055399366
84	0x3d4bd5f6	0.049764596
85	0x3e4437d1	0.19161917
86	0xbdf286b6	-0.118421
87	0x3df6323d	0.12021301
88	0x3da17e7f	0.07885455
89	0xbd941523	-0.07230594
90	0xbdf9921f	-0.121860735
91	0xbcd23a54	-0.025662579
92	0x3dc2a41a	0.09503956
93	0x3d103f7a	0.035216786
94	0xbdcf03f9	-0.101081796
95	0xbe47e1d0	-0.19519734
96	0xbe653295	-0.22382577
97	0xbe2c9c43	-0.16856484
98	0xbe04d79d	-0.12972875
99	0xbe0dfbc6	-0.13865575
100	0x3e174d0a	0.14775482
101	0xbe3b8df1	-0.18315865
102	0x3e50c9d4	0.20389491
103	0x3defa0b3	0.11700573
104	0x3e4bd7a0	0.19906473
105	0x3de87c66	0.11351852
106	0x3e1acd1f	0.1511731
107	0xbc298891	-0.010347501
108	0xbe58fdaf	-0.21190523
109	0xbe7e2f82	-0.2482281
110	0xbe605a8e	-0.21909544
111	0xbe7b1a7f	-0.24521826
112	0x3d94be54	0.07262865
113	0xbd96371a	-0.073347285
114	0x3e62e341	0.22157003
115	0xbe1847dd	-0.14871164
116	0x3ddf5ba0	0.10906148
117	0x3db1e677	0.08686536
118	0xbd5a5694	-0.053305224
119	0x3b01251e	0.0019705961
120	0xbd32e4d0	-0.043675244
121	0xbd8a2834	-0.067459494
122	0x3e0e3e8b	0.13891046
123	0x3e3a112b	0.18170612
124	0xbe09d26d	-0.13459177
125	0x3d15fc84	0.03661777
126	0xbe73a024	-0.23791558
127	0x3d958b2b	0.07301935
128	0xbbbb92a1	-0.0057242666
129	0xbd2982f7	-0.041384663
130	0x3df3fae6	0.119130895
131	0x3e7b4077	0.2453631
132	0xbdb5f5a0	-0.0888474
133	0x3cbc88f8	0.02301453
134	0x3e2a3257	0.16620766
135	0x3d4fa3fe	0.050693505
136	0x3e25b0bb	0.16180699
137	0xbe2c5ac8	-0.16831505
138	0x3d5b9238	0.053606242
139	0xbdea8678	-0.11451429
140	0x3e331d2f	0.17491601
141	0x3d3307e5	0.0437087
142	0xbe23627c	-0.15955538
143	0xbe163e98	-0.14672315
144	0x3e003405	0.12519844
145	0xbd6ff652	-0.05858452
146	0xbd1cd72c	-0.03829114
147	0xbc008bc8	-0.007845826
148	0x3e5a6752	0.21328476
149	0xbe105d88	-0.1409818
150	0xbd64333d	-0.055712927
151	0xbe1a79b0	-0.15085483
152	0x3d084593	0.033269476
153	0xbd04c0ab	-0.032410305
154	0x3e2e5c29	0.17027344
155	0xbde317b6	-0.11088507
156	0xbe35830b	-0.1772577
157	0x3dd52d78	0.10409063
158	0x3bb3f780	0.005492151
159	0xbe3283b3	-0.17433052
160	0xbd960390	-0.07324898
161	0xbc98a898	-0.01863508
162	0x3e055046	0.13018903
163	0x3e57d2b6	0.21076474
164	0x3e087de1	0.13329269
165	0xbdbd9063	-0.09256055
166	0xbd03008c	-0.031982943
167	0x3e323342	0.17402366
168	0x3e6da44f	0.2320721
169	0x3cb38b81	0.021917107
170	0x3d92ac5e	0.07161783
171	0x3db2ee8f	0.08736908
172	0x3def6942	0.11689998
173	0xbdc2cb2c	-0.09511408
174	0xbd6d39a3	-0.057916295
175	0xbe56cb61	-0.2097602
176	0x3dbd1e28	0.092342675
177	0x3e1eceeb	0.1550862
178	0x3d989ba1	0.07451559
179	0x3e1f6a8f	0.15567993
180	0x3dfac7d5	0.12245146
181	0x3e1b0db7	0.1514195
182	0x3da0375d	0.0782306
183	0x3cdec9f5	0.02719591
184	0x3dd17914	0.10228172
185	0x3dd5bd7f	0.10436534
186	0xbc45a516	-0.012063285
187	0x3d1febae	0.03904312
188	0xbd0664af	-0.032810863
189	0x3de756c1	0.11295844
190	0xbd9a598e	-0.075366125
191	0xbd9bc1b5	-0.07605306
192	0x3df2ad0d	0.11849413
193	0xbd11fca1	-0.035641316
194	0xbdf65a5c	-0.120289534
195	0xbe0753b2	-0.13215521
196	0x3e535bca	0.20640483
197	0x3db6e94b	0.08931216
198	0xbe34e208	-0.17664349
199	0xbe1c29d8	-0.15250337
200	0x3ce6ef04	0.028190143
201	0xbd7a330d	-0.061083842
202	0xbd3053e6	-0.04304876
203	0x3d9353ba	0.07193704
204	0xbe48ade9	-0.19597591
205	0xbcb5379c	-0.022121243
206	0xbe586d3d	-0.21135421
207	0xbd5dbad8	-0.054133266
208	0x3e64dbe5	0.22349508
209	0xbe3d5483	-0.1848927
210	0x3caa8b06	0.020818245
211	0x3e017888	0.12643635
212	0x3e426ce2	0.18986848
213	0xbe1a6727	-0.15078412
214	0xbded589e	-0.11589168
215	0x3df76012	0.12078871
216	0x3de0db79	0.10979361
217	0x3da7c46c	0.081917614
218	0xbd6e7252	-0.058214493
219	0xbd7d9c72	-0.061916776
220	0x3c2223de	0.009896247
221	0xbe0bba67	-0.13645326
222	0xbd4504e4	-0.048100367
223	0xbd623911	-0.055230204
224	0x3e26ea9c	0.16300434
225	0xbdbf3d00	-0.09337807
226	0xbe0ab739	-0.13546456
227	0x3d8253a1	0.06363607
228	0xbe06942e	-0.13142464
229	0x3dce493a	0.100725606
230	0xbe1dc636	-0.15407643
231	0x3d5c3ae9	0.05376712
232	0x3dde9af7	0.10869401
233	0x3e06f38a	0.1317884
234	0xbe130d19	-0.14360465
235	0xbd422e60	-0.047407508
236	0x3e1bb396	0.15205225
237	0xbc8fc662	-0.017550651
238	0xbbe4ec2f	-0.006986163
239	0xbdd7b1c2	-0.105319515
240	0x3e0d6bb1	0.13810612
241	0xbdaf6e2f	-0.08565938
242	0x3e11eb3d	0.14249893
243	0x3dfac39c	0.12244341
244	0xbd743866	-0.0596241
245	0xbd3be6b8	-0.045874327
246	0xbe6f1ff8	-0.23352039
247	0x3e0e748b	0.13911645
248	0xbe44da4e	-0.19223902
249	0x3e1615aa	0.14656702
250	0x3d74c694	0.05975969
251	0x3d8fb7ae	0.07017456
252	0x3d0a2503	0.033726703
253	0xbc9584dd	-0.01825183
254	0xbcf08ead	-0.029364908
255	0x3d72c59b	0.059270483

inception.branch2.1.pointwise.bias f4 [32]
0	0x3dab82e2	0.08374573
1	0xbdc6d3a8	-0.09708339
2	0x3ce787a0	0.028262913
3	0x3d814f17	0.06313913
4	0xbdb4fe45	-0.088375606
5	0x3e01323f	0.12616824
6	0xbdf52c9b	-0.119713984
7	0xbde2de87	-0.110776
8	0x3dbdfee4	0.09277132
9	0xbd8d8e31	-0.069118865
10	0x3e3cb2d2	0.1842759
11	0x3cd5191d	0.026012952
12	0xbe07083f	-0.1318674
13	0x3bec9964	0.007220434
14	0xbe0b66ab	-0.13613383
15	0x3dd616ba	0.104535535
16	0x3d6a9cbe	0.057278387
17	0x3dfd3f28	0.12365562
18	0x3dca3b02	0.09874536
19	0xbdffa179	-0.1248197
20	0xbe1458ca	-0.14486995
21	0xbb574fab	-0.0032853882
22	0x3e342ffc	0.1759643
23	0xbbebea7a	-0.0071995826
24	0xbd934854	-0.0719153
25	0x3a1a6d0a	0.0005890882
26	0x3de41314	0.11136451
27	0x3dfb7bf3	0.12279501
28	0x3ce630ae	0.028099384
29	0x3de83e6d	0.11340032
30	0x3d87e6e3	0.06635835
31	0x3cff435f	0.031160055

inception.branch3.0.depthwise.weight f4 [64, 1, 1]
0	0x3f84213a	1.032264
1	0x3d98fa3e	0.07469605
2	0x3e8c69d7	0.274245
3	0xbee332e9	-0.4437478
4	0xbf48a41b	-0.78375405
5	0x3f1bbe49	0.6083723
6	0x3e69f4f4	0.22847348
7	0x3f447909	0.76747185
8	0xbf22b7c5	-0.6356166
9	0x3f79a5a0	0.9751835
10	0x3f63bf0c	0.8896339
11	0xbf85b117	-1.0444669
12	0xbf2f44b0	-0.68464184
13	0xbf7c65bc	-0.98592734
14	0x3ea7dfa8	0.32787824
15	0x3eb8959b	0.3605164
16	0x3eedf37c	0.46474826
17	0x3e153d74	0.14574224
18	0xbf17720b	-0.5915839
19	0xbf486a2f	-0.78287023
20	0xbf692a8d	-0.9108055
21	0xbe09e659	-0.13466777
22	0x3e9f822d	0.31154004
23	0x3f50bdbf	0.8153953
24	0xbe6c0e93	-0.23052435
25	0x3efbc861	0.49176314
26	0x3ef7ebd8	0.48422122
27	0x3e932af4	0.28743708
28	0xbf293925	-0.6610282
29	0x3f66f2d8	0.902143
30	0x3f53123d	0.82449704
31	0xbee05fdc	-0.43823135
32	0x3e72db98	0.23716581
33	0x3f4d6761	0.8023587
34	0x3f753428	0.9578271
35	0x3f63ad8a	0.88936675
36	0x3f6ab7af	0.9168653
37	0xbe2e0d70	-0.16997313
38	0x3ebf4485	0.37356964
39	0xbf6c8271	-0.9238654
40	0xbf561372	-0.8362342
41	0xbea2d3e5	-0.31802288
42	0xbf7686bb	-0.9629933
43	0xbf82a624	-1.0206952
44	0x3f568a2e	0.83804595
45	0xbf556f36	-0.8337282
46	0x3e025eae	0.1273143
47	0xbeeda5dd	-0.46415606
48	0x3f12486b	0.5714175
49	0xbf8f562e	-1.1198175
50	0x3ed77ffa	0.42089826
51	0x3e825647	0.2545645
52	0x3ed7f555	0.4217936
53	0x3cc36c3b	0.02385532
54	0x3f24f81a	0.6444107
55	0xbf59457e	-0.8487166
56	0x3f676db5	0.90401775
57	0xbce4ba9c	-0.027921014
58	0x3f43871d	0.7637804
59	0xbea02633	-0.31279144
60	0xbf42af49	-0.76048714
61	0xbe9e9707	-0.309746
62	0x3f293678	0.6609874
63	0x3f0669a5	0.5250495

inception.branch3.0.depthwise.bias f4 [64]
0	0xbd962bb3	-0.07332554
1	0xbf46599d	-0.7748049
2	0x3f71d7c5	0.94469863
3	0x3f185961	0.5951138
4	0xbf0d0c7e	-0.55097187
5	0xbe86da0b	-0.2633823
6	0x3e47ea4e	0.19522974
7	0x3d16f73c	0.036856875
8	0x3f4d23ba	0.8013264
9	0x3e408fde	0.18804881
10	0x3f5c63e6	0.8608993
11	0x3ee8386c	0.45355546
12	0xbeeacdd8	-0.4586017
13	0xbf0ea380	-0.5571823
14	0x3f6a80c7	0.9160275
15	0x3f354529	0.70808655
16	0x3f736173	0.9507057
17	0x3f565857	0.83728546
18	0x3f0849af	0.5323743
19	0x3f5b3477	0.8562693
20	0xbf595c92	-0.84906876
21	0x3f282462	0.65680516
22	0x3dc62539	0.096750684
23	0xbf40943d	-0.75226194
24	0xbed36bed	-0.41293278
25	0x3f66a00d	0.9008797
26	0xbf0430e5	-0.5163711
27	0x3f39e46f	0.72614187
28	0x3d432a67	0.04764786
29	0x3f2e2321	0.6802235
30	0x3e00707a	0.12542906
31	0xbe53be9b	-0.20678179
32	0xbe62d2a6	-0.22150669
33	0xbec2a876	-0.3801915
34	0x3ef28035	0.4736344
35	0xbf53f19f	-0.8279056
36	0xbf083508	-0.5320592
37	0xbeb7d988	-0.3590815
38	0xbec885bf	-0.3916454
39	0xbf63b742	-0.88951504
40	0xbee9ff4c	-0.4570259
41	0xbf3f56a7	-0.74741596
42	0x3ea519a8	0.32246137
43	0xbf107f24	-0.56444
44	0xbe0a49a5	-0.13504656
45	0x3f2d3885	0.67664367
46	0xbe630db6	-0.22173199
47	0xbf439129	-0.7639337
48	0xbe8afa40	-0.2714405
49	0x3f6ca2b6	0.9243578
50	0x3f580bba	0.84392893
51	0xbed2c107	-0.41162893
52	0x3ee2bfee	0.44287056
53	0x3f2c4bc4	0.6730311
54	0xbf21a6c2	-0.6314508
55	0xbe1821ff	-0.14856718
56	0x3d9531d0	0.072848916
57	0x3f59ae99	0.8503204
58	0xbef9773c	-0.4872378
59	0xbe3e6200	-0.18592072
60	0x3f395de1	0.7240887
61	0xbf09ea1d	-0.53872854
62	0x3cb9d234	0.02268324
63	0xbf1ef5ae	-0.6209363
