experiments/1005/pretask_UCI_12rot.pth (torch, 153526 bytes, 48 tensors)

stem.conv1d.weight f4 [64, 9, 3]
00000000: 5efb e1bc 5c87 28bc 69b6 723d d0ad 36bd
00000010: b9f3 09be f880 b7bd d79c b43e 01d1 833e
00000020: 3a2d 6ebe 4ebb 013d 3fd4 1d3e ad6e 123c
00000030: aa58 953d 9385 343e 21b2 19bc 1aee c5bb
00000040: 2eec 81bd 2e16 07be bbc8 bdbd ef71 68bc
00000050: d66d a1bd 45a1 953d 5c4c d03d 9f29 74bd
00000060: e6f2 a83b f7f9 e43d 4f00 a83c 542e 61bd
00000070: f493 893d c6fa d0bc 8a53 44be 48a1 1bbd
00000080: 5210 2cbd 2f0f 6e3e 784d 493e f473 21be
00000090: 9d6f 49bd 5a7f 0d3e e399 d2bd 0702 51bd
000000a0: 12f7 52bb 1a7b 363d 330a 05bd ea17 cf3c
000000b0: 3cf4 b8bc b16e ef3c 4488 3f3d d2e5 f939
000000c0: f127 0c3e 7f57 e03c 6c47 a53d bb15 56be
000000d0: a26b 74bd 4a9e dfbd feed 543d 7c8e df3d
000000e0: 71bc abbd bf8a ab3e 90a4 adbd b0a3 81be
000000f0: ff6a 013e f06d 063f 9e67 593e 0e27 d33c
00000100: 8e5b 55bd 2eaf 50bd 9474 22be 71a3 713d
00000110: 3109 ff3d 9488 2bbe f86a e0bd 6b22 e53d
00000120: 9fda 8f3d 0fbe 34be d4e5 f8bb 8948 813d
00000130: b792 54be 045e 003e 1f1f 0ebe cc96 093e
00000140: d2a5 30be 6339 14be b32e 1d3e b93c 863e
00000150: b803 8cbd 0a66 143d 15d3 9ebe e1e8 81bc
00000160: e385 19be 45d2 50bd 22e5 50bc a218 44bc
00000170: b4fa 78be 1e31 a13d cbaa 52bd a1a5 de3d
00000180: a55b ca3e a7e5 213e 5a90 a1bd b962 a6bd
00000190: 91e2 92bd 5d71 843d 55cd 173e 662a f13c
000001a0: d94e 3cbe 879d d5bc 5eb5 213e ef77 11be
000001b0: 3f32 d7bd e176 c9bc abfc b93c c977 23bb
000001c0: 4e2d 26be e085 9bbe 0a7c 273e a257 0e3e
000001d0: 02f1 8b3c 6ec2 16be 900d f9bd 3ed1 1abd
000001e0: 6d10 9f3d ef2d 04be 3c67 85bd b696 aebd
000001f0: 5620 3dbb beee 413d e832 9d3d 9b89 dc3d
00000200: 59a2 4d3d ceee 8bbb 9749 cd3d b6ec 1c3e
00000210: 473a 923c e2d8 4f3e 4789 603d c296 91be
00000220: 0c46 76bd 7b5c 98be 8b60 e63b 7d3e 89be
00000230: 3528 9cbe 229d 26bc 8ccf 98be 8112 453c
00000240: 4d41 d23d 897a 043e 01e5 fbbd 5991 59be
00000250: daf4 533e 736f b23d 4023 873e 9afd af3c
00000260: de46 64be af72 1b3e 0298 a53d eb8c 9bbd
00000270: 2660 2abe 953f 063e 0326 f93d b1f2 c33d
00000280: e992 ae3c 31a4 b1bc cca3 71be 4575 6fbe
00000290: fe67 0fbd f44e bfbe 58fb 7bbe 20fb ccbe
000002a0: cd96 083d a440 873e 4e21 a33e de07 35bc
000002b0: 7e2c 093e 66fd a23d d610 853b 0d85 373d
000002c0: c15a 0f3e bb84 393e 8722 e63c b80a 933d
000002d0: a90e 573d 1c40 04be 4925 89bd bdf7 333b
000002e0: 4b40 173d 72f4 dbbd a221 ad3d db4b 2f3e
000002f0: 0629 43be 56a6 dabd f54c 453c adf0 4cbe
00000300: 6da8 193e 394e 22be 260c c63d 8cb3 8b3c
00000310: a414 a03e e774 a13d 4b35 d43c 7d76 653d
00000320: c150 b5bd 2ad1 843a 7e61 833d d796 37bd
00000330: 5e2e a5bd 4070 c73c 3b8d febc 5f27 f33a
00000340: 66db 5b3e 547b b53c afe7 c53d 192a 91bd
00000350: 0af5 1dbe 4e1a a1bd 5efd 3ebe bc7d 40be
00000360: 50ea 1a3e 99ca 09be 5557 3d3e bf88 70bd
00000370: 2084 b63e a834 9d3d a4f7 793d 15c0 54bd
00000380: 5ecb a23e b5d5 153d 8337 b83b 2db0 aebc
00000390: 9efa 2d3d b1f6 ae3b f2a6 d0bd dc5e 953d
000003a0: b106 6b3d db1b d0bd 8c6f 37be 6e5e 1ebe
000003b0: 4062 c13d 45bc 32bd 65d5 02be 0541 4dbd
000003c0: 9017 74be cbaf 62be c61f 89bc a74d 193d
000003d0: 8ad7 c0bd 163d 9e3d 55fa 96bd 6f15 433e
000003e0: e77d b53d 6cfe b13e 00b5 443e 8b86 853e
000003f0: f725 51bd f254 17bd a91f c13c 4a25 b23d
-0.027585682 -0.010286178 0.05925599 -0.044599354 -0.13471879 -0.08960146 0.3527591 0.25745395
-0.2325944 0.03167277 0.15412997 0.00893752 0.07292302 0.1762908 -0.009380848 -0.006040347
-0.06343876 -0.13192055 -0.09266802 -0.01418732 -0.07882278 0.0730615 0.101708144 -0.059610005
0.005155909 0.111804895 0.02050796 -0.054975823 0.06717673 -0.025510203 -0.19172493 -0.037995607
-0.04200775 0.2324798 0.19658458 -0.15766889 -0.04917871 0.13818112 -0.10283258 -0.051027324
-0.0032190722 0.044550993 -0.03248043 0.025279958 -0.022577398 0.029227586 0.046760812 0.0004766421
0.13687111 0.027385471 0.08070263 -0.20906727 -0.05967296 -0.10918863 0.05198478 0.109158486
-0.08385552 0.33504292 -0.084786534 -0.25320196 0.12638472 0.525115 0.21230933 0.025775459
-0.052089266 -0.050948314 -0.15864784 0.05899376 0.12452925 -0.16751319 -0.10957903 0.11188205
0.070241205 -0.17650627 -0.007595757 0.06312663 -0.20759092 0.12535864 -0.1387906 0.1343643
-0.17250755 -0.14475016 0.15349846 0.26218203 -0.06836647 0.036230125 -0.31020418 -0.015858116
-0.1499248 -0.05098178 -0.012749942 -0.011968764 -0.24314386 0.078706965 -0.051432412 0.10871435
0.39523044 0.15810262 -0.07888861 -0.081242986 -0.0717212 0.06466935 0.14824422 0.029439162
-0.18389453 -0.026076091 0.15791842 -0.14205907 -0.105076306 -0.024592819 0.02270349 -0.0024943224
-0.1622822 -0.30375576 0.16355911 0.13900617 0.017082695 -0.14722607 -0.1216079 -0.037797205
0.07766805 -0.12908147 -0.06513831 -0.085248396 -0.0028858385 0.047346823 0.07675725 0.10768434
0.050203655 -0.004270411 0.10023802 0.15324673 0.017850054 0.20297578 0.054818418 -0.28435332
-0.060125396 -0.29758057 0.007030552 -0.26805487 -0.30499426 -0.010169299 -0.29845846 0.012028337
0.102663614 0.12937368 -0.122995384 -0.21246852 0.20698872 0.087126635 0.2639408 0.021483231
-0.22292659 0.15180467 0.08085634 -0.07595237 -0.1663824 0.13110192 0.12165453 0.09567774
0.021310287 -0.021684738 -0.2359764 -0.23384579 -0.035011284 -0.37364924 -0.24607599 -0.40035343
0.03334694 0.26416504 0.31861347 -0.011049239 0.13395879 0.07958488 0.004060845 0.04480462
0.13999464 0.18117039 0.028092636 0.07179779 0.052504215 -0.12915081 -0.06696565 0.0027460896
0.03692655 -0.107399836 0.084536806 0.1711878 -0.19058618 -0.10676257 0.012042274 -0.20013686
0.15005656 -0.15850152 0.09670286 0.017053388 0.31265748 0.078836255 0.025904318 0.056021202
-0.08853293 0.0010133137 0.064150795 -0.044821586 -0.080654845 0.024345517 -0.031073203 0.0018551162
0.21470413 0.022153534 0.09663331 -0.070881076 -0.15425506 -0.07866345 -0.1865134 -0.18797964
0.15128446 -0.13456191 0.18490346 -0.05872416 0.35647678 0.07676059 0.061027184 -0.051940996
0.31795782 0.03658076 0.005621852 -0.021324242 0.042475335 0.0053394665 -0.10188092 0.072934836
0.05737943 -0.10161563 -0.17913646 -0.1546571 0.09442568 -0.04363658 -0.12776716 -0.050110836
-0.23837113 -0.22137372 -0.016738784 0.03742757 -0.09416111 0.07726495 -0.07371966 0.19051145
0.088619046 0.3476442 0.19209671 0.2607921 -0.051061597 -0.036946245 0.023574667 0.086985186

stem.conv1d.bias f4 [64]
00000000: d2f5 953d 90df ebbd 1c99 b3bd 2b73 273e
00000010: 6a74 8cbd 5ca8 6d3d e65c 023e 82d7 5f3d
00000020: 2fe8 25bd 9f4d 61bd 5447 cc3d 0bbf 96bd
00000030: 1b99 9a3d a627 49bc 8f76 90bd ed64 763d
00000040: 3ea8 213e fba8 013e 0e26 eabb de74 33be
00000050: ab5a 25bd 2872 f8bd 0929 213e ec1f 043d
00000060: a5c6 5dbc a7a2 5abe 6992 a7bd ad75 453d
00000070: badf fcbd 1889 433e 6dfd 163e 0722 71bc
00000080: 5742 cfbd c181 343d 5d55 293e 0dfd 4f3d
00000090: 18c0 c03d d209 2abd 7d04 21be ab73 41bc
000000a0: 2382 01be decb 1e3e 848f b23a 63f9 d3bc
000000b0: 05ce 053c 6e9f e7bd 7f90 0cbe f325 1e3e
000000c0: 08be 34be 1816 58bd 7601 b7bd 96f3 f63d
000000d0: 0203 6b3c bfe6 70bd ae20 4dbe 842d c53d
000000e0: fbc4 b0bd 85a6 413e f366 bb3d e0f4 19be
000000f0: ec27 3a3e bff3 4dbe 8724 ddbd 1e56 073d
0.07322277 -0.115172505 -0.08769438 0.16352527 -0.06858142 0.058021888 0.1273075 0.054648884
-0.04050463 -0.055005666 0.09974542 -0.07360657 0.07548734 -0.012277519 -0.07053863 0.060154844
0.15786836 0.12662117 -0.0071456498 -0.1752505 -0.04036967 -0.121311486 0.1573831 0.032257006
-0.01353613 -0.2135111 -0.081822224 0.048207927 -0.1234736 0.19095266 0.14745112 -0.014717585
-0.10120075 0.044069055 0.1653647 0.050778437 0.09411639 -0.04151327 -0.15724368 -0.011807363
-0.126473 0.15507457 0.0013623093 -0.025875753 0.008166795 -0.11309706 -0.13726996 0.15444164
-0.17650616 -0.052755445 -0.089358255 0.12058179 0.014343979 -0.058813807 -0.20031998 0.09627822
-0.08631321 0.18911178 0.091504954 -0.15034819 0.18179291 -0.20112513 -0.10797983 0.033041112

stem.bn.weight f4 [64]
00000000: f839 983f 8cd6 9a3f 1a57 943f 1eb3 8c3f
00000010: 59a0 903f 1f20 973f 4c3a 943f ecbc 913f
00000020: c44a 963f fdc3 933f 1363 953f 6d8f 903f
00000030: a38f 963f b6b3 973f d759 953f 7edb 943f
00000040: 3143 933f a88e 973f 2c4b 983f 021a 953f
00000050: 24a0 903f e898 8b3f 7e7b 943f 69fe 953f
00000060: 1c21 923f adb0 933f 45eb 963f 3877 993f
00000070: 7102 943f 8463 923f 01d6 8e3f c39b 963f
00000080: bcf2 953f b590 993f c0f2 963f 027e 983f
00000090: 004c a23f d1ed 993f 44df 913f 95e1 923f
000000a0: 2f37 933f e08c 943f 6847 943f 8a78 943f
000000b0: 4d70 903f 501f 903f 1036 913f 6ee6 943f
000000c0: af2d 933f 774b 8f3f 84d4 943f cac6 953f
000000d0: c7f0 943f 17e6 923f 61c7 963f cea1 913f
000000e0: ec36 913f 2529 953f 1974 8e3f c2bb 973f
000000f0: 3055 923f 6520 953f 62b7 943f 8bcd 963f
1.1892691 1.2096725 1.1589081 1.0992162 1.1298934 1.1806678 1.1580291 1.1385779
1.1741567 1.1544186 1.167086 1.129377 1.1762584 1.1851718 1.1668042 1.1629484
1.150488 1.184041 1.1897941 1.1648562 1.1298871 1.0906038 1.1600187 1.1718265
1.1416354 1.1538292 1.1790549 1.1989508 1.1563245 1.143662 1.1159059 1.1766285
1.1714702 1.1997286 1.1792831 1.1913455 1.2679443 1.2025701 1.139626 1.1475092
1.1501216 1.1605492 1.1584291 1.1599286 1.1284271 1.1259556 1.1344624 1.1632822
1.1498317 1.1194905 1.1627355 1.1701291 1.163598 1.1476468 1.1779596 1.1377504
1.1344886 1.1653181 1.112918 1.1854174 1.1432247 1.1650511 1.1618464 1.1781477

stem.bn.bias f4 [64]
00000000: 39ab 2c3e 305a c33d af51 963d f887 e33c
00000010: 2f05 103e 1525 213e 64ea 533e 3992 dd3d
00000020: 5ced f03d 51b6 213e e567 6f3d 6854 083e
00000030: d520 fe3d 7fd6 e73c bd04 d93d c190 913d
00000040: d615 223e 6298 ac3d 5601 383e f30f b63d
00000050: 27b4 053e d226 143e ced8 9c3d 0a3a f73d
00000060: 7626 ce3d 7f16 ef3d 8d1c f63c 1564 103e
00000070: f7d3 c53d 1c8a 023e a590 9e3d 2af0 0b3e
00000080: 9b09 013e 384c 47bd b5a6 563d 0984 f73d
00000090: 6937 ff3d ea36 e13d 42dc 823d f13f 083e
000000a0: 9e78 fe3d d540 65bd 00ea ff3c a138 103e
000000b0: 05c6 a13d f2cf 493d f851 213e 31f3 b43d
000000c0: dea4 813d 84cc 4f3e bd21 323e e710 693d
000000d0: 59d7 023e df89 813d c0a6 233e a887 c33d
000000e0: ab9b cf3d 21dd 303e 2ad8 913d b987 533b
000000f0: 99c1 183e 3008 8c3d 730e e33d eca5 e23d
0.16862191 0.09538686 0.07339799 0.027774796 0.14064477 0.15736802 0.20694882 0.108189054
0.11764023 0.15792204 0.05844869 0.13313448 0.12408606 0.028300522 0.10596607 0.07107688
0.15828642 0.08427502 0.1796926 0.08889761 0.13057004 0.14467934 0.0765854 0.12071617
0.100659296 0.11674213 0.030042911 0.14100678 0.0965957 0.12747997 0.077424325 0.13665834
0.1260132 -0.048656672 0.052405078 0.120857306 0.124617405 0.10996802 0.06389667 0.13305642
0.1242535 -0.05597003 0.03123951 0.14084102 0.07899097 0.049270578 0.15753925 0.088354476
0.06330274 0.2029286 0.17395683 0.056900885 0.12777461 0.06325125 0.15981579 0.09547359
0.10137113 0.17271854 0.07121308 0.0032276942 0.14917602 0.06837499 0.1108674 0.11066803

stem.bn.running_mean f4 [64]
00000000: 745b a83d 9e6e 0cbe bbb5 c6bd ec9c 2a3e
00000010: 3dec 59bd cfe5 803d 2303 0a3e 50db da3c
00000020: 640a 89bd e207 9dbd 4751 b63d 6eba 75bd
00000030: df6b 523d f464 b0bc 0327 b5bd f158 503d
00000040: 89cf 303e ed84 eb3d 63fc c4bc 1bdc 3dbe
00000050: e32f 65bd f077 d4bd 5916 163e f00d 873c
00000060: 05db 0fbd 9d5b 6cbe 26ed b4bd dd19 893d
00000070: 96e7 14be b006 2d3e 6161 fa3d adf4 70bc
00000080: 3a28 ffbd d295 303d e146 1b3e 9e1e ea3c
00000090: 6a49 903d f2ae 82bd 3f48 19be 6f1f 13bd
000000a0: db33 18be ceb8 113e 0000 f6bb afb9 2bbd
000000b0: 97c2 4bbc e399 ccbd 370c 1ebe 8027 153e
000000c0: 6655 3fbe 8bed 31bd bc1c 93bd bda0 e03d
000000d0: 9820 b93c 6820 9dbd 37dd 3abe 6efc 9d3d
000000e0: 265e e3bd e10b 513e 23e4 8d3d 82a1 1cbe
000000f0: 44c3 463e 849e 61be 0e02 fdbd cdc0 043c
0.08220568 -0.13714072 -0.09702631 0.16661423 -0.05320381 0.062938325 0.13477759 0.026715904
-0.06691435 -0.07667519 0.08902221 -0.059992246 0.051372405 -0.021532513 -0.088453315 0.05086607
0.17266668 0.11499963 -0.024046129 -0.18540995 -0.05595387 -0.10374439 0.14656962 0.016486138
-0.035120983 -0.23081823 -0.08834295 0.06694386 -0.14541468 0.16897082 0.12225605 -0.014706773
-0.124588445 0.04311163 0.15163757 0.028579053 0.070452526 -0.063810244 -0.14968966 -0.03591865
-0.14863531 0.14230654 -0.007507324 -0.04192513 -0.012436531 -0.09990289 -0.15434347 0.1456585
-0.1868492 -0.04343943 -0.07183215 0.109681584 0.02259855 -0.076721966 -0.1824845 0.07714163
-0.11101942 0.20414688 0.06928279 -0.15295985 0.19410425 -0.22033125 -0.123539075 0.008102608

stem.bn.running_var f4 [64]
00000000: 510c 3f3d 7c8b 423d d15a c83c 93cf 2f3d
00000010: 3520 b53d f637 163d c606 9d3d 4ca1 6d3d
00000020: e1c2 a33d 8f91 553d 7dad d63c 2f67 dd3d
00000030: cddc 843d 3fe9 1c3d 93d2 663d 92a2 a23c
00000040: a549 593d 1912 bb3c 1b03 cb3c f979 a13d
00000050: baba b63c 278f 0f3e 0f4b 893c 2532 f13c
00000060: ab57 3b3d 3d67 f13c af53 a23c 1ac9 f03d
00000070: 09cd 873d 5869 4c3d da78 6a3d f0c6 553d
00000080: 2a52 5e3d d7c9 803c 44a2 ae3d 4229 4a3d
00000090: 2d0c 8a3d cf63 3a3d a673 973d 5203 623d
000000a0: 0c6d 523d 02ac ab3d 32ee d33c d5be fe3c
000000b0: c60c 373d 828d 983d cf18 cb3c 7377 283c
000000c0: 75aa ad3c eee3 533d 5e11 0b3e 42a0 483d
000000d0: 1095 6c3d 2a4d 603d e65d 6f3d a811 163d
000000e0: 0c3c 8a3d c6fe d33d 8536 613d 7f59 1a3c
000000f0: 96b4 a03d 29ff 223d 4727 ed3c 8958 763d
0.046642605 0.047496304 0.024457367 0.042922568 0.08844034 0.036674462 0.076673076 0.058015153
0.079961546 0.05214077 0.026205773 0.10810696 0.06487427 0.03830838 0.056353163 0.01985291
0.05304875 0.022835778 0.024781754 0.078845926 0.022305835 0.14019452 0.016759424 0.029442856
0.045737904 0.029468173 0.019815294 0.11757107 0.06630904 0.04990515 0.05724416 0.052191675
0.054277577 0.015721245 0.085270435 0.049355753 0.067406036 0.04550534 0.07395105 0.055178948
0.051373526 0.08382417 0.025870416 0.031096855 0.044689916 0.074488655 0.024792103 0.010282385
0.021199444 0.051731043 0.13580844 0.04898096 0.057759345 0.05476109 0.058439158 0.036637932
0.06749734 0.103513286 0.054983635 0.009420752 0.07846944 0.03979412 0.028949393 0.060143027

inception.branch1.1.depthwise.weight f4 [64, 1, 1]
00000000: 5505 583f aadb be3e cbfc 883f 8eda 613e
00000010: 4f82 3ebf 4623 3f3f 7f3f 33bf f29a 383f
00000020: 2383 8fbe 8d48 b63e daf8 13bf f8bf 203f
00000030: 0ec3 6bbe 4acf 113f b169 cb3e 1934 063f
00000040: 62e4 413f c96b 8cbf 3279 a0be 0ca0 46bf
00000050: 89ff 05bf e89b 13bf d759 873e 05ef c2be
00000060: 725a e6be 6651 6bbe ace2 5e3f 7fe3 583f
00000070: 438e e1be 9887 31bf 98bb 5abf 6237 6fbf
00000080: ec73 233f d9d6 16bf 6732 6ebf e2c8 253f
00000090: 6b66 283e 3a52 32be 8e11 973e 964a b03e
000000a0: 4f7c 5cbf dc34 8dbf bbab 863f d0fc 71bf
000000b0: f4f4 983e 6d41 183f 0cf1 803e d57e 80bf
000000c0: 989d 53bf 70d8 c2be 78db 653f c298 42bf
000000d0: db47 f9be c8fa d83e e378 06be 565f 88be
000000e0: 1936 31bf f13c ddbe 406f 0bbf 7d27 873f
000000f0: c29b 303f 3e1f 50bf e343 27bf ef60 57bf
0.84383136 0.37276965 1.0702146 0.22056028 -0.74417585 0.746632 -0.7001876 0.7211143
-0.28029737 0.35602227 -0.5780159 0.6279292 -0.23023626 0.56956923 0.39729074 0.52423245
0.7573911 -1.0970393 -0.31342465 -0.7758796 -0.5234304 -0.5765977 0.2643573 -0.38072982
-0.4499088 -0.2298027 0.87064624 0.8472213 -0.4405385 -0.69347525 -0.85442495 -0.9344388
0.6384876 -0.5892158 -0.9304566 0.6475965 0.1644532 -0.1741418 0.2950558 0.34431905
-0.8612718 -1.1031756 1.0521158 -0.94526386 0.29874384 0.5947483 0.25183904 -1.0038706
-0.82662344 -0.38055754 0.8978801 -0.7601434 -0.48687634 0.4237883 -0.13132052 -0.26635236
-0.6922317 -0.43210557 -0.5446663 1.0558926 0.6898767 -0.8129767 -0.6533796 -0.84132284

inception.branch1.1.depthwise.bias f4 [64]
00000000: 4498 cd3e 065e 273f 7198 11bf 99ca 193f
00000010: 8060 fdbe 8f7e cebe 5ff0 fdbe a8b6 79bf
00000020: 1d00 4f3e d022 c1be e86c a53d 7d96 febe
00000030: cda7 58bf 3728 0ebf 2762 2e3e d44c fe3e
00000040: 4b23 7e3f d50c 673f 71e7 99be 91d7 8e3e
00000050: 54c5 563f ef90 29bd 6307 49be 0f01 80bf
00000060: eff2 76be a5d1 29bf a094 fc3e 866d 703f
00000070: 9e80 713e eb15 52bf eadb 433e 5207 a3be
00000080: 8b81 733f a32e ddbd 588a 5cbf b04d b2bd
00000090: 60bf 1e3f 107b 633f e34a cc3e cb0a 14bf
000000a0: cd1c 16bf fadd a9be 291e 35bf 487a 82be
000000b0: 24f8 06bf 6f18 1c3f 6d86 80be b62a 84be
000000c0: 82ef 323f 887f 003f 6b1b cd3e 02d8 bdbd
000000d0: fe73 0fbe fcc4 edbe 85d3 6bbf 9b1b 703f
000000e0: 6ef6 c0be 1042 a93e 5b7d 383f 4bfa 203f
000000f0: 81e4 a3be 5907 f9be c320 53bf fdc1 babe
0.40155232 0.65377843 -0.5687323 0.60074764 -0.49487686 -0.40330932 -0.4959745 -0.97544336
0.20214887 -0.37721872 0.08077413 -0.49724188 -0.84631044 -0.55530113 0.1702963 0.4966799
0.992726 0.90253955 -0.30059388 0.2789884 0.8389485 -0.041397985 -0.19631724 -1.0000323
-0.2411611 -0.6633552 0.49332142 0.9391712 0.2358422 -0.82064694 0.1912686 -0.31841522
0.9511954 -0.10799911 -0.86148596 -0.08706224 0.62010765 0.88859653 0.39900884 -0.5782897
-0.58637697 -0.33177167 -0.70749146 -0.25483918 -0.5272238 0.6097478 -0.2510256 -0.25813836
0.6989671 0.501946 0.4005998 -0.09269716 -0.14009091 -0.4643935 -0.9211963 0.9379212
-0.3768801 0.33058214 0.7206628 0.62881917 -0.32010272 -0.48638418 -0.82471865 -0.36476126

inception.branch1.1.pointwise.weight f4 [32, 64, 1]
00000000: b2ce 143e dd49 093e 215b 9abd 0877 2f3d
00000010: 281f a53c a9ed 883d dc38 f8bc 16ac ffbc
00000020: 93e5 113e bfd2 a23d c4fb a3bd a703 883e
00000030: aeeb 2bbc 2ab0 043e 6dd5 203d ce87 81bd
00000040: 4972 aebd 3d45 b1be 5d0f 33bd e4ab 3cbd
00000050: 7a9c fabc abca 413e 9cee e1bd a304 d33d
00000060: 2457 f4bc d716 f0bd 8e73 543e 3d27 8e3d
00000070: cbb5 eabd 9abc a13d 72e2 9a3e 90e8 d33c
00000080: 00dd 11bd 6882 9abd 1c3f 88bd 6862 523e
00000090: bc57 8abd ab5d 85bb 8944 fd3d 52c4 cdbd
000000a0: 54bf 163e 80dc 98bc e9f7 02be 5f08 123e
000000b0: ccd1 04bd 511f 313d e013 95bd 219a 1c3e
000000c0: 0f4e e0bd 95fb 3f3d f337 0e3d 8070 46be
000000d0: b674 7ebd 63d8 d4bd 187c cebd 8e99 d0bc
000000e0: 8191 243e 0b30 85be e346 c63d 5898 593c
000000f0: 1b4c 523e 7008 1abe 867a 29be 0c32 17be
00000100: 0feb ec3d 079f 87bd ae99 b9bd ce42 053e
00000110: bfec 39be 00f6 123f a8a7 bcbd dc52 1f3e
00000120: 89dd 483d 3582 fdb9 ee0b 793e d078 3dbe
00000130: faee 893c 2965 483e f539 5d3d 1d17 ad3c
00000140: df7d f1bd 02e6 c1be 3191 31be 3a48 38be
00000150: 95d5 823d f09b 293e cb39 eebd 1720 c9bd
00000160: 33d9 9e3c 4594 6b3d 9ac4 1d3e 2fe5 77bc
00000170: e890 e33d 9098 9ebd cf68 eb3d 21a3 44be
00000180: 9324 a6bd fb21 233d d5e6 c3bd 6155 573e
00000190: f90e 143e e59f b13d a88a 8cbd 3b8d 983d
000001a0: 22ca 753d 6bfc 12be eca4 5fbd e607 a1bb
000001b0: bb9d 833a fff7 d1bd ce32 d5bd 4d19 213c
000001c0: 501b 84be 7c6a 0abe 80b2 013d db95 80bd
000001d0: 64d1 0e3d 2d1a f6bd 6355 2bbd 7c54 fcbd
000001e0: 8c6d 243e 9292 073d bdef febd 7e42 82bd
000001f0: 7b02 0dbe 23d5 72be 8627 fcbc a926 42be
00000200: 7f4a b8bc 2f5f c53d 8679 fabc 553d d5bc
00000210: e8ee eebc 644b d83d a644 28be 8a80 16be
00000220: 0a6c 983d 6f44 543d 56d0 0fbe 314a 2d3e
00000230: fbf1 1dbe 7389 9a3d 5824 303d c892 2ebd
00000240: 867c 853d 3886 3dbe 4748 40be 7ab7 a43c
00000250: 52d5 98bc 5dfc 123e fc0f 85bd af87 87bd
00000260: ae9e 073e c741 c53c cd75 343e 4236 5dbd
00000270: ae6a 10be ac64 f93d 0f78 da3d 8033 af3d
00000280: d438 ad3d 0ba4 463d 1463 003d daa1 563d
00000290: 9afd 243e e551 803d 55f8 acbd 9db2 fcbd
000002a0: ed60 1ebe 1d59 9a3d 4351 dfbd 6441 273e
000002b0: 41d2 813c 5035 38bd 2785 a7bd dd56 19bd
000002c0: 7a2b 08bb 8d8c bdbc 86d9 b5bd e647 2abe
000002d0: 734c 15be 5220 6ebc d1bf b9bd f36c 793d
000002e0: 14fe 92bd 2575 15be 724f 443a ca21 003e
000002f0: bfd6 253e c64d 26be 3935 f3bd 4a16 303c
00000300: 98b2 b3bd 5017 d73d 3745 733e cde3 b7bd
00000310: f361 2dbc b42e f2bc 53f0 ce3c 5a13 5d3c
00000320: f36d 48be 5098 6c3c f554 40bd 436e 26be
00000330: 24cf be3d 1820 51be 787b ca3d a398 673d
00000340: 3e9b 223e ce65 6b3e 9736 863c 92d4 1ebd
00000350: f118 d6bd df25 45bd 4389 133e f003 debd
00000360: 8d4f 77bd 5bd3 ac3d da9d 6a3c 0b7c db3c
00000370: 1fb5 4c3d 3ec1 55bd e4a9 d4bc cb9e aabd
00000380: c665 f6bb e7e0 b5bd 2a07 3dbe d861 62be
00000390: 0b70 863d 5d72 e4bc d643 b23d 9998 e13d
000003a0: bc85 e8bd 84e4 b03c 50fe 313e 96ef d5bc
000003b0: b72b 973d b21e 033d d3da 133d d156 7abe
000003c0: 4ade bd3d 2344 e9bc 9fca 273e 45d6 b73c
000003d0: c60e 243e 1940 acbc a943 683d 711a 22bd
000003e0: 5164 46be d869 a23d b8c9 9f3c 1071 eb3d
000003f0: f1ad 543e b2e3 103e d1cf cdbc 0f53 313e
0.14531973 0.13407083 -0.07536913 0.042838126 0.020156458 0.06685955 -0.03030055 -0.031209987
0.14247732 0.07950353 -0.08007005 0.26565287 -0.010493202 0.12957826 0.03926604 -0.06324731
-0.08517892 -0.34623137 -0.043715823 -0.046062365 -0.030592192 0.18924968 -0.11031839 0.10303619
-0.029826708 -0.11723106 0.20747206 0.06941078 -0.114604555 0.07897301 0.3025089 0.02586773
-0.035611153 -0.07544404 -0.06652662 0.20545352 -0.06755015 -0.004070004 0.12366588 -0.10047211
0.14721423 -0.01865983 -0.12789883 0.14261006 -0.03242664 0.043242756 -0.072791815 0.1529317
-0.109523885 0.046870787 0.034721326 -0.19378853 -0.062123023 -0.10392835 -0.10082263 -0.025463846
0.1607113 -0.26013216 0.09681489 0.0132809505 0.20536844 -0.15042281 -0.16550645 -0.14765185
0.11568271 -0.06622129 -0.09062515 0.13013765 -0.18156718 0.57406616 -0.092116654 0.15558952
0.049039397 -0.00048352932 0.24320957 -0.18503118 0.016837586 0.1956984 0.05401035 0.021129185
-0.11791586 -0.37870795 -0.17340542 -0.17996302 0.06388394 0.16563392 -0.11632117 -0.09820574
0.019390678 0.057514448 0.15407029 -0.015130325 0.11111623 -0.07743943 0.114946 -0.19202854
-0.08112445 0.03982733 -0.09565512 0.21028663 0.14458837 0.086730756 -0.06862384 0.074488126
0.060007222 -0.14354102 -0.05460064 -0.0049142716 0.0010041514 -0.102523796 -0.10410081 0.009832692
-0.25802088 -0.13517183 0.03166437 -0.06278583 0.03486766 -0.120167114 -0.041829478 -0.123208016
0.16057414 0.033098765 -0.1244807 -0.06360339 -0.13770477 -0.23714118 -0.030780565 -0.1896006
-0.02249646 0.096372955 -0.030575525 -0.026030222 -0.029166654 0.105612546 -0.16432437 -0.14697471
0.07442482 0.051823076 -0.14044318 0.16922833 -0.1542434 0.075457476 0.04300341 -0.04262045
0.065178916 -0.18508232 -0.18777572 0.02010702 -0.018656407 0.14354081 -0.064971894 -0.066176765
0.13244125 0.024079217 0.17623062 -0.054006822 -0.14103195 0.12177405 0.106674306 0.08554745
0.08458105 0.048496287 0.03134449 0.052400447 0.16112366 0.0626562 -0.08445803 -0.12338755
-0.15466662 0.07536528 -0.10904171 0.16333538 0.015847327 -0.044972718 -0.08179694 -0.037436355
-0.0020777867 -0.023138309 -0.0887938 -0.1662899 -0.14579944 -0.014534073 -0.09069789 0.060894918
-0.07177368 -0.14595468 0.0007488645 0.1251289 0.161952 -0.16240606 -0.11875386 0.010747502
-0.087742984 0.105024934 0.23756872 -0.089789964 -0.010582435 -0.029563285 0.02526108 0.013493383
-0.19573192 0.014440611 -0.04695602 -0.16252999 0.09316853 -0.20422399 0.09886831 0.05654205
0.15879533 0.22988054 0.016383452 -0.03877694 -0.10453976 -0.04813182 0.1440783 -0.10840595
-0.0603786 0.0843875 0.014319861 0.026792547 0.049977418 -0.052186243 -0.025959916 -0.083310686
-0.0075194566 -0.08880787 -0.18459764 -0.22107637 0.06564339 -0.027886564 0.08704345 0.11015434
-0.11353633 0.02159334 0.17382169 -0.02611522 0.07381385 0.032011695 0.03609736 -0.2444718
0.09270914 -0.028474873 0.16385888 0.022441039 0.1602126 -0.021026658 0.05670515 -0.039575998
-0.19374205 0.07930344 0.019505367 0.11496174 0.20769478 0.14149359 -0.025123509 0.1731684

inception.branch1.1.pointwise.bias f4 [32]
00000000: 3d78 c43c d4eb cb3d 2991 a139 ceea fa3d
00000010: fabd 48bd d446 dcbb 58b3 7b3d 9760 f23d
00000020: 3a7d 46bd c9cc 88bd a88c cabd cebb 283e
00000030: f5bd e4bc b618 633d b5f9 cb3d 662f d23d
00000040: b452 5abd ed55 513d 0226 b2bd 529d aabd
00000050: 44b6 b6bc fa8d f23c a3ae 4e3d 5760 cebd
00000060: 21b1 c13d 478e 3f3d 8f82 2539 1196 eb3d
00000070: ec9c e83d bfa1 70bd 1411 21bd 73a8 83bd
0.023983115 0.0995709 0.00030816466 0.12251817 -0.0490093 -0.0067223106 0.061450332 0.11834829
-0.04845927 -0.06679685 -0.09890109 0.16477892 -0.02792261 0.055443488 0.09959737 0.10262947
-0.053301528 0.051107336 -0.08698656 -0.08330788 -0.022303708 0.029608715 0.050459515 -0.10076969
0.09457613 0.046766546 0.00015784263 0.11503232 0.113580555 -0.058748003 -0.039322928 -0.064286135

inception.branch2.0.depthwise.weight f4 [64, 1, 1]
00000000: 11b2 673e de51 8e3f 6fa3 7b3f 1128 8c3f
00000010: a79d 9d3e 9a59 9d3d cda1 5e3f a93c d53e
00000020: 14a3 4e3f 6dc1 34be 4d82 24bf 445c 24bf
00000030: 2c8a c3be f9f3 4ebf 7758 35bf 34e5 3bbf
00000040: 1fac be3e 19e0 94bf 5f26 34bf 8d84 8dbe
00000050: 6e35 c8be aa9e f6be 89e2 74bf 2da6 113f
00000060: 097a df3e 6bb6 0ebf d139 7dbf 9097 89be
00000070: 0920 503f a3e0 1abf 11c8 203f a55e 8c3e
00000080: 426e 2e3f befa 043e 3fd8 603f f96e 25bf
00000090: b95e a0bf 1b3f 55bf 57df 09bf 2b9c 803f
000000a0: 5fdf 773e 4fd2 fd3e 31bf 5d3f 44e8 773f
000000b0: 1e15 f63e 6f34 88bf fa00 43bf 0bd9 003f
000000c0: bd3e 053f 6d39 ff3d 3f9c e0be d580 1d3e
000000d0: 296a 6c3f be10 efbe 7613 833f 51e4 4d3f
000000e0: 7748 903f 1452 78bf b0b3 99be c5ce 29be
000000f0: 03f3 043f e964 e0be 1e50 89bf 64cd 44bf
0.2262652 1.1118734 0.98296255 1.0949727 0.30784342 0.07683106 0.8696564 0.41647843
0.8071759 -0.17651911 -0.64261323 -0.64203286 -0.38191354 -0.8084102 -0.7083811 -0.7339661
0.37240693 -1.1630889 -0.7037105 -0.2764019 -0.39103264 -0.48167926 -0.95658165 0.5689419
0.43647793 -0.557471 -0.98916346 -0.26873446 0.8129888 -0.6049902 0.6280528 0.27415958
0.6813699 0.12986276 0.87829965 -0.64622456 -1.2528907 -0.83299416 -0.53856415 1.0047659
0.24206303 0.49574515 0.8661986 0.96838784 0.48062986 -1.0641001 -0.76173365 0.5033118
0.52048856 0.12462125 -0.43869206 0.15381177 0.9234949 -0.4669246 1.0240314 0.8042651
1.1272115 -0.9700024 -0.30019903 -0.16582783 0.51933306 -0.43826988 -1.0727575 -0.768759

inception.branch2.0.depthwise.bias f4 [64]
00000000: f797 363f f4a1 4ebf 5cfa 2ebf a60b c93d
00000010: 6b91 193f 805d 7cbf ce4f 2f3e 0e76 09bf
00000020: c42e 65bf 37d5 8e3e 1ff8 e53e a102 d2be
00000030: 5b93 263f c63f 0fbf 7ecb 5b3f 2194 4fbe
00000040: 9316 01bf a3c1 bebc 1050 403f a849 f2be
00000050: af2a ab3e 6359 03bf ad8e 29bf b355 40bf
00000060: b13b 393f bc70 6a3f ebc1 50bf 760f 34bb
00000070: 764e 563f 5f03 44bf 91c3 d6bd bcc1 a9be
00000080: ef40 3c3f ff4c 17bf 0e1b 42bf 0708 0dbf
00000090: 0013 5dbf 1b17 4c3f f80b fabd c699 0d3f
000000a0: 9dea 2e3f f4f0 f13e 5e77 99be 8135 26bf
000000b0: 04c9 2ebe fb8c 763f af6d 31be 692c c13c
000000c0: cea0 033d b01c b73e 60e0 de3e 7cfa debe
000000d0: 522b 1abf 910c 573e c283 2abf 6259 373f
000000e0: ad36 173f 0b46 37bf 5b5b 273f 9295 20bf
000000f0: 40c8 d23e dad6 053f e47b 4bbf f2b9 d03e
0.7132563 -0.8071587 -0.6835077 0.09816675 0.59987515 -0.9858017 0.17120287 -0.5369576
-0.89524484 0.27897045 0.44915864 -0.4101763 0.65068597 -0.55956686 0.8585738 -0.2027135
-0.5042507 -0.023285693 0.75122166 -0.4732182 0.33431002 -0.5130827 -0.6623333 -0.75130767
0.72356707 0.9157827 -0.81545895 -0.0027475036 0.8371347 -0.76567644 -0.1048652 -0.3315562
0.7353658 -0.5910186 -0.7582253 -0.55090374 -0.86357117 0.79722756 -0.12209314 0.55312765
0.6832674 0.47254145 -0.29973882 -0.6492539 -0.17068869 0.9630887 -0.17326997 0.023580747
0.032135777 0.35764074 0.4353056 -0.4355048 -0.6022235 0.21000887 -0.66607296 0.7162076
0.59067804 -0.7159125 0.6537377 -0.62728226 0.41168404 0.5228096 -0.7948592 0.40766865

inception.branch2.0.pointwise.weight f4 [32, 64, 1]
00000000: 90d0 8ebd 5dbd 053d 8953 19be 4996 dfbd
00000010: 014a 45bd 08ef f8bc f822 6ebc e5b8 f93c
00000020: b20f 65be 7612 9e3d 802d 5e3e fbdf 0d3e
00000030: bbf3 b6bd c5e4 abbc cfdd 0fbe 5be9 7f3c
00000040: 8cd8 28be 8bd5 56bd e557 6a3d 8e78 e7bd
00000050: e81b 90bc cc17 d03d 0ce6 013d 10f5 d9bd
00000060: 7f7f a43d 87af 983c d249 01be 493e 31be
00000070: 115b af3c 4f6b 853c e20a 9cbd 5f35 39bc
00000080: aef3 e7bd 8d8c 983c cc20 44be ff97 32be
00000090: f1ca 58be 4dbf 38be 6998 573e 618f 193e
000000a0: 9186 68bd 01b0 c5bd 3b66 edbd 4fb6 473e
000000b0: 61d4 d1bd 6354 053e 32cf 36be a36d 10be
000000c0: 09b5 8e3c 6bac 143e f151 393e 3c25 d2bd
000000d0: f406 64be e21d 8abd e323 8c3e d2ec 573e
000000e0: 65f7 42be 6db7 da3d 5afa ddbd 881b 28bd
000000f0: d456 15be 58ca 47bc b614 13bd aa97 8cbe
00000100: 669c b6bd f7ae 6abe 7a29 fc3d 45db 953d
00000110: f8d3 c63c d930 64bd f4e7 39be 2e5a e3bd
00000120: e2bd 083e 05ed 24bd 071b f83d 8aab 53bd
00000130: 1c29 1c3e 9c84 473e 3b74 9dbd a5f3 93bd
00000140: 85dc 4cbd a38b 8e3e 4fe7 593e f9e6 dbbc
00000150: a23d 45be 318f 4dbe f0e3 04be 1dd1 05bd
00000160: b389 463d a782 1f3e e308 023e 2594 793c
00000170: 3719 673d 1fba c4bc 9751 0c3e ff07 19be
00000180: 87ab dd3d 6489 723d 64b1 ee3d 860a 383d
00000190: f1ca 6f3c 0c42 2a3e 3639 1abe 991d 5b3e
000001a0: 3f01 3cbd 9f02 9f3d 7cbf 4e3e c2f2 083e
000001b0: b067 903d 5816 63be 5b1c d2bc e346 753c
000001c0: b725 803d d280 283d e582 14be dceb 1dbe
000001d0: 5da8 cabc 00ca 81be a303 efbd b50c 663d
000001e0: fb73 e33c fe25 2dbe 4238 c33d ac90 2f3d
000001f0: 4b27 aa3d 5820 463e b1b3 843d 5b20 203e
00000200: 6c79 9c3c 1137 4cbe dd3a 823c 6c8b f33e
00000210: f91f 7c3e ff2f b3bd f283 613e 6379 67be
00000220: 45d7 47be 86a0 7dba b91b a7bd daf9 c93d
00000230: e9d7 cc3d bd29 bbbd 9300 3c3e 6fed 6dbe
00000240: 279c 01be 8333 b9ba 1dbb b43d 23f6 20bd
00000250: 9066 0e3e 3e7a ebbd 184f ebbc f61c 87bd
00000260: f8df ae3d 93e8 143e 5f7e 873d 57b5 9cbe
00000270: 960b 6a3e 9293 6f3d e930 f3bc 2027 4cbd
00000280: 1d11 b8bb 7712 9f3c 04d9 413d f1ad c7bd
00000290: 6ca2 093d 196c e13d 9c67 8dbd d653 e73d
000002a0: 4089 da3d 03af dc3d 151c a43c 5a3a 02be
000002b0: 3596 da3d 9ecd d8bc af65 7b3d b62f c9bc
000002c0: a54f 12bd 895c 0c3d 080b 313e c511 a5bd
000002d0: 4d04 19be db51 6d3d edb1 ac3d c2d1 323d
000002e0: 2326 cabc 4c0e 2fbe aa7b d13a da1b e4bd
000002f0: a196 863d a0ed 243e 3db9 12be 1ef2 7c3e
00000300: 7f37 d33d 027d 423e d81e 1ebd fd3f 63bc
00000310: a4a8 98bd b83a c63d 02fd c4bc bb2f 383d
00000320: 9ac2 43bd dd7f 853c 1461 c7bc d090 d9bd
00000330: a1cc c6bd e1ca a5bd 31f1 cbbc eb1f b83d
00000340: ef33 573d 7781 7ebe 2ff2 1bbe 4599 92bd
00000350: e2d9 4d3e 149e b03d 1465 393c eedb a3bd
00000360: 175a 963c cf91 dfbd 02d8 c13c b73d 87bc
00000370: e997 0d3e 7a5e 07bd 543a 40bb 4d0e 10bc
00000380: 1dde 383e 24a5 8ebd 8ea8 9abd 0417 99bd
00000390: e050 e2bd dd55 07be 2e6e 09be 6b06 a9bd
000003a0: bdc7 c83d 8dd6 b5bd 96e4 9c3d 1d95 b8bd
000003b0: 8d67 813d 267e b9bc 9194 b7bb 824e 21be
000003c0: 3888 0cbe 91c9 de3d 8b15 6abd dadc 893d
000003d0: 3d24 8e3c 85c9 8f3d 4570 35be 2521 05be
000003e0: a5fa 983d 2c61 7bbd 4d4e b73d dcc2 d03d
000003f0: 7d0c 333e de04 e0bd 9b3c 54be 65d1 c9bd
-0.06973374 0.032651294 -0.14973272 -0.109173365 -0.04816628 -0.030387416 -0.014534704 0.030483672
-0.22369269 0.07718365 0.21697044 0.13854973 -0.08933207 -0.02098311 -0.14049457 0.015619601
-0.16488856 -0.052449744 0.05721273 -0.11302291 -0.017591432 0.10160789 0.03171353 -0.10642445
0.080321305 0.018638385 -0.12625816 -0.17308916 0.021405729 0.01628652 -0.07619263 -0.011304229
-0.11325775 0.018621707 -0.19153136 -0.17440794 -0.21171166 -0.18041725 0.21054234 0.14996101
-0.056768958 -0.09652711 -0.115917645 0.19503139 -0.10245586 0.13020472 -0.17852476 -0.14104323
0.017420309 0.14518897 0.18097664 -0.10261008 -0.22268277 -0.06743981 0.2737113 0.21086434
-0.19039686 0.10679517 -0.108387664 -0.04104188 -0.14583904 -0.012194239 -0.035908423 -0.2745946
-0.089165494 -0.22918306 0.123125985 0.07317213 0.024270996 -0.055710647 -0.1815489 -0.11101185
0.13353685 -0.040265102 0.1211453 -0.051677264 0.15250057 0.1948418 -0.07688185 -0.07224206
-0.05001499 0.2784091 0.21279643 -0.026843535 -0.19261792 -0.20074154 -0.12977576 -0.03267013
0.048471164 0.15577184 0.12698703 0.015233074 0.05642053 -0.02401453 0.13702999 -0.14944457
0.10823732 0.059213057 0.11654928 0.04493191 0.014635787 0.16626757 -0.15060887 0.2139801
-0.045899626 0.07764172 0.20190233 0.13373855 0.07051027 -0.22176492 -0.025648287 0.014970514
0.062571935 0.041138478 -0.14503057 -0.15422004 -0.024738485 -0.25349426 -0.116706155 0.056164462
0.027765265 -0.16909024 0.09532215 0.04286258 0.08308276 0.19348276 0.06479586 0.15637343
0.019100867 -0.19942881 0.015897209 0.47567308 0.24621572 -0.08749389 0.2202299 -0.22604899
-0.19515713 -0.0009675104 -0.081595846 0.098621085 0.10002119 -0.0913882 0.18359594 -0.23235105
-0.12657224 -0.0014129732 0.088247515 -0.039297234 0.13906312 -0.11497925 -0.028724238 -0.06597321
0.085388124 0.14541845 0.066159 -0.306071 0.22855982 0.058490343 -0.029686408 -0.049842
-0.0056172744 0.019417984 0.047326103 -0.097499736 0.033602163 0.11006946 -0.069045275 0.11295287
0.106707096 0.10775568 0.020032922 -0.12717572 0.10673181 -0.026465233 0.06137627 -0.024558883
-0.035720486 0.034267936 0.17289364 -0.0806003 -0.14943047 0.05793939 0.08432374 0.043657072
-0.024676388 -0.17095298 0.0015982289 -0.11138125 0.06571699 0.16106272 -0.14328475 0.24701735
0.103133194 0.18992999 -0.038603634 -0.013870236 -0.07454041 0.096791685 -0.024046425 0.044967394
-0.04779301 0.016296322 -0.024338283 -0.10623324 -0.097069986 -0.08095337 -0.024895282 0.08990463
0.052539762 -0.24854074 -0.15229104 -0.0715814 0.20102647 0.08623901 0.011315603 -0.08000933
0.018353505 -0.10916483 0.02366257 -0.01650892 0.1382748 -0.033049084 -0.0029331641 -0.008792472
0.1805348 -0.06965092 -0.075516805 -0.07475093 -0.11050582 -0.13216348 -0.13420936 -0.08253177
0.09803722 -0.08878813 0.07660787 -0.09012816 0.06318579 -0.02264316 -0.0056024273 -0.15752605
-0.13723838 0.108782895 -0.05714945 0.06731577 0.017351264 0.07020859 -0.17718609 -0.13000925
0.07469682 -0.061371967 0.089504816 0.101934165 0.17485233 -0.10938428 -0.20726244 -0.09854392

inception.branch2.0.pointwise.bias f4 [32]
00000000: 1ae9 8c3c c1fb 033e 646b 933d 00df 8fbd
00000010: ede9 b4bd 7169 873d e781 d0bd 861f 033e
00000020: 859b d63d 5ed7 a4bd 6dbc a73d 4dde c7bb
00000030: 1470 473d 6763 24bc b404 0abd a11d 1a3c
00000040: 3a97 36bd d029 c4bd 7918 c43b 1437 5ebc
00000050: 7cec 923c 661a 973c cbdb 383d 41e9 02bd
00000060: ae23 0abe e5e3 e8bb 58a7 0e3e b4dc 023e
00000070: f3d4 eebd 4ad9 3a3d 29eb a3bd 2a9c 393d
0.017200995 0.12889005 0.071982175 -0.07024956 -0.0883368 0.06611908 -0.10181027 0.12804994
0.10478882 -0.080488905 0.08190236 -0.0060994984 0.04869087 -0.010033465 -0.03369589 0.009406478
-0.044577815 -0.095782876 0.0059843627 -0.013562936 0.01793503 0.018445205 0.045131486 -0.03196073
-0.13490173 -0.0071072453 0.13931024 0.12779504 -0.116617106 0.04561738 -0.080038376 0.045314945

inception.branch2.1.depthwise.weight f4 [32, 1, 1]
00000000: 70bb 3ebf 9483 2d3f bced 5fbe 78b2 6d3f
00000010: f30d 40bf d876 8cbf c630 483f 4b5e 0abf
00000020: 088e 9fbf 1ba4 593f eedb 37bf a724 f1be
00000030: 8d8b 0abf 973e d0be a3ea 62bf 1e86 43bf
00000040: ba92 81bf d7a5 acbf 7680 153f 50a6 163f
00000050: a5c0 edbe 761d 28bf 633e 0bbe bb48 8cbe
00000060: 527c 2abf 438c 983f 3c94 2cbf 37a3 293f
00000070: 568b b4be 87c1 4f3f e3ad 8b3f 8f1d a73e
-0.74504757 0.677789 -0.21868032 0.92850447 -0.75021285 -1.0973768 0.7819942 -0.5405013
-1.246522 0.8501603 -0.7181996 -0.47098276 -0.5411919 -0.40672752 -0.8863928 -0.7637652
-1.0122902 -1.348811 0.5839914 0.5884752 -0.4643604 -0.65669954 -0.13598017 -0.2739924
-0.6659595 1.1917804 -0.6741369 0.6626467 -0.35262555 0.81154674 1.0912441 0.3263974

inception.branch2.1.depthwise.bias f4 [32]
00000000: 8c36 ef3e 572e 0abe 22c6 39bf 06b8 77bf
00000010: ee51 1d3f 24e6 203f e62f a1be 3e97 2dbf
00000020: 32f1 b83d 1210 4d3f 5946 62bf aa84 babe
00000030: d83c c8be 8ed0 6b3f ac73 debe 6ee2 91bb
00000040: e87b 083d 614a 123f e7c6 05bf a413 c73e
00000050: 7303 31bf d13a 22bf 2f78 54be 96fc eb3e
00000060: c4d2 103f 81c5 403e c5a3 3bbf 33de 473f
00000070: 3988 f3be e3f7 f2be f374 61bf a89d 333e
0.46721303 -0.1349424 -0.7256795 -0.9676517 0.6145314 0.62851167 -0.31481856 -0.678089
0.09030379 0.80102646 -0.8838859 -0.3642934 -0.3910892 0.92115104 -0.43447626 -0.0044520414
0.03332129 0.57144743 -0.52256626 0.38882172 -0.6914589 -0.63370997 -0.20748971 0.46091145
0.565716 0.18825342 -0.7329677 0.78073424 -0.47564867 -0.47454748 -0.88069075 0.1754061

inception.branch2.1.pointwise.weight f4 [32, 32, 1]
00000000: 3b8e d6be 784b 9e3e fba0 25be eb9e 95bd
00000010: d2fc 99be c692 043e 7297 79be 526a abbd
00000020: 6da2 f23d 1d0d 2dbe d62d e0bd 3fc0 51be
00000030: 5d83 3bbe 5679 6c3d 3d82 f0be 8e3c a9bd
00000040: 4255 353f ab21 9d3c dab0 cb3d 4892 3cbe
00000050: 590b f7bd 623c 023e de86 07be 2ffb 07be
00000060: 47fe b33d 3378 963e 24d6 6bbe 22ad f73c
00000070: 7f4f 9a3d 0a53 413e f86f 2d3f 280a 1e3c
00000080: 1c4a 563d b4c8 69bd 70d8 233e 052a 3d3e
00000090: 36b1 eb3d 5d0a 37be 5ae2 113e 9e55 bfbd
000000a0: b0a0 81bd 8cb5 3e3e 8bf2 163d a5ab 203e
000000b0: d1b4 4d3d 8cac 1cbe 6d06 763e 0e83 073e
000000c0: c1d8 94be 46db 8cbd a813 43bd f42b 70bd
000000d0: db8a 24be 9228 c0bd d101 b2bc e206 e8bd
000000e0: 289c 8b3d 1675 9fbd 5a64 ffbd 3513 203e
000000f0: 6793 a9bd d473 d83d 8662 65be 480a 093e
00000100: 2db5 bcbe f8a6 c7be 5c75 3abd 42f2 253e
00000110: 2f60 d6b9 b727 afbe 74d6 1abe 21f2 22be
00000120: 08a5 2dbe b5b2 ebbd 62e7 db3e d93c df3d
00000130: f174 92bd 02f3 74bd 8f3d 863b a45b d33e
00000140: a47a 4cbe d6e6 303e ae3c 87be b3dd 0d3e
00000150: 3b46 b63c c4cd 4cbe 81d2 a73c ab8a 293d
00000160: 3b69 4ebe 6574 423e d458 a53e 3cb0 f7bd
00000170: a64c 003e 2fb5 06be 732c 84bb 8fe1 b3bd
00000180: fd56 8f3e ffd6 8d3b 24e5 c0bd 0c4c 163b
00000190: 77a8 ad3d b0f8 5a3e c68f 9d3c e1ca 853c
000001a0: 66e2 883c 8bfb 2a3e 03ef 6bbe 01ae 9d3c
000001b0: 9c5c 4e3c 98ae f5bd e2e1 e23d 79c3 91be
000001c0: bcfb f6bd 3e75 8bbe 841b 41bd a7b3 6a3e
000001d0: 20d9 0b3e 6eb6 673c 91c7 11be adfa 123e
000001e0: b992 90bd f4af ffbe f484 9abd 5cff 133e
000001f0: 2a03 043e 763c a33d b6b5 98be 4ee5 0ebd
00000200: a1a3 48be 14e1 d4bd b7fc 233d 33d5 42be
00000210: f2b8 f1bd bd05 353e 2a7c 43bd ec12 da3a
00000220: 6c13 26be 4b9a 3bbe 04ba afbd f158 69bd
00000230: d3fc 52be 569e 9abd 46d9 c5bd 482c 8c3e
00000240: e55e 1b3e 5670 103e f3b6 19be 5dbd 92bd
00000250: a1fd 3bbe 469c 3abe 0d8a e23c 369a adbc
00000260: a7f8 823d b334 a73e 2c8c 1fbd a43e b83d
00000270: b28f cebc 2719 cf3d 4918 273e ebed 5abc
00000280: a9d2 97be d4e5 d4bc 6ff9 05be 3c06 0abe
00000290: fc89 31be 3e8e ca3d 5f72 39bc 1a6b 11be
000002a0: 76b4 a33c d218 773d 6217 aebd d99f 38be
000002b0: 2142 82bb 5b2f 3a3e 9b4d 68bd f8b1 113e
000002c0: 24ed a73d 72b8 f5bc 206f 4e3d d8ac ec3d
000002d0: 5b96 623c a600 45be e66a a93d f339 10be
000002e0: 3da8 6dbd 76c2 a33e f963 233e 3caf 053e
000002f0: a7f4 3dbe 02dd 24bb 3ea4 a33d 528c 1fbe
00000300: 86f5 813d c764 b63d 556c ffbd 3d87 4abe
00000310: e8ce 26be 5611 003e ff63 1a3d d9fb 36be
00000320: 4122 093e 05b3 7c3d d15e 44be 3c78 903c
00000330: 5d7c 65bc 875b c73c 33af b7bd d76f 72be
00000340: fd65 b43e 452b 10be e8e1 7ebc ce1c 883b
00000350: 524f ffbd d086 56bd 1a5b f5bd bc7a 0abe
00000360: f216 823e 7489 9dbd 70ac 3fbe c336 1abe
00000370: d170 2c3e 5192 2d3d 93f0 e53d 255e 713e
00000380: c796 d83d 7028 613e 565b ee3d 828b 37be
00000390: 5032 59bd a4cd 543e 3bf0 17be 26bd 30bc
000003a0: 36d1 c03e 6d67 a43d de76 eebd ec16 91bc
000003b0: 8251 b93d c8fb acbd b41c a7be 7e6a 90be
000003c0: e60f 603d 15ae 9dbc d88f 513e 818a 26be
000003d0: 8ffd 42bd 91cb c13d 20a4 3fbe 3f54 60bd
000003e0: 9f1d 0f3e 6a82 52bd 326b 56be f241 db3d
000003f0: 6066 47bc 0822 fc3d 1761 fc3d 355a 383e
-0.41905388 0.30916953 -0.1617469 -0.07305702 -0.300757 0.12946615 -0.24374178 -0.08369888
0.118473865 -0.16899534 -0.109462425 -0.20483492 -0.1831183 0.057732902 -0.46974364 -0.08263503
0.7083322 0.019181093 0.09945841 -0.18415177 -0.12062711 0.12718347 -0.13235041 -0.13279413
0.08788734 0.2938858 -0.23030907 0.030233923 0.07534694 0.18879333 0.67748976 0.009645976
0.05231677 -0.05707617 0.16000533 0.1847306 0.1150841 -0.17875047 0.14246503 -0.09342502
-0.06329477 0.18623942 0.0368524 0.15690477 0.050221268 -0.15300196 0.24025889 0.13233587
-0.2907162 -0.068777606 -0.047626168 -0.058635667 -0.16068594 -0.09382738 -0.021729382 -0.11329438
0.06816894 -0.07786004 -0.124703124 0.15632327 -0.08280068 0.105689675 -0.22400865 0.13382828
-0.36856976 -0.38994575 -0.04552208 0.16205695 -0.00040888923 -0.34209988 -0.1512087 -0.15912677
-0.16957486 -0.11508695 0.4294997 0.10900278 -0.07151211 -0.059802063 0.004096694 0.41280854
-0.19968659 0.17275557 -0.26413482 0.13854103 0.022250285 -0.20000368 0.020486118 0.04139201
-0.2015733 0.18989713 0.32294333 -0.12094161 0.12529239 -0.13155054 -0.004033619 -0.08783256
0.27996054 0.004328608 -0.09418705 0.002293351 0.08479398 0.21383929 0.019233596 0.016332092
0.016709518 0.16697519 -0.23040394 0.01924801 0.012595322 -0.11996192 0.1107824 -0.28469446
-0.12059733 -0.27237886 -0.04714538 0.22920094 0.13657045 0.014142616 -0.14236285 0.14353438
-0.07059235 -0.4993893 -0.0754489 0.1445288 0.12891832 0.079705164 -0.29826134 -0.03488665
-0.1959367 -0.10394493 0.04003593 -0.19026642 -0.11802854 0.1767797 -0.047725834 0.0016637719
-0.16218346 -0.18320577 -0.085804015 -0.056969587 -0.20604257 -0.075497314 -0.09660582 0.27377534
0.15172918 0.14105353 -0.15011196 -0.071650244 -0.1835847 -0.18223676 0.027653718 -0.021191698
0.06395083 0.32657394 -0.038952038 0.08996323 -0.025215004 0.10112219 0.16317858 -0.013362388
-0.29652908 -0.025988497 -0.13083433 -0.1347894 -0.17337793 0.09890412 -0.011318772 -0.14201012
0.019983511 0.060326405 -0.08500554 -0.18029727 -0.0039751683 0.18182127 -0.056714635 0.14228046
0.08199528 -0.029995177 0.050398946 0.11556405 0.013829793 -0.19238529 0.082723424 -0.14084606
-0.058021773 0.319843 0.15956105 0.13055128 -0.18550359 -0.0025156145 0.07990311 -0.15580872
0.06345658 0.089059405 -0.124718346 -0.19778152 -0.16289866 0.12506613 0.03769302 -0.1786951
0.13391973 0.061694164 -0.19176795 0.017635457 -0.014006701 0.024335636 -0.089689635 -0.23675476
0.3523406 -0.14079006 -0.01555679 0.0041538244 -0.12466301 -0.05237466 -0.11980267 -0.13523382
0.2540813 -0.07692233 -0.18718123 -0.15059952 0.16839911 0.042375866 0.112275265 0.2357107
0.105756335 0.21988082 0.11638515 -0.17924312 -0.053026497 0.2078157 -0.14837734 -0.010787284
0.37659615 0.080275394 -0.11643766 -0.017711125 0.090487495 -0.08446461 -0.32639086 -0.28206247
0.054702662 -0.019248048 0.20465028 -0.16263773 -0.047605094 0.09462655 -0.18714952 -0.054767843
0.13976143 -0.051393904 -0.2093933 0.107059374 -0.012170404 0.123111784 0.12323206 0.18003161

inception.branch2.1.pointwise.bias f4 [32]
00000000: ec1b ff3c 7aba 093e 5eb0 09bd 7ff4 56bc
00000010: 124c 523d 1b51 8cbd 3a47 d33a 722c 3c3e
00000020: 0158 973d 47d3 3b3e c460 67bc 9163 21be
00000030: 5879 02be 875a ecbd 3285 b93d 916b 4abe
00000040: 39cb b3bd 7691 f13c 6621 e5bd 3460 e3bc
00000050: 56ed 38bc 5df3 013c fee3 12be 646d 3a3c
00000060: ad2d 17be a174 b9bc 35c4 44be 03cc 91bd
00000070: 82c2 7abd 8505 213e 1f85 eb3c fb31 fbbd
0.031141244 0.13450041 -0.033615462 -0.013119816 0.051342078 -0.06851407 0.001611925 0.1837633
0.07389832 0.18342315 -0.014122192 -0.15760638 -0.12741601 -0.11540704 0.09058608 -0.19767596
-0.08778996 0.029488306 -0.11188011 -0.027755834 -0.011287054 0.0079315575 -0.14344785 0.01137862
-0.14763518 -0.02263862 -0.19215472 -0.0711899 -0.061220653 0.15724762 0.02875 -0.122653924

inception.branch3.0.depthwise.weight f4 [64, 1, 1]
00000000: ca03 893f ee0e f23e a114 a3be 0ffa 743f
00000010: ef21 4e3f 9c54 72bf f080 6e3f 28af 31bf
00000020: 8b5a ef3d 2d13 61bf bf3a 9c3e e419 23bf
00000030: bd40 b0bd a8bf aabe 33b5 863e 695d fdbe
00000040: 3dd2 2e3f ed06 86bf 94f8 edbe c9bf dcbe
00000050: 54dc 4d3f c113 58bf 2825 37be 162f 86bf
00000060: da09 743e e81d 4cbf 6eb0 363e 8c56 73bf
00000070: c3de 82bf b785 7e3f 7327 5f3f d1a2 1e3f
00000080: 52ad 8d3f 4eec 203e 81d7 14bf 6b6a 0d3f
00000090: 3752 243d 604c 063f 641d 34be 575d 2bbf
000000a0: 6172 f43e 53db 913f 6bee 973e 60ba 753e
000000b0: 65b6 833f bf2f f5be 4315 113f 46f2 bc3e
000000c0: 409a 10bf 51d8 82bf 68c8 00be f9ae 353e
000000d0: 7365 843f f35e 8a3e f01a c03e fcdf 7d3f
000000e0: d1a7 f0be fcf1 4bbf 1fe2 60bf ceaf bcbe
000000f0: a0ab 23be f6e2 b2be 3055 493e 129c 34bf
1.0704281 0.47277015 -0.31851676 0.9569406 0.8052053 -0.94660354 0.93165493 -0.6940789
0.116871916 -0.87919885 0.3051357 -0.6371138 -0.08606098 -0.33349347 0.2631012 -0.4948533
0.6828955 -1.0470864 -0.46478713 -0.4311507 0.8041432 -0.8440514 -0.17885268 -1.048312
0.23831883 -0.79733133 0.1784074 -0.95053935 -1.0224231 0.9942278 0.8716957 0.6196719
1.1068518 0.15715143 -0.5814133 0.55240506 0.04011747 0.5246029 -0.17589337 -0.669393
0.47743514 1.1395057 0.29674086 0.23996878 1.0290037 -0.4788799 0.5667307 0.3690359
-0.56485367 -1.0222265 -0.12576449 0.17742528 1.034346 0.27025566 0.37520552 0.991699
-0.47003034 -0.79666114 -0.87845033 -0.36852878 -0.15983438 -0.34938782 0.19661403 -0.70550644

inception.branch3.0.depthwise.bias f4 [64]
00000000: 5ce4 2fbf 97e6 373f e7c5 8d3e e3aa a1be
00000010: 5298 b23d a1c1 6e3d 9d45 26bf 0bbf 1a3e
00000020: 8f0a fa3e 934d 4e3f 3c6c ce3d 7e3a 103e
00000030: 2c1c 9d3d 3e1f 5f3f 9e9b ccbe 8441 9ebe
00000040: 8ec7 95bd 587f fb3d f112 0cbf e1fd a53d
00000050: db7b 58bf 091b 153f a24a 8c3e 848c 60bf
00000060: ee81 c2be e569 36bd 32a6 40bf 71a1 193e
00000070: 7f67 083e 5b5d bcbe 7314 88bd a126 56bd
00000080: 2691 75be 3b93 0cbf e581 7fbe bd55 49bf
00000090: 5a9c 77bf 3928 623e 390a 39be ec1e a8bd
000000a0: dd1f fe3d 72de 613f 2e11 573d 9a3b cbbd
000000b0: dc93 a9be 73a0 60be cb8c 1dbf a010 2a3f
000000c0: d0db 2dbf 1b64 563e 28b6 413f 176c 05bf
000000d0: b791 9b3e 45f2 72bf 9858 163f 4977 773f
000000e0: a7e9 babe c038 6e3f 3823 723d f6d1 9f3e
000000f0: c65a 5a3f f6a4 1dbf 33ff 733f 5d8d 3f3e
-0.68707824 0.7183623 0.2769005 -0.3157569 0.08720459 0.058290128 -0.6494997 0.1511194
0.4883618 0.8058712 0.10079238 0.14084813 0.07671389 0.87157047 -0.39962476 -0.3090936
-0.07313453 0.12280148 -0.547164 0.08105064 -0.8456399 0.5824438 0.2740069 -0.8771441
-0.37989753 -0.044534583 -0.75253594 0.15002991 0.1332073 -0.36789975 -0.066445254 -0.052282933
-0.23981151 -0.54912156 -0.24951895 -0.7864645 -0.9672295 0.22085656 -0.18070306 -0.08209023
0.12408421 0.8823005 0.05250662 -0.099234775 -0.3312062 -0.21936207 -0.6154296 0.6643162
-0.6791353 0.20936625 0.75668573 -0.52118057 0.3038461 -0.94900924 0.58728933 0.9666639
-0.36506388 0.93055344 0.05911562 0.31214875 0.8529476 -0.61579835 0.9531128 0.1870627
