experiments/1005/pretask_WISDM_12rot.pth (torch, 149028 bytes, 48 tensors)

stem.conv1d.weight f4 [64, 3, 3]
00000000: ab3b 8e3d 0da5 de3d 2e73 173d 9b2a 853d
00000010: 7488 943e 8abc 923e ac57 283d 0ff7 bd3d
00000020: 1f86 5d3e 227b 713e d485 40be fe46 4b3e
00000030: a6d9 49be 2fac 973e 282c 553b db15 24be
00000040: 5301 6dbe eb31 d63c 2693 27bd e162 27be
00000050: 2207 51be d30d 31be 624d 98bd 3aa3 ae3e
00000060: 0b8e e1bd 8961 06bd 0c44 f7bc d830 14be
00000070: f8e9 8b3e 5902 c8be 24cc 073d 2a78 6f3e
00000080: 47d7 ab3d 57cf 70be 820e 62be fb3f 883d
00000090: 1fbd 363e 6392 14bc 2fe9 8fbe 5971 f4b9
000000a0: a813 023e 7743 423e cd29 66be 40ac 84bd
000000b0: e4f5 813d 2869 67be 530c 943e 44f5 8d3e
000000c0: 2dfd 79be 3df2 e5bd 285b 72bd 8dfa 2f3e
000000d0: 9a0d 0d3e 80de 0bbc dfaf 223d 3118 ebbd
000000e0: 3346 123e 584a e43e 9fcd 063e a633 dabc
000000f0: 1859 4e3d 0056 b83c 9869 b3be 1bcb a4bc
00000100: 31e5 7cbe 4203 08be 7044 443e a35c 5bbe
00000110: 2484 8b3e 0f58 003d 9eb4 5fbe 9c70 b73e
00000120: fab7 93be 96ef 9abc 024d c8bc 0416 603b
00000130: e7ad 2e3e 6466 66be bac3 403e ee64 203d
00000140: ddc8 b7bd bfc2 933e ae1a 0ebe 35be a63d
00000150: 43dc 0b3e ec8a b0be 3cbd 23bd a41c 0dbe
00000160: 08db 92bd fe04 efbd 7460 733e a61d 7d3e
00000170: c16b 82be f9cf 5bbd fdaa 9d3e 8639 97be
00000180: 305c b5bc 525c f73d c1b6 85be fd10 793e
00000190: da44 75be db1b b2bd 149f 603e c035 abbe
000001a0: 5fe0 0a3e 30fc 48bc 111d 3cbe 9fb8 083e
000001b0: 73ff 25be 6a97 a6be ea36 cabc 4028 b83c
000001c0: 2449 a83e ffcf 60be d3f3 d6bd 1103 6bbe
000001d0: 4e5c 693d cbbf c9bc 0363 fe3c 6b50 4b3e
000001e0: 58b8 67be a169 a33e 2c31 3ebe 6b24 56be
000001f0: e465 83be 5ee3 113e 0149 6bbe e54e 7f3e
00000200: 48a9 213c 07ff dbbd 5713 873e 55e6 733e
00000210: 72ff aebe addf 163e c754 77be 02c1 f1bd
00000220: e245 0a3e 2614 ec3b e185 ae3e ebbb b83e
00000230: 704b 5d3e 1c44 5c3e 5d32 413e 29d4 d43d
00000240: c566 d6bd 5aab 4cbe 7478 453e d74d e5bd
00000250: 243b 5ebe 87a5 bfbd 9b9a 7b3e 071b ac3d
00000260: 39a8 a3be ce1e 4ebe a333 08be ba88 a93c
00000270: ddc8 a73e f879 3bbb d499 96be ee8f 67bc
00000280: b6fa 57bb 990c bfbe 4a16 c4be b0c6 ad3d
00000290: e18c 91be 335c 583e 7623 753e 477a 75be
000002a0: 965d 23be 81b5 0f3e 902c 073e a1f0 afbd
000002b0: b85d 38bd bcc6 fc3d c2f3 6dbe 9f66 2abd
000002c0: 1522 9bbe 3d2d b03d 7f12 bf3d 8fdb f13c
000002d0: 726f 733e e711 3c3e 1433 45be 7aaa a83e
000002e0: f051 55be 1495 23be 9cd9 24bd 2962 923d
000002f0: 62b0 1dbe d2dd ef3b d8dc d339 0528 82bd
00000300: d2de 85bd 71ca 433e 4b30 cbbd a191 4dbc
00000310: 2113 3b3e e005 b7be 0460 003e 1470 573e
00000320: 6b97 57be 3fe0 6abe 6bc8 563e fda8 94be
00000330: 7a98 bcbe 3e35 70bc 6256 43bd 073e ce3a
00000340: fdac 3f3b f965 adbd d829 8dbe f52e bb3e
00000350: ae73 92bd 74b5 00be 135a 963d be82 8fbd
00000360: 9e9f 43be 3a31 b83c d2f5 813d 3636 edbd
00000370: 06c2 c33d 96f2 1fbe 3892 8f3e 496a 86bd
00000380: af9d e4bd 47ed dd3d bfc3 65be d7e3 16bd
00000390: d2a9 6cbe bca6 b1bd 686a ab3e 001e 66be
000003a0: 32bc 3d3e 0d67 d1bc b884 a93d 9519 1b3c
000003b0: 2aa3 ae3d e116 6dbe 3693 3f3d cea4 533e
000003c0: 3482 9f3e 296b 50bd 37ff 94be 1c14 2abd
000003d0: f726 71be 0ffc 923c c915 733e 6979 2dbd
000003e0: 076c 4f3e 8adb 8f3e 3ff1 8b3e 7d29 30be
000003f0: 8077 57be cef2 943e 0048 80be 32a4 94bd
0.069449745 0.10871325 0.03697508 0.06502267 0.29010355 0.2865947 0.041099235 0.09275638
0.21633194 0.23582128 -0.18801051 0.198513 -0.19711933 0.29623553 0.003252754 -0.16023962
-0.23145036 0.02614685 -0.040911816 -0.16346313 -0.20412877 -0.1729043 -0.074366346 0.34108907
-0.11013421 -0.03280786 -0.030183814 -0.14471757 0.27326941 -0.3906429 0.033153668 0.23385683
0.0839067 -0.23516594 -0.22075847 0.06652828 0.17845581 -0.009068104 -0.28107592 -0.00046623757
0.12702811 0.18971048 -0.22476883 -0.064781666 0.06345728 -0.22598708 0.28915653 0.27726185
-0.24412985 -0.11227844 -0.059168965 0.17185421 0.1377472 -0.008536935 0.039718505 -0.114792235
0.14284591 0.4458797 0.13164376 -0.026635956 0.050377935 0.022501945 -0.350415 -0.02011638
-0.24696805 -0.13282493 0.19166732 -0.21422057 0.27249253 0.03133398 -0.21846244 0.35828102
-0.288513 -0.018913072 -0.024450783 0.003419281 0.17058526 -0.22499996 0.18824664 0.039158754
-0.089738585 0.28859517 -0.13877365 0.08141748 0.13658242 -0.3448099 -0.03997539 -0.13780457
-0.07170683 -0.11670874 0.23767263 0.24718341 -0.25472835 -0.053665135 0.30794516 -0.29536074
-0.022138685 0.120781556 -0.26115993 0.24322887 -0.23952046 -0.08696719 0.21935683 -0.33439445
0.13562153 -0.012267157 -0.18370463 0.13351677 -0.16210727 -0.32537395 -0.024684388 0.02248013
0.32868302 -0.21954344 -0.104957245 -0.22950388 0.056972794 -0.024627587 0.031053072 0.19854896
-0.22628915 0.31916526 -0.18573445 -0.2091233 -0.25663674 0.1424689 -0.22977068 0.2493244
0.00986702 -0.10742002 0.26381943 0.23818333 -0.34179264 0.14733763 -0.24153434 -0.118043914
0.1350322 0.0072045503 0.34086516 0.3608087 0.21610808 0.21510357 0.18866868 0.10392029
-0.104688205 -0.1998724 0.1928423 -0.111964874 -0.21702248 -0.09357744 0.24570696 0.084035926
-0.3196428 -0.20128939 -0.13300948 0.02069508 0.32770434 -0.0028606635 -0.29414237 -0.014133437
-0.0032955832 -0.373143 -0.38298255 0.08485162 -0.28427795 0.21128921 0.23939309 -0.23972426
-0.15953669 0.14034082 0.13200593 -0.08590818 -0.045011252 0.12342593 -0.23237517 -0.041601773
-0.3029944 0.086023785 0.093297 0.029523639 0.23772982 0.18366204 -0.19257766 0.32942563
-0.20832038 -0.15974838 -0.04024659 0.07147629 -0.15399316 0.007320144 0.00040409598 -0.06355289
-0.0653664 0.19120194 -0.099213205 -0.012546928 0.18269016 -0.3574667 0.12536627 0.21038848
-0.21053855 -0.22937106 0.20974891 -0.29035178 -0.3683508 -0.014661131 -0.047689803 0.0015735038
0.0029247396 -0.08466715 -0.27570987 0.36559263 -0.071509704 -0.12569219 0.07341399 -0.07007359
-0.19103858 0.02248441 0.06345715 -0.115826055 0.095584914 -0.15619883 0.28041244 -0.06563241
-0.11162888 0.10836273 -0.22437952 -0.03683838 -0.23111656 -0.0867438 0.3347962 -0.22472382
0.18528822 -0.025561834 0.08277267 0.009466548 0.08527215 -0.23153259 0.04677125 0.20668337
0.31154025 -0.050883446 -0.29100963 -0.041523084 -0.2355002 0.017942457 0.23738779 -0.042352114
0.20256053 0.28097183 0.27332494 -0.17203327 -0.2104168 0.29091495 -0.25054932 -0.0725788

stem.conv1d.bias f4 [64]
00000000: 7b76 3e3d a63b 763e c3fb 463e 21dd 953e
00000010: ae77 82be 9c34 3dbe 12b0 c3bd 3efc 72be
00000020: c8fb 6fbe 0a1b 98bd 753b b63c 3667 7abd
00000030: 6334 44be 269a a2bd 12b5 da3d dd47 e23d
00000040: 99d4 9ebe 6d84 97be cbf6 923e 032a 18be
00000050: 3012 263e 9a5d 253e 4920 d83d 9cc0 0fbe
00000060: dbcd a63e b127 a13d 8262 07bc 8a21 4abe
00000070: 5cf7 c73c 09ce e9bd 8c9d 1b3c b434 0f3e
00000080: 18d4 ab3d 09c8 153d c0e7 4bbe 785b 97bb
00000090: 6c93 80bd 6ed7 3cbe 71c4 663e 7bb6 193d
000000a0: ea86 75be aedd 1cbe fa81 3c3d 2d8a 8a3d
000000b0: c88a 47be 7087 89be c75a 9ebe 3755 033d
000000c0: 8aaf a8be 3060 67bd bf8c 193e a6af 8fbd
000000d0: ec2c 2d3e 909f 423d 9ac9 093e 68d2 b83d
000000e0: db30 963e c434 3c3e 8409 8d3e 690d 383e
000000f0: 65e0 96bd b463 a13d 2519 4f3e 923a 39bd
0.04649971 0.24046192 0.19431977 0.2927027 -0.25481933 -0.184771 -0.09555067 -0.23729035
-0.2343589 -0.07427032 0.022245148 -0.061133586 -0.19160609 -0.07939558 0.10679068 0.11048863
-0.31021574 -0.2959322 0.28703913 -0.14859776 0.16217875 0.16148987 0.10553033 -0.14038318
0.3257893 0.07868899 -0.008263232 -0.19739357 0.024409942 -0.11416251 0.009498011 0.13984948
0.08390063 0.03656772 -0.19912624 -0.004619058 -0.062781185 -0.18441555 0.22535874 0.037527543
-0.23977247 -0.15318939 0.046022393 0.06764636 -0.19486535 -0.26861143 -0.30928633 0.03206369
-0.32946426 -0.056488216 0.14995097 -0.07015924 0.16911668 0.047515452 0.13455811 0.09024507
0.2933415 0.18379503 0.27546322 0.17973866 -0.073670186 0.07880345 0.20224436 -0.045221873

stem.bn.weight f4 [64]
00000000: 31f9 8d3f 2184 943f c6c1 8d3f fc98 8c3f
00000010: 2a6c 923f 5472 963f c2d4 8e3f 2ced 8f3f
00000020: 2c18 953f 539a 933f 5cd0 953f 11c8 9d3f
00000030: c3a4 903f 6375 9a3f 8a0e 943f 5cca 8a3f
00000040: 1484 963f f708 9b3f 1672 8e3f 95c2 8f3f
00000050: 01a6 983f 40d5 9c3f 3cae 923f 85ab 953f
00000060: d6f8 8e3f 73ab 963f 089f 963f 4a7f 8e3f
00000070: 3a5c 9d3f c20c 903f 20af 8f3f d108 963f
00000080: 9fef 9b3f fb22 9a3f d747 8e3f b759 973f
00000090: 80dd 8c3f db9c 943f ab85 973f 7783 8e3f
000000a0: 8214 8e3f 02b3 983f 4184 8a3f e44b 973f
000000b0: 79f5 983f bc9e 933f f072 8e3f 50b3 923f
000000c0: 0008 933f 8786 953f 7d04 a23f f0f8 8f3f
000000d0: d65c a03f 631c 8e3f c8b0 9a3f ee31 9b3f
000000e0: ac04 a03f 9131 953f 475f a33f 6c81 963f
000000f0: 63e0 913f cdc8 933f e482 8e3f dd40 9c3f
1.1091672 1.1602823 1.107476 1.0984187 1.1439259 1.175364 1.1158679 1.1244254
1.1648002 1.1531471 1.1704211 1.232668 1.1300281 1.2067074 1.1566937 1.0843005
1.1759057 1.2112111 1.1128566 1.1231257 1.192566 1.2252579 1.1459422 1.1692969
1.1169689 1.1771072 1.1767282 1.1132596 1.229377 1.1253893 1.1225319 1.172144
1.2182502 1.2041925 1.1115674 1.1824254 1.1005096 1.1610368 1.1837667 1.113387
1.1100008 1.1929629 1.0821611 1.1820035 1.1949912 1.1532817 1.1128826 1.1460972
1.1486816 1.168168 1.265762 1.1247845 1.2528331 1.1102413 1.2085199 1.2124612
1.2501426 1.1655751 1.2763451 1.1758246 1.1396602 1.1545655 1.1133695 1.2207295

stem.bn.bias f4 [64]
00000000: 5a2b 6f3d 584b a93d 3cb1 973c a915 513d
00000010: 50fa 8d3d e99c a0bc 724c eebb 1bc9 a23d
00000020: 3810 743d bac7 eb3d 0c88 993d 5932 893d
00000030: 1d8a 563d 74d2 933d 0228 c23d 71ac 003d
00000040: 50c7 c83c 1e8c f03b 0189 9e3d 6854 b43d
00000050: 9d3e b83b 2ae5 993d c9c5 823d 3608 9bbc
00000060: b65c 62bd e2cc 1c3c 4f8e 0b3d fe0b 673d
00000070: f370 e33d 6d33 7e3b 05e8 883d e884 a63d
00000080: e694 a23c d50e e73d cb99 0a3e 0514 d83d
00000090: 561f 4c3d 1807 a93d f7c5 ff3d 104a 343d
000000a0: d25c b93c 79e9 de3d 020b 063d 262e af3d
000000b0: 7600 f33d f2e6 a93d 874e 3abc ebe0 8b3d
000000c0: fe03 cb3d c87f 1a3e 2b26 923d 0004 1bbd
000000d0: 0b8a 333d 53be b7bd 2682 9b3d f126 bc3d
000000e0: 9591 ae3d fd2d 7c3d db0d 013e d2b6 923d
000000f0: 33f1 b73d 25c3 8e3d e8e0 883d 6a13 0b3e
0.058390953 0.08266324 0.01851713 0.051046047 0.06932509 -0.01960607 -0.0072722966 0.07948514
0.05958578 0.11512704 0.07496652 0.06699056 0.05237781 0.07217875 0.09480287 0.031414453
0.024509102 0.007340922 0.07740975 0.08805162 0.0056226985 0.07514413 0.06385381 -0.018924814
-0.055264197 0.009570332 0.034071263 0.05640792 0.11105528 0.0038787976 0.06684879 0.081308186
0.019846391 0.11282126 0.1353523 0.105506934 0.04983457 0.08253306 0.12488931 0.044015944
0.022627268 0.10884375 0.03272534 0.08553724 0.11865322 0.082960024 -0.011371261 0.06830009
0.09912871 0.15087807 0.07136186 -0.03784561 0.04383282 -0.08971848 0.07593183 0.09187115
0.08523861 0.061567295 0.12602942 0.071637765 0.08981552 0.069708146 0.066835225 0.13581625

stem.bn.running_mean f4 [64]
00000000: 7432 113f 73ae 84be b3c2 a9bd 4d60 8ebe
00000010: 0ba6 14bf b720 883e ffd7 f3be 4e4f edbc
00000020: 3085 88bd 7e3d 05bf 3152 3fbe 9a0b 23be
00000030: fba4 20bf 8558 06bf 6ecc ffbe 3cbf 573f
00000040: 6a12 9ebe e676 5fbf ad4c cf3e d1ac 103e
00000050: 39d7 073c 9991 d5bd 54c6 fdbe 65d4 a2be
00000060: c74e eb3e ce71 b4bc c4e3 1cbd 0e0f a93e
00000070: 5446 a2be e619 9bbe d656 fd3c abcd 73bf
00000080: a1cc d9be 8e4f 0abf f706 c3be a9b7 b8bd
00000090: 5262 d8bd 3d30 2fbf ee5a 59bf 0d6e e5be
000000a0: 11b9 d1be ec81 81bf 2a31 d6bc aa0f 803e
000000b0: a51c 49bf b0bc aebf 8b0e f03d 5868 8b3d
000000c0: f237 18bf 59df 62bf f9bd 6fbf 118c 3c3d
000000d0: 504f 383d 8bf1 cb3e 244c 82be 9aef 26bd
000000e0: 5b82 0ebf c366 99be cd95 5bbf bb1a 88be
000000f0: 635f cdbe 4bbb 8abd 5023 8b3f 1c08 b1be
0.5671761 -0.25914344 -0.08289089 -0.27807847 -0.5806586 0.2658746 -0.4762573 -0.02896848
-0.066660285 -0.52046955 -0.18683697 -0.15922394 -0.6275174 -0.5247882 -0.49960655 0.84276175
-0.30873424 -0.872908 0.40488186 0.14128424 0.008291059 -0.10428161 -0.49565375 -0.3180267
0.4595854 -0.022026923 -0.03830315 0.33019298 -0.3169428 -0.30293196 0.030925196 -0.952357
-0.42538932 -0.5402764 -0.3809125 -0.090194054 -0.10565628 -0.6843298 -0.8490437 -0.44810525
-0.40961507 -1.0117774 -0.02614649 0.2501195 -0.78559333 -1.3651333 0.11721524 0.06807011
-0.59460366 -0.8862205 -0.9364925 0.046032015 0.044997513 0.3983272 -0.25448716 -0.040755846
-0.55667657 -0.29961213 -0.8577545 -0.26582894 -0.40111837 -0.067740045 1.0870152 -0.345765

stem.bn.running_var f4 [64]
00000000: f96d cd41 7cc7 fc40 9ea2 4041 8ec9 6941
00000010: 7e95 1641 4908 9d41 669f 9e41 84d5 6041
00000020: e794 fa40 6243 1841 7950 0741 87d3 8340
00000030: 83ec 9141 82b6 dd40 42aa 6741 9d50 3a42
00000040: 3408 5141 cd4d 4841 e3f4 b341 b188 8c41
00000050: 9e5d 0041 85da 1f40 5188 3241 6012 3540
00000060: 5c35 8140 243a bd40 64fd b440 53f7 7541
00000070: 6d49 b640 fa29 b540 b99c 8441 3cab a241
00000080: 48a0 ee40 9ed0 b941 3ae7 5b41 4bea cd41
00000090: b898 df41 4683 d141 96fd bd41 3954 7741
000000a0: c8d6 2241 23fc 8b41 e70a a140 2403 0b41
000000b0: ef82 db41 0d17 b041 1366 6841 887a b340
000000c0: 7c18 b740 9eb9 9a41 9bf0 cb41 0282 8640
000000d0: 0876 e440 9b34 5041 1999 3d41 dbbd 9140
000000e0: 7bdb 4841 4845 d341 5fdd 8141 b6ae 9840
000000f0: 434a a441 d37b 7740 d8d4 1141 afce 5640
25.678698 7.899351 12.039701 14.611708 9.411497 19.629045 19.827831 14.052128
7.8306766 9.516451 8.457147 4.119571 18.240484 6.928529 14.479067 46.578724
13.064503 12.518994 22.494574 17.566744 8.022856 2.4977124 11.15828 2.8292465
4.0377636 5.9133472 5.6559315 15.372882 5.696463 5.661374 16.576525 20.33361
7.4570656 23.226864 13.743952 25.7394 27.94957 26.189098 23.748821 15.458062
10.177437 17.498114 5.032581 8.688267 27.438932 22.011255 14.52492 5.6087074
5.721739 19.340633 25.492483 4.20337 7.139408 13.012843 11.849877 4.5544257
12.553584 26.408829 16.233091 4.771327 20.53626 3.8669326 9.114464 3.356365

inception.branch1.1.depthwise.weight f4 [64, 1, 1]
00000000: 0f6a eebe bd9b 633f b23a 623e f510 02bf
00000010: ca1c e63e f0de 123f f843 493f c38d a53c
00000020: b54e 8cbe cf0e 70bf afa9 823f b3e1 693f
00000030: 90cb 753e 10ef 253f 865b c5be 6dc7 c6be
00000040: 9498 b43e 6a5e 26bf 21d8 1ebf cd80 cebe
00000050: 4ae1 dbbe 5d5a 613f a18c 42bf 9850 09bf
00000060: 66e3 52bf 9a57 2cbf 1145 463f 873e 85be
00000070: 1478 b0be f4c4 4abf f51a 5abf 7394 423f
00000080: 9592 81bf f10f 3bbe b067 15bf 3218 04be
00000090: 8266 7e3d dcb1 0fbe 05b1 f2be 0f59 1b3f
000000a0: 018c 73bf 854f 103f 71c8 7c3f 5a8a 42bf
000000b0: 03f9 4f3f 8e54 5fbf cbb5 8fbe eae4 91bf
000000c0: d3c1 bb3e 4506 8b3f dec0 d23d 2ebd 7bbf
000000d0: 129f 8bbf 7800 17bf 70bd eb3e 79fe 32bf
000000e0: a704 63bf e843 353d 5ae1 78bf 46b9 373f
000000f0: bf68 12bf 300e c7be 4757 d03d cf29 b93e
-0.4656529 0.8890951 0.22092703 -0.50807124 0.4494384 0.57371426 0.7861934 0.020209199
-0.274038 -0.93772596 1.0208033 0.91360015 0.24003434 0.64817905 -0.3854639 -0.38824025
0.35272658 -0.64987814 -0.62048537 -0.40332642 -0.4294532 0.8802851 -0.7599583 -0.536386
-0.8237823 -0.6732117 0.77449137 -0.26024267 -0.34466612 -0.79206777 -0.85197383 0.76007766
-1.0122858 -0.182678 -0.5836134 -0.12899855 0.062109478 -0.14032692 -0.4740068 0.6068277
-0.95135504 0.5637134 0.9874335 -0.7599236 0.81239337 -0.87238395 -0.28068385 -1.1397984
0.36671314 1.0861288 0.10290693 -0.9833554 -1.090792 -0.5898509 0.46042967 -0.69919544
-0.88678974 0.044254214 -0.9721886 0.7176708 -0.5719108 -0.38878012 0.10172897 0.3616471

inception.branch1.1.depthwise.bias f4 [64]
00000000: d7ef 923e e7b8 dd3e 9927 443e 608d 6c3e
00000010: dcba 7a3f 55b5 b4be cb07 69bf d8d3 65bf
00000020: 0dc1 4bbf 192b b93c cda2 153f ddd1 593f
00000030: 0cb0 fb3c 5290 29bf 0916 bb3d b7c4 37bf
00000040: 4a7c 353f 763f 1cbf a63b ab3d b659 56bf
00000050: db8c 8d3e b5ce 0cbf b9e7 ce3e 4781 0e3e
00000060: 3c14 5e3f 294e 60bd 7ff1 cfbe 218b 2ebf
00000070: aea9 bb3c 358d ac3c 9469 463f cc91 32bf
00000080: 0084 543f 0c82 8a3e 0df2 9d3e fb59 d8be
00000090: 8cbf 23bf 3332 9ebe 945f ed3e 3dd9 a4be
000000a0: c75a e13d 3449 003f 1f32 ff3e 697a 36bf
000000b0: daa2 133f 43fe 783f 08f1 35bf a331 79bf
000000c0: c951 6c3f 5cf5 6f3d 9b88 59bf 7718 2abf
000000d0: e91b cabe 14df 6a3f fc3f 1ebf 84ba 0bbf
000000e0: e95d 3c3f aa10 f9be 69af 73bf 44d6 cebe
000000f0: 0791 cebd 8596 ebbd e8a6 6bbf 55b3 883e
0.28698608 0.43305132 0.1915573 0.23100805 0.97941375 -0.35294595 -0.91027516 -0.8977637
-0.7959145 0.022603558 0.5845154 0.8508585 0.030723594 -0.6623584 0.09135062 -0.7178454
0.70892775 -0.61034334 0.083609864 -0.8373064 0.27646527 -0.5500291 0.40411165 0.13916503
0.86749625 -0.05476204 -0.40613934 -0.68181044 0.022908058 0.021063427 0.7750485 -0.6975372
0.83013916 0.27052343 0.30848733 -0.4225615 -0.6396415 -0.30897674 0.46361983 -0.3219699
0.110036425 0.501117 0.49842927 -0.71280533 0.57670367 0.9726297 -0.7107091 -0.97341365
0.92312294 0.058583602 -0.8497407 -0.6644358 -0.3947442 0.9174664 -0.6181638 -0.54581475
0.73580796 -0.48645526 -0.9518953 -0.40397847 -0.100862555 -0.11503319 -0.92051554 0.2669932

inception.branch1.1.pointwise.weight f4 [32, 64, 1]
00000000: e081 5a3c c6fd 543d 63c5 e6bd 26f1 c7bd
00000010: b5bc babd 7fd8 3fbd f191 563d d38a c8bc
00000020: 646e 293d 4b79 c0bd 336d 67bc c921 a4bd
00000030: 3e61 b63c e18b 25bd f094 9f3d 20bf aabc
00000040: 86dc 0c3d 7318 bb3c fdec d63d 8de3 39bd
00000050: 6f87 8a3d 2153 82bd d0e1 8cbd f1e5 803d
00000060: 5dd1 44bd a9d4 bf3c a924 9d3d 5239 f53c
00000070: 8a72 a83d 8069 ffbc 90dd a5bd 8054 46bd
00000080: e824 253c 54c6 2f3d b7e3 553d e9c4 003e
00000090: ea49 00bb 7972 f53d 5650 52bd b797 f63c
000000a0: 558f 81bc 80fa 863d deed 09be 1a47 0ebd
000000b0: 33ed 573c 5ada c23d a1ef 5dbc cc9e b63a
000000c0: 192e c2bd 975c 7d3d ebfc a9bc a321 5a3d
000000d0: e4f1 083e 8444 413d c202 b6bd c9f4 cb3d
000000e0: eff9 6b3c 4131 40bd 789e 493c cdc8 1b3d
000000f0: e833 7e3d 145c c4bd 38af e23d 0bfc 98bc
00000100: 954b a5bd a447 8f3d 24aa 783d 6622 193e
00000110: e49a 663d e02b aabd d3c8 54bd 8c98 a0bd
00000120: 9204 3a3d f24e 42bd c3a4 0a3e 1556 15bd
00000130: 21e9 a93d a5d6 8e3d ee97 de3d 1f2c 0ebd
00000140: 2f17 98bd 2a19 0d3d 77fa 023d 4bca a5bd
00000150: 06f8 3dbe a6f0 9dbe c00c 23be ffba c53d
00000160: 86c4 673e bda0 393e 69d7 e63d 3fa4 623d
00000170: a8c6 0b3e 67c2 e0bd 22b6 ffbc 18b3 4abe
00000180: 6f5c 5dbd 4f05 d63c ac08 3ebd e3fd a6bd
00000190: 868d 08be d646 52bc be50 e73d 5b34 0abe
000001a0: 4eb4 4dbd cc65 46bb 55d5 c2bc e121 16be
000001b0: 28b6 c7bc 2ad4 7bbd 9926 ad3c 32dd 25bd
000001c0: 6131 213e 547a 40be 4aa6 8ebd 84c1 243d
000001d0: 2891 15be b6c0 243e b6c8 4e3d 413c 72bd
000001e0: 3973 e6bd b25a 943d ff49 e23c cbd3 e03d
000001f0: 06d1 cabb 56b0 1fbe c508 d33b 5407 abbd
00000200: a198 9c3c efed 22be f6bf e5bc e256 37bd
00000210: 573f 9e3d 653d bf3d 8946 04be 8cad 17be
00000220: b6a9 ac3d f3e0 483e 47a2 02bd 6858 1d3c
00000230: 10a7 4e3c 5b2c d3bd 9fa5 2c3e b1b8 bcbd
00000240: a68a a6bc 3848 98bd 82cc 2abe fd17 22be
00000250: dc89 1c3e c257 bdbe 12f4 483e 077c 433d
00000260: 327d 3cbd 4424 eebd 4226 5cbe f2b9 bb3d
00000270: 1b0a a7bd f73f aa3d a9f1 8dbc 5162 3dbc
00000280: 882b 9f3d 5d22 393e 5fdf c33d 7f7b 03be
00000290: 554d 0cbe f986 eb3b 8d63 0b3e f4c7 2a3d
000002a0: fb7d 8e3e 688c 3d3e ba3d 1fbe 0296 87bd
000002b0: 3d1c 153e c49d 8fbd 62e2 77bd 8f39 bf3c
000002c0: c461 443d 8903 c23c b0df 8dbc 9773 813d
000002d0: 7733 36bd 7d96 a03c 2687 8bbb da2a e3bc
000002e0: 41f9 c1bd 4766 eebc e381 85bc 554c 03be
000002f0: 4c41 d5bb f80c 3e3e 9c40 a5bd 3754 13be
00000300: 662c afbd 1e35 563e fce5 babd 315b 1e3e
00000310: 877a fb3c e4f2 8cbe 1b52 85bd 14fd c3bd
00000320: 1fe5 a0bd 59c0 c6bb d404 3b3e 04ea c7bd
00000330: 8be4 a4bd 1d94 ea3d 3399 233d d6c1 abbd
00000340: 6363 dabd cd76 303e c930 97bd 5d01 c33d
00000350: 91af ad3b ef18 b83d 73f1 03be 361c c23c
00000360: 97db 773e 82d8 4d3e f264 e03d 1c52 c23d
00000370: 0a02 a53d 2ce7 a03d 4cd1 f53d 5629 19be
00000380: 3f0a 15be b830 56bd b38a 7b3d 9cb7 45bd
00000390: 5f7c a8bd b511 613d 3536 d9bd 8685 d43c
000003a0: 1244 f9bd a627 503d fcdb 013e f74f 3ebe
000003b0: 45bb a53d 5138 8f3d 5e8e 8f3c bc9e 3bbd
000003c0: 8d2a 9ebc 1b3c 973c e982 f2bd 9012 b1bd
000003d0: 52b2 d3bd 9c28 933d 0d4b 15be fc69 c4bc
000003e0: 6829 ce3c 74d0 3b3d 6544 9cbb 853d 033e
000003f0: a687 bb3d 499d a6bd a2ac 8abd 64e3 f3bc
0.013336629 0.05199983 -0.11268117 -0.09762792 -0.09118024 -0.046837326 0.052385274 -0.024480259
0.041365042 -0.09398135 -0.014125156 -0.080142565 0.022263166 -0.040416602 0.077920794 -0.020843089
0.034389995 0.022838807 0.10494421 -0.045383025 0.06764113 -0.06363512 -0.06879008 0.06293858
-0.048051227 0.023416834 0.07673008 0.029934559 0.082249716 -0.031178236 -0.080989 -0.04842043
0.0100796 0.04291375 0.05221912 0.12575115 -0.0019575306 0.119847246 -0.051346146 0.03010164
-0.015815416 0.06590748 -0.13469645 -0.034735776 0.013179111 0.095143035 -0.0135459015 0.0013932823
-0.09481449 0.06185588 -0.020750483 0.053254735 0.13373524 0.047184482 -0.08887245 0.099587984
0.0144028505 -0.046921972 0.012305848 0.038033295 0.06206122 -0.09587875 0.110685766 -0.018674871
-0.08071057 0.06996086 0.060709134 0.14954528 0.05630006 -0.0830915 -0.051949333 -0.07841596
0.045414515 -0.04743857 0.13539414 -0.036459047 0.08296419 0.06974534 0.10868822 -0.034710046
-0.07426297 0.034447826 0.031977143 -0.08095225 -0.18551645 -0.30847663 -0.15922832 0.09654807
0.22633561 0.18127723 0.11271555 0.05533242 0.1365 -0.10974579 -0.031214777 -0.19794881
-0.05404323 0.026125578 -0.04639499 -0.08153894 -0.13335237 -0.012834271 0.11294697 -0.13496535
-0.05022078 -0.0030273078 -0.023783365 -0.14661361 -0.024378851 -0.061481632 0.021136569 -0.04049415
0.15741493 -0.18796664 -0.06965311 0.040223613 -0.14606154 0.16089138 0.05048438 -0.059139494
-0.11252446 0.07243861 0.027623175 0.10977896 -0.0061894683 -0.1559461 0.0064402544 -0.08351007
0.019115748 -0.15911077 -0.028045636 -0.044760592 0.07726925 0.09337882 -0.12917532 -0.14812297
0.08430807 0.19617061 -0.03189304 0.009603597 0.012613073 -0.103111945 0.16860054 -0.092149146
-0.020329785 -0.0743565 -0.16679576 -0.15829463 0.15286964 -0.36981016 0.19624355 0.047725704
-0.046017833 -0.11628011 -0.21498969 0.09166326 -0.08156224 0.083129816 -0.017327147 -0.011559085
0.07771975 0.18079515 0.09564089 -0.12840079 -0.13701375 0.007187721 0.13612194 0.041694596
0.2783049 0.18510592 -0.1555089 -0.066204086 0.14561553 -0.07012513 -0.06051863 0.023342876
0.0479448 0.023683326 -0.017318577 0.06320875 -0.044482674 0.019603008 -0.0042580543 -0.027730394
-0.094713695 -0.029101504 -0.016297286 -0.12822087 -0.006508028 0.18559635 -0.08068964 -0.14387594
-0.0855339 0.209187 -0.09125897 0.15464474 0.030698074 -0.2752906 -0.06509801 -0.09569755
-0.078562014 -0.00606541 0.1826356 -0.09761432 -0.080514036 0.114540316 0.039941024 -0.08386581
-0.10663488 0.17232819 -0.07382352 0.095217444 0.00530047 0.08989131 -0.12885074 0.023695093
0.2420486 0.20102122 0.10956754 0.09488317 0.080570295 0.078565925 0.12002811 -0.14957175
-0.1455469 -0.052292556 0.06141157 -0.048270807 -0.08226847 0.054948527 -0.10606042 0.025942575
-0.121711865 0.05081906 0.12681574 -0.18585192 0.080923595 0.069931634 0.01752394 -0.045805678
-0.0193074 0.018461278 -0.118413754 -0.08646119 -0.10336746 0.0718548 -0.14579411 -0.023976319
0.025166228 0.045853093 -0.0047688955 0.12816437 0.09156732 -0.081354685 -0.06771208 -0.029771514

inception.branch1.1.pointwise.bias f4 [32]
00000000: 04b0 39bd f1fe 593d 16ee 383d 5322 f53d
00000010: 1091 81bd 4616 9ebd a285 083d 12a5 0b3e
00000020: d4a0 98bc 942e 57bc 5d60 7f3d c817 9b3d
00000030: e90e aabd baff b73d c818 923c c143 11bd
00000040: d703 bdbc 8054 b7bc 9535 7abc 8080 ffbd
00000050: 52a7 14bd e837 f1bc 979f a7bd 6dee 003e
00000060: 5eae ea3d 0142 e33d a291 043d 084d 78bd
00000070: 22d3 a53d 7a93 4f3c 8905 e43c 0772 bb3b
-0.045333877 0.053221647 0.04514893 0.119694375 -0.063264966 -0.07719092 0.033330567 0.13637188
-0.018631376 -0.013133664 0.06234776 0.07572895 -0.08303625 0.08984323 0.017834082 -0.035465006
-0.02307312 -0.02237916 -0.015271564 -0.12475681 -0.03629238 -0.029445603 -0.08184736 0.12590952
0.11459039 0.110965736 0.03236545 -0.060620338 0.08096911 0.0126694385 0.02783467 0.00572038

inception.branch2.0.depthwise.weight f4 [64, 1, 1]
00000000: 887c 1b3f 94f2 68bf 2364 b93e 4da0 68be
00000010: 3bfb 0e3e d11e ef3d c89c a43e 9ce3 38bf
00000020: 925e 803f 585b 053f 76ca 15be 38ec 35bf
00000030: 00b0 b1be eb3c 26bf 85dc 603f 1db8 483e
00000040: adbc afbc 95cd 3c3f 73ec 63bf 2264 ab3c
00000050: 646c 47be 78ac 85bf 6a98 453f 63d6 853e
00000060: 3e1a 0b3e cf7b 823e 65ac 0dbf b88f 3c3f
00000070: 3616 843f 55cc 833f ef17 483f 87cd e4be
00000080: 6049 033f 13fe 7bbf 5d55 50bf 4a57 433f
00000090: abec 54bf 6f04 ffbe 5dbd 7abf 95db cdbe
000000a0: 8ba9 dbbe 9e26 9f3c d397 4fbf 3bbf ccbd
000000b0: 9b5f 9c3f 1c7d 443c 378b 893f 7df5 5cbf
000000c0: 4650 d4bd 49d3 9ebf ba7e 823e 5dc7 9bbe
000000d0: 433d 803f ebe1 f23e 85e9 8a3f 2b2e a33e
000000e0: ad5b 613f 7638 513f 932d 07bf d531 0ebe
000000f0: b4a2 8bbf 520d 89be 1246 823f 77e6 2bbf
0.60736895 -0.90995145 0.3620921 -0.227174 0.13963024 0.116758 0.32150865 -0.72222304
1.002886 0.52092505 -0.14628014 -0.71063566 -0.3470459 -0.64936703 0.87836486 0.19601484
-0.021452272 0.73751193 -0.8903267 0.02092177 -0.19474941 -1.0443258 0.7718569 0.26140127
0.1358423 0.25485083 -0.5534118 0.736568 1.0319278 1.0296732 0.7816152 -0.44688055
0.51283836 -0.9843456 -0.81380254 0.7630507 -0.83173627 -0.4980807 -0.97945195 -0.4020659
-0.4290279 0.019427594 -0.8109104 -0.09997412 1.2216676 0.011992719 1.074561 -0.86312085
-0.103668734 -1.2408229 0.2548731 -0.3042554 1.0018696 0.47437987 1.0852515 0.3187116
0.8803051 0.8172678 -0.52803916 -0.13886197 -1.0909028 -0.26767975 1.0177634 -0.67148536

inception.branch2.0.depthwise.bias f4 [64]
00000000: e3e1 d13d 85dd 493c 292b 1abe c370 3b3e
00000010: 5f6c 07bf 0086 c83e eb22 43bd ba0b 46be
00000020: 7a32 12bf 7ece 0fbf 4743 0e3f d2ba 5cbf
00000030: ee74 d2be 7ce5 2f3f f37f 183d ef8d b2be
00000040: 19bf d03e 6539 ffbe 64ab 2ebe 923e b93e
00000050: 0116 2b3f 5122 4f3f dbcc 643d 9a5d 04bf
00000060: 37bb aabe 8c92 7cbf 07a4 5c3e fa68 a33e
00000070: 2e84 5cbf 79e1 523f 2901 473f e1e7 22bf
00000080: 0f53 43be a578 1bbf 9a4a 2f3e f7ec e53e
00000090: c515 1bbe 7eec 323e b0cc ca3d 41af c43d
000000a0: 7e60 18be 0195 0dbf ee46 333d d42b 433f
000000b0: 4bf3 28bf 7220 a63e ae4a abbe d648 a6be
000000c0: 630f 363f 2598 44be d25a 463f 378f 20bf
000000d0: 6fb8 b9be cbf4 5bbf b6b5 87be 1353 7bbf
000000e0: c11b 9d3e be73 38bf 22b7 c33d 65b7 59bf
000000f0: 99b1 353e ffd3 b63d d23e 343f 1577 36bf
0.102481626 0.012320881 -0.15055527 0.18304734 -0.52899736 0.39164734 -0.047640722 -0.19340411
-0.5710827 -0.5617446 0.5557141 -0.86222565 -0.41104835 0.6870954 0.037231397 -0.34873912
0.40770796 -0.49848476 -0.17057568 0.3618055 0.6683045 0.8091174 0.055859428 -0.51705325
-0.3334596 -0.9866111 0.21546946 0.31916028 -0.8613919 0.82375294 0.77736145 -0.6363507
-0.19074653 -0.60730964 0.17118302 0.44907352 -0.15145023 0.17473027 0.09902322 0.096037395
-0.14880559 -0.55305487 0.043768816 0.7623875 -0.65996236 0.3244663 -0.33455414 -0.32477444
0.7111723 -0.19198664 0.7748233 -0.6271853 -0.36273524 -0.859204 -0.26505822 -0.98173636
0.30685237 -0.7205161 0.09556414 -0.8504546 0.1774353 0.08927154 0.70408356 -0.71275455

inception.branch2.0.pointwise.weight f4 [32, 64, 1]
00000000: e3e6 00bc 7a96 08be df1b a03e 2682 27be
00000010: 3ecb 0c3e 09be edbd 4441 d53d d155 173e
00000020: 7830 903d 973f 9cbd 1901 07bd 2f25 90bc
00000030: 7d6c 6e3b e6dd c4bd dd7c 0bbd c9b9 4f3d
00000040: 7f63 d43c 245b 9a3e 621c 33bd 2f87 483d
00000050: a018 db3d da28 dabd a219 9cbd 5759 b9bc
00000060: 793d 063e b887 dabc 457c d2bd 7665 f63a
00000070: d5c2 ca3e 25d3 8bbd add4 003d 6a74 08bd
00000080: acf6 98bc 7b62 fd3d 3e53 1bbd 9a54 d53d
00000090: 2a19 153d 44d5 da3d 8510 31be e917 94be
000000a0: 4006 f13d 7913 d83d 3403 21bd 9cf7 373d
000000b0: acd8 40bd 8ee2 38bd 6797 2f3e 4a15 a23d
000000c0: f345 bfbd c882 9c3d 2260 20bd f92d 73bd
000000d0: fd9d 373e 75a6 05be 6303 693e 45ae 81bd
000000e0: 7dcb a4bd d87b c63d 8cc0 a0be 3688 ab3d
000000f0: 40b8 97be 4487 2b3d 9d0d 67be c3ab c03d
00000100: e48a 73bd 4e4f 763e 9467 283a 81c3 183e
00000110: 56b9 303d e7d9 a83d 3389 eebd 4386 893d
00000120: c719 543d 5116 55be fc88 273e d070 45be
00000130: b719 863c 91a8 493e b329 e7bd c29d d4bd
00000140: 39b0 d33d 1cab d13d 370e 3abe 2d6f 2c3e
00000150: 34e8 f43d 18e5 a63d a1ca 07be 491a 083c
00000160: c394 033c 9422 12be 5c24 6f3d f5e0 fcbd
00000170: 48fc 383e dee0 0b3e 216e d13b cb8c 9b3d
00000180: a662 bcbe 5106 783d 4d20 9038 6b3f 85bd
00000190: 7d37 273e 09df 923e b5fb b03e 5e92 aa3d
000001a0: a932 d33c eb58 c6bd 98d1 6a3e 7178 343e
000001b0: e8c4 1bbe 92bc 933d d743 e4bd 7462 3f3d
000001c0: b8d0 453d dce7 f43d 6c50 84bc ae1b 193d
000001d0: adb2 87be 9612 10bd ec1b 7f3d 20ae 05be
000001e0: ee6c 06be fb93 6bbe 8b83 b5bd a08a dd3c
000001f0: 9647 50bd cd00 873e b028 83bd 9adc d9bd
00000200: 5edb acbc c990 493e aba0 823d f019 e6bc
00000210: 3d27 21bd 075f 083e 35f1 1bbc 6753 683e
00000220: 7399 023d e285 b13d c30d 7b3d aa47 f3bd
00000230: 8c9a fc3c 683e e4bd 9cba 5fbe 2cb6 74bd
00000240: fe32 04bd 332e 583d 7d37 773d ce77 12bd
00000250: 2aee 763c a1e4 353e e4d7 d43d f046 3bbb
00000260: 058f 9cbd 155c 523d 8072 edbd 2401 7abd
00000270: 4534 073d 707e 9bbd c41d 173e 7205 183d
00000280: 418c 85be 881c 68bd 4d72 ab3e e107 743b
00000290: 76bb 003d 9487 a73c 8a7f d1bb da30 00be
000002a0: ad56 b43d 1978 133c 672b 703e dead c3bd
000002b0: 5ef2 b1be 3c43 9b3d bb83 4c3e 7628 f0bc
000002c0: b7cf 293d 1ccb 8f3e c390 e6bd b8e3 0bbe
000002d0: db21 f93d b74d 0a3d 1bf0 ce3e aeb7 12be
000002e0: a6c0 313e 1a4e 3fbd fe17 a3bc f5f8 573d
000002f0: d0f6 c23d 5437 3e3e 949b 2b3e 9b29 293e
00000300: aa80 16bc fb62 b6bd a264 dcbd 31ab 593e
00000310: 63ab 99bd 2f2c fb3d d1f2 06be 044d d8bd
00000320: f222 963d a3ae 643e c3a5 a8bc 7209 b23d
00000330: 28fd 763d f4ff babd 84de 36be 088d e3bd
00000340: ec64 ff3d e105 b03d 123d b0bc 4012 293d
00000350: a31d d5bd 3457 ba3b 0102 183e ad3f 1e3d
00000360: ce52 683d 589a fbbd 2ebc d93c 2859 05be
00000370: f9d7 44be b0ae 80bd c9b2 8f3d 852a 3dbc
00000380: 6a52 4dbe f2fb 68be d4d2 8d3e 211a c9bc
00000390: d9f4 793d 2828 973d 0b28 21be 0460 983d
000003a0: f1ad 2fbe 736b 043d f887 483e 2ba9 84bd
000003b0: 9b83 e1be 1115 68bd 0b01 623e a85a e9bd
000003c0: 3ff2 023d 8331 5b3e fc32 123d 5176 b6bd
000003d0: 9ce2 583d dc40 6c3a 436e 84bd 18b9 0dbe
000003e0: 7ef0 25be 27e2 cdbd 1dc7 e3bc c36e 5c3d
000003f0: b17f adbd a265 3cbe b7d0 92bd 1e12 e0bc
-0.007867548 -0.13338652 0.31271264 -0.16358241 0.13749406 -0.11608512 0.10412839 0.1477883
0.07040495 -0.07629316 -0.03296003 -0.017595856 0.0036380582 -0.09612636 -0.034054626 0.050714288
0.02592635 0.3014766 -0.04372824 0.048957046 0.10698056 -0.10652323 -0.076220766 -0.022625608
0.13109387 -0.026676044 -0.10277609 0.0018798548 0.3960177 -0.06827382 0.031452823 -0.033314146
-0.01867231 0.12372299 -0.037921183 0.10416527 0.03640095 0.106852084 -0.17291458 -0.28924492
0.1176877 0.10550589 -0.039309695 0.044913873 -0.047081634 -0.045137934 0.17147599 0.07914217
-0.09339514 0.07642132 -0.03915418 -0.059370015 0.17931361 -0.1305178 0.22755198 -0.063320674
-0.08046625 0.0969159 -0.31396902 0.083755895 -0.2963276 0.041877046 -0.22563787 0.09407761
-0.05945863 0.2405369 0.0006424126 0.14918329 0.0431455 0.082446866 -0.116472624 0.067150615
0.051782396 -0.20809294 0.16360849 -0.19281316 0.016369684 0.19693209 -0.1128725 -0.103816524
0.10336346 0.10237715 -0.18169485 0.16839285 0.11958352 0.08149165 -0.1326089 0.008307048
0.008031073 -0.14271003 0.058384284 -0.12347595 0.18064988 0.13659999 0.006391302 0.075952135
-0.36794013 0.0605529 6.8724716e-05 -0.06506237 0.16329761 0.28685787 0.34567037 0.083286986
0.025780993 -0.096849285 0.22931516 0.1762407 -0.15211833 0.07213701 -0.11145752 0.04672475
0.048294753 0.11958286 -0.01615163 0.037379913 -0.26503506 -0.035173975 0.062282488 -0.13054705
-0.13127491 -0.23005669 -0.088629805 0.02704364 -0.05084952 0.26367798 -0.06404245 -0.106377795
-0.021100696 0.19684137 0.06378301 -0.02808854 -0.03934406 0.133175 -0.009517957 0.22688065
0.03188462 0.08668114 0.06129242 -0.11878903 0.030835412 -0.111447155 -0.2184853 -0.059744045
-0.032275192 0.052778434 0.060355652 -0.035758786 0.015071431 0.17762996 0.1039274 -0.0028576218
-0.07644466 0.051357348 -0.11594105 -0.061036244 0.033008832 -0.075924754 0.14757448 0.037114568
-0.26083568 -0.056667835 0.33485642 0.0037236142 0.031428777 0.02045039 -0.0063933777 -0.12518635
0.088055946 0.0090008015 0.23454057 -0.09554647 -0.34755224 0.07581183 0.19972126 -0.029316168
0.041457858 0.28084648 -0.1125808 -0.13661087 0.121646605 0.03376552 0.4041756 -0.1432788
0.17358646 -0.046705343 -0.019908901 0.05272766 0.09519732 0.18575794 0.16758567 0.16519777
-0.009185949 -0.08905598 -0.10761382 0.2125671 -0.075033925 0.12264287 -0.13178565 -0.105615646
0.07330884 0.22332244 -0.020586854 0.08693208 0.060300022 -0.091308504 -0.1785832 -0.11110884
0.12470421 0.08594871 -0.021513496 0.04127717 -0.104060434 0.005686665 0.14844514 0.038634945
0.056719594 -0.12285298 0.026578989 -0.13022292 -0.19223012 -0.06283319 0.070165224 -0.011545782
-0.2005097 -0.2275236 0.27699912 -0.024548592 0.06102452 0.07380706 -0.15737931 0.074401885
-0.17156197 0.032329034 0.19583118 -0.06477579 -0.4404572 -0.056660715 0.2207071 -0.113942444
0.031969305 0.21405606 0.035693154 -0.08909286 0.052950487 0.00090123503 -0.06466343 -0.13840139
-0.16205022 -0.10052901 -0.027804906 0.053816568 -0.08471621 -0.18398145 -0.071687154 -0.027352389

inception.branch2.0.pointwise.bias f4 [32]
00000000: cfa4 a63d 22ba 32bc 3965 123d 8d0d adbd
00000010: f277 613d bae6 49bd 2ca7 41bc f9b7 02be
00000020: 11e1 82bd e290 3e3d 4d38 babc 3eeb 0c3d
00000030: f8b5 083c 3f5b 23be 9772 e9bb 8e45 103e
00000040: 9055 203d 9434 8cbc 9821 743a ddb7 79bd
00000050: c5e3 143c 4cba d2bc eb18 9abd 4e13 dc3d
00000060: e23a 07bd e4d6 893d c193 0dbe fa62 01be
00000070: ae0e 9b3a fdb5 edbd c047 9c3d 3ec2 00be
0.081369035 -0.010908635 0.035741065 -0.0844985 0.05504603 -0.049292304 -0.011819642 -0.12765492
-0.06390584 0.04652489 -0.022731924 0.034404032 0.008344166 -0.15952776 -0.007124256 0.14089033
0.0391441 -0.017114915 0.0009312867 -0.06096636 0.009087508 -0.025723599 -0.07524284 0.107458696
-0.03301514 0.0673044 -0.13825895 -0.12635413 0.0011829936 -0.11606977 0.07630873 -0.12574098

inception.branch2.1.depthwise.weight f4 [32, 1, 1]
00000000: 7e6c c5be cba0 0fbf dce7 063f 03b3 b23f
00000010: bd16 093f 5dfb 053f eaa1 b73e c314 863e
00000020: a323 753f 5df1 b3be 433c 7c3f d0e3 62be
00000030: d800 423f 21b8 1c3f 3e93 64be 11ff 7ebe
00000040: 7357 173f e546 2c3e 51a3 d2be 96d3 463f
00000050: a668 853f 5f57 063e af19 aebe bb4c ab3e
00000060: 3301 003e 5fca 8e3f 515e 54bf ac06 e73e
00000070: 827f 383f b72a 223f dd93 49be 5f63 923e
-0.38559335 -0.56104726 0.5269754 1.396088 0.5355032 0.52336675 0.35865718 0.26187715
0.957575 -0.35145083 0.9852945 -0.22157216 0.7578254 0.6121846 -0.22321793 -0.24901988
0.5911781 0.16823919 -0.41140226 0.77666605 1.0422561 0.13119267 -0.3400397 0.33456978
0.12500457 1.1155509 -0.82956415 0.45122278 0.7206956 0.6334643 -0.19685312 0.2859144

inception.branch2.1.depthwise.bias f4 [32]
00000000: e623 bc3e 6a71 4dbf 1c98 133e 2515 0a3f
00000010: 4aab 0fbd 6081 0e3f da57 803f d61b 9f3e
00000020: 4a34 0c3f 2ca2 483f 2c10 25bf 4096 fc3e
00000030: 4843 093e 866d f73e 7464 163f c566 02be
00000040: 7d33 b7be 3ea2 f7be ae81 ae3e 5b61 763f
00000050: 9d58 4ebf e984 113e 863b 1bbe 3bf5 343f
00000060: fe84 073f f0e2 2ebf 5e66 d2be a9a7 80be
00000070: 0a5d 8ebc a1df 7b3e a14c 35bf ba9c 943e
0.36746138 -0.8025118 0.14413494 0.53938514 -0.035075463 0.5566616 1.002681 0.31075925
0.54767287 0.78372455 -0.644778 0.49333382 0.13404572 0.48325747 0.5874703 -0.12734516
-0.3578147 -0.48365968 0.34083313 0.962423 -0.80603963 0.14210857 -0.15159425 0.7068669
0.52937305 -0.6831503 -0.41093725 -0.25127915 -0.017378349 0.24597026 -0.7082005 0.29025823

inception.branch2.1.pointwise.weight f4 [32, 32, 1]
00000000: e7b0 34bc c619 65be 522a 2e3e 6914 1fbd
00000010: 4abe 5d3d 248b d2bd 1398 623e b9b8 0f3e
00000020: 614c d7bd 6273 123e 7fe4 db3c 3cfc afbd
00000030: a535 febd 6e12 37be b489 c03d 174c 36be
00000040: 4d87 94bd 17c9 5dbe a610 083e a1d8 8bbd
00000050: c777 73bd 7872 02be 982a 4b3c a211 fb3d
00000060: b84f 363d 3e3d f1bd b531 553d 8068 57be
00000070: cd85 45be fd95 2fbe 57db bd3c 8535 8ebd
00000080: a176 f93d 7029 3cbd 6010 dcbd dd22 d53d
00000090: 1053 493d 6bbe 333e 0dae 393e 280b bb3c
000000a0: 3de4 323e 5928 adbd b6d5 093d e094 a4bd
000000b0: 57d1 ffbd 2358 473d 654f c43d c2b4 5bbd
000000c0: c781 56bc 418f 473c f3f8 c1bd a5f7 163e
000000d0: bde4 ad3d bdb7 883d 64c5 da3d d9f1 3bbd
000000e0: 04e3 673c e690 273e 72f9 243d df18 e93d
000000f0: eacd 1bbe 728c 9cbc c75e 46bd e9a0 32bd
00000100: 107a fa3d 221c 58be 3715 143e 5f71 783e
00000110: 59ab 71be a8a8 1b3e 2b6d e7bd 9a2a c0bc
00000120: cc41 4c3e 72e7 bcbd cd08 6fbe fadc ce3d
00000130: bc0b 123e 786d b83d 01b4 cbba af23 343e
00000140: 39fc 58be 6037 ecbd b3d1 a0bd b18f 37bd
00000150: e04e 123e 79c5 58bc b642 9b3d ed77 233e
00000160: a9fb 273e a9dd 843c bf51 d83d 35b2 be3d
00000170: a7ed 49bd 123c b23c 3b54 50be 5bbc 84bd
00000180: c759 8bbc fa50 223e 3044 64be b5b2 cf3d
00000190: df8a e5bc 26dc 103e 1790 723d ac46 bcbd
000001a0: fefd 09be 5d02 883d 2d61 d9bd a035 b5bd
000001b0: 7b2d 9bbc 4775 f4bc b923 15be 5db2 dabc
000001c0: e998 113e 53eb a1bd 4da4 38be 28c6 36bd
000001d0: 9429 00bc 7780 cc3b a2a6 223d f8dc 24be
000001e0: 67c7 163c 9c43 833c c5a4 f63d 34f8 c9bd
000001f0: 6ad1 94bd a43e bfbd 7277 283e 2c7a f73d
00000200: dee1 043e 9b5a 83bd a657 29be 9f2c 9cba
00000210: 9346 a23c fac2 c73d 69d2 f43d fc92 e53b
00000220: 3b68 29be 9da2 77bd e19d cbbc 0689 a73d
00000230: b330 683c 7584 3f3e 90ca a83b 07ac 083e
00000240: 57cd 8abd 1cf7 8abd e719 6bbd 1628 ec3d
00000250: 115a 50bd 1353 3bbe f80a 70bc 8f48 3e3e
00000260: 7f46 20be 72c3 75be 5274 b5bd d1c7 403e
00000270: 713c 9d3d 7302 49be 6515 363d 0a20 4d3e
00000280: eb19 1c3d 2202 27be 9d04 2cbd b782 5c3e
00000290: f2b3 54be 30a4 553e dac4 0fbe 1eca eebd
000002a0: c063 713e a218 e23c c90a 74be 02a7 113e
000002b0: 1c76 1ebd 7a70 6ebd 178d 593d 744c b63d
000002c0: 68c7 67be 287e 6a3d d6cc 393d c470 10bc
000002d0: 6c0d 5abd 8ba5 e63d bb96 58bd 7298 113e
000002e0: 893a 403e 261a 113e fbcd 543e 602e c9bd
000002f0: ad10 8d3b 75a7 703e 5ca5 b4bd b41c 7cbd
00000300: 6a2d 273e 8e29 b13d 6194 063e 24be 463e
00000310: 346b f13d 03e5 8b3d 1780 313e 52ed 5b3e
00000320: f913 8cbe e05f 3c3e a748 94bc a0f6 d7bd
00000330: 725d 5abe 0d6f 533c 0893 14be 5d09 18be
00000340: 51bd 27bd 2df5 bd3d a3dc 643e 6711 e2bc
00000350: 8125 aabe 06a3 75bd e938 23be 3027 3e3e
00000360: e607 2f3c 2192 abbe 46d8 6abe ee46 27be
00000370: f134 d6bd 2b23 15be 6a46 2abe 538e b3bd
00000380: ee2a eabd 92ec 33bd 2e5e 4b3e d311 8dbd
00000390: c22d 29be 0553 963d c3e5 543e 0ea8 5d3c
000003a0: 64df 4b3c 185a 4d3e 6f4e 4dbe 809a 733d
000003b0: 5879 3e3e 2a5f 4dbe acae 633c 210a 25be
000003c0: 6460 aebd b360 5f3d 9f29 50bd 11e8 35bd
000003d0: d9f5 f3bc cc46 073e c55e 3fbd b81d 593e
000003e0: 8ba3 093e 774d 913c 3ecd 343e 4774 e53d
000003f0: 8704 f4bd c8db a93b 45bd a43d aeac 323e
-0.011028505 -0.22373113 0.17008331 -0.038837824 0.054136552 -0.10280445 0.22128324 0.1403531
-0.10512615 0.14301828 0.026842354 -0.08593032 -0.12412576 -0.17878124 0.09401265 -0.17802463
-0.07252369 -0.21658741 0.13287601 -0.06828428 -0.0594404 -0.12738979 0.012400292 0.122592226
0.04450962 -0.11779259 0.052049357 -0.21035957 -0.19289322 -0.1714706 0.023175878 -0.06943802
0.1218083 -0.045937955 -0.10745311 0.1040704 0.04915148 0.17553107 0.18132801 0.022832468
0.17469878 -0.08454961 0.033651076 -0.08036208 -0.124911 0.048668038 0.09585456 -0.05363918
-0.013092465 0.0121801505 -0.094713114 0.14742906 0.08490894 0.0667567 0.106821805 -0.04588494
0.014153246 0.16363868 0.040276952 0.11381697 -0.15215269 -0.019109938 -0.04843023 -0.043610487
0.12230313 -0.21104482 0.14461218 0.24261998 -0.2360052 0.15201056 -0.11300119 -0.023457814
0.19946975 -0.09223832 -0.23343201 0.10100742 0.14262289 0.090052545 -0.0015541316 0.17591737
-0.21189965 -0.115339994 -0.07852497 -0.04481477 0.14287901 -0.013230675 0.075810835 0.15963717
0.16404594 0.016218977 0.10562467 0.09311334 -0.04929891 0.02175716 -0.20344631 -0.064812385
-0.017010583 0.15851203 -0.22291636 0.101415075 -0.02802032 0.1414648 0.059219446 -0.09193167
-0.13475797 0.06641076 -0.10614238 -0.08848119 -0.018942585 -0.029841078 -0.14564408 -0.026696378
0.14218487 -0.07906213 -0.18031426 -0.04462257 -0.007822413 0.0062409 0.039709695 -0.16099918
0.009202815 0.01602345 0.12043146 -0.09861794 -0.07266505 -0.093381196 0.16451815 0.12083849
0.12976786 -0.06413766 -0.16537341 -0.0011915154 0.019809043 0.09753986 0.11954195 0.0070060473
-0.16543667 -0.060457814 -0.024855556 0.08180432 0.014171767 0.18702872 0.0051511005 0.13346873
-0.06777447 -0.067854136 -0.05739775 0.11531083 -0.050867144 -0.18293409 -0.014651053 0.18582366
-0.15651892 -0.24000338 -0.08860077 0.18826224 0.07677544 -0.1962984 0.044453997 0.20031753
0.038110655 -0.16309407 -0.041996587 0.21534239 -0.20771769 0.20863414 -0.14039937 -0.116596445
0.23573208 0.027599636 -0.23832239 0.14223865 -0.038686857 -0.058212735 0.05311307 0.08901301
-0.22634661 0.05724922 0.045361362 -0.008815948 -0.053235456 0.112620436 -0.052878123 0.1421831
0.1877233 0.14170131 0.207817 -0.098232985 0.0043049664 0.2350138 -0.08820602 -0.06155081
0.16325918 0.08650504 0.1314254 0.1940847 0.117880255 0.0683079 0.17334019 0.2147725
-0.27358988 0.18395948 -0.01810105 -0.10545087 -0.21324709 0.012904895 -0.14509213 -0.14847322
-0.04095203 0.09275279 0.22349791 -0.027596189 -0.33231738 -0.059969924 -0.15939678 0.18569636
0.0106830355 -0.33509925 -0.22934064 -0.16335651 -0.104593165 -0.14564197 -0.16628423 -0.087673806
-0.114339694 -0.043926783 0.19860145 -0.06888165 -0.16521361 0.073400535 0.20790772 0.013528837
0.012443397 0.200539 -0.20049451 0.059473515 0.18600976 -0.20055833 0.0138966255 -0.16117145
-0.08514479 0.05453558 -0.050820943 -0.04441077 -0.029780315 0.132106 -0.04672124 0.21202743
0.13441293 0.017737133 0.17656419 0.11203819 -0.11914926 0.0051836707 0.08043913 0.17448685

inception.branch2.1.pointwise.bias f4 [32]
00000000: 8173 e73c c5d1 0e3e e6e0 92bd 58d1 eabd
00000010: 118d 033e 4343 e3bd 26ad fbba 7e62 103e
00000020: fc96 fbbd 3913 6f3d 997f c03d 9571 c7bd
00000030: 663f fa3d 6ee8 2a3e 9da7 163e 3b91 eabd
00000040: 0ae8 8ebd d7c0 943d 5cd6 12bd 0323 733d
00000050: 39ca fc3c c8a9 1abd 99a0 44be ceed 393e
00000060: 112d 2d3e 9e89 15be 699d a13d 765c 8b3d
00000070: a747 d83c 2ea5 f3bd f1a7 6ebd e52c cbbd
0.028253319 0.13947208 -0.07171802 -0.114657104 0.12846781 -0.110968135 -0.0019201383 0.14100072
-0.12284657 0.05836794 0.09399337 -0.09738461 0.122191235 0.16690227 0.14712377 -0.11453482
-0.06977852 0.07263344 -0.03584896 0.05935956 0.030858146 -0.037759572 -0.19201888 0.18157122
0.16911723 -0.14603278 0.07891352 0.06804745 0.026401354 -0.1189674 -0.05826563 -0.09920672

inception.branch3.0.depthwise.weight f4 [64, 1, 1]
00000000: 07ac d4be 12af 8b3f 21cc 6bbf 1d62 5a3d
00000010: e2a6 27bf 0e77 2f3f a103 7abe ac25 3fbf
00000020: 4757 58bf 8df9 5cbf 0c7f 693f 3ca0 cebe
00000030: 56bb 8dbf fe76 ebbe 4751 1c3f fb94 483f
00000040: 2090 ccbe 727b 873e b367 7fba 46f2 2f3f
00000050: 7c98 d8be bef9 a4be 7fe1 733f 7bc9 47bd
00000060: 57d3 123e 54e9 983e 5763 e7be badc 843f
00000070: de09 c2be b576 5dbf c74a 223f ae29 76bf
00000080: 9c82 ee3e 6585 253e c8b3 2e3f 51ff 81be
00000090: bbcc 45be d400 42bf 8bc6 653f 05e5 33bf
000000a0: 4aba 59bf 9eb2 6cbf 4303 e0be ccc2 56bf
000000b0: c16e ffbe bdcb 3bbf fa8e 4c3f 12dc 013f
000000c0: 1d12 e83e 481b ffbe ac92 3bbe 11b4 f73e
000000d0: 16f1 893f be82 b3be 64d9 82bf 71fe 95bf
000000e0: 26d7 8b3f 26f9 65bf 18ad 0a3f 4ec8 693f
000000f0: 28c9 c8be e271 843f 4a54 5b3f 79c5 1bbf
-0.41537496 1.0912802 -0.9210835 0.053316224 -0.6548902 0.6854104 -0.24415447 -0.7466686
-0.84508175 -0.86318284 0.91209483 -0.40356624 -1.1072795 -0.4598922 0.6106152 0.78352326
-0.3995371 0.2646137 -0.00097429304 0.68729055 -0.42303836 -0.32221788 0.95265955 -0.04877613
0.14338432 0.29865515 -0.45192978 1.037986 -0.37898153 -0.8650926 0.6339535 -0.9615735
0.46584022 0.16164167 0.68243074 -0.25390103 -0.1931638 -0.75782514 0.8975608 -0.7027133
-0.8504988 -0.9246005 -0.43752488 -0.83890986 -0.49889186 -0.73357755 0.79905665 0.50726426
0.4532632 -0.498255 -0.1831767 0.48379567 1.0776699 -0.35060686 -1.0222592 -1.1718274
1.0925033 -0.89833295 0.5417037 0.91321266 -0.3921597 1.0347254 0.8567549 -0.60848194

inception.branch3.0.depthwise.bias f4 [64]
00000000: 5f3c 4ebf bc90 46be 319c 613f c8c8 1fbf
00000010: 8cd8 28bf cd2c 033f ef2e 06bf 484c dabe
00000020: 76ee 4bbf 2f00 8e3e cff8 8abe 0a3c 3bbf
00000030: 92de c9be 3bb5 133f c9fa dfbe e2d9 313f
00000040: 8da5 5fbf 81a1 133e 2dcd e8be dc88 5f3f
00000050: 08e6 1c3f b2c6 86bd e5d9 f63d 371f 703d
00000060: 4dc0 563f 5585 43bf 9fd9 f53e bf04 af3e
00000070: 2807 a83d dbf0 1bbf e349 11bf 9475 423f
00000080: 9a1a 16bf dab5 b23e 0636 4bbf 4f98 103f
00000090: c0a4 bc3d b161 15bf 089f 173f a36c f03e
000000a0: b2d3 47be 8897 de3e 28c0 533d 69ba b33e
000000b0: 9989 58bf 0290 6f3f 6e65 c3be 0b99 6fbf
000000c0: 4856 453f 35ed 1e3e f03b bf3e 8f44 3fbf
000000d0: b9fc 86be ae67 273f d0be 34bf 1154 c2be
000000e0: 0145 3fbf 969c 5a3e 9849 16bf 232b 80bf
000000f0: d380 153f 87eb 083f 955e 3e3f ffa6 653f
-0.8056087 -0.1939115 0.88128954 -0.6241574 -0.65955424 0.51240236 -0.52415365 -0.42636323
-0.7966074 0.27734515 -0.2714295 -0.7313849 -0.3942762 0.5769841 -0.4374602 0.6947309
-0.87361985 0.14417078 -0.45469037 0.87318206 0.612885 -0.06580867 0.12053279 0.05862352
0.8388718 -0.76375324 0.48017594 0.34183308 0.0820449 -0.6091439 -0.5675337 0.7596066
-0.5863434 0.34904367 -0.7937931 0.56482404 0.09211111 -0.5835219 0.5922704 0.46957883
-0.19514349 0.43474984 0.051696926 0.35103157 -0.8458496 0.93579113 -0.38163322 -0.935929
0.7708478 0.15520175 0.37350416 -0.7471399 -0.26364687 0.6539258 -0.70603657 -0.37954763
-0.74714667 0.21348795 -0.58706045 -1.0013164 0.58399695 0.53484386 0.7436307 0.8970794
