experiments/1005/pretask_WISDM_4rot.pth (torch, 144877 bytes, 48 tensors)

stem.conv1d.weight f4 [64, 3, 3]
0	0xbc9e1cf4	-0.019300915
1	0x3e967d8c	0.2939266
2	0x3e066777	0.13125406
3	0x3e220eea	0.15826002
4	0xbe9c0429	-0.30471924
5	0xbcfcce7c	-0.030860178
6	0xbd4edb5a	-0.05050216
7	0xbd74440d	-0.05963521
8	0x3e13b337	0.14423834
9	0x3e60d565	0.21956404
10	0xbe8c3be4	-0.27389443
11	0x3e538137	0.2065476
12	0x3c60af7e	0.013713716
13	0x3d88c3db	0.066779815
14	0xbed57bdf	-0.4169607
15	0xbe62570c	-0.22103518
16	0xbd08592d	-0.03328817
17	0x3df598b7	0.11992019
18	0xbe828f06	-0.25499743
19	0xbdcd5c68	-0.10027391
20	0xbeaf340a	-0.3421939
21	0x3e339b6b	0.17539756
22	0x3cec6fad	0.028861845
23	0xbea8c950	-0.3296609
24	0xbdf14c77	-0.11782163
25	0xbd8d94b9	-0.06913132
26	0x3e641dc8	0.22276986
27	0x3e45bf0e	0.19311163
28	0xbeb20818	-0.347718
29	0xbbd691b7	-0.0065481323
30	0x3e862a29	0.2620404
31	0xbe06efb3	-0.13177375
32	0xbe67c77c	-0.22634691
33	0xbea131e2	-0.3148337
34	0xbc7d887b	-0.015474434
35	0xbe85a95d	-0.26105776
36	0xbdfd7ce0	-0.12377334
37	0xbc63b3a8	-0.013897814
38	0xbec6effa	-0.38854963
39	0x3e7673c3	0.24067597
40	0x3dd3b1c1	0.10336638
41	0x3d02855a	0.031865455
42	0x3e04cefc	0.12969583
43	0x3db7e7ad	0.089797355
44	0x3c90ed92	0.017691407
45	0xbe29544d	-0.16536064
46	0x3e6c0329	0.2304808
47	0x3e1276d5	0.14303143
48	0xbd695519	-0.05696592
49	0x3dc3d6a5	0.095624246
50	0xbe3f1cd1	-0.18663336
51	0xbebd8d5e	-0.37021917
52	0xbe47c3b7	-0.19508253
53	0xbeb05f53	-0.34447727
54	0x3e58d96d	0.21176691
55	0x3e5f0acf	0.21781467
56	0xbda96983	-0.08272078
57	0x3e37a091	0.17932345
58	0xbe5deaa9	-0.21671547
59	0x3df29ffd	0.118469216
60	0x3e82ef72	0.25573307
61	0xbe49699d	-0.19669195
62	0xbe8dc465	-0.276889
63	0xbdd63148	-0.104586184
64	0x3e5a1b71	0.2129953
65	0x3e56a702	0.20962146
66	0xbead3963	-0.33832845
67	0xbe0d8a7d	-0.1382236
68	0xbe97c2d5	-0.29640833
69	0xbe1df943	-0.15427117
70	0x3d8f3da2	0.069941774
71	0xbe82c889	-0.2554362
72	0xbe3a7128	-0.18207228
73	0x3e72cc9f	0.23710869
74	0x3e6f8f3b	0.23394482
75	0x3e96ae26	0.2942974
76	0x3eb5aa71	0.354816
77	0x3e8055b3	0.25065383
78	0x3e566648	0.20937455
79	0xbdcf83fe	-0.101325974
80	0x3e3a94fc	0.18220896
81	0xbded3383	-0.11582091
82	0xbd0e7a03	-0.03478433
83	0xbd253a3f	-0.04033875
84	0xbe263d1a	-0.16234246
85	0xbe06bce5	-0.13157995
86	0xbcf6330f	-0.030053644
87	0x3e4962f2	0.19666651
88	0x3e0b26ae	0.13588974
89	0xbeacf187	-0.3377802
90	0x3c7d10ca	0.015445897
91	0x3da50e06	0.080593154
92	0xbd474068	-0.048645407
93	0x3cb9ebe4	0.02269549
94	0x3e912608	0.28349328
95	0xbe7ae3c3	-0.24500947
96	0xbec3131a	-0.3810051
97	0x3df8319f	0.121188395
98	0x3bb149c2	0.005410404
99	0x3e8a8581	0.2705498
100	0x3e39a191	0.18128039
101	0xbdcd61aa	-0.100283936
102	0x3e9fbd0c	0.3119892
103	0xbe43e7ab	-0.19131343
104	0x3c2d80f4	0.010589827
105	0x3be1f97c	0.006896196
106	0xbd4d92c5	-0.0501888
107	0xbe2bcabc	-0.16776556
108	0x3e8b2347	0.27175352
109	0x3d4ddd6c	0.050259992
110	0x3ca81c05	0.020521173
111	0x3ea69c66	0.32541198
112	0xbdd0e4ce	-0.10199891
113	0x3eb4f411	0.35342458
114	0x3e927844	0.2860738
115	0xbe93a0e1	-0.28833678
116	0x3e4049c9	0.18778147
117	0x3e364083	0.17798047
118	0xbe93fbe7	-0.28903124
119	0xbe32d146	-0.17462644
120	0xbe173f91	-0.14770342
121	0x3e68215a	0.22668973
122	0x3e045218	0.12921941
123	0x3df58268	0.11987764
124	0xbda4e042	-0.08050586
125	0x3e799e2a	0.24376741
126	0x3e4c3c1f	0.1994481
127	0xbc8518fb	-0.016247263
128	0x3d06a113	0.032868456
129	0xbe70864a	-0.23488727
130	0xbe81f4bb	-0.25382027
131	0xbe57a552	-0.21059158
132	0xbd86d410	-0.065834165
133	0xbe429b67	-0.19004594
134	0xbe73dd56	-0.23814902
135	0xbcfe9456	-0.031076591
136	0xbe9c4b6a	-0.30526286
137	0x3e5adc3e	0.21373078
138	0x3e7bcc28	0.24589598
139	0x3e3413e9	0.1758572
140	0xbe762938	-0.24039161
141	0xbd8330fd	-0.06405828
142	0xbea36569	-0.31913307
143	0xbe7defc4	-0.24798495
144	0x3a193642	0.0005844572
145	0xbe24ed36	-0.16106114
146	0x3e8c7528	0.27433133
147	0x3e98e57a	0.29862577
148	0x3e27fb8a	0.16404548
149	0x3e4dc429	0.2009436
150	0x3e1df1d8	0.15424287
151	0xbd50313e	-0.05082821
152	0x3e3b33f5	0.18281539
153	0x3db4af67	0.08822518
154	0xbe306811	-0.17227198
155	0x3e41e079	0.18933286
156	0xbe2a4f43	-0.16631798
157	0x3dc42bfd	0.095787026
158	0x3cdb6e0e	0.026785877
159	0x3e1a4bf5	0.15068038
160	0xbeb73147	-0.35779783
161	0xbe5eccbe	-0.2175779
162	0xbe32c205	-0.17456825
163	0x3b783f0e	0.003787938
164	0x3e21b390	0.15791154
165	0x3e4919fc	0.19638819
166	0xbdc53273	-0.09628763
167	0x3e1ffc99	0.15623702
168	0xbe27f7c5	-0.1640311
169	0xbea0569f	-0.31316087
170	0x3e13029d	0.14356466
171	0xbe76f742	-0.24117759
172	0x3cc7eb11	0.02440408
173	0x3e44aafd	0.19205852
174	0xbe6df969	-0.23239674
175	0x3eb9a31a	0.3625725
176	0x3d513f86	0.05108597
177	0x3e969a21	0.29414466
178	0xbdb47b54	-0.088125855
179	0x3e572043	0.210084
180	0x3e83b664	0.2572509
181	0x3e9dcfaf	0.30822513
182	0xbea6f6fc	-0.3261031
183	0x3d5d8e2d	0.054090668
184	0xbd99bb5a	-0.075064376
185	0xbe9a9d13	-0.30197963
186	0x3e372140	0.17883778
187	0xbe24ae6f	-0.16082166
188	0x3ecde164	0.40211022
189	0xbe0c5875	-0.13705619
190	0x3e9e9682	0.30974203
191	0xbe45b86a	-0.1930863
192	0xbc960d25	-0.018316815
193	0x3e90409b	0.2817429
194	0x3e0a67cf	0.13516162
195	0xbe35f6a7	-0.17769872
196	0x3e12fd32	0.14354399
197	0xbe8758b6	-0.2643487
198	0xbddb0faa	-0.10696347
199	0xbddc0c1c	-0.10744497
200	0xbda297ae	-0.07939087
201	0x3e6f330f	0.23359321
202	0xbe1867c5	-0.14883335
203	0x3e2de9d2	0.16983727
204	0xbead89a5	-0.33894077
205	0xbe901112	-0.28138024
206	0xbe34d83e	-0.17660615
207	0x3eae4d82	0.3404351
208	0xbd8bdf00	-0.06829643
209	0x3d5b9d8e	0.053617053
210	0x3e63ec9a	0.22258225
211	0xbde2696f	-0.11055266
212	0xbdbcef03	-0.09225275
213	0x3de3a100	0.11114693
214	0xbec8210e	-0.3908772
215	0x3d304aa1	0.04303992
216	0xbd4af23e	-0.049547426
217	0x3e2575a3	0.16158156
218	0x3dc3b1de	0.0955541
219	0x3db865f9	0.09003825
220	0x3e2d79b0	0.16940951
221	0xbc825dba	-0.015913833
222	0xbee6db01	-0.45088962
223	0xbed38ee6	-0.4131996
224	0xbe835d99	-0.25657347
225	0x3cb04a83	0.021519905
226	0xbe67ee4f	-0.22649501
227	0x3e018a57	0.12650429
228	0xbe0dede0	-0.13860273
229	0x3e60426b	0.21900336
230	0x3d55245f	0.05203664
231	0xbeb8bb47	-0.3608038
232	0xbe1518e1	-0.14560272
233	0x3d5990f9	0.053116772
234	0xbe3ceae9	-0.18448986
235	0x3e27ae4a	0.1637508
236	0x3dd3c57c	0.103404015
237	0xbe2856b5	-0.16439326
238	0x3e989dd9	0.29807928
239	0xbe1f1c4c	-0.15538138
240	0x3d711378	0.058856457
241	0x3ea33ba4	0.3188144
242	0xbe100a2a	-0.14066377
243	0x3cc70e83	0.024298912
244	0x3e91b74b	0.28460154
245	0x3d13c5db	0.03607736
246	0x3e61557f	0.2200527
247	0xbe607608	-0.21920025
248	0xbcca97fe	-0.024730679
249	0xbe0586be	-0.13039681
250	0x3e713ad2	0.23557594
251	0x3d12b718	0.035819143
252	0xbd901f65	-0.07037238
253	0x3e8d31de	0.27577108
254	0xbe98a175	-0.29810682
255	0xbdb4f9dd	-0.0883672

stem.conv1d.bias f4 [64]
0	0x3da091f4	0.07840338
1	0xbdfe1774	-0.12406817
2	0x3d98e21a	0.074650005
3	0xbdf412a8	-0.11917621
4	0x3e8a23ab	0.26980338
5	0xbe5ea6d4	-0.21743327
6	0x3e6b1a0a	0.22959152
7	0xbe751ac7	-0.23935996
8	0x3d02c1c2	0.031923063
9	0xbe25ef6d	-0.16204615
10	0xbe3afdc0	-0.1826086
11	0xbe1308ad	-0.14358778
12	0x3e6b1c20	0.22959948
13	0xbda73b35	-0.0816559
14	0xbd16221a	-0.036653616
15	0x3e1e6476	0.1546801
16	0xbde9db30	-0.1141876
17	0xbea13e28	-0.31492734
18	0xbe1733b9	-0.14765824
19	0xbd4dda37	-0.050256934
20	0xbe23971e	-0.15975615
21	0xbe735d58	-0.23766077
22	0x3d60f89a	0.054924585
23	0xbe8141bf	-0.25245473
24	0xbcfbc68a	-0.03073432
25	0x3d2761f5	0.040864903
26	0xbcaa073c	-0.020755403
27	0xbea6c4bf	-0.3257198
28	0xbca8fb3a	-0.020627607
29	0xbd006017	-0.03134164
30	0x3e547ce0	0.20750761
31	0xbd98892d	-0.07448039
32	0x3e04282e	0.12905952
33	0xbe34c66f	-0.17653821
34	0xbcad240f	-0.021135358
35	0xbda6b266	-0.081394956
36	0xbea8ee3d	-0.3299426
37	0x3e42c9e1	0.19022323
38	0x3db955bc	0.09049556
39	0x3d826465	0.06366805
40	0xbddeec33	-0.10884895
41	0xbde8804f	-0.11352598
42	0x3e8a5da2	0.2702456
43	0x3e2238c0	0.15841961
44	0x3e633d42	0.22191337
45	0xbe5de58b	-0.21669595
46	0xbd928c06	-0.071556136
47	0x3db372a7	0.087621026
48	0x3ea179f0	0.31538343
49	0x3e34c4a6	0.1765314
50	0x3e99614b	0.2995704
51	0x3e8005bc	0.25004375
52	0xbe93689a	-0.28790742
53	0x3e44da4f	0.19223903
54	0x3d120cfe	0.03565692
55	0xbea9c124	-0.33155167
56	0x3d9d527a	0.07681747
57	0xbe568963	-0.20950846
58	0xbe88c5bd	-0.26713362
59	0x3e4f5e26	0.20250759
60	0xbe91ebf6	-0.28500336
61	0x3d5cf913	0.053948473
62	0xbcfbefe8	-0.030754045
63	0x3e60d7db	0.21957342

stem.bn.weight f4 [64]
0	0x3f8310cd	1.0239502
1	0x3f86271b	1.0480684
2	0x3f825b63	1.0184139
3	0x3f91261b	1.1339754
4	0x3f7a8c4f	0.97870344
5	0x3f8b27d4	1.087153
6	0x3f8fe749	1.1242458
7	0x3f831c69	1.0243045
8	0x3f84fd51	1.0389806
9	0x3f84f25e	1.0386465
10	0x3f93dd19	1.1551849
11	0x3f86abe7	1.052121
12	0x3f83b295	1.0288874
13	0x3f81aaeb	1.0130285
14	0x3f8a149a	1.0787537
15	0x3f95305b	1.1655382
16	0x3f85b5a8	1.0446062
17	0x3f96f373	1.1793045
18	0x3f8f3f3b	1.1191171
19	0x3f88af4c	1.0678496
20	0x3f7f77ca	0.9979216
21	0x3f8967c4	1.0734792
22	0x3f850291	1.0391408
23	0x3f8da97e	1.106735
24	0x3f9e1445	1.2349936
25	0x3f9a057f	1.2032927
26	0x3f8deca0	1.1087837
27	0x3f86726c	1.0503669
28	0x3f981ad4	1.1883187
29	0x3f8952e5	1.0728422
30	0x3f8bd732	1.0925047
31	0x3f8d2f7b	1.1030115
32	0x3f88120e	1.063051
33	0x3f8c0bc5	1.0941092
34	0x3f820348	1.0157251
35	0x3f8805cc	1.0626769
36	0x3f80e3bc	1.0069499
37	0x3f872331	1.0557615
38	0x3f8b2aeb	1.0872473
39	0x3f8646d3	1.0490364
40	0x3f8557b2	1.0417387
41	0x3f84a7c2	1.0363696
42	0x3f85bab5	1.0447603
43	0x3f93a085	1.1533362
44	0x3f8d1815	1.1022974
45	0x3f8cc329	1.0997058
46	0x3f8c68b6	1.0969455
47	0x3f84f616	1.03876
48	0x3f8450ae	1.0337121
49	0x3f84fa99	1.0388976
50	0x3f8d5e99	1.1044494
51	0x3f83e45a	1.0304062
52	0x3f810fd3	1.0082954
53	0x3f84c448	1.03724
54	0x3f925884	1.1433263
55	0x3f89d8f0	1.0769329
56	0x3f886bf6	1.0657947
57	0x3f9278da	1.1443131
58	0x3f89e9f8	1.0774527
59	0x3f985de3	1.1903652
60	0x3f8516da	1.0397599
61	0x3f862782	1.0480807
62	0x3f847d59	1.0350753
63	0x3f83635f	1.0264701

stem.bn.bias f4 [64]
0	0x3dd89029	0.10574371
1	0xbbe9d04c	-0.0071354266
2	0x3ce41adc	0.027844839
3	0x3de6e61b	0.11274358
4	0x3cadb0fd	0.021202559
5	0x3df2b520	0.11850953
6	0x3c2ce1c8	0.010551877
7	0x3cfbf705	0.030757437
8	0x3cd2d2f6	0.02573536
9	0x3dbcf8a3	0.09227111
10	0x3d4b8e89	0.04969648
11	0x3c2584e4	0.010102484
12	0x3d764087	0.06012013
13	0x3d5774ce	0.052601628
14	0x3dd66405	0.10468296
15	0x3d98649b	0.07441064
16	0xbb60f2a7	-0.003432432
17	0x3dc2f939	0.09520192
18	0x3d810a88	0.06300837
19	0x3ddd8835	0.10816995
20	0xbc933501	-0.01796961
21	0x3d1f7b71	0.038936082
22	0x3cde1d3a	0.027113546
23	0x3d3a9c38	0.045559138
24	0x3e12cc3f	0.14335726
25	0x3dc6708a	0.09689434
26	0x3d6b7228	0.057481915
27	0x3d2b0794	0.041755274
28	0x3dec8488	0.11548716
29	0x3d2f3ffb	0.042785626
30	0x3c62683f	0.0138187995
31	0x3dbc7b1b	0.09203168
32	0x3d9a293f	0.07527398
33	0x3daf182b	0.085495315
34	0xbce5b75d	-0.028041536
35	0x3d58993d	0.052880514
36	0x3b95e88b	0.0045748404
37	0x3b76cf5b	0.0037660215
38	0x3de14323	0.109991334
39	0x3bb53900	0.0055304766
40	0x3d1c6483	0.038181793
41	0xbabc05aa	-0.001434495
42	0x3dac3a68	0.084095776
43	0x3cbe0aba	0.023198474
44	0x3dab0253	0.08350053
45	0x3dc34389	0.09534366
46	0x3d73bff3	0.05950923
47	0x3cf51898	0.029918954
48	0xb9567ca2	-0.0002045506
49	0x3cd16668	0.025561526
50	0x3cfc91a8	0.030831173
51	0x3db41c89	0.08794505
52	0xbc74a644	-0.014932219
53	0x3d43b717	0.04778203
54	0x3daec919	0.0853445
55	0xbcc20051	-0.023681791
56	0xbcd6884f	-0.026188044
57	0x3dad4062	0.08459546
58	0x3dc27626	0.09495191
59	0x3dac183e	0.08403061
60	0x3d7a7db3	0.061155032
61	0x3e0cb0b0	0.13739276
62	0x3e05da35	0.1307152
63	0x3d070e0e	0.032972388

stem.bn.running_mean f4 [64]
0	0x3de36d52	0.111048356
1	0xbea497bc	-0.32147014
2	0x3e14d01c	0.14532512
3	0xbf72bb21	-0.94816786
4	0x3f203b2c	0.6259029
5	0xbfc15afb	-1.510589
6	0xbdbc5879	-0.09196562
7	0xbf3c5499	-0.73566586
8	0x3ee12d94	0.43980086
9	0xbe29eb78	-0.1659373
10	0xbf09f1e3	-0.53884715
11	0xbee75285	-0.45180145
12	0x3ef67ce0	0.48142147
13	0x3ea7afee	0.3275141
14	0xbf403016	-0.75073373
15	0xbf3bf901	-0.73426825
16	0x3e958bcd	0.29208222
17	0xbf6c8269	-0.9238649
18	0xbf1e7a1e	-0.61905086
19	0x3f0976c2	0.53696835
20	0x3ed66283	0.41872033
21	0xbf26ab22	-0.6510488
22	0xbf87b064	-1.0600705
23	0xbf1a447d	-0.60260755
24	0xbfcf5972	-1.6199172
25	0xbf185eb9	-0.59519535
26	0x3ea15ec8	0.31517625
27	0xbe091e23	-0.13390402
28	0xbf454d64	-0.77071214
29	0xbed02b11	-0.40657857
30	0xbe8c53fa	-0.2740782
31	0xbea97b22	-0.33101755
32	0xbf3e1ce2	-0.7426282
33	0xbf5bf04c	-0.8591354
34	0xbd8d6353	-0.0690371
35	0xbedd282b	-0.43194708
36	0xbf2e1981	-0.68007666
37	0xbf09ce86	-0.53830755
38	0x3f9657e4	1.1745572
39	0x3ea0b688	0.3138926
40	0x3f596dc4	0.84933114
41	0x3e945c25	0.2897655
42	0x3e80fd1e	0.25193113
43	0xbeea370f	-0.4574513
44	0xbdcac7f9	-0.09901423
45	0xbf561aa7	-0.8363442
46	0xbf8da3f5	-1.1065661
47	0x3d4b2636	0.049596988
48	0x3f15a820	0.58459663
49	0x3f11725d	0.5681513
50	0x3d5fadda	0.054609157
51	0x3eea3ee8	0.4575112
52	0x3e6500d0	0.22363591
53	0xbbc4fdb7	-0.0060116905
54	0xbf35833f	-0.7090339
55	0xbeb61307	-0.35561392
56	0x3e301111	0.1719401
57	0x3e95b56a	0.2923997
58	0xbf841428	-1.0318651
59	0xbf3e0780	-0.74230194
60	0xbdb81a29	-0.08989365
61	0x3f7c4d40	0.98555374
62	0x3f53dd8a	0.82759917
63	0x3f490cc3	0.785351

stem.bn.running_var f4 [64]
0	0x4144c8a0	12.298981
1	0x412795ed	10.474103
2	0x41de8989	27.817156
3	0x41342861	11.259858
4	0x41b2c1c5	22.344614
5	0x41882aa2	17.020817
6	0x412f128c	10.942028
7	0x42159844	37.398697
8	0x42415b71	48.3393
9	0x41158204	9.344242
10	0x408d043e	4.406768
11	0x412bcc66	10.737402
12	0x41c6b593	24.83866
13	0x412f9289	10.973275
14	0x41f48939	30.567003
15	0x414f4604	12.954594
16	0x41c5f7b0	24.745941
17	0x40bf66bd	5.9812913
18	0x40ec62be	7.3870535
19	0x410ce9c9	8.807076
20	0x418a23c8	17.267471
21	0x413e59cf	11.896926
22	0x418b12e0	17.384216
23	0x4117c28a	9.484995
24	0x41c51546	24.635387
25	0x40dcf312	6.9046717
26	0x4092be39	4.5857205
27	0x410d0a7a	8.815058
28	0x41037245	8.215398
29	0x414c8268	12.781837
30	0x40a16f9f	5.0448756
31	0x3ffc86b3	1.9728607
32	0x41408a39	12.033746
33	0x40e50858	7.1572685
34	0x40fad097	7.8379626
35	0x4138ba38	11.545464
36	0x417499f3	15.287585
37	0x411a04aa	9.626139
38	0x41a18f3a	20.194935
39	0x40ed9c21	7.4253087
40	0x4172461d	15.1421175
41	0x414752d0	12.457718
42	0x4108035b	8.500819
43	0x40ea5cb6	7.3238173
44	0x407fb84b	3.9956234
45	0x40a7d9fc	5.2453594
46	0x413e80d6	11.906454
47	0x40a9a24c	5.3010616
48	0x416d2aa4	14.82291
49	0x41e92ccb	29.146872
50	0x40ac6f5a	5.3885927
51	0x41788ae8	15.533913
52	0x4099a2b8	4.801113
53	0x414577bf	12.341735
54	0x4109f27b	8.621699
55	0x410b0194	8.687885
56	0x406990ff	3.6494749
57	0x40f9e2c4	7.8089314
58	0x423f443f	47.816647
59	0x414c1725	12.7556505
60	0x410de27e	8.867796
61	0x4150a3b7	13.039969
62	0x41821339	16.259386
63	0x4180286d	16.01974

inception.branch1.1.depthwise.weight f4 [64, 1, 1]
0	0x3f754951	0.95814997
1	0xbf0cff2a	-0.5507685
2	0xbebccc6c	-0.36874712
3	0xbf32bfcd	-0.69823915
4	0xbefcbac7	-0.4936125
5	0x3f6430bf	0.8913688
6	0x3f65f795	0.89830905
7	0xbf68ff97	-0.91015
8	0x3e0be6a5	0.13662203
9	0xbf2d635b	-0.6772973
10	0x3f5d2241	0.8638039
11	0x3f60c0be	0.877941
12	0x3f346ea0	0.704813
13	0xbe9faecb	-0.31188044
14	0x3f1196ce	0.56870735
15	0x3e80bf40	0.25145912
16	0x3f1ab863	0.604376
17	0x3f0b8bde	0.54510295
18	0x3d767e91	0.060179297
19	0xbef909a0	-0.48640156
20	0x3f7a1258	0.9768424
21	0xbe60ba33	-0.2194603
22	0xbed143b5	-0.4087197
23	0xbf5dec29	-0.86688477
24	0x3e03b413	0.12861662
25	0x3f14f225	0.58181983
26	0x3f753c89	0.95795494
27	0xbf29cea9	-0.66330963
28	0x3e8524f6	0.2600476
29	0x3f118460	0.56842613
30	0x3f7039f9	0.9383846
31	0xbf82e7eb	-1.0227026
32	0xbf0c0dba	-0.54708445
33	0x3f6cebf7	0.92547554
34	0x3f5bc90e	0.8585366
35	0xbf1a99af	-0.6039075
36	0x3ecadc01	0.39620975
37	0x3f10a36f	0.5649938
38	0xbe024c27	-0.12724362
39	0x3f7a732c	0.9783199
40	0x3e284f04	0.16436392
41	0x3e84a147	0.25904295
42	0x3ec1486e	0.37750572
43	0xbe15498c	-0.14578837
44	0xbf7c7bd9	-0.98626477
45	0xbc263741	-0.0101450095
46	0x3f5115a4	0.81673646
47	0x3f42bc2e	0.7606839
48	0xbf832ece	-1.0248659
49	0x3f37b30b	0.7175757
50	0x3f1b6f6e	0.60716903
51	0xbcb971b8	-0.022637233
52	0xbe91aaa7	-0.2845051
53	0xbf12ae8c	-0.5729759
54	0xbf850244	-1.0391316
55	0x3f2b79ab	0.66982526
56	0xbf855b62	-1.0418513
57	0x3efd5afa	0.49483472
58	0xbec87d3b	-0.39158043
59	0x3e0a0281	0.13477518
60	0xbeed683e	-0.46368593
61	0x3f15cc14	0.58514524
62	0x3f38a1af	0.7212171
63	0x3ecb9a40	0.3976612

inception.branch1.1.depthwise.bias f4 [64]
0	0xbf63f299	-0.8904205
1	0xbf2dca9b	-0.67887276
2	0x3df1b3e7	0.11801892
3	0x3eafc8d5	0.3433291
4	0x3f590356	0.84770715
5	0xbf2145e7	-0.6299729
6	0x3f70d15f	0.94069475
7	0x3d880fe1	0.06643654
8	0xbcb0c300	-0.021577358
9	0xbf225ffa	-0.634277
10	0x3f259baf	0.6469068
11	0xbf07c65a	-0.53037035
12	0x3e90cdce	0.28282017
13	0xbf3c4560	-0.7354336
14	0xbf0c901f	-0.5490741
15	0xbe6e9414	-0.23298675
16	0x3daca15f	0.084292166
17	0xbd4c7059	-0.04991183
18	0xbe525014	-0.2053836
19	0x3e3b2a4f	0.18277858
20	0x3f765f8a	0.9623953
21	0x3ed7989a	0.42108613
22	0xbf84fd14	-1.0389733
23	0xbf02a447	-0.5103192
24	0x3f19c761	0.60069853
25	0xbf26311b	-0.6491868
26	0xbf185e91	-0.59519297
27	0xbe917ea8	-0.28416944
28	0x3f640a4d	0.8907822
29	0x3f587282	0.84549725
30	0xbee2f710	-0.4432912
31	0xbf053511	-0.520341
32	0xbf3b330f	-0.73124784
33	0xbe725f9d	-0.23669286
34	0x3f1c0bb5	0.60955364
35	0x3f1f1f73	0.6215736
36	0xbb8733a0	-0.004126027
37	0x3e60032a	0.21876207
38	0x3eb4c7ac	0.35308588
39	0xbe4df0d0	-0.20111394
40	0x3f4fc67d	0.81162244
41	0xbed82e64	-0.42222893
42	0xbf6c7fb5	-0.92382365
43	0x3f670f6e	0.9025792
44	0x3f77c643	0.967869
45	0xbf7e134c	-0.99248195
46	0x3dcc8efb	0.09988209
47	0xbe635329	-0.22199692
48	0x3ed11a64	0.40840447
49	0xbf135974	-0.5755837
50	0x3e57baeb	0.21067397
51	0xbf32e1dc	-0.69875884
52	0xbf1c47a8	-0.6104684
53	0x3e317676	0.17330346
54	0xbcaa10c9	-0.020759957
55	0xbe464aec	-0.19364518
56	0xbdf33ce1	-0.11876846
57	0x3e92d207	0.28675863
58	0x3f24657a	0.6421734
59	0xbf6189d3	-0.8810093
60	0x3db8e26c	0.090275615
61	0x3ee21985	0.44160095
62	0xbf5521f3	-0.8325493
63	0x3f76c3a3	0.9639227

inception.branch1.1.pointwise.weight f4 [32, 64, 1]
0	0x3c4c00ec	0.012451392
1	0xbe16ac02	-0.14714053
2	0xbce99125	-0.028511593
3	0x3d8beac8	0.0683189
4	0x3e170ea6	0.14751682
5	0xbd4d7174	-0.050157025
6	0xbd06a7d0	-0.032874882
7	0xbd6be1e3	-0.05758847
8	0xbd5ba665	-0.053625483
9	0xbe06bd05	-0.13158043
10	0xbd6fa0f0	-0.05850309
11	0xbe368e71	-0.17827775
12	0x3df28441	0.11841632
13	0x3d314b46	0.043284677
14	0x3d83096d	0.06398282
15	0xbc16f15b	-0.009212817
16	0x3dce4cff	0.100732796
17	0x3e922418	0.28543162
18	0x3d808db2	0.06277026
19	0x3d87ba49	0.06627328
20	0x3c819326	0.015817236
21	0x3d4a31ca	0.04936389
22	0xbd89352e	-0.06699596
23	0x3d7150fe	0.05891513
24	0xbd246259	-0.040132854
25	0xbe5188b0	-0.20462298
26	0xbe709d83	-0.23497586
27	0xbdbbb348	-0.091650546
28	0x3e12935e	0.14314029
29	0x3c3208f7	0.010866395
30	0x3aa3720a	0.0012469899
31	0x3db31dd3	0.08745923
32	0xbdbdbe3f	-0.09264802
33	0xbded9806	-0.11601262
34	0x3cc826ae	0.024432506
35	0xbd21e355	-0.03952344
36	0x3db8c14e	0.09021245
37	0xbdb2cda3	-0.08730628
38	0xbd25f38f	-0.04051548
39	0x3bc7dc34	0.0060992483
40	0x3d8cc66c	0.068737835
41	0xbde2ecfa	-0.11080356
42	0x3da5936c	0.08084759
43	0x3db2cd9b	0.087306224
44	0xbd894e11	-0.06704343
45	0xbdcd1436	-0.100136206
46	0x3e47d6b0	0.1951549
47	0x3e27c2c3	0.1638289
48	0xbc9637c7	-0.018337144
49	0x3c065a30	0.008200213
50	0x3ce958b7	0.028484685
51	0xbcc5a9a6	-0.024128746
52	0x3c313267	0.0108152395
53	0x3e75be18	0.23998296
54	0xbd38e08c	-0.04513602
55	0xbe212232	-0.157357
56	0xbd250cc3	-0.040295374
57	0xbca64761	-0.020297708
58	0x3dfae99f	0.12251591
59	0xbda13ea1	-0.07873274
60	0x3d076d23	0.033063065
61	0xbcaea7ab	-0.021320185
62	0x3dc53c3b	0.09630629
63	0xbda659f2	-0.081226245
64	0x3db598fb	0.08867069
65	0xbdf23260	-0.118260145
66	0xbcd1d943	-0.025616294
67	0x3cd97c06	0.026548397
68	0x3ca752c0	0.0204252
69	0x3ded947c	0.11600587
70	0x3bb41d01	0.0054966216
71	0x3ca893b4	0.020578243
72	0xbcf78b5b	-0.030217817
73	0xbd8dc16c	-0.06921658
74	0x3e151536	0.14558873
75	0x3e13be5f	0.1442809
76	0x3e20035c	0.15626281
77	0x3d82f832	0.06394996
78	0x3d962985	0.07332138
79	0xbdd09002	-0.10183717
80	0x3e262f6e	0.1622903
81	0x3e0a2276	0.13489708
82	0xbd57e539	-0.052708838
83	0x3d683059	0.056686733
84	0xbd004a22	-0.0313207
85	0x3c7f909a	0.015598441
86	0xbdb6854a	-0.089121416
87	0x3d3874d6	0.0450333
88	0xbd92edae	-0.0717424
89	0x3d964f41	0.07339335
90	0xbd3e7ee7	-0.046507742
91	0xbc2f7b75	-0.010710587
92	0x3e195a93	0.14975958
93	0x3d0fb4b3	0.035084438
94	0x3d568aef	0.05237859
95	0xbce29766	-0.027660083
96	0x3c89b53f	0.016810058
97	0xbdfc7bfb	-0.12328335
98	0x3de14847	0.11000114
99	0x3a9be61c	0.001189414
100	0xbccba2a7	-0.024857832
101	0x3d1c81e2	0.038209803
102	0x3deda636	0.11603968
103	0xbd45a3bf	-0.048251864
104	0xbd71cedf	-0.05903518
105	0x3d781aae	0.06057232
106	0x3dbf798b	0.09349354
107	0x3d8abf9d	0.067748286
108	0xbc3df5bd	-0.011594233
109	0x3b6adb87	0.0035836415
110	0xbde5c3a7	-0.11218958
111	0xbd860a38	-0.06544918
112	0x3dfdf579	0.12400336
113	0xbe0b6b82	-0.1361523
114	0x3d3a51a0	0.045488
115	0x3cef9501	0.029245855
116	0xbcb25ec9	-0.021773713
117	0x3c75fe9f	0.01501432
118	0xbdb43d3e	-0.088007435
119	0x3e320933	0.17386322
120	0xbde7cbb4	-0.1131815
121	0x3e17acba	0.14811984
122	0x3c90b333	0.017663574
123	0xbadcc005	-0.0016841894
124	0xbd1a6da7	-0.03770223
125	0x3d8ca81d	0.068680026
126	0x3bf55c79	0.0074878302
127	0x3d63834f	0.055545148
128	0xbceada39	-0.02866851
129	0xbdefe01d	-0.11712668
130	0xbe44353b	-0.19160931
131	0x3e5d1cee	0.21593067
132	0x3d645489	0.05574468
133	0xbdc18d74	-0.09450808
134	0x3dfab30c	0.12241182
135	0xbddd06e5	-0.10792331
136	0xbd1384cc	-0.036015317
137	0x3c9beab8	0.019032821
138	0x3d7917c0	0.060813665
139	0x3c4b0354	0.01239093
140	0x3cca7106	0.024712097
141	0x3a1c9958	0.0005973778
142	0xbd3040e8	-0.04303065
143	0xbe33d255	-0.17560704
144	0x3e190ecf	0.14947055
145	0x3d94b7a4	0.07261589
146	0xbdb2dc2c	-0.08733401
147	0xbd8f8166	-0.07007103
148	0x3d97000b	0.07373055
149	0x3df13337	0.117773466
150	0xbbc766f0	-0.006085269
151	0xbd5d6c4d	-0.05405836
152	0x3d3a8dd1	0.045545403
153	0x3e40c6a1	0.18825771
154	0xbb825f88	-0.0039786734
155	0x3b6299c0	0.0034576505
156	0x3e0928a6	0.13394412
157	0x3ce4b904	0.027920254
158	0x3d209c45	0.03921153
159	0x3d0a7bb8	0.033809394
160	0xbd848985	-0.06471542
161	0xbe39688e	-0.1810629
162	0x3d81631f	0.06317734
163	0x3d82b5e2	0.06382348
164	0x3d27a9be	0.040933363
165	0x3d9a1c3d	0.07524917
166	0x3dece0a5	0.11566285
167	0x3b94475c	0.0045251083
168	0x3da26adf	0.0793054
169	0x3d4e8d8a	0.05042795
170	0xbb8909c8	-0.004182074
171	0x3d863672	0.06553353
172	0x3e119395	0.14216454
173	0xbd82218e	-0.06354056
174	0xbe331531	-0.17488553
175	0x3debf285	0.11520866
176	0x3d410a19	0.04712877
177	0xbdabc654	-0.083874375
178	0xbd8f2455	-0.06989352
179	0xbd9a799b	-0.07542726
180	0xbda0dc00	-0.07854462
181	0xbd901805	-0.07035831
182	0x3d82d655	0.06388537
183	0x3d8953ec	0.0670546
184	0xbdbce333	-0.09223022
185	0x3d9b609a	0.07586785
186	0xbd567201	-0.052354816
187	0xbd9a568d	-0.075360395
188	0x39d53a15	0.000406698
189	0xbce86186	-0.028366815
190	0x3db98115	0.090578236
191	0x3d9db57a	0.077006295
192	0x3d0a3d80	0.033750057
193	0x3dbfbb0e	0.0936185
194	0xbc7b51ca	-0.015339324
195	0xbe4606ac	-0.19338483
196	0x3a740fcf	0.0009310217
197	0xbe072ee7	-0.13201486
198	0xbd3a58db	-0.045494895
199	0xbe028701	-0.12746812
200	0xbd775248	-0.060381204
201	0xbc03a083	-0.008033874
202	0xbdb55e01	-0.088558204
203	0xbe0e021d	-0.13867994
204	0x3cbebfd2	0.023284826
205	0x3d8ad11f	0.06778168
206	0xbe189d2b	-0.14903705
207	0x3cedcebd	0.029029245
208	0xbd55ede4	-0.052228823
209	0xbdf0a47e	-0.117501244
210	0x3cfc225b	0.0307781
211	0xbe160d3b	-0.14653485
212	0x3af8d0c0	0.0018983111
213	0xbd6ccda9	-0.05781332
214	0xbc88f8ba	-0.016720165
215	0xbcd0d289	-0.025491016
216	0xbdb2af42	-0.08724834
217	0xbd1f592a	-0.038903393
218	0xbd473151	-0.048631016
219	0x3cd40f81	0.0258863
220	0xbdb323da	-0.087470725
221	0x3e174eb7	0.14776121
222	0x3c8da1d3	0.017289078
223	0xbe479c65	-0.19493254
224	0xbd3e2cdf	-0.04642951
225	0x3df1051b	0.11768552
226	0x3da4e95c	0.08052322
227	0xbdf27df6	-0.118404314
228	0x3d8ffc94	0.07030597
229	0xbdbb52f8	-0.091466844
230	0xbd9c1a08	-0.076221526
231	0xbd3b0983	-0.045663368
232	0x3d9aad5c	0.07552597
233	0xbd9ad693	-0.07560458
234	0xbbce19a9	-0.00628968
235	0xbb472e8b	-0.0030392732
236	0xbd387d00	-0.045041084
237	0xbd28f0bc	-0.041245207
238	0x3dccec8e	0.10006057
239	0x3c2342aa	0.009964624
240	0xbd65f852	-0.05614502
241	0x3d94214d	0.07232914
242	0x3d2fc425	0.042911667
243	0xbe1c3dbd	-0.15257926
244	0xbd5f65ea	-0.054540552
245	0xbb005c59	-0.0019586293
246	0x3e22eb35	0.15910037
247	0xbd91b33a	-0.07114263
248	0xbce6e464	-0.028185077
249	0xbc469ded	-0.012122613
250	0x3d73af34	0.05949326
251	0xbdea12bd	-0.11429355
252	0x3d9d51a8	0.0768159
253	0xbd068462	-0.032841094
254	0xbc387861	-0.011259169
255	0x3e069c05	0.13145454

inception.branch1.1.pointwise.bias f4 [32]
0	0xbd8ff3f9	-0.07028956
1	0x3e01d9a6	0.12680683
2	0x3d030798	0.031989664
3	0x3da97888	0.08274943
4	0x3e19a564	0.15004498
5	0xbd9d7183	-0.07687666
6	0x3d96a2a1	0.07355238
7	0xbd2ab836	-0.041679583
8	0x3e138ca5	0.1440912
9	0x3d43e67c	0.04782723
10	0x3cd7a7a0	0.026325047
11	0xbda41f2d	-0.08013759
12	0x3e0d23a4	0.13783127
13	0x3de8f996	0.1137573
14	0xbd313450	-0.04326278
15	0xbd90a213	-0.07062163
16	0xbd588449	-0.052860532
17	0xbe0fe7d9	-0.14053287
18	0xbc8fcd0b	-0.017553827
19	0x3ce320dc	0.02772563
20	0x3dcc214d	0.09967289
21	0x3d9920c2	0.07476951
22	0xbd84be44	-0.06481603
23	0xbd73c826	-0.05951705
24	0x3ceef4df	0.029169498
25	0xbda22eb7	-0.079190664
26	0xbd1fc258	-0.0390037
27	0xbd6f19d6	-0.05837425
28	0x3b61a977	0.0034433284
29	0xbd47017a	-0.048585393
30	0x3c07d2f5	0.008290042
31	0x3dde87d4	0.10865751

inception.branch2.0.depthwise.weight f4 [64, 1, 1]
0	0xbf59c398	-0.8506408
1	0xbf776107	-0.96632427
2	0x3e987ede	0.29784292
3	0x3ebc0f9d	0.36730662
4	0x3f03d78c	0.51500773
5	0x3f24021f	0.64065737
6	0x3efc1d59	0.4924114
7	0xbf5a9b58	-0.85393286
8	0x3f1f56d2	0.6224185
9	0x3e94b65d	0.29045382
10	0x3e93407a	0.2876013
11	0x3e787156	0.24261984
12	0x3f536a62	0.825842
13	0x3eeec2de	0.46633047
14	0xbf801e24	-1.0009198
15	0xbf43c808	-0.764771
16	0x3ee09893	0.43866405
17	0x3f1da839	0.6158481
18	0x3f68fc49	0.91009957
19	0xbeee5ffc	-0.46557605
20	0x3db1699c	0.086627215
21	0xbef817d0	-0.48455667
22	0x3f62e36c	0.8862827
23	0x3f0aba6c	0.5419071
24	0xbea2f932	-0.31830746
25	0xbf81bac2	-1.0135119
26	0x3f4e3bb4	0.8055985
27	0xbf56f00b	-0.83960027
28	0x3f74bbd7	0.9559912
29	0x3f620c53	0.88300055
30	0xbf684cbf	-0.90742105
31	0x3f05ab6e	0.52214706
32	0x3d970d1a	0.07375546
33	0x3f358bfa	0.7091671
34	0xbf143047	-0.57886165
35	0x3f802729	1.0011951
36	0x3dd4ddd0	0.1039387
37	0x3dfc2bf9	0.123130746
38	0x3f11263f	0.56698984
39	0x3f806dda	1.0033524
40	0xbd664d13	-0.056225847
41	0xbcb19eed	-0.021682227
42	0x3e0a5ecb	0.13512723
43	0x3e9db731	0.30803826
44	0xbf861986	-1.0476539
45	0xbf3219da	-0.69570696
46	0xbecbb41f	-0.3978586
47	0xbeb24d13	-0.34824428
48	0xbf4dd647	-0.80405086
49	0x3efb9e9f	0.49144456
50	0x3e44cea3	0.1921945
51	0xbe28e268	-0.16492617
52	0xbe1aeb69	-0.15128864
53	0x3f286362	0.65776646
54	0x3f197427	0.5994286
55	0x3f266f9a	0.6501404
56	0xbf0139ed	-0.5047901
57	0xbea390ee	-0.3194651
58	0x3f03cbeb	0.5148303
59	0xbef928fa	-0.48664075
60	0x3f037941	0.51356894
61	0x3f55b1be	0.8347434
62	0x3eaea736	0.34111947
63	0x3f7d3825	0.98913795

inception.branch2.0.depthwise.bias f4 [64]
0	0xbf234686	-0.63779485
1	0x3f4117a6	0.7542671
2	0x3f63a0b1	0.8891707
3	0xbed56923	-0.41681775
4	0x3efb10a7	0.49036142
5	0x3f3f557a	0.747398
6	0x3e956f7f	0.29186627
7	0x3f10ee47	0.5661358
8	0x3f6499d6	0.89297235
9	0x3f6f3f55	0.9345601
10	0x3f0208d0	0.50794697
11	0xbf506361	-0.8140164
12	0x3f6f1129	0.9338556
13	0x3f6d0239	0.92581517
14	0x3e42267c	0.18959993
15	0xbef652ec	-0.4811014
16	0x3e4f7ffd	0.20263667
17	0x3f7317f3	0.9495842
18	0x3f5eaf9a	0.86986697
19	0xbe8f1ea2	-0.27953058
20	0x3f27f4dc	0.65608
21	0x3f248db4	0.6427872
22	0x3f05d58f	0.5227899
23	0x3e0b6367	0.13612138
24	0xbf436d75	-0.76338893
25	0x3f69e448	0.91363955
26	0x3f2f7c10	0.6854868
27	0x3f7931ae	0.9734143
28	0x3f1edd6d	0.6205662
29	0x3ec38d77	0.38193867
30	0xbf0bd351	-0.5461932
31	0x3e65e69b	0.2245125
32	0x3dac084b	0.08400019
33	0x3e1bd384	0.15217406
34	0xbf44abbe	-0.7682456
35	0xbed80242	-0.42189223
36	0xbf2a20b1	-0.66456133
37	0x3f1b2b02	0.606125
38	0xbf00a2da	-0.5024849
39	0x3f753f8c	0.9580009
40	0xbf3dc7fa	-0.74133265
41	0x3f5a7bb3	0.85345
42	0xbf66b3c8	-0.90118074
43	0xbd10f6e8	-0.03539172
44	0xbf0b0a58	-0.5431266
45	0xbe6a7959	-0.22897853
46	0x3f673744	0.90318704
47	0x3ec81ea8	0.3908589
48	0xbe7ffa0e	-0.24997732
49	0x3f42d00a	0.7609869
50	0x3ebbc2b8	0.36671996
51	0xbea43d89	-0.32078198
52	0x3e287da0	0.16454172
53	0x3c237651	0.009976939
54	0x3f04b5d4	0.5183995
55	0xbe72ea0d	-0.23722096
56	0x3f6e6960	0.9312954
57	0x3e879f86	0.26488894
58	0xbf1ca6da	-0.61192095
59	0xbdcd3c91	-0.10021318
60	0x3f475b57	0.7787375
61	0xbea296a3	-0.31755552
62	0x3f390fe3	0.72289866
63	0xbf0a1b24	-0.53947663

inception.branch2.0.pointwise.weight f4 [32, 64, 1]
0	0xbd29c884	-0.041450992
1	0xbde0c6cf	-0.1097542
2	0xbda80671	-0.082043536
3	0x3cb0b116	0.021568816
4	0x3d61a0e7	0.05508509
5	0xbddc2ad3	-0.107503556
6	0x3e22e759	0.15908565
7	0xbd514b40	-0.051097155
8	0x3dc4b759	0.09605283
9	0x3dbd4ff6	0.09243767
10	0x3cb889f1	0.022526713
11	0x3c82c5e5	0.015963504
12	0x3d80cf71	0.06289566
13	0x3d0d1961	0.03444803
14	0xbe04bf8e	-0.12963697
15	0x3dc46eec	0.09591469
16	0x3bdfed7f	0.0068337317
17	0xbd4143d9	-0.047183845
18	0xbdeed7a3	-0.11662223
19	0x3ccf16bd	0.025279397
20	0xbd732c66	-0.059368514
21	0xbd3bcd95	-0.045850355
22	0x3b48d51a	0.0030644597
23	0xbdc38166	-0.09546165
24	0x3d0c0a37	0.03418943
25	0x3c86661d	0.016406113
26	0xbb0646de	-0.0020489017
27	0xbdbb3c8e	-0.09142409
28	0x3e011e71	0.12609269
29	0xbda97820	-0.08274865
30	0x3d9d8218	0.07690829
31	0xbe280cd1	-0.16411139
32	0x3d4832c0	0.048876524
33	0xbcf988e9	-0.030460792
34	0xbd816d97	-0.06319731
35	0x39751267	0.00023371876
36	0xbd86cb6a	-0.06581767
37	0x3c40ad83	0.011760118
38	0xbd8af661	-0.06785274
39	0x3d8c5a25	0.06853131
40	0xbc2542c3	-0.010086718
41	0xbddecb99	-0.10878677
42	0x3d9ca9d9	0.07649583
43	0xbb8c5966	-0.004283118
44	0x3e173a8e	0.1476843
45	0xbdb006a1	-0.08595014
46	0x3d20b25f	0.039232608
47	0x3b3cfd99	0.002883768
48	0x3db908dc	0.09034893
49	0x3d925960	0.07145953
50	0xbd04e1ee	-0.032442026
51	0x3e0a32c5	0.1349593
52	0x3d107875	0.035271127
53	0x3dad984a	0.084763125
54	0x3dc7515c	0.09732315
55	0x3e2498cd	0.16073914
56	0xbd5dc4f6	-0.054142915
57	0xbd205c46	-0.0391505
58	0xbd8ceb11	-0.06880773
59	0x3bc44783	0.00598997
60	0xbd11158e	-0.035420947
61	0x3e00eddf	0.1259074
62	0x3dfd9168	0.1238125
63	0x3d9e3fb5	0.07726995
64	0xbc4f753f	-0.012662231
65	0x3e28e761	0.16494514
66	0x3da93f62	0.082640424
67	0x3d93038e	0.071784124
68	0xbdce4380	-0.10071468
69	0xbc8813bd	-0.016610974
70	0x3da9c87c	0.082901925
71	0x3d07a243	0.03311373
72	0xbc1d581c	-0.009603526
73	0xbc2200da	-0.009887898
74	0x3d95beaf	0.07311761
75	0x3d68454d	0.056706715
76	0xbc92ecd2	-0.01793519
77	0xbc520fc3	-0.012821141
78	0x3e0021fe	0.12512967
79	0x3cf90a7d	0.030400509
80	0x3e116426	0.1419836
81	0xbd5b09f6	-0.053476296
82	0x3db540c5	0.088502444
83	0xbd711cef	-0.058865484
84	0xbaee5177	-0.0018182237
85	0xbe2ed75b	-0.17074339
86	0x3cb0f0d8	0.021599218
87	0xbd691353	-0.056903195
88	0xbd613110	-0.05497843
89	0xbc7beffa	-0.015377039
90	0x3de0ef86	0.109831855
91	0x3c0683a4	0.0082100965
92	0x3dad3a0a	0.08458336
93	0xbd7f88d7	-0.06238636
94	0x3da25cfa	0.0792789
95	0xbd5aec4c	-0.053448007
96	0x3df495d1	0.11942638
97	0xbcc71288	-0.024300829
98	0xbc204bc3	-0.009783688
99	0xba19f8b1	-0.0005873545
100	0x3b761aff	0.0037552712
101	0x3d8a2cd2	0.0674683
102	0xbd622bd3	-0.055217575
103	0x3da3573f	0.07975625
104	0xbb59025a	-0.0033112974
105	0xbdb61804	-0.08891299
106	0xbd422806	-0.04740145
107	0xbba0cb47	-0.004907045
108	0xbd9f8979	-0.07789893
109	0x3da543be	0.080695614
110	0x3dbef820	0.0932467
111	0x3df53b96	0.11974256
112	0xbd9677ed	-0.07347093
113	0xbd01b792	-0.031669207
114	0xbe196469	-0.1497971
115	0x3d0146a5	0.031561513
116	0xbdbafa37	-0.09129756
117	0xbced997f	-0.029003857
118	0xbe23315a	-0.15936795
119	0xbbe9726d	-0.0071242363
120	0x3dc6ee36	0.09713404
121	0x3d66f986	0.056390308
122	0x3c5df364	0.013546798
123	0xbe10efb1	-0.14153935
124	0xbc8eefd5	-0.017448345
125	0xbe0f18f9	-0.1397437
126	0x3d26fdbd	0.040769327
127	0x3d2cf70b	0.042227786
128	0x3dc00d8f	0.09377586
129	0x3dafe301	0.085882194
130	0x3b418b70	0.0029532574
131	0xbc9073d8	-0.017633364
132	0x3d9be384	0.076117545
133	0x3d6b09f8	0.057382554
134	0x3d8edeca	0.069760874
135	0x3d9662ef	0.07343089
136	0x3dc7ee26	0.0976222
137	0x3d938f63	0.07205083
138	0x3dcbe57a	0.099558786
139	0x3d07a6b7	0.033117976
140	0x3d791364	0.060809508
141	0x3d12d952	0.035851784
142	0x3cda247d	0.026628727
143	0xbe09f633	-0.13472824
144	0x3d0d9a9a	0.034571268
145	0xbe1a4bd0	-0.15067983
146	0x3e2f8c4f	0.17143367
147	0xbd880281	-0.066411026
148	0xbd883f31	-0.06652678
149	0xbe2b4156	-0.16724142
150	0x3cc54830	0.024082273
151	0x3d2ba6c9	0.041907106
152	0xbd9b1f58	-0.07574338
153	0xbdbf0434	-0.093269736
154	0x3e018956	0.12650046
155	0xbd852134	-0.065004736
156	0xbbc35834	-0.0059614424
157	0x3d6d441a	0.057926275
158	0x3d9ef8e0	0.07762313
159	0x3d2a8655	0.041632015
160	0x3dd73b02	0.10509302
161	0x3e286c52	0.16447571
162	0x3c851c85	0.01624895
163	0xbe3cfb18	-0.1845516
164	0xbd794a91	-0.060862128
165	0x3c7bd06e	0.015369518
166	0x3c9b841d	0.018983895
167	0xbd1fe480	-0.039036274
168	0xbdf114f3	-0.11771574
169	0x3d8032c1	0.062596805
170	0xbcb809f4	-0.022465684
171	0xbe46c04b	-0.19409291
172	0x3dc95a08	0.09831625
173	0x3d9d5037	0.076813154
174	0x3de2bf01	0.11071587
175	0x3e1a71e4	0.15082508
176	0x3d8613c4	0.06546739
177	0x3db2d374	0.08731738
178	0x3dab9039	0.08377118
179	0xbd5796db	-0.0526341
180	0xbe044dcc	-0.12920302
181	0x3b83c7d7	0.0040216255
182	0x3d9b735b	0.07590362
183	0x3ddcaaf0	0.10774791
184	0xbda2501d	-0.07925437
185	0xbbb6bcf6	-0.005576725
186	0xbcec0bcc	-0.028814219
187	0xbcca549a	-0.024698544
188	0x3c9d0f4e	0.019172337
189	0x3c6e0c81	0.014529348
190	0xbd6e2cb8	-0.058148116
191	0xbdd29171	-0.10281647
192	0x3d22ec19	0.03977594
193	0x3e45b62b	0.19307773
194	0xbd18e672	-0.037329145
195	0xbe475ea2	-0.19469693
196	0x3dbdbc57	0.092644386
197	0xbe302089	-0.17199911
198	0xbd4459c8	-0.047937185
199	0x3bcf9b8f	0.0063356827
200	0x3e01e6c2	0.12685683
201	0x3d0747bf	0.033027407
202	0x3d33c8a0	0.043892503
203	0x3d4608f4	0.048348382
204	0x3d601579	0.054707978
205	0xbd9701a8	-0.07373363
206	0x3eb638a5	0.3559009
207	0xbd7ad03f	-0.061233755
208	0x3cbae4ec	0.022814237
209	0xbda3bc4e	-0.07994901
210	0xbd41c3f5	-0.04730602
211	0xbe110bf2	-0.14164713
212	0x3cc586e7	0.024112178
213	0x3d4a1a09	0.049341235
214	0xbd262430	-0.040561855
215	0xbde2a131	-0.11065901
216	0x3c6d30b8	0.0144769475
217	0x3de45671	0.111493
218	0x3dc31631	0.09525717
219	0xbd4ab46b	-0.049488466
220	0xbbfe7202	-0.0077650556
221	0xbbdfd333	-0.006830597
222	0x3dc25f98	0.09490889
223	0xbd8fe05a	-0.070252135
224	0x3de6e8a3	0.11274841
225	0xbc3d82eb	-0.011566858
226	0x3dc423e0	0.09577155
227	0xbebf4de0	-0.373641
228	0xbdb5f990	-0.08885491
229	0x3e11dbe6	0.14244041
230	0x3e42575c	0.18978637
231	0x3bed5406	0.0072426824
232	0xbdfc1a0d	-0.12309656
233	0x3e0b5cec	0.13609666
234	0x3981036f	0.00024607356
235	0xbe065c38	-0.13121116
236	0x3b3f8f5d	0.0029229738
237	0x3d382ccf	0.044964608
238	0x3e0e8b0d	0.13920231
239	0x3e2754b5	0.16340907
240	0xbe200483	-0.15626721
241	0xbd8d096c	-0.06886563
242	0x3df92cbb	0.12166735
243	0xbe1ae4cd	-0.15126343
244	0xbd92f2b3	-0.071751975
245	0x3dfd1159	0.123568244
246	0xbe39c7f0	-0.18142676
247	0xbd9dda07	-0.07707601
248	0xbcaa4fe4	-0.020790048
249	0x3e29a912	0.16568401
250	0xbe44cd7e	-0.19219014
251	0x3e276959	0.1634878
252	0x3dd3a4d2	0.10334171
253	0xbad97afb	-0.0016592437
254	0x3dd9bf71	0.10632218
255	0x3bf09479	0.007341918

inception.branch2.0.pointwise.bias f4 [32]
0	0xbd8295e9	-0.06376249
1	0xbd871bb2	-0.06597079
2	0xbda00835	-0.07814065
3	0xbcf4175a	-0.029796291
4	0x3db8083c	0.089859456
5	0x3d681647	0.05666187
6	0xbdef051b	-0.11670896
7	0x3dc24038	0.09484905
8	0xbdbf6471	-0.093453296
9	0x3bc11323	0.005892174
10	0x3d9900bf	0.074708454
11	0xbdc69d41	-0.096979626
12	0xbde59143	-0.11209347
13	0x3db5a46b	0.08869251
14	0x3c3054ac	0.010762375
15	0x3db92f32	0.09042205
16	0xbd664be0	-0.056224704
17	0x3c17ed0d	0.009272826
18	0x3de357cb	0.111007296
19	0x3d25d641	0.04048753
20	0x3e0c8b7b	0.13725083
21	0xbb66d430	-0.0035221688
22	0x3ab885cb	0.0014077959
23	0x3aa6f0f1	0.0012736601
24	0xbc4aeb14	-0.012385149
25	0xbdf24f5b	-0.11831542
26	0x3d297ea7	0.04138055
27	0xbd780820	-0.060554624
28	0xbd947692	-0.07249178
29	0xbdaced83	-0.08443739
30	0xbd281776	-0.041038
31	0x3daf8bce	0.085715875

inception.branch2.1.depthwise.weight f4 [32, 1, 1]
0	0xbf428808	-0.7598882
1	0xbe5580c5	-0.20849903
2	0xbf03750e	-0.51350486
3	0xbeef538d	-0.46743432
4	0x3f0501c5	0.51955825
5	0xbdb7cbdd	-0.08974431
6	0xbf3bc3e5	-0.73345786
7	0xbe494328	-0.19654524
8	0xbea00c74	-0.312595
9	0x3f0291be	0.51003635
10	0xbdaca4c6	-0.084298655
11	0xbeabc225	-0.33546558
12	0xbdc27b48	-0.0949617
13	0xbe796612	-0.24355343
14	0xbf4d1b06	-0.8011936
15	0xbdc47f59	-0.09594602
16	0x3ee1b663	0.44084463
17	0xbe99d505	-0.30045334
18	0x3ddde9cb	0.10835608
19	0x3e956a8c	0.2918285
20	0x3f696515	0.91169864
21	0x3f59f562	0.8514005
22	0x3f8034a9	1.0016071
23	0xbeac4305	-0.33644882
24	0x3f639ffa	0.8891598
25	0xbf106180	-0.56398773
26	0xbf3e82b0	-0.74418163
27	0xbe197543	-0.14986138
28	0xbe3457ab	-0.17611568
29	0x3ef23831	0.47308496
30	0x3f26e0bf	0.65186685
31	0xbd8192fe	-0.06326865

inception.branch2.1.depthwise.bias f4 [32]
0	0xbed1eb17	-0.40999672
1	0x3ee2e11b	0.44312367
2	0x3e847d8d	0.25877038
3	0xbf2182af	-0.6309003
4	0xbf6581fd	-0.8965147
5	0xbf572b4a	-0.8405043
6	0x3f025f7c	0.5092695
7	0x3e14b5cd	0.14522476
8	0x3f1fd322	0.6243154
9	0xbf5aeed1	-0.85520655
10	0x3de6da55	0.11272112
11	0x3e36cd5f	0.1785178
12	0xbe5c36f3	-0.21505336
13	0xbf2e616a	-0.6811739
14	0xbedfac3b	-0.4368609
15	0xbf5fbec8	-0.87400484
16	0xbf681a41	-0.9066506
17	0xbef981e0	-0.487319
18	0x3f0b7692	0.544778
19	0x3f809068	1.0044069
20	0x3e85b1b3	0.26112136
21	0x3eaae1a4	0.33375275
22	0xbf21f663	-0.6326658
23	0x3ef3a974	0.4759022
24	0xbf77798a	-0.9666983
25	0x3ee7bd2b	0.4526151
26	0x3d87243d	0.06598709
27	0x3e4daf6e	0.20086452
28	0xbec777b4	-0.38958514
29	0xbf1f046f	-0.6211614
30	0xbf4080e8	-0.75196695
31	0xbddace00	-0.10683823

inception.branch2.1.pointwise.weight f4 [32, 32, 1]
0	0xbe087691	-0.1332648
1	0xbde00cbf	-0.10939931
2	0xbe115fdb	-0.14196722
3	0xbb9ead8a	-0.004842465
4	0xbe17e944	-0.14835078
5	0x3dee19f1	0.11626042
6	0xbe165d3b	-0.14684002
7	0xbce31f59	-0.027724909
8	0x3cab813a	0.020935643
9	0xbda3ebae	-0.08003937
10	0xbdf4eb27	-0.11958914
11	0xbdd7f996	-0.105456516
12	0x3e19833f	0.14991473
13	0xbd77d671	-0.06050724
14	0xbcc31cb1	-0.023817392
15	0x3d8dae97	0.06918066
16	0x3d83ab43	0.0642915
17	0x3e2cfdbf	0.16893671
18	0xbdfa7e23	-0.1223109
19	0xbe1caa3d	-0.15299316
20	0x3dd927ad	0.10603271
21	0x3c9fa9f0	0.019490212
22	0x3ddb4bd6	0.10707824
23	0xbd55d5b2	-0.05220575
24	0x3e199843	0.1499949
25	0xbe0f7ff1	-0.1401365
26	0x3b8ec06c	0.0043564346
27	0xbdfcfdee	-0.12353121
28	0x3e1a5185	0.1507016
29	0x3d0caf07	0.034346607
30	0x3e062634	0.13100511
31	0x3dfb8fc1	0.12283278
32	0x3cd0cce3	0.025488323
33	0x3d88cd77	0.06679814
34	0x3ad2b576	0.0016075808
35	0xbd3fce20	-0.046827435
36	0xbd4ac44d	-0.049503613
37	0xbdbf8c53	-0.093529366
38	0x3e486dd0	0.1957314
39	0x3c2cd4c8	0.010548778
40	0x3e45d15d	0.19318147
41	0x3d740c3a	0.059581973
42	0x3db7520e	0.089511976
43	0x3dc9ef3f	0.09860086
44	0xbd0e082e	-0.03467577
45	0x3dff360a	0.12461479
46	0xbc539660	-0.01291427
47	0x3dbf6332	0.09345092
48	0xbd8e4033	-0.06945839
49	0xbc61a9a0	-0.013773352
50	0x3ba3ce7e	0.004998981
51	0x3d80e91d	0.06294463
52	0x3d319551	0.04335529
53	0x3dad3803	0.08457949
54	0xbe179ef7	-0.14806734
55	0x3c55c1ef	0.013046726
56	0xbe3bc092	-0.18335178
57	0x3d75346a	0.05986444
58	0x3d3fefab	0.046859425
59	0x3df9db15	0.1219999
60	0x3d8590c0	0.065217495
61	0x3e099c1c	0.13438457
62	0xbdc94f79	-0.09829611
63	0xbdbc6064	-0.091980726
64	0x3d548c5a	0.051891662
65	0x3de823d3	0.11334958
66	0xbe451726	-0.19247112
67	0x3d2bbd94	0.041928843
68	0xbda4b517	-0.08042353
69	0xbc5c1be6	-0.013434386
70	0xbe1bed0a	-0.15227142
71	0x3e473a2e	0.19455788
72	0x3d034711	0.032050196
73	0xbd50187c	-0.0508046
74	0xbe3133c8	-0.17304909
75	0xbdddf6f9	-0.10838122
76	0x3bb9dd93	0.0056721657
77	0x3e0de268	0.13855898
78	0x3da8259e	0.082103
79	0xbe221017	-0.1582645
80	0xbd65d846	-0.056114458
81	0xbd8b69e7	-0.06807309
82	0x3d929255	0.07156817
83	0x3e3f6e16	0.18694338
84	0x3be85e89	0.0070913476
85	0xbe1a35d4	-0.15059596
86	0xbe4395b8	-0.19100082
87	0x3e134079	0.14380063
88	0x3e3b5e0a	0.18297592
89	0x3e3aed57	0.182546
90	0x3e33e6ee	0.17568561
91	0xbce5a344	-0.028031953
92	0x3d63b06f	0.055588182
93	0x3d25dd08	0.040493995
94	0xbdc5a8d1	-0.0965134
95	0xbe07699f	-0.13223885
96	0xbbfcbecf	-0.007713176
97	0x3d04389d	0.032280553
98	0x3e2bd705	0.16781242
99	0x3c6104d1	0.0137340585
100	0xbc9c9c7c	-0.019117586
101	0xbe291491	-0.16511752
102	0xbdaff71b	-0.085920535
103	0xbd840ea8	-0.06448108
104	0xbd462940	-0.048379183
105	0x3db5a846	0.08869986
106	0xbe21cafd	-0.1580009
107	0xba7c9198	-0.0009634732
108	0xbd97c6b5	-0.07410947
109	0xbd0da9ce	-0.034585766
110	0x3dbad9fb	0.09123608
111	0x3cf0add7	0.029379768
112	0x3dec4b93	0.11537852
113	0xbd60fe80	-0.05493021
114	0x3bfb2eae	0.0076654768
115	0xbdc3d1cd	-0.09561501
116	0xbdb33a8f	-0.087514035
117	0x3d7da388	0.061923534
118	0xbe21cb11	-0.1580012
119	0x3d9d459d	0.07679293
120	0x3d56890c	0.05237679
121	0xbd5c10f6	-0.053727113
122	0xbe0bec85	-0.13664444
123	0xbe104bd1	-0.14091422
124	0xbdd05476	-0.1017236
125	0x3e1c2960	0.15250158
126	0x3e34ece8	0.17668498
127	0xbdcb3426	-0.09922056
128	0xbd162892	-0.036659785
129	0x3dcc9333	0.099890135
130	0x3d489d95	0.048978407
131	0xbc6711ff	-0.014103412
132	0xbe2bf6ec	-0.16793412
133	0x3dc39314	0.09549537
134	0xbcee909d	-0.029121691
135	0xbe33414a	-0.17505375
136	0x3e140cfe	0.14458081
137	0xbd13df3c	-0.036101565
138	0xbd9dc466	-0.07703476
139	0xbe1529b6	-0.14566693
140	0x3c920777	0.017825825
141	0x3e114495	0.14186318
142	0x3e16f7ae	0.1474292
143	0xbe19456c	-0.14967889
144	0x3de0929f	0.10965466
145	0xbda2a3ba	-0.079413846
146	0xbd98cb0d	-0.07460604
147	0xbde95a9f	-0.11394238
148	0xbd93df54	-0.07220331
149	0x3db4c4d5	0.08826605
150	0x3d2b8068	0.041870505
151	0x3df0293d	0.117266156
152	0xbe23f1fa	-0.16010275
153	0xbe3402c6	-0.17579183
154	0x3c866476	0.016405325
155	0xbde67a53	-0.112538
156	0x3e088de9	0.13335384
157	0x3e2647c9	0.16238321
158	0x3d84e5f6	0.06489174
159	0x3dca0442	0.09864093
160	0x3cebd2fd	0.02878713
161	0xbe1b581b	-0.15170328
162	0xbe3b484a	-0.18289295
163	0xbe337874	-0.17526418
164	0xbdb35c1c	-0.08757803
165	0xbd299111	-0.04139811
166	0x3dceeb46	0.101034686
167	0x3e30aee7	0.1725422
168	0x3e054fa1	0.13018657
169	0xbe1d6488	-0.15370381
170	0x3cd1ed9b	0.025625994
171	0x3e078af7	0.13236605
172	0xbdbce551	-0.09223426
173	0xbded2995	-0.11580197
174	0x3e496296	0.19666514
175	0xbdf7352a	-0.12070687
176	0x3e3b47ad	0.18289061
177	0x3c6036d3	0.013684946
178	0x3c15a0ef	0.009132608
179	0xbd243aea	-0.040095247
180	0xbe1620cf	-0.14660953
181	0xbe534d92	-0.2063506
182	0xbd7f36a3	-0.062307965
183	0xbc6788be	-0.014131723
184	0xbd40a275	-0.04702993
185	0xbd7c0226	-0.061525486
186	0x3ddc0b31	0.10744322
187	0x3e2f1eca	0.17101589
188	0x3d47cbf0	0.048778474
189	0xbd45e48a	-0.048313655
190	0xbe029281	-0.127512
191	0xbe44a4ea	-0.19203535
192	0x3e1e2e8b	0.15447442
193	0x3ddbea86	0.10738091
194	0x3e0cad12	0.13737896
195	0xbde07c32	-0.109611884
196	0x3e1359a8	0.1438967
197	0xbddf588f	-0.10905563
198	0x3d223475	0.03960081
199	0x3cbb79fa	0.022885311
200	0xbe103de4	-0.1408611
201	0xbd47bb6b	-0.04876272
202	0x3e39bd6d	0.18138666
203	0x3cfe526f	0.031045167
204	0xbe2613eb	-0.16218536
205	0xbd3f249b	-0.04666577
206	0xbe3d6354	-0.18494922
207	0xbd5291da	-0.051408626
208	0xbdae4692	-0.08509554
209	0x3e316b70	0.1732614
210	0x3dfe6d32	0.12423171
211	0x3e056014	0.13024932
212	0x3e3b72fd	0.18305583
213	0xbde53594	-0.1119186
214	0xbe25638c	-0.16151255
215	0xbdc3b1ba	-0.09555383
216	0xbe59d7bf	-0.21273707
217	0xbc95a11a	-0.018265296
218	0x3d717e3d	0.05895828
219	0x3dba767d	0.09104631
220	0xbe309a80	-0.17246437
221	0x3e2c6ce0	0.16838408
222	0x3d8affd5	0.06787077
223	0xbdf5ecfa	-0.1200809
224	0x3e2445e0	0.1604228
225	0xbda1d28f	-0.07901489
226	0xbc4d79d1	-0.01254125
227	0xbdaa812f	-0.08325421
228	0x3daac05c	0.08337471
229	0x3c185e59	0.009299838
230	0x3ca3892c	0.01996287
231	0xbd8df236	-0.06930964
232	0xbcc70948	-0.024296418
233	0x3df2e48a	0.118599966
234	0x3d647b2e	0.055781536
235	0x3e09b307	0.134472
236	0x3e1293ee	0.14314243
237	0x3c4014f9	0.01172375
238	0x3e0844bf	0.13307475
239	0xbdb6587f	-0.08903598
240	0x3c8ac3a4	0.016938992
241	0x3de9598a	0.11394031
242	0x3d640b3a	0.05567477
243	0xbdba9323	-0.09110095
244	0xbd9de26b	-0.077092014
245	0x3db054f5	0.08609954
246	0x3e166308	0.14686215
247	0x3dd54b9a	0.104148105
248	0xbe0fce22	-0.14043477
249	0xbd2dc00e	-0.042419486
250	0xbe1eae88	-0.15496266
251	0x3e1c3dfc	0.1525802
252	0xbb51971b	-0.0031980935
253	0xbc4f9fd5	-0.012672384
254	0x3de4498a	0.11146839
255	0x3d1d8c14	0.038463667

inception.branch2.1.pointwise.bias f4 [32]
0	0xbdd2dfb9	-0.10296578
1	0x3db82ab6	0.089925215
2	0x3dddecdd	0.10836194
3	0xbd1e555c	-0.038655624
4	0x3ddd5b11	0.10808385
5	0xbd9ff684	-0.07810691
6	0xbe1cf7ab	-0.15328853
7	0x3d14560a	0.036214866
8	0x3d6faa41	0.058511976
9	0x3a732245	0.0009274821
10	0xbe037a76	-0.12839684
11	0x3cdad17c	0.026711218
12	0xbc9d28c8	-0.019184485
13	0x3de38b8c	0.11110601
14	0x3d010148	0.031495363
15	0xbcee2b1f	-0.029073296
16	0x3dc3331c	0.09531233
17	0x3e1fc7df	0.15603589
18	0x3d8a5fa5	0.06756524
19	0x3df198ae	0.117966995
20	0x3d5eda4c	0.054407403
21	0x3de01384	0.10941222
22	0xbdecd362	-0.115637556
23	0x3d69ae51	0.057051007
24	0x3d424495	0.047428686
25	0xbddb3fdc	-0.107055396
26	0x3dda0ca2	0.10646941
27	0x3e23858b	0.15968911
28	0x3e485b41	0.1956606
29	0xbe31edf7	-0.17375933
30	0x3d7b7f03	0.061400425
31	0x3c46aa55	0.012125571

inception.branch3.0.depthwise.weight f4 [64, 1, 1]
0	0x3f776d01	0.966507
1	0x3e9861f6	0.29762238
2	0x3e9961fe	0.29957575
3	0xbe68f617	-0.22750126
4	0x3f7c55cd	0.9856842
5	0xbe22b974	-0.15891057
6	0x3e4c2897	0.19937359
7	0x3eb56595	0.35429063
8	0xbeabe3a3	-0.3357211
9	0xbf5ba944	-0.85805154
10	0xbf6e9a66	-0.93204343
11	0xbe946b85	-0.2898828
12	0x3ecebd36	0.4037873
13	0xbf309586	-0.68978155
14	0x3f7385b4	0.9512589
15	0xbeb15593	-0.346356
16	0x3f2538a4	0.6453955
17	0x3d4c0671	0.04981083
18	0xbf133552	-0.57503235
19	0xbea04548	-0.31302857
20	0xbe2d9c25	-0.16954096
21	0x3e903d4f	0.28171775
22	0xbe0e1a62	-0.13877252
23	0xbf816ea1	-1.0111886
24	0xbeb34988	-0.35017037
25	0xbf8f2dd0	-1.1185856
26	0xbef982ab	-0.48732504
27	0x3f45eda1	0.7731572
28	0xbf28e2e4	-0.6597121
29	0xbeb8597b	-0.36005768
30	0x3f01fa9c	0.50773025
31	0xbe3e7c46	-0.18602094
32	0xbee8f3f8	-0.45498633
33	0xbe940666	-0.28911132
34	0xbf57121e	-0.8401202
35	0xbf4ce1c6	-0.80032
36	0x3f59df74	0.8510659
37	0x3c1c9c53	0.009558755
38	0x3f23f319	0.6404281
39	0x3f4d16b8	0.8011279
40	0x3f71ce8a	0.9445578
41	0xbecfe413	-0.40603694
42	0x3f8541a9	1.0410663
43	0xbf82bbf6	-1.0213611
44	0x3f4d0a55	0.8009389
45	0xbf0d77d4	-0.5526097
46	0xbf756aa4	-0.95865846
47	0x3ec1005b	0.37695584
48	0x3e10211d	0.14075132
49	0x3e289cdf	0.16466092
50	0xbf1e208d	-0.6176842
51	0xbd9dfda1	-0.077143915
52	0xbf845249	-1.0337611
53	0x3e6b352f	0.22969507
54	0x3f02b762	0.5106107
55	0x3f3b57d8	0.73180914
56	0x3c8d726c	0.017266475
57	0xbf859fd9	-1.0439407
58	0x3f73cccb	0.95234364
59	0xbf7f8f5b	-0.9982812
60	0x3dcdd3e8	0.100501835
61	0xbdafabaf	-0.08577668
62	0xbdb71165	-0.089388646
63	0xbdacc4b3	-0.08435955

inception.branch3.0.depthwise.bias f4 [64]
0	0x3f6e85c9	0.9317289
1	0x3f02c4e8	0.51081705
2	0xbf172e3e	-0.59054935
3	0x3d731bf6	0.059352838
4	0xbe3b6442	-0.18299964
5	0x3ef8a315	0.48561922
6	0xbe032714	-0.12807876
7	0xbe9e665a	-0.30937463
8	0x3f36ba28	0.713778
9	0x3e9f5667	0.31120607
10	0x3f2ce0dd	0.67530614
11	0xbe4a351c	-0.19746822
12	0x3da71e2f	0.08160054
13	0xbf6aea73	-0.9176399
14	0xbf7ed42a	-0.99542487
15	0x3e69782b	0.22799747
16	0x3f64f3f9	0.8943477
17	0x3f4e52ca	0.80595076
18	0x3e3aa735	0.18227847
19	0x3e6f0fc8	0.23345864
20	0xbd92b1c1	-0.0716281
21	0xbf7deae3	-0.99186534
22	0xbc9bafac	-0.019004665
23	0x3ddae4ce	0.10688172
24	0xbe4e9c64	-0.20176846
25	0x3f20f71f	0.62877077
26	0xbf814d02	-1.0101626
27	0x3aec61f6	0.0018034566
28	0x3f7b9955	0.9828084
29	0xbec0c310	-0.3764882
30	0xbf73cc5c	-0.952337
31	0xbe6597b5	-0.22421153
32	0xbf6f0133	-0.93361205
33	0xbbac2a9d	-0.0052541033
34	0xbf14b69d	-0.58091146
35	0xbe22e424	-0.15907341
36	0x3ea2f075	0.3182408
37	0x3f4cbf0b	0.7997901
38	0xbe9c5e86	-0.30540866
39	0xbe4301a4	-0.19043595
40	0x3eed7cdb	0.4638432
41	0x3e8153e1	0.25259307
42	0xbeb62967	-0.35578462
43	0x3e48e5d8	0.19618928
44	0x3f4039bb	0.7508809
45	0x3f1d6adc	0.6149118
46	0x3f72f479	0.94904286
47	0x3f4267fd	0.75939924
48	0xbf216cbb	-0.63056535
49	0xbf69872c	-0.9122188
50	0x3ed80c9e	0.42197126
51	0xbf03b1e3	-0.5144331
52	0xbf775674	-0.9661629
53	0x3f5673c3	0.8377039
54	0xbe0c6dec	-0.13713807
55	0xbf006004	-0.5014651
56	0xbea3d26a	-0.3199647
57	0x3e33200e	0.17492697
58	0xbf6dfb9f	-0.9296207
59	0xbf72aff7	-0.9479975
60	0xbeccfbc9	-0.40035847
61	0xbf1a25f2	-0.6021415
62	0x3f120df0	0.57052517
63	0x3f2a936a	0.66631186
