experiments/1005/UCI_100pct_4rot_model.pth (torch, 302741 bytes, 88 tensors)

total_ops f8 [1]
00000000: 0000 0000 0000 0000
0.0

total_params f8 [1]
00000000: 0000 0000 0000 0000
0.0

stem.total_ops f8 [1]
00000000: 0000 0000 0000 0000
0.0

stem.total_params f8 [1]
00000000: 0000 0000 0000 0000
0.0

stem.conv1d.weight f4 [64, 9, 3]
00000000: 7190 b33e df43 0b3e a095 243e a679 2a3e
00000010: 4ee8 53be 467b 2cbc 0fbd e13d 6f5d 87bc
00000020: a846 78bd 0ab2 b9bd 2d4e d4bd ab4f 31be
00000030: e019 91bd 072c 763e 650d 813e 0865 3c3d
00000040: 1f29 4f3e 9526 ed3d 308f 10be 465c b1bd
00000050: dda4 1abe a406 813d e0c0 65be 0189 a33d
00000060: 8240 41bd 7efb fa3d 86af 763d 9c66 0fbe
00000070: 7314 953e 22ea 93bd 0763 1dbe 1f2e f9bd
00000080: dcb2 10bd 353b 053e 842e 893e 1fa5 e03d
00000090: b990 b4bd 87b2 8e3d f23b 9b3d 1006 3dbe
000000a0: cb0a b33d 6eef 073e 732e 393d 5cfc 98be
000000b0: bb4c 3ebd 676a 483b 0301 c43d aa5d d53d
000000c0: 26ea 863c 9ea2 c23d 3787 1ebd dc62 23bc
000000d0: f0f4 35be 3f52 b1bd 4277 7ebd 25e5 88bd
000000e0: c282 79be ba37 4cbe c354 ed3d bdce ea3d
000000f0: 40f8 563e 6e14 823e ddd7 b73e dbdb f5bd
00000100: 69e3 883d fcfb cabd cfc2 1f3e acfd 3c3d
00000110: bb99 b9bc 36c0 b0bd dde8 f6bd 3990 0fbe
00000120: 1e5d 0a3e bb87 613d 5811 11be 08bf c13d
00000130: 255e f8bd 3708 55be 3d1a 033b 66fa 10be
00000140: add2 d6bd 0a87 6dbe ed52 bbbd 5c6d 3dbe
00000150: de0b 673d e28f cebc d6f8 4d3e c134 a1be
00000160: 8c09 1a3d 6fc7 09be 84f6 a23d 551c 88be
00000170: f3b2 01bd bbe1 643d f58d fe3d 1c96 a1bd
00000180: 840b acbd 7feb 3f3e f42d 043e 150f 37bd
00000190: 3b53 313e 794d 5dbd d73f 783c 8db8 d5bd
000001a0: 4647 2dbe c30e 013e f11c 1b3d 21ef 47bd
000001b0: fe86 573d 0b8a f73d ae77 f0bd f92f a93d
000001c0: 1279 fb3c 66f9 81be bda5 f4bd a487 e1bd
000001d0: 67c7 823e c091 a4bc e89a 23bd ca52 163c
000001e0: 159d 69bd 7baa 703b b689 5d3e 1b5a 63bd
000001f0: d456 1b3d 2fc0 14be 7f42 933d 15f3 3e3e
00000200: dc5e 0cbd de40 0b3e cf8f 553e db39 543e
00000210: eb75 3ebd ce6c d0bd a475 09be 69bc 83be
00000220: ceee 08be 2569 7a3d deeb 5bbe f005 29be
00000230: 8c1f a7bd 3fd9 243d cfed ca3e 5ab9 5a3e
00000240: e3f9 a3bc 6ffd f4bd 9319 bcbc 3384 593d
00000250: d82f d63c 09dc 65be 6ec4 72be dd91 5dbe
00000260: 3976 0f3c 6f6d 093d 0d42 373e e31f d4bc
00000270: 6312 b9bd da91 dd3d 8fbe ce3d 7472 74bd
00000280: 890e 8b3b ea36 19be 14dc 3b3d b7b7 eb3d
00000290: b54b 01bd 9d04 3c3d 68e9 a83d 9158 2ebe
000002a0: 3d1f 7f3e 2d58 9f3e cf82 a33c 902d bc3d
000002b0: 8d97 b23c 4a23 f6bd 2eaf 5bbe 7023 3b3e
000002c0: 498f 2f3d c0d9 0fbe 9ad1 12bc 65bb 8b3b
000002d0: 45d8 9fbd 001d 893d 901b debd 9148 83bd
000002e0: 025f 233e ac9d e0bd 414e 49be be65 ab3d
000002f0: b620 22bb ed15 d5bd 8cf0 523d e6d2 083e
00000300: 2d68 713e e66e 643e 1188 223e e31d d43e
00000310: d783 2f3e d25b 1d3e 7034 67be 33e6 143e
00000320: 41f5 923c 3eda 05be 2d83 d73d aea0 c43d
00000330: 8c6e c5bd 2529 1abe 57c9 6abe 65c9 2dbc
00000340: d604 bcbd a3d8 b6bd 6a06 b0bd fca0 073e
00000350: 0ab8 f2bd b301 41be e95e c43d 1fcc b8bd
00000360: 7282 a73d 42c1 f0bd 37c9 873d 352e 9b3d
00000370: 468f 63bd b783 bd3d 5401 0a3d 281f 103e
00000380: 8c8a 863e 3bd8 4abd 5c4b b93c eceb 2b3e
00000390: 38db 143d 6bf8 283e 8487 57be 02aa 7b3c
000003a0: e385 36be b939 563d 3db1 133e cfe4 b4bd
000003b0: 615e 573d 7236 18be f7e3 a6bd f0e5 133d
000003c0: fd79 78be a5fc 833c 9604 fabd 0a24 b93c
000003d0: 664a a8bc 6cd6 273e 3967 ebbd a051 453d
000003e0: 149b 80be dda6 c63d e7fb 0b3d db0e b33e
000003f0: 1252 143d 0f43 be3d 7d08 c1bd 3ff5 efbd
0.35071138 0.1360011 0.16072702 0.16647968 -0.20694086 -0.010527438 0.11022388 -0.016524045
-0.060614258 -0.090671614 -0.10366473 -0.17315547 -0.070850134 0.24040233 0.25205532 0.04599479
0.2023053 0.115796246 -0.14117122 -0.08660178 -0.15101953 0.06300095 -0.22436857 0.07985116
-0.04718066 0.122549996 0.060225986 -0.14003986 0.29117164 -0.07222392 -0.15369807 -0.12167
-0.035326824 0.13010867 0.267933 0.10968994 -0.08816666 0.06967645 0.07579793 -0.18459344
0.08742293 0.13274929 0.045210313 -0.29880035 -0.046459895 0.0030581 0.095705055 0.104182556
0.016469073 0.09503673 -0.03870317 -0.0099723 -0.17769217 -0.08658265 -0.062125452 -0.06684331
-0.24366286 -0.19943133 0.11588433 0.114652134 0.20993137 0.25406212 0.35906878 -0.12004825
0.06684 -0.099113435 0.15601657 0.046140358 -0.022656312 -0.08630411 -0.12056134 -0.1401986
0.13512084 0.055061083 -0.14166772 0.094602644 -0.12127332 -0.20803915 0.0020004653 -0.1415802
-0.10489402 -0.23196045 -0.09146676 -0.18498749 0.0564078 -0.025215093 0.20114455 -0.3148556
0.03760676 -0.13454984 0.079571754 -0.26584116 -0.0316648 0.055879336 0.1242942 -0.07889959
-0.08400634 0.18742178 0.12908155 -0.044692118 0.17316906 -0.05402896 0.015151939 -0.10435591
-0.1692172 0.12603287 0.037869398 -0.048812035 0.052618973 0.120868765 -0.11741577 0.08261103
0.03069738 -0.25385588 -0.119456746 -0.110121995 0.25542757 -0.02008903 -0.039942652 0.009175012
-0.05703457 0.0036722708 0.21634564 -0.055505853 0.037924603 -0.14526437 0.071904175 0.18647416
-0.034270152 0.13598964 0.2085564 0.20725195 -0.046499174 -0.10177003 -0.13423783 -0.25729683
-0.13372347 0.06113543 -0.21476695 -0.16506171 -0.08160314 0.040246245 0.3963456 0.21359769
-0.020016616 -0.11962401 -0.022961413 0.05310459 0.02614586 -0.22447218 -0.23707744 -0.21637674
0.008756214 0.03355163 0.1789629 -0.025894111 -0.0903671 0.108188346 0.1009494 -0.059679464
0.004243676 -0.14962354 0.04586418 0.1150965 -0.03156634 0.045902837 0.08247644 -0.17025973
0.2491426 0.3112196 0.019959835 0.09188378 0.02180078 -0.120184496 -0.21453544 0.18275237
0.042861257 -0.14047909 -0.008961106 0.0042642825 -0.07804922 0.066949844 -0.10845101 -0.06410325
0.15954211 -0.109675735 -0.19658758 0.08369015 -0.0024738736 -0.10404573 0.051498935 0.13361701
0.23574896 0.2230793 0.15872218 0.41429052 0.17140137 0.15367058 -0.22578597 0.14540939
0.017939212 -0.13071534 0.10523067 0.0960096 -0.09640226 -0.15054758 -0.22928368 -0.010607098
-0.0918061 -0.08928039 -0.085949734 0.13245004 -0.11851509 -0.18848304 0.09588415 -0.09023308
0.08179177 -0.11755611 0.066301756 0.07577173 -0.055556558 0.09253638 0.033692673 0.14074385
0.26277578 -0.04952262 0.022618942 0.16789216 0.036341876 0.16501014 -0.21047789 0.015360357
-0.17824511 0.052301142 0.1442308 -0.08832704 0.05258024 -0.14864519 -0.081489496 0.036107957
-0.24265285 0.016111681 -0.12207906 0.022600193 -0.020543288 0.16390389 -0.114942975 0.048173547
-0.25118315 0.096997954 0.03417578 0.3497227 0.03621108 0.09290134 -0.09425447 -0.11716699

stem.conv1d.bias f4 [64]
00000000: 9a47 af3d 1f28 78bc 10f1 a83c e2ef ffbd
00000010: edff 10bc 8450 ac3d 7f7a 0cbe 64d1 21be
00000020: 39eb 863d 5ea7 2e3e 3078 1c3d b4af f5bd
00000030: dee7 d53d 045d e53d 7ce9 25bd ac06 e73d
00000040: 4d49 41be 03ba 0f3e fdaf 34be 4f50 0dbd
00000050: 7657 42be 9057 5fbc d925 a7bc d9cf 7cbc
00000060: 871b 97bd 8391 42be 2466 0abe 6c1f 25be
00000070: ff1c a23d ca2c 37be 77e1 66bd 5108 2bbe
00000080: 2181 c3bd cb67 ecbd 82cb 0f3e b1a3 563c
00000090: 43ee e93c 6870 a7bd 3a23 9e3d ea8b 183e
000000a0: e20c 1a3e 20c8 c03d 7e8a 0b3e f65a f53d
000000b0: 5693 1c3e 73ee 233d 3608 46bd cf8c 243e
000000c0: 4790 68bd e2ce 6abc 310a 633d dc9f 333e
000000d0: b68f f2bd 0395 2dbe 432d 80bd 7d1d f4bd
000000e0: d7a6 233e 0fbe 18be 0976 6f3d 6de7 84bd
000000f0: 409c ef3d 8d4b c8bd ef4c f7bc 4253 cfbd
0.08558579 -0.015146284 0.02062276 -0.12496926 -0.00885008 0.08413795 -0.13718604 -0.15802532
0.06587834 0.17056033 0.038200557 -0.11996403 0.10444616 0.11199382 -0.04050587 0.112805694
-0.18875618 0.14035802 -0.17645259 -0.034500416 -0.18978676 -0.013631716 -0.02040379 -0.015430414
-0.07378297 -0.19000821 -0.13515526 -0.16125268 0.07915687 -0.1788818 -0.056367364 -0.16702391
-0.09546114 -0.115432344 0.14042476 0.0131005505 0.028555995 -0.08175737 0.07721563 0.14897123
0.15043977 0.09413171 0.1362705 0.1198024 0.15290579 0.040022325 -0.048347674 0.16069339
-0.05677822 -0.014331551 0.05542964 0.1754145 -0.11843817 -0.16951375 -0.06258633 -0.11919687
0.15981613 -0.14916252 0.058462176 -0.064894535 0.11699724 -0.09780035 -0.030188052 -0.10123302

stem.bn.weight f4 [64]
00000000: 0317 893f e91f 893f aa42 8b3f 4958 8c3f
00000010: bc1e 883f c94c 893f 443a 8f3f 897a 893f
00000020: ac17 8b3f e65a 8a3f 46a5 853f e710 8c3f
00000030: 1913 8e3f 2951 843f e74f 8c3f 7fd6 833f
00000040: 88c2 893f a7f4 883f deb9 8b3f 5089 863f
00000050: 64e3 863f 5f33 883f bb86 8d3f a9ba 883f
00000060: d2e9 8a3f c547 8c3f 72f0 843f c006 8c3f
00000070: 050d 883f 6416 8a3f b0e6 8e3f d7c4 883f
00000080: 6283 853f edf4 8b3f dab3 823f f7a8 893f
00000090: f5e6 8c3f 36a9 8a3f ff05 8a3f 97e7 8a3f
000000a0: b184 8b3f d19d 8a3f 442b 8a3f dda2 873f
000000b0: b0f2 8a3f ede3 8f3f 39f4 8b3f 96a7 893f
000000c0: 88d6 873f 93e3 893f 4383 8a3f 5193 873f
000000d0: 7c8f 873f 25f8 873f 4c86 8b3f 0fd5 883f
000000e0: 99e2 8d3f 773b 873f 33d2 863f 61e2 8b3f
000000f0: 1423 903f b69e 853f ce17 8a3f 9a79 883f
1.0710148 1.0712863 1.0879719 1.0964442 1.0634379 1.0726558 1.1189656 1.074052
1.0866599 1.080899 1.0441062 1.0942658 1.1099578 1.0337268 1.0961884 1.0299834
1.0762491 1.0699662 1.0916097 1.0510654 1.0538144 1.0640677 1.1056741 1.0681964
1.0852606 1.0959402 1.0385878 1.093956 1.0628973 1.0788083 1.116415 1.0685071
1.043072 1.093412 1.0211136 1.0754689 1.1007982 1.0832889 1.078308 1.0851926
1.0899869 1.0829412 1.0794454 1.0596577 1.0855312 1.1241432 1.0933906 1.0754268
1.0612345 1.0772575 1.0821308 1.0591832 1.0590663 1.0622603 1.0900359 1.069002
1.1084777 1.0565022 1.0532898 1.092846 1.1260705 1.043906 1.0788515 1.066211

stem.bn.bias f4 [64]
00000000: 21ac bd3d 0aed 313c 9d97 073c c246 f63d
00000010: 952f 833d 253a 19bc ca42 833c 4d4e 3ebd
00000020: d782 973d 206b 683d bf5f 033d 3c7b 5b3d
00000030: 3b03 4c3c 0b2e 53bc a179 ee3c 5182 c33d
00000040: 0679 653d 1bc5 9b3d 09f0 903c 8246 b53d
00000050: 819b ae38 46db 88bd 89e8 7b3d dcf5 ca3d
00000060: 8335 2a3d b4da cf3d d3bb 55bd c259 e9bc
00000070: c5c0 a83d b004 b63c 4fad c33d b317 7d3d
00000080: 1dcc 58bd 9678 b33d b5f9 893d 7bbd da3d
00000090: fe9b c13d cbfc ec3d c15e 8b3d 5c91 b93d
000000a0: a015 d9bc 5f6c 2339 6cb1 243d d51c 7a3c
000000b0: eb89 b53c f60f 0a3e 4b8e 8f3c 156f 573d
000000c0: 5f9d b83d a208 a73d 1e45 05bd 3c3c ae3d
000000d0: 5317 383d 98cb cb3d fd9d e33d 3e14 0cbd
000000e0: de39 a6bc c2ab 80bd f809 053e 73db 963d
000000f0: 2ed1 ff3d ede6 aa3d 4aea 743d 2280 4c3d
0.092613466 0.010859737 0.0082758935 0.12025215 0.0640556 -0.009352242 0.016023058 -0.046461392
0.073980026 0.056742787 0.032073732 0.053584322 0.012451942 -0.0128893955 0.029110732 0.0954634
0.05602362 0.07605954 0.017692583 0.08851339 8.3259314e-05 -0.06682448 0.06150106 0.09910175
0.04155494 0.10149136 -0.052181076 -0.028485183 0.08239893 0.022219032 0.0955454 0.06179018
-0.052929033 0.08763234 0.06737081 0.10680672 0.09453581 0.11571654 0.06805182 0.09060928
-0.02649957 0.00015585263 0.040208265 0.015265663 0.022160491 0.13482651 0.017523905 0.05259617
0.09014391 0.081559435 -0.03253662 0.085075825 0.04494412 0.09950942 0.11114118 -0.034198992
-0.020291265 -0.0628276 0.12992084 0.07366075 0.1249107 0.08344827 0.059793748 0.049926884

stem.bn.running_mean f4 [64]
00000000: e9cd 59be 8f48 053e 3dc9 233d 6f78 63bd
00000010: 83bb 223e a036 643e 8840 79be 084b a9be
00000020: 6a19 003e 7171 0a3e 2125 283e 9fb6 1bbe
00000030: 7e3f 68bd 51d6 5abd ec80 2e3c 206a 0f3e
00000040: ff39 7dbd a4d1 b13e 3cea 9fbe f379 613e
00000050: 8fea 9ebe 7262 093e 28e7 84bd 806c be3e
00000060: e8f6 22be 9675 d03d 6e61 d9bd b45d 3fbd
00000070: 6c8c a53e 23eb 20be 413a ae3d a743 613e
00000080: a2c2 9bbc 8b86 44be b00f a93e 9279 6d3e
00000090: bc8c ea3b 1e31 0abe c0cc d63e 8aee a4bd
000000a0: 6fc9 8a3e ced0 643e 62a0 803e e317 1a3e
000000b0: 1ff1 2a3e 11a1 043e a43a 7fbe 4a73 3c3e
000000c0: 1524 553d 653c 283e d6ea 433e 37c9 b43a
000000d0: 47bc f63c c2af 8dbe 40fe 223e 8424 babd
000000e0: f358 9f3e fbde 8cbe 87dd 9f3d 3357 58be
000000f0: db12 36bb a2d2 02be c238 b43c 0ea2 2abe
-0.21269955 0.1301596 0.039986838 -0.055534776 0.15891843 0.22286463 -0.24341023 -0.33065057
0.12509695 0.13519837 0.16420414 -0.15206383 -0.056701176 -0.053427044 0.010650855 0.14005327
-0.061822888 0.34730256 -0.31233394 0.22019176 -0.3103833 0.1341646 -0.06489402 0.37192154
-0.159145 0.10178678 -0.10614286 -0.04672022 0.32333696 -0.15714698 0.08507205 0.21998464
-0.019013707 -0.19191949 0.3301978 0.23190907 0.00715789 -0.13495299 0.41953087 -0.0805331
0.27106807 0.22345278 0.25122362 0.15048175 0.16693543 0.12952067 -0.24924713 0.18403354
0.052036364 0.16429289 0.19132552 0.0013792877 0.030119075 -0.27673155 0.15917301 -0.09088996
0.3112255 -0.2751387 0.07805925 -0.21127014 -0.0027782235 -0.12775663 0.02199972 -0.16663381

stem.bn.running_var f4 [64]
00000000: b4ef ba3d d5ee 0b3d 026a 5a3d dbd9 fe3c
00000010: addb fe3c de82 193d 0b03 bc3b 8d46 af3c
00000020: d42d 4b3d 0eeb 193c 8523 663d 2879 123c
00000030: 6ee4 493c 1de0 e23c 2aea 153c 214e 8a3d
00000040: f3aa b53c b2dc 5e3d cf2b af3c 6753 3e3c
00000050: 580a 7f3c 358f 233d a5c2 483c 207c c43c
00000060: 6db3 c73c 37e6 013d fa3c 743d 8ffa 843c
00000070: 3ccc 483d b06c 1e3d 176e d53c c67d 153e
00000080: b959 b53d b44f 083d f699 883c 942e 7f3c
00000090: ab12 ec3c 2a03 ae3d 0727 a73d 3ef5 723d
000000a0: fb7c 223c 24ea e13c dae8 083d d108 b83c
000000b0: e00e d03c 9e76 b53c 9d69 673c 16cf 453d
000000c0: f9f4 1d3c 85fd b23c afaa a43c 7b8d 1d3d
000000d0: e214 763d 5512 a43c ac55 5c3c e7c4 2b3d
000000e0: 5533 f23c e4ef 353d 49d3 f83c 1545 9c3d
000000f0: f587 1c3c 965b 843d 45df 223c d814 c33b
0.09127751 0.034163315 0.053323753 0.031109741 0.031110609 0.03747832 0.0057376674 0.021395946
0.049604252 0.00939442 0.056186218 0.008940019 0.012322528 0.027694756 0.009150067 0.06753183
0.022176242 0.05440969 0.021383194 0.011616564 0.015566431 0.039931495 0.012253438 0.023984969
0.024377549 0.03171369 0.059628464 0.016232757 0.049022898 0.03867787 0.026053471 0.1459876
0.08855004 0.033279136 0.016674977 0.01557507 0.028817495 0.08496697 0.08161741 0.059315912
0.009917493 0.027577467 0.03342519 0.022465141 0.025397718 0.022151288 0.014124301 0.048293196
0.009640926 0.021849403 0.02010092 0.038465004 0.06007851 0.020028273 0.01344816 0.041935828
0.029565493 0.04441823 0.030374186 0.07630364 0.009553899 0.06462781 0.009940927 0.0059534125

inception.total_ops f8 [1]
00000000: 0000 0000 0000 0000
0.0

inception.total_params f8 [1]
00000000: 0000 0000 0000 0000
0.0

inception.branch1.1.total_ops f8 [1]
00000000: 0000 0000 0000 0000
0.0

inception.branch1.1.total_params f8 [1]
00000000: 0000 0000 0000 0000
0.0

inception.branch1.1.depthwise.weight f4 [64, 1, 1]
00000000: dd17 10bf e80e 193f e397 b63d d966 6abf
00000010: e464 33bf 6ff1 493f 1acb 583f 6abf 75bf
00000020: 7f04 833f fdbb 43be f9ff 6fbf 7043 c7be
00000030: fc51 2b3f 6ed6 67be 364b 22bf 9e3a 05bf
00000040: 46f0 86bf 6a43 1cbf df05 003f eb35 573f
00000050: 8193 3f3e 7886 443e 3ea3 b2be 8abf 45bf
00000060: b70d 85bf 7798 8fbe e328 babe 147a 15bf
00000070: bccd 9b3e 0589 9e3e 61cd 093e 1c05 163f
00000080: 20be a13e cf1f f03e 3cb1 613f cb8c 39bf
00000090: 917e a6bd e4b9 303e b367 dcbd a2c5 0fbf
000000a0: d99e 87bf d92b 81bf b225 f4be 2edb 42bf
000000b0: 25f8 3ebf 4619 3f3f d2b1 a1be 3fad 5dbe
000000c0: ef53 2fbd a744 9d3e 5627 673f ed4b 093f
000000d0: e284 ea3e 5a66 c5be b896 bc3e 53e2 bdbe
000000e0: 4a4c 2c3f 86ad e93e 64ea a9be 6239 3dbf
000000f0: 57b7 d7be bba9 36bf c443 513f 15ef 3ebf
-0.5628641 0.5978837 0.08915689 -0.91563183 -0.7007582 0.78884023 0.8468491 -0.959952
1.0235747 -0.1911468 -0.9374996 -0.38918638 0.66921973 -0.22640392 -0.6339601 -0.5204257
-1.0542076 -0.61040366 0.5000896 0.8406665 0.18708612 0.19191921 -0.3489017 -0.7724539
-1.039481 -0.2804601 -0.3635932 -0.583894 0.304304 0.30963913 0.13457252 0.58601546
0.31590366 0.46899268 0.88161063 -0.7248046 -0.081296094 0.17258412 -0.107619666 -0.5616094
-1.0595351 -1.0091506 -0.4768501 -0.7611569 -0.7459739 0.7464794 -0.3158098 -0.2164812
-0.042804655 0.3071644 0.90294397 0.5363148 0.45804507 -0.3855465 0.3683374 -0.37086734
0.6730391 0.456402 -0.33186638 -0.73915684 -0.42132065 -0.7135274 0.8174403 -0.7458356

inception.branch1.1.depthwise.bias f4 [64]
00000000: c919 fbbe a8e5 09bf 5259 303f f4a9 643f
00000010: 7181 05bf 828e 44be b67f 6cbe 39c2 923d
00000020: a6e5 283f 5cc0 803e f831 1fbf cc26 abbe
00000030: 19a3 42bd 3314 4d3f ba90 853c 7b9e 02be
00000040: fbdd 41bf a513 183e 916a 04bf ad81 d63e
00000050: d0f3 a93a bb33 72bf d4e6 e9bc 20c1 31bf
00000060: e2ee 463f 38d2 bd3e c7c3 cf3e 5657 48bf
00000070: b12b 343f 7e63 39bf f675 efbe b14b 8fbe
00000080: e7d1 bf3d 5c2b 383f 185c 40bf 7537 2abf
00000090: 016e 39bf a31e d13c ffb0 d63d 3fc6 e73e
000000a0: 0d58 34bf 01ab 4f3e 7c2a 203f 750d 03bf
000000b0: 0453 753d 596c 513f a5ea 2bbf 7958 52bf
000000c0: e017 2f3f a08f c43e add5 153e 6517 3bbf
000000d0: cd14 8dbe cccc 53bf b740 08bf 8a93 b83e
000000e0: 3987 b73e c738 413e 69e7 4fbf 11b6 56bf
000000f0: bd66 3ebf 1422 773f a46f 3e3f 5e2d 87bd
-0.4904311 -0.5386605 0.6888629 0.8932183 -0.52150637 -0.19194987 -0.23095593 0.07165951
0.65975416 0.2514676 -0.6218562 -0.33428037 -0.047518823 0.80108947 0.016304363 -0.12755768
-0.7572934 0.14851244 -0.5172511 0.4189581 0.0012966339 -0.94610184 -0.02855245 -0.6943531
0.77708256 0.37074447 0.40579054 -0.78258264 0.7037917 -0.7241744 -0.46769685 -0.27987435
0.093662076 0.7194116 -0.75140524 -0.6649087 -0.7243348 0.025527304 0.10482978 0.45268437
-0.70446855 0.20280077 0.62564826 -0.5119241 0.059893623 0.8180595 -0.67154914 -0.8216625
0.68395805 0.38390827 0.14632292 -0.7308257 -0.27554932 -0.8273437 -0.53223747 0.36050063
0.35845354 0.18869315 -0.8121248 -0.8387156 -0.74375516 0.96536374 0.743891 -0.0660045

inception.branch1.1.pointwise.weight f4 [32, 64, 1]
00000000: 4473 3e3d b1ca e1bd 2ba1 b53d 1f4b 033d
00000010: 01da e9bd 7c14 35be d0f4 453e 5a07 30be
00000020: 271a abbc b2c8 68bd 2e00 2fbe 0a75 523d
00000030: 46ab 323e dc66 223e 7427 603c 159c 0bbe
00000040: 9de7 153d ae74 1abe ca40 be3d 64d2 f53c
00000050: 3bbf 843d e89e 16be e660 a83a dde0 a7bd
00000060: dc84 eb3d a5e3 903d 66c9 eabc dc19 773d
00000070: 2136 233e 5dfb 6fbd 8828 c3bc d98e 313e
00000080: f84a 21bd 27cb be3d 77a0 1a3d eb4d 28bd
00000090: 1252 66bd 8dbd a5bd 092b d2bd 90f0 2d3e
000000a0: fcd6 c83d ba55 ed3d 200c e9bd 79f7 853d
000000b0: ad3e 6fbd 751d 323e 0c94 0bbe b478 e7bd
000000c0: 821c 8e3d 90b6 50bb 8f2b 1dbe 00db ccbd
000000d0: 6fa7 febc 3278 a5bb cf1a 0bbe 4911 4ebd
000000e0: a89a 02bd a59e 89bd 663b 993d 0a04 c73d
000000f0: b230 11be 0840 1a3d c177 0d3d 1675 1c3e
00000100: 868a 79bc 241f 8b3b 569d e2bb cbaf 043e
00000110: ef55 00be e512 debb 64ad 46be 0c20 acbc
00000120: 2b66 ccbd 0a57 e63d 1069 1b3d 742a 1fbe
00000130: 8b7e d1bd ff44 48bd 69a8 4abe 406d c5bd
00000140: 8054 0bbe 4371 4c3d 9931 fb3c 92a4 23bd
00000150: c7f3 2bbd fa38 b9bd 7161 7f3a 4ff6 d63d
00000160: 57bb 26bd ff41 383e 41c4 cd3d 8eef 41bd
00000170: 6fa7 6bbd 7613 11be fcf9 e33c 296f 53bd
00000180: 901f b73d 6468 913d 0248 e83c db4f b4bc
00000190: ebfe 35bd 141b 033d 8465 953d 021b cfbd
000001a0: 5067 05be babe 37be 0a3f 3e3d 83ab 05be
000001b0: 7312 f03d d24e e63d 9231 3fbb 2621 c2bd
000001c0: 42bd 3abd 7547 e53c e76a 863c f5df fc3b
000001d0: 4caa a23b 8890 69bc a6d5 3fbd b824 97bd
000001e0: b422 403e cb61 fcbd b2ca 6d3b f4e8 31be
000001f0: cce5 d13d 3696 e93c 5984 78bb 6779 f73c
00000200: 606b d4bd ad09 363e 62d8 b73a 2aa4 cd3b
00000210: a3bc 1fbe a0b8 413e 11a8 dcbc 95f0 243e
00000220: 1cf2 d13d b1b2 983d a82a d7bd 7a22 dd3b
00000230: 8320 1dbe 3a64 e63c 9089 93bd 5b67 ff3d
00000240: adfb fbbc 3489 1a3d 5557 c7bc 9eca 063e
00000250: 9e65 1cbe ad2c ed3d ce32 30bd b3be bbbd
00000260: e164 76bd 30df 7f3d 5491 6f3d a4df e1bd
00000270: 05bb 0fbe caa3 dc3c 351d d4bd eefd 3cbd
00000280: 9677 1d3c 4d3f 283e 3858 043d c8bb 9bbd
00000290: 779d d0bc 95d6 60bd b770 d33b dbfc 1fbe
000002a0: d73d 1fbe 99a1 c1bd 1d2c 0b3e 9578 733c
000002b0: e5b8 0fbe 371b f5bd 2b21 503d 88d8 913d
000002c0: ccc2 1c3c c75f 92bd 6078 633c 300c 55bc
000002d0: aba7 113e ce52 bebd ffaa ac3d 7e76 823c
000002e0: cba8 4e3e 695e 39bd 07c4 9fbc c6fe 71bd
000002f0: f438 bfbc 281e c3bd 3600 c03d 6cf4 903c
00000300: 040f 2ebd ff74 e1bc 1b4a 81bd 005a e53d
00000310: dfe9 c1bd f534 133e 382f 22be 5ab5 223d
00000320: 3eb8 0a3e 5fc3 133e ec80 88bd 1d01 013e
00000330: 4bec 3cbd 1ae5 8cbd a286 b7bb 4ec4 993d
00000340: 2565 43be 6a51 16bd 2277 ad3c b28b e83d
00000350: 26ad 67bd a02b b23d 0279 ab3d baed c639
00000360: 616e 833d 08e0 c9bc b9ea 75bd ebb7 8ebd
00000370: 38ee fbbd dd67 01bd 3283 02be abe8 03bc
00000380: e823 84bd 8329 f5bc ee38 f23d 4b39 efbc
00000390: c0f7 e4bb c028 be3d 834e 9fbd b669 f9bd
000003a0: 791d 893d 13c3 08bd f47c b73c 8cef f5bd
000003b0: b33d 24be dd60 a83c 0b03 643d e0c3 923c
000003c0: ef0d d93d d625 9cba 9dce ee3d 23db 103d
000003d0: 8444 3e3e e58d 083e 076e 24bd eea7 143d
000003e0: 25df 3d3d 5b5e 35be 620d 61bd 34b5 b6bd
000003f0: ec80 053e d03c edbd 7d63 96bc 0769 74bd
0.046496645 -0.110249884 0.08868631 0.032054063 -0.11418534 -0.17683595 0.1933167 -0.17190304
-0.020886494 -0.056832023 -0.17089912 0.05138115 0.17448148 0.1585955 0.013681281 -0.1363376
0.036597837 -0.15083572 0.09289701 0.030007549 0.06481787 -0.14709055 0.0012846261 -0.08197186
0.1149995 0.0707467 -0.028660487 0.060327396 0.15938617 -0.058589328 -0.023823038 0.17339648
-0.039378136 0.09316092 0.037750687 -0.041089933 -0.056230612 -0.080927946 -0.102621146 0.16986299
0.0980663 0.11588617 -0.11379266 0.06541342 -0.05840938 0.1739405 -0.13630694 -0.11302319
0.06939031 -0.0031847097 -0.15348648 -0.100027084 -0.031085698 -0.005049729 -0.13584445 -0.050309453
-0.031885773 -0.06719712 0.074820325 0.09717567 -0.14178732 0.03765872 0.034538034 0.1527904
-0.0152307805 0.0042456556 -0.0069157286 0.12957685 -0.12532781 -0.0067771547 -0.19402081 -0.021011375
-0.099804245 0.1124707 0.037941992 -0.15543538 -0.10229214 -0.048893925 -0.19790806 -0.096399784
-0.13606453 0.049912702 0.030663298 -0.03995187 -0.04198053 -0.090440705 0.0009741998 0.104961984
-0.040706005 0.17993926 0.10047198 -0.047347598 -0.057532724 -0.1416758 0.027829163 -0.051619682
0.08941567 0.07099989 0.028354649 -0.022010734 -0.04443256 0.032008246 0.07294753 -0.10112573
-0.13027692 -0.1794385 0.046446837 -0.13053708 0.11722269 0.112455025 -0.0029173833 -0.09478979
-0.045590647 0.027988175 0.016408397 0.0077171274 0.0049641486 -0.01425565 -0.04683461 -0.073800504
0.18763238 -0.1232334 0.0036284146 -0.17374021 0.102489084 0.028514009 -0.0037920682 0.030209256
-0.10372043 0.17777129 0.0014026279 0.0062756734 -0.15599303 0.18918085 -0.026935609 0.161074
0.10251257 0.07455958 -0.10506183 0.0067484947 -0.15344433 0.028123964 -0.07203972 0.12470885
-0.030759657 0.037728503 -0.024333635 0.1316323 -0.15273139 0.11580787 -0.0430172 -0.09167232
-0.0601548 0.062468708 0.058488205 -0.11028984 -0.14036186 0.02693357 -0.10357133 -0.046140604
0.009611031 0.16430397 0.032310694 -0.07604176 -0.02546571 -0.05489214 0.0064526456 -0.156238
-0.15550934 -0.094546504 0.13591047 0.014860292 -0.14035375 -0.119680814 0.05081288 0.07121378
0.009567928 -0.07147174 0.01388368 -0.013003394 0.14224117 -0.092931375 0.084310524 0.015925642
0.20181577 -0.045256052 -0.019502653 -0.05908086 -0.023342587 -0.09527236 0.0937504 0.017694674
-0.04249479 -0.027521608 -0.063129626 0.11198807 -0.094684355 0.1437567 -0.15838325 0.03972373
0.13546845 0.14429997 -0.06665215 0.12598081 -0.046123784 -0.06879635 -0.0056007663 0.07508145
-0.19081552 -0.036698736 0.021174971 0.1135477 -0.05656161 0.08699727 0.0837269 0.00037942623
0.064175375 -0.02464296 -0.060038302 -0.06968673 -0.12301296 -0.031593192 -0.1274536 -0.008051078
-0.06452161 -0.02992702 0.11827265 -0.029202124 -0.006987542 0.09285116 -0.07778647 -0.12178366
0.066950746 -0.033389162 0.02239845 -0.120085806 -0.16039161 0.020554 0.055666965 0.017915666
0.10598361 -0.0011913131 0.11660502 0.035365235 0.18580824 0.13335378 -0.040143993 0.036292963
0.046355385 -0.17711775 -0.054944403 -0.089212805 0.13037461 -0.11583865 -0.018357987 -0.059670474

inception.branch1.1.pointwise.bias f4 [32]
00000000: 431c 0f3e e733 4cbd 69b7 083e 0412 043e
00000010: 0943 b03d d607 0f3e 6b37 223d d04a 103d
00000020: b80e b9bd 393c a6bd 24a6 4a3d 3321 a53d
00000030: 7872 24bd da19 2bbd bafa babd afe4 c53d
00000040: 4b5f 173c 105a b3bd 8360 843d 6121 143d
00000050: 734b 213e da3e 5d3d ee77 203d 0353 593d
00000060: f63e 003d c04a a9bd 1b9b c93d 8de4 00bd
00000070: 335e d5bd 9665 b83d 7cc3 95bd b84c 61bd
0.13975625 -0.049854185 0.13351215 0.12897497 0.08606536 0.13967833 0.039603632 0.035227597
-0.090360105 -0.08116955 0.04947485 0.08062973 -0.04014823 -0.0417727 -0.091298535 0.096627586
0.009239028 -0.087574124 0.06463721 0.036164645 0.15751438 0.054015018 0.039176874 0.05305768
0.031310044 -0.082662106 0.09844037 -0.031467963 -0.10418358 0.09003751 -0.07312676 -0.055004805

inception.branch2.0.total_ops f8 [1]
00000000: 0000 0000 0000 0000
0.0

inception.branch2.0.total_params f8 [1]
00000000: 0000 0000 0000 0000
0.0

inception.branch2.0.depthwise.weight f4 [64, 1, 1]
00000000: 422a 873e ab37 c33e eb7a cc3e 9dd7 823f
00000010: dfd5 133f ae70 87bd baac 843f be6b 9cbe
00000020: d3b9 983e 09cb 783e 6560 5abf 25ce 2d3f
00000030: 4ee9 9fbe 5786 c83e 8dc0 82bf 58b1 233d
00000040: 81a9 86bf f7f1 b13d 3eb9 89be ec86 0d3f
00000050: 9d92 333f c869 8abe ec48 dbbd d1c7 023f
00000060: b41c 7e3f 6820 1e3f 0e66 813f 4236 393e
00000070: 80b9 cfbe 33bb 333f dba4 823f 11ec 52be
00000080: 2708 45bf 5b2b 1d3f 92a3 e93e a9e6 c43d
00000090: b776 07bf 893d 0dbe 0a91 bfbd 2abe 34bf
000000a0: eebc 36bf 727d c8be 8c93 193e 2f9f c3bd
000000b0: e993 15bf f4c9 fe3e f4d1 883f ab5c 88bf
000000c0: 5043 f5be 7e43 e2be fca9 9c3e c909 a33b
000000d0: 9408 8abf e7e9 833f 727f 113f 5803 883f
000000e0: 87f6 da3e 2ed0 ffbe 9abd 523f 85d5 53bf
000000f0: 9ee5 e0bd 9e34 003f a6fd 48bf bb1e ed3e
0.26399428 0.3812841 0.3993753 1.022205 0.57748216 -0.06613289 1.0365212 -0.3055095
0.29829273 0.24296202 -0.85303336 0.67892677 -0.31232685 0.39164993 -1.0215012 0.03996405
-1.0520478 0.08688729 -0.2689914 0.55284 0.7014559 -0.2703383 -0.10707268 0.51086146
0.9926255 0.617682 1.010927 0.18087104 -0.40571213 0.7020752 1.020656 -0.20597865
-0.76965564 0.6139428 0.45632607 0.096143074 -0.5291552 -0.13793005 -0.09353836 -0.7060267
-0.71382034 -0.39158207 0.14997691 -0.09551846 -0.5842882 0.49763453 1.0689073 -1.065328
-0.47902918 -0.44192117 0.30598438 0.0049755317 -1.0783868 1.0305756 0.5683509 1.062602
0.4276621 -0.49963516 0.8232056 -0.8274768 -0.10981296 0.5008029 -0.78512037 0.46312508

inception.branch2.0.depthwise.bias f4 [64]
00000000: 5447 713f 0ede 2c3f 545b c0be 830b 75bc
00000010: 72c8 683f e79e b93e 95ad a33e f882 a6be
00000020: 213a 43bf 5fb2 263f 5e51 95bd b33e e0bd
00000030: 335b 18bf e328 ba3e 47bf c23e 2e00 363f
00000040: d93c 18bf 4a36 6abf 2878 6dbe 5865 f73e
00000050: df57 743f f479 563f 0caf 1e3d fdef 493f
00000060: 1b09 29bf 5c75 f7bd 81a4 bb3e f27d 68bd
00000070: 15a7 fc3e 655d 333f 4705 d0bd edd6 583f
00000080: 5e79 333f f013 9b3e 25fd 9bbe b5f1 87bc
00000090: 2ea4 6ebd b6c4 b53d 4408 e53e a24e b4be
000000a0: ee57 033e dae9 c7bd 7f00 3a3f b61b 433d
000000b0: 8fb6 663f cc65 8a3e d1fe d93d e178 2dbd
000000c0: 5b61 3b3f 6b6f 0ebf 9543 503f b643 c43e
000000d0: d754 b7be acda a0be 6d65 063e a567 72bf
000000e0: 1ffd 223f 8d71 a33e 8a5e 663e 11ce 1ebf
000000f0: a7a5 05bd b0b6 433e e157 5cbf 3f3f 333f
0.94249463 0.6752633 -0.37569678 -0.014956358 0.90930855 0.36254045 0.3196837 -0.32521796
-0.7626057 0.6511592 -0.0729091 -0.10949459 -0.5951416 0.3635932 0.38036558 0.71094024
-0.59467846 -0.9148909 -0.23190367 0.48319507 0.9544658 0.83779836 0.038741156 0.7888182
-0.6602952 -0.120829314 0.36648944 -0.056760736 0.49346223 0.70064384 -0.101572566 0.8470295
0.70107067 0.3028865 -0.3046657 -0.016594747 -0.058262043 0.0887541 0.4473287 -0.35216242
0.12826511 -0.097614005 0.72657007 0.04763385 0.9012231 0.2703079 0.106443055 -0.042351607
0.7319543 -0.5563876 0.8135312 0.3833291 -0.35806915 -0.31416833 0.13124628 -0.946894
0.6366748 0.3192257 0.22497001 -0.6203318 -0.03262868 0.19112659 -0.8607159 0.7001838

inception.branch2.0.pointwise.weight f4 [32, 64, 1]
00000000: 497e 813d a1c5 773d cc2f f13c 403e 26be
00000010: 31e0 353d 548c 01bc b342 8fbd 200e 97bc
00000020: 991e 52ba 4277 c9bd f3ee 9cbd d6b3 7abb
00000030: 7884 603d 7938 5fbd c68b dbbd 08d8 2f3d
00000040: 6af7 29bd 5233 b53d 61ef 42bd c46b dabd
00000050: 3aad dbbd 2ae4 94bd 8193 76bc db81 34bc
00000060: b1f3 0bbe 9bdd 263d 3cf5 77bc 88ff cabb
00000070: 183d 423e 9c1e 8bbd c2f2 50be 7f65 0b3e
00000080: 8226 3f3e 1f31 013e fc4c 05be ffff c23d
00000090: 7c20 01be 8606 50be 7682 aa3d 3585 1ebe
000000a0: 1310 ccbd e2c6 07be c73f 703d 01fc 97bc
000000b0: e358 3d39 96b7 0fbe 7663 86bd fd4f 723d
000000c0: b474 0cbc 1212 113e 6f05 083c b317 833d
000000d0: 8ddc ae3d 5dfa 0d3d d588 88bc 3601 ad3d
000000e0: e9d6 163e aecd b83d b51f 2d3e a079 e9bc
000000f0: 4f80 353e daa6 0d3e 187a 07be 59e8 2dbd
00000100: a24c 5fbd 0bb1 973b 6976 063e 0fe2 d2bd
00000110: 07b6 bcbd cd9e d53d ae0d 2bbe 7f1c 1e3d
00000120: 84c8 903d 117d c13d d3ae a33d 09ac 6dbe
00000130: ce51 aa3d 632d e83d 52a5 013e 5a3b 453d
00000140: 79b6 a9bd e58d fc3c 85d6 b63d e052 6ebd
00000150: 502d b1bd e9f4 33bd d82f 033e c735 f8bc
00000160: 8426 003d 5b1c fc3d 04b2 313d bfe7 59bd
00000170: 3fc3 cd3b a0c6 31bd 11f9 4bbd e765 2d3d
00000180: 3c35 dc3c 96cf cd3d aa2b 023b fb0c 3fbd
00000190: c881 3fbe 0681 5dbe ec30 a53d 7ae7 95bc
000001a0: 7512 f43d 5b11 3b3e 54af e23d abdd c4bd
000001b0: a0e8 6bbc d9ac b83d b2a3 00be 25a1 3a3c
000001c0: f810 f23d 2629 eb3d 9864 b8bd f2ed 05bd
000001d0: d252 093e a67e 043d d797 0ebb 328c 3dbd
000001e0: 98dc 85bd 366c 00be e4af bdbc bb8f a6bd
000001f0: b794 313d e960 a83d 5de4 0c3d 52b3 8dbd
00000200: 1d38 1d3d 1ffd b4bd 1cff 01be f3da 173e
00000210: a382 a53d 6cb6 a3bd 04ad 453e 0c59 513c
00000220: 8eb0 babd a39c c13d 3344 373c f18f fd3d
00000230: 7269 f3bd 44c2 393d f673 a8bd d738 543d
00000240: a8bd 1dbd 22f4 84bd 7b8e cc3d 86e8 bdbb
00000250: c8c8 783d 6ce0 b23d 0feb 73bd dc2b 7abd
00000260: 0c0d 27ba a403 ac3d 0802 ae3d 7227 a13a
00000270: dd87 573d cdf9 563d bcea 8ebd 597e 12bd
00000280: 0d5e 0ebe c124 d5bd ae6c dbbc 6dec dcbd
00000290: 639d a73d 2755 2b3d 5f36 823d 4ace 49bd
000002a0: 205c a1bd 2a66 873d 47c4 41b9 259f cfbc
000002b0: 77a9 2a3e e732 c83d 7cad 403e 9546 6ebd
000002c0: b51d 9bbc bd75 013d c9c0 dc3d 2bc9 50bd
000002d0: c9a3 1e3e aaeb 98bc 03ce 513d 213b 26be
000002e0: 5617 8c3d c54f edbd 506e b1bd c61c 113c
000002f0: 903b 0ebd e02d fdbd f761 6d3c 4af0 de3d
00000300: 3453 7e3d e9b2 8bbd d85d 3e3e 5a3e 26be
00000310: 6d3d e53d 2c35 efbd 7939 783a 182d 3f3b
00000320: 4d51 943d 5fac c6bd 1a57 99bd ce63 22be
00000330: 8e88 acbd 1340 fa3d d8a2 a43b 3b86 43bd
00000340: e416 f2bd 801e 973d 6a2b f63c c11f 3c3e
00000350: 3237 92bc 3047 c43c 7c31 343e 2513 143e
00000360: 0a93 63be f587 563c 0581 0d3e 6263 be3d
00000370: cbd5 acbd 3789 ea3d 2b23 74be 0b54 0fbe
00000380: 6be0 6abd 8ed7 4c3e 81c4 1b3e e458 743d
00000390: de7b 43be b6ed 58be 1f7a cb3d 88d8 6dbd
000003a0: 7534 41bc dde6 5abd 7af2 8fbd c882 68bd
000003b0: 15fc e53c 7bcb db3d 3728 babd 1c8f 74bd
000003c0: 713c 0bbe a06e 083d 47e0 3c3d 1097 b73d
000003d0: fc96 813d 7bb7 2bbe 7123 063e 98bd 2a3e
000003e0: f821 99bc 6d4a 073e c1f3 723d b05a 503d
000003f0: e1c2 b73d 27a9 c83d b66d ccbd e338 9e3d
0.06322915 0.060491208 0.029441737 -0.16234684 0.04440326 -0.007906992 -0.06995144 -0.018439353
-0.00080154237 -0.098372 -0.076627634 -0.0038254163 0.054813832 -0.054497216 -0.10720019 0.042930633
-0.041495718 0.08847679 -0.04759157 -0.10665086 -0.107264 -0.07270081 -0.015049816 -0.011017288
-0.1366718 0.040738683 -0.015134152 -0.0061950125 0.18968618 -0.06792948 -0.20405105 0.13612936
0.18667033 0.12616394 -0.13017648 0.09521484 -0.12610048 -0.20314988 0.08325665 -0.15480502
-0.099640034 -0.13259462 0.058654573 -0.018552782 0.00018057557 -0.14034876 -0.065619394 0.059158314
-0.008572746 0.1416705 0.008302077 0.06401005 0.085381605 0.034662593 -0.01666681 0.084474966
0.14730419 0.09023605 0.16906627 -0.028500378 0.17724727 0.1383318 -0.13230169 -0.042457912
-0.054516442 0.0046292595 0.13131107 -0.102970235 -0.092144065 0.104306795 -0.16704437 0.038601395
0.07069495 0.09447683 0.079923294 -0.23210157 0.08316384 0.11336782 0.12660721 0.048152305
-0.08286757 0.03082938 0.08927635 -0.058184505 -0.08651221 -0.043934736 0.1281122 -0.03029908
0.03128673 0.12310096 0.04338266 -0.053199526 0.0062793787 -0.043402314 -0.049798075 0.04233351
0.026880853 0.100493595 0.0019862452 -0.04664324 -0.18701851 -0.2163125 0.08065972 -0.018298853
0.11917583 0.1826834 0.110685974 -0.09612592 -0.014398724 0.09017343 -0.12562445 0.011390959
0.11819643 0.11482458 -0.09003562 -0.032697625 0.134105 0.032347344 -0.0021757984 -0.04627628
-0.065362155 -0.12541279 -0.02315516 -0.08132883 0.043354716 0.08221609 0.03439747 -0.06918968
0.038383592 -0.088373415 -0.12694973 0.14829616 0.080815576 -0.079937786 0.19304281 0.012777578
-0.091157064 0.09453704 0.011185694 0.1238097 -0.118853465 0.04535128 -0.08225243 0.05181202
-0.03851095 -0.06491877 0.099881135 -0.005795541 0.060738355 0.08734211 -0.05955034 -0.061076984
-0.00063724886 0.08399132 0.08496481 0.0012295081 0.052619804 0.052484322 -0.06978366 -0.035765026
-0.13903065 -0.10407401 -0.026785221 -0.10787282 0.08184316 0.041829254 0.06358027 -0.049269
-0.078788996 0.06611283 -0.00018479033 -0.02534444 0.16666208 0.09775334 0.18816179 -0.05817278
-0.018935064 0.031606425 0.10778958 -0.0509731 0.15492167 -0.01866706 0.05122186 -0.16233493
0.068403885 -0.115874805 -0.086636186 0.008856958 -0.034724772 -0.123622656 0.014488689 0.10885675
0.062091067 -0.06821234 0.18590486 -0.16234723 0.11193357 -0.116800636 0.00094690133 0.0029171165
0.072420694 -0.09700846 -0.074873164 -0.15858385 -0.08424483 0.122192524 0.0050242953 -0.047735434
-0.11820772 0.07378864 0.030049998 0.18371488 -0.017848585 0.023959726 0.17597002 0.14460428
-0.2222406 0.013093938 0.13818748 0.092962995 -0.08439215 0.11451953 -0.2384154 -0.13996904
-0.057342928 0.20004103 0.15211679 0.059655085 -0.1909022 -0.2118443 0.09935402 -0.05806783
-0.011792292 -0.053442825 -0.070286706 -0.056765348 0.028074304 0.1073217 -0.090897016 -0.059706792
-0.13597275 0.033308625 0.046112325 0.0896436 0.06327626 -0.16769211 0.13099457 0.16673887
-0.018692955 0.13211985 0.059314493 0.050867736 0.08972717 0.09797888 -0.09981863 0.07725694

inception.branch2.0.pointwise.bias f4 [32]
00000000: 8bb1 c03c f70d bf3b 383f 193b aac0 363d
00000010: c1d5 1b3c f691 cb3c ebd9 4abd 0ec4 1abb
00000020: 860d 48bd cf5c ea3d 8516 9fbc a0ec 44bc
00000030: b490 f23c 7b27 af3d 2cd8 b03d 874b 85bc
00000040: f144 2abd eb40 6f3d f223 64bd d42c b6bd
00000050: 61e5 87bd efc3 5fbb b4dc cc3b 3de9 253c
00000060: 0f2c 823d 25a3 d3bd f1bb fe3c 1c7e c53d
00000070: 89e4 073e 9785 4e3d d7c6 32bd c743 86bd
0.02352216 0.005830522 0.0023383629 0.044617333 0.009511412 0.024849873 -0.04952423 -0.0023615393
-0.048841022 0.11443483 -0.019419918 -0.012019306 0.029610015 0.08552452 0.086349815 -0.016271366
-0.041569654 0.05841152 -0.055698343 -0.08895269 -0.066355474 -0.0034143885 0.006251896 0.010126409
0.0635606 -0.10333852 0.031095477 0.09643194 0.13270773 0.05042037 -0.04364666 -0.06555896

inception.branch2.1.total_ops f8 [1]
00000000: 0000 0000 0000 0000
0.0

inception.branch2.1.total_params f8 [1]
00000000: 0000 0000 0000 0000
0.0

inception.branch2.1.depthwise.weight f4 [32, 1, 1]
00000000: 2237 803f 5201 2f3f 30b1 753e ebad 583f
00000010: 1f53 78bf 131e 30be d8fc 803f 34f3 783e
00000020: 2be7 17bf 0561 9cbe 2d59 2fbe 794b 7dbf
00000030: 8e4d 703f b874 983e 1b44 92bd 4a67 18bf
00000040: 8e9e 32be 7fcc 47bf cfee 5b3f a2ad 023f
00000050: 4813 51bf 8bf4 18bf d3bc 0bbf d083 1e3f
00000060: 6db6 33bf 2544 7cbe 51dc 653f 341b 38be
00000070: 5902 023f 86ae 813f 6891 74be 93ae 40bd
1.0016825 0.6836139 0.23993373 0.8464038 -0.9700183 -0.17198972 1.0077162 0.24311525
-0.5933711 -0.3054277 -0.17123862 -0.9894329 0.9386834 0.2977655 -0.07141896 -0.59532607
-0.17443296 -0.7804641 0.8591127 0.5104619 -0.81670046 -0.5974814 -0.54585 0.6191988
-0.70200235 -0.2463537 0.897893 -0.17979127 0.5078483 1.0131385 -0.23883593 -0.047041487

inception.branch2.1.depthwise.bias f4 [32]
00000000: e5f0 8bbe 2833 553f 4e38 12bf ef11 62bf
00000010: 8322 7f3e 70d6 6b3b d01a 293f bb54 09bf
00000020: 6e82 3c3e f761 77bf 33d0 533f 9c62 abbe
00000030: 8353 74bf 9421 ddbe 9d2f ef3e 0de2 b2be
00000040: 866a b2be 89d4 753f 30c5 153f bd66 353f
00000050: 76c1 673f a652 10bf 3928 893e c70f 72bf
00000060: 26bc 27be 05e4 a53c 6099 593f 648a 6cbf
00000070: 7322 55bf d369 26bf 5a35 c3be a10b 553f
-0.27332225 0.83281183 -0.57117164 -0.88308614 0.24915509 0.003598597 0.6605654 -0.53644913
0.1840913 -0.9663386 0.8273956 -0.3347367 -0.9543993 -0.4318968 0.46716014 -0.34938088
-0.34846896 0.9602743 0.5850401 0.7085989 0.9052957 -0.5637611 0.267885 -0.94555324
-0.16380367 0.02025033 0.84999657 -0.9239867 -0.8325569 -0.65005225 -0.38126642 0.8322087

inception.branch2.1.pointwise.weight f4 [32, 32, 1]
00000000: edb5 ed3d f690 01be bade 3bbe 27df 2a3e
00000010: 5005 433e 39cb f43d 34c4 163e f30e 033e
00000020: 9aa3 123d fb11 a6bc 70f8 1c3e dce4 f73c
00000030: 4db4 843d 4909 f73d 3879 e13d 9599 9dbd
00000040: 0e3e 013e 0e85 e93c c60f 3f3e 15b1 1d3e
00000050: 114b 303e 07b1 e93d 4cdc 2b3e 80e7 453d
00000060: ee30 b03d a23c 24bd 5902 e53d 72dd d9bd
00000070: 04e0 713e 687b 353e d78d 17be 950a 933d
00000080: ebac ca3d 6bce 413e c1bf 30be 4f5c 4c3e
00000090: 0b28 9d3d 5bfe b5bd fda3 07be 820d 09be
000000a0: 039f 963c 5b65 683d 937a e3bd 39c8 98bb
000000b0: a7a5 b1bd 4e75 253e 5100 a53d ca9c c03d
000000c0: 3d6f ba3d ad55 3a3e a6fc 38bd d71d 1cbd
000000d0: 490a bebd 9262 0e3e 119d e63d 7fcc aabc
000000e0: d90a 2c3d 655a 3f3d 87af 67bc d8fc 66bd
000000f0: fda8 a23d 52be 933d 6fe8 83bd db9d 673c
00000100: aa54 44be f81d 0e3e 39aa ccbd 8d30 28be
00000110: 0d84 37be 41f2 69bc 1bbb bfbd 3e92 a23d
00000120: f5b4 6e3b 9d65 063e 43be 8dbd fe6c 423d
00000130: 8d18 27bd 7261 66be 709d f3bc 379e bfbd
00000140: b036 72bd 3d66 babc 49f0 0fbe 63c2 f1bd
00000150: eead 5a3e 4d03 b6bd 0cb1 2b3d 27f9 3ebe
00000160: 6a25 ebbd cdfc 7abe 76e2 cc3d 815a 993d
00000170: bf04 21be 3561 47be 3aa8 dbbd eb99 6cbc
00000180: cac5 b93d 1ca4 10be 336d cebd de92 1ebe
00000190: 710b 4bbe e849 22be b793 d63d 03b5 2ebe
000001a0: c23b 01be 8403 73bd e092 203e 4b7a 913e
000001b0: 63d8 53be 9449 e83b 4a13 373e 22c6 44bc
000001c0: 80b3 05b9 826c 20bc b0e2 bb3b c585 03bd
000001d0: 0c74 e8bd 60e7 05bd 68c3 19be cc38 5f3c
000001e0: bcab 103e 2bfd 7bbd 5c45 10bd 9db8 023e
000001f0: a603 1abd 5be0 50be 768d 2fbe c871 193d
00000200: f3e3 81be a1ef 09be bc1c 1f3e f47e 0dbe
00000210: 736d 2f3e f00e 903e 1353 a53d d5b7 843d
00000220: 8bde 6fbd 8cc7 00be 83d3 ac3d 7d46 debc
00000230: c7c0 ac3d e417 fb3d bf3f c5bd 0b5c 313e
00000240: 26a7 95bd 1d7c 0fbe ea18 0abe d7e7 123c
00000250: 4b37 0a3c d0fa 65bc 1bd6 d43d dfaa 1cbe
00000260: 9bda 8dbd d1d1 8cbe 1511 d5bd 51c7 f9bd
00000270: 0005 e73d 4912 c6bc 99c0 103e a642 3a3e
00000280: a639 a53d 3024 e33d 9ec9 25be 10fa e2bc
00000290: a622 693e 5936 3f3c fd08 1e3e 4649 1abd
000002a0: 8ecf 43bd 189a 7cbc d077 a93d 2ac3 0e3d
000002b0: cb9e 193c 4a1a efbd e713 53bc 5652 f53d
000002c0: 37c5 7e3d 26e0 2a3e fe61 373e 8fec 4f3e
000002d0: c7d1 ff3d ce0b f33d 3b31 08be 6adb be3d
000002e0: 3cd4 923c 4ce0 773d debe 533d d213 4abe
000002f0: c2e1 f83d 2e6b 943d 08eb b93d 1489 eebd
00000300: f3a4 a7bb d551 04be 8fba b2bc 4fba 22be
00000310: 55ff b7bd 317f 3dbe 488c 113e a0e7 273e
00000320: 5a0b 183e 3604 063e ce18 5ebd 4fa3 b13d
00000330: a7ce a3bd 1601 8cbc e313 ff3d 91f5 db3d
00000340: 8206 a43d 949f e9bd 5853 003e a7f5 823d
00000350: 5efd 9b3d 208d f83d 86a2 87bd b902 0f3e
00000360: 2957 893c f745 c7bc 5c4d 41bc a8b5 5fbd
00000370: f088 6d3c 059e 47bd a1cb ed3d ad55 9d3c
00000380: 1a09 f23b 250b 80bd cb7b ffbc e527 0cbe
00000390: eff7 2e3e a7a6 113e 08bf d6bd 7eb2 1f3e
000003a0: e21b 6cbd aa5c 10be 9f97 05be e60f 2e3e
000003b0: ddd0 8a3d 383c 4e3d a0a8 13be ee3e dbbd
000003c0: 79f3 ce3d 9cc3 09be dcc7 6ebd 8425 b6bc
000003d0: 5fa3 93bc 0f5e 28bd f0b4 563c 3790 163d
000003e0: a57a ffbd 6b78 b13d 17e8 ed3d 4cb9 e9bc
000003f0: e752 e93d 71ef 1a3d 88f9 a33d 4399 cfbc
0.11606965 -0.12652954 -0.18346682 0.16686688 0.19044995 0.11952824 0.14723283 0.12798671
0.035800554 -0.020272246 0.15329146 0.030260496 0.06479702 0.12062318 0.11009449 -0.07695309
0.12621328 0.028505828 0.18658361 0.15399583 0.17216136 0.114107184 0.16783255 0.04831648
0.086030826 -0.040096886 0.111820884 -0.106379405 0.23620611 0.17722857 -0.14800201 0.07179753
0.09896263 0.18926398 -0.17260648 0.19957088 0.07673653 -0.08886405 -0.1324615 -0.13384059
0.01838637 0.056737285 -0.111073636 -0.0046625403 -0.08674174 0.1615803 0.08056701 0.09404905
0.09103248 0.18196745 -0.04516282 -0.038114395 -0.092793055 0.13904789 0.11260427 -0.020849464
0.042002533 0.046717066 -0.01414097 -0.056393474 0.07942388 0.07214035 -0.064408176 0.014136757
-0.19172922 0.1387862 -0.09993405 -0.1642477 -0.17921467 -0.014278949 -0.093618594 0.0793805
0.0036423777 0.131247 -0.06921055 0.047467224 -0.040794898 -0.2249811 -0.029738158 -0.09356349
-0.059134185 -0.02275383 -0.14056505 -0.118046544 0.21355411 -0.08887348 0.041916892 -0.18649732
-0.114817455 -0.24510498 0.100041315 0.074879654 -0.15724467 -0.19470675 -0.10725446 -0.014440994
0.090709284 -0.14125103 -0.10079422 -0.15485713 -0.19828583 -0.15848505 0.10477393 -0.17061238
-0.12620452 -0.059329525 0.15681028 0.28413615 -0.20688014 0.0070888493 0.17878452 -0.012010129
-0.00012750737 -0.009791495 0.0057338104 -0.032109994 -0.11350259 -0.03269136 -0.15015948 0.013624381
0.14128011 -0.061520737 -0.035222396 0.12765737 -0.037601136 -0.20398085 -0.17143807 0.037462026
-0.25369224 -0.13470317 0.15538305 -0.1381796 0.17131595 0.28136396 0.08072486 0.06480376
-0.058561843 -0.12576121 0.0843878 -0.02713322 0.08435207 0.12260416 -0.09631299 0.17320268
-0.07307272 -0.14012189 -0.13486066 0.008966408 0.008436034 -0.014036849 0.103924 -0.15299557
-0.06926461 -0.27503827 -0.10403649 -0.1219622 0.112802505 -0.02417864 0.1413597 0.18189487
0.08067636 0.110908866 -0.16190192 -0.02770713 0.22767124 0.011670672 0.15433116 -0.037667535
-0.04780536 -0.015417598 0.082748055 0.03485409 0.009376238 -0.11674936 -0.012883163 0.11978595
0.062199797 0.16687068 0.17908475 0.20305084 0.12491184 0.11867486 -0.1330003 0.09319194
0.017923467 0.06051664 0.051695697 -0.19734123 0.12152435 0.072470054 0.09078032 -0.11647239
-0.005116099 -0.12921841 -0.021817474 -0.15891384 -0.089842476 -0.18505551 0.1421367 0.16396952
0.1484808 0.13087544 -0.054222874 0.08673727 -0.079984 -0.017090362 0.12454965 0.107401974
0.08009054 -0.1140739 0.12531793 0.06394511 0.07616685 0.121362925 -0.06622796 0.13965882
0.016765194 -0.024325354 -0.011798229 -0.0546166 0.0144979805 -0.048734684 0.11611105 0.019205892
0.007386339 -0.06252126 -0.031186959 -0.13687094 0.17086767 0.14223729 -0.10485655 0.15595433
-0.05764378 -0.14097849 -0.1304612 0.16998252 0.06778119 0.050350398 -0.14419794 -0.10705362
0.101050325 -0.13453525 -0.05829607 -0.022234686 -0.018022237 -0.041105326 0.013104662 0.036758628
-0.124745645 0.08665546 0.11616533 -0.02853074 0.113927655 0.037826005 0.08006579 -0.025341636

inception.branch2.1.pointwise.bias f4 [32]
00000000: 55e4 a1bc bf97 2e3e 125f 11bc 310c 65bd
00000010: fe6b 1dbd 82f6 7bbd 52bd c3bd 874d 093e
00000020: 7d7a da3d 592f 303e e91a 88bc ec6d 9e3c
00000030: cf25 4a3d 47ed a63d 7c68 6ebd cf7c 093e
00000040: 6c48 b33d 5d5e 2dbd 9e12 183e 3146 183e
00000050: a84c 4ebc 10f5 053e a1a8 023d 9937 2bbe
00000060: 3647 e1bd 3adf bcbc 7677 79bd 2136 91bd
00000070: 562f d73d 4ddc 00be a95c 8fbc 3bf4 ed3d
-0.019762198 0.17050074 -0.008872764 -0.05591983 -0.038433068 -0.061514385 -0.09557594 0.1340848
0.10667894 0.17205562 -0.016614394 0.019339524 0.049352463 0.08150726 -0.058205113 0.13426517
0.08754048 -0.04232632 0.14850852 0.14870526 -0.012591518 0.13081765 0.0318991 -0.16720428
-0.109999105 -0.023055661 -0.060904942 -0.070904024 0.105070755 -0.12584038 -0.017500238 0.11618849

inception.branch3.0.total_ops f8 [1]
00000000: 0000 0000 0000 0000
0.0

inception.branch3.0.total_params f8 [1]
00000000: 0000 0000 0000 0000
0.0

inception.branch3.0.depthwise.weight f4 [64, 1, 1]
00000000: dac0 f0be d001 333e 5b5e 3f3f c7c0 ce3e
00000010: bc56 a43e a30a 87bf 8817 493f 2c5e 88bf
00000020: 32af 1fbf 8c20 333f 9adf 33bf f4b4 22bf
00000030: a15a 1a3f 038e 28be 9643 f0bd 331f f53e
00000040: aaab 84be a18d 32bf 1016 85bf 2464 b73e
00000050: 7ae1 5e3f c5bc 01be c19d 25be 5169 1bbf
00000060: a0d4 45bf d2d6 8abf dbc4 6d3e 13d0 05bf
00000070: c988 5c3f 3ea5 2bbf bbdc 3a3f 2b31 47bf
00000080: 4be3 4e3f 7e59 a1be 4d8e d93e a826 313f
00000090: 6be2 efbe 7107 713f 2d71 2fbf c5fe c63d
000000a0: 4925 8abf 1578 073f 675e dabe 34aa 3b3d
000000b0: dcb4 1a3f 786b 7ebe 26e2 2d3f ac41 32bf
000000c0: c8af f5be dcb8 423f 6545 59bf 9060 e03d
000000d0: ee1f 7f3f d845 3a3f 2a49 b9be 88a0 3e3f
000000e0: 9168 83be 52fd 2a3e 464c 533e a483 ecbe
000000f0: 8193 95bf 2625 2b3f e995 6b3e 006f 99bc
-0.47022134 0.1748116 0.7475335 0.40381452 0.32097423 -1.0550121 0.7855153 -1.0653739
-0.623767 0.6997154 -0.70263064 -0.6355736 0.6029454 -0.16460423 -0.11731641 0.47875366
-0.2591222 -0.6974736 -1.0397358 0.3581859 0.870628 -0.12669666 -0.1617346 -0.60707575
-0.77277565 -1.0846808 0.23219626 -0.5227062 0.8614622 -0.67049015 0.7299306 -0.778094
0.8081557 -0.3151359 0.4249138 0.6919961 -0.4685243 0.9415198 -0.6853207 0.09716562
-1.0792629 0.52917606 -0.42650148 0.045816615 0.6043222 -0.24845684 0.679232 -0.6963146
-0.47985673 0.76063323 -0.8487151 0.10955918 0.99658096 0.72762823 -0.36188632 0.744637
-0.25665715 0.16698197 0.20634565 -0.46194184 -1.168564 0.6685356 0.23006405 -0.018729687

inception.branch3.0.depthwise.bias f4 [64]
00000000: 9db0 7cbf f1a7 6c3f 2350 113f d23a 02be
00000010: 39fd c8be 14b2 1cbf 524a 95bd fa7c a53e
00000020: 7fc4 5e3f 5196 6fbf 0c4c 82be 5cfc 5abe
00000030: 0113 9b3e f5d8 043f 1104 5fbf f8e1 f0be
00000040: 531e 30be da9a a83e fdcc 64bf 3f35 72bf
00000050: f8b1 643d 1223 6fbf 509c 11bf 105e 3c3f
00000060: 01c4 623e 4642 c0be 757f 57bf 11b4 ab3e
00000070: d052 643f ee35 20bf 0dda 5cbf fea2 55be
00000080: c003 9f3e 1df8 353f 3821 c73c 75b6 36be
00000090: b746 aabe 1608 32bf 1279 cc3d 90f3 35bf
000000a0: 5156 30bf 239b 6ebf e4f6 50be dddd 20be
000000b0: f252 64bf 2100 5dbf 4779 2d3f a9e4 4cbe
000000c0: 049b 413f a193 2ebd 6277 1e3f ac50 703f
000000d0: fd4c 7c3f e527 213f a6aa 65be a693 e23e
000000e0: 9d02 243f d785 26be e6d4 8f3e 181c 633f
000000f0: 715c 083f e067 0d3e 7ff8 0ebe 3bda 603f
-0.9870699 0.9244376 0.56762904 -0.1271775 -0.39255694 -0.61209226 -0.07289566 0.32321912
0.8701858 -0.9358874 -0.25448644 -0.2138533 0.30287936 0.5189355 -0.8711558 -0.470474
-0.17199068 0.32930642 -0.8937529 -0.946125 0.055833787 -0.9341289 -0.5687914 0.7358103
0.22145082 -0.37550563 -0.8417886 0.33535817 0.8918886 -0.6258229 -0.8627022 -0.20862958
0.3105755 0.71081716 0.024307832 -0.1784304 -0.33257076 -0.6954359 0.0998403 -0.7107477
-0.6888171 -0.9320547 -0.20406681 -0.15709634 -0.89189065 -0.8632832 0.6776318 -0.20009102
0.7562716 -0.04262126 0.61900914 0.93873096 0.98554975 0.629515 -0.22428378 0.44253272
0.6406649 -0.16261993 0.28092116 0.8871474 0.53266054 0.13809156 -0.13961981 0.87832993
