experiments/1005/WISDM_100pct_4rot_model.pth (torch, 298389 bytes, 88 tensors)

total_ops f8 [1]
0	0x0000000000000000	0.0

total_params f8 [1]
0	0x0000000000000000	0.0

stem.total_ops f8 [1]
0	0x0000000000000000	0.0

stem.total_params f8 [1]
0	0x0000000000000000	0.0

stem.conv1d.weight f4 [64, 3, 3]
0	0xbd8626da	-0.06550379
1	0x3e91534f	0.28383872
2	0x3e14406c	0.144777
3	0x3df98a79	0.12184615
4	0xbe9ea2d6	-0.3098361
5	0xbc23383b	-0.009962137
6	0xbd67d140	-0.05659604
7	0xbd5854be	-0.05281519
8	0x3e2d846d	0.16945048
9	0x3e607d31	0.21922757
10	0xbe87d1a8	-0.26527143
11	0x3e49d8a1	0.19711544
12	0x3d702d0d	0.058636714
13	0x3d9c5b68	0.07634622
14	0xbed60b06	-0.41805285
15	0xbe587c16	-0.21141085
16	0xbd1514ec	-0.036396906
17	0x3e20af30	0.15691829
18	0xbe7ae1a3	-0.24500136
19	0xbe02f2a9	-0.1278788
20	0xbebe5d6f	-0.3718066
21	0x3e20d23e	0.15705201
22	0x3cb26f71	0.021781655
23	0xbea85b1e	-0.32882017
24	0xbdc02316	-0.09381692
25	0xbcdb31d4	-0.026757158
26	0x3e818151	0.25293973
27	0x3e1f371d	0.15548368
28	0xbebea784	-0.3723718
29	0xbc7d927f	-0.015476822
30	0x3e673df7	0.22582231
31	0xbdedad54	-0.11605325
32	0xbe8186a7	-0.25298044
33	0xbeafde89	-0.34349468
34	0xbd2299ab	-0.03969733
35	0xbe858dc1	-0.26084712
36	0xbdea3ea5	-0.1143773
37	0x3bffbca9	0.0078044725
38	0xbebc7930	-0.3681121
39	0x3e8304e7	0.25589678
40	0x3dec77c2	0.115462795
41	0x3d929cea	0.07158835
42	0x3e0e3113	0.13885908
43	0x3db42912	0.08796896
44	0x3d00afce	0.03141766
45	0xbe388e84	-0.18023115
46	0x3e633227	0.221871
47	0x3e072de7	0.13201104
48	0xbd001425	-0.03126921
49	0x3db091a2	0.08621527
50	0xbe61fdc8	-0.22069466
51	0xbebae5c0	-0.3650341
52	0xbe3b8070	-0.18310714
53	0xbea386df	-0.31938836
54	0x3e45ad69	0.19304432
55	0x3e5a30cb	0.21307676
56	0xbd8c96d3	-0.06864705
57	0x3e4283a9	0.18995537
58	0xbe4f3207	-0.20233928
59	0x3e0bd1e6	0.13654289
60	0x3e83413f	0.25635716
61	0xbe3f92e0	-0.18708372
62	0xbe9a765d	-0.3016843
63	0xbdf7e956	-0.12105052
64	0x3e5c6628	0.21523345
65	0x3e5bbb66	0.21458206
66	0xbe914a6e	-0.28377098
67	0xbdedf33a	-0.116186574
68	0xbea5af02	-0.32360083
69	0xbe3fd529	-0.18733658
70	0x3dcf8f08	0.10134703
71	0xbe6ca867	-0.23111115
72	0xbe4fbf3e	-0.20287797
73	0x3e6d1cdb	0.23155539
74	0x3e6fcf44	0.2341891
75	0x3ea97f05	0.3310472
76	0x3e9d9f9d	0.30785838
77	0x3e554a68	0.20829165
78	0x3e60afb5	0.21942027
79	0xbe027a87	-0.12742053
80	0x3e11529b	0.14191668
81	0xbdf9d0df	-0.12198042
82	0xbcffe990	-0.031239301
83	0xbd3e18cc	-0.046410367
84	0xbe260b1f	-0.1621518
85	0xbe0501d8	-0.12988985
86	0xbcf79b8c	-0.030225538
87	0x3e58f55d	0.21187349
88	0x3e34238e	0.17591688
89	0xbe9a9efb	-0.30199417
90	0x3c3c60db	0.0114977015
91	0x3daa53a1	0.08316732
92	0xbd80631c	-0.062689036
93	0x3d08589d	0.033287633
94	0x3e949e7b	0.2902716
95	0xbe709d6b	-0.2349755
96	0xbebe82b7	-0.37209103
97	0x3deb81c5	0.11499361
98	0x3d2979a0	0.041375756
99	0x3e763c4f	0.24046443
100	0x3e311361	0.17292549
101	0xbdc3bd65	-0.095576085
102	0x3ea6b14d	0.32557145
103	0xbe4df5fd	-0.20113368
104	0x3cbf469d	0.0233491
105	0x3c3d68f9	0.011560672
106	0xbc1ebf02	-0.0096890945
107	0xbe32468c	-0.17409724
108	0x3e82dc2a	0.25558597
109	0x3cf89a05	0.03034688
110	0x3cc01f0d	0.023452306
111	0x3eb0c9cc	0.3452896
112	0xbdb9e7bf	-0.09077405
113	0x3ebfa685	0.37431732
114	0x3e853cf0	0.26023054
115	0xbe966956	-0.2937724
116	0x3e3d2841	0.18472387
117	0x3e47eb3f	0.19523333
118	0xbe8bfa0c	-0.27339208
119	0xbe23737d	-0.15962024
120	0xbe2c06cd	-0.1679947
121	0x3e669609	0.22518171
122	0x3df03096	0.11728017
123	0x3df40d82	0.11916639
124	0xbd9b92cb	-0.07596358
125	0x3e858cfd	0.26084128
126	0x3e5189d7	0.20462738
127	0xbca7d581	-0.020487549
128	0x3cc23ad8	0.0237097
129	0xbe51593b	-0.20444195
130	0xbe7127b1	-0.23550297
131	0xbe582a53	-0.21109895
132	0xbdca04de	-0.098642096
133	0xbe51d8cf	-0.20492862
134	0xbe82d842	-0.25555617
135	0xbd116a50	-0.035501778
136	0xbe9dd061	-0.30823043
137	0x3e5c67ca	0.21523967
138	0x3e7aa642	0.24477485
139	0x3e2fb7f6	0.1716002
140	0xbe6baa5f	-0.2301421
141	0xbdb215e1	-0.08695579
142	0xbe9a264f	-0.30107352
143	0xbe8fd690	-0.28093386
144	0xbc58a28c	-0.013222348
145	0xbe29c8ce	-0.16580507
146	0x3e857c53	0.26071414
147	0x3ebc9697	0.3683364
148	0x3dde25d9	0.108470626
149	0x3e168ebf	0.14702891
150	0x3e377c0e	0.17918417
151	0xbd933b39	-0.0718903
152	0x3e121a55	0.14267857
153	0x3d87113c	0.06595084
154	0xbe43ae23	-0.19109397
155	0x3e3a03a2	0.18165448
156	0xbe2a42b7	-0.16627012
157	0x3ddc5107	0.10757642
158	0x3d13aa2a	0.036050953
159	0x3e09fa69	0.1347443
160	0xbeb2e3f5	-0.34939542
161	0xbe554e03	-0.2083054
162	0xbe416021	-0.18884327
163	0xbc73f181	-0.014889122
164	0x3e0ab5b3	0.13545875
165	0x3e550f18	0.20806539
166	0xbdc5a215	-0.09650055
167	0x3e16c530	0.14723659
168	0xbe2574af	-0.16157793
169	0xbe9f1143	-0.31067857
170	0x3e09f13b	0.13470928
171	0xbe652c3f	-0.2238016
172	0x3d095ba5	0.033534665
173	0x3e47138a	0.19441047
174	0xbe8f0880	-0.27936172
175	0x3eaad12d	0.33362713
176	0x3d5ab1ec	0.053392336
177	0x3e990aad	0.29890957
178	0xbdba1a0c	-0.09086999
179	0x3e50bd99	0.20384826
180	0x3e858adb	0.260825
181	0x3e9a44c9	0.30130604
182	0xbea49a89	-0.3214915
183	0x3d41ffcf	0.0473631
184	0xbdc098ad	-0.094041206
185	0xbe8ef825	-0.27923694
186	0x3e3f8b05	0.18705375
187	0xbe0794fc	-0.13240427
188	0x3edd3598	0.4320495
189	0xbe27ec97	-0.16398846
190	0x3e93b8bd	0.28851882
191	0xbe4c7a88	-0.19968617
192	0x3cb1bc92	0.021696363
193	0x3e9b1e52	0.3029657
194	0x3e203963	0.15646891
195	0xbe45b7c8	-0.19308388
196	0x3e16dfcc	0.14733809
197	0xbe685da7	-0.22691976
198	0xbdbed861	-0.09318615
199	0xbdc87e05	-0.09789661
200	0xbda3a7c5	-0.07990984
201	0x3e8d2cb0	0.27573156
202	0xbe02715c	-0.12738556
203	0x3e3261c1	0.17420103
204	0xbea0464f	-0.3130364
205	0xbe85d0d3	-0.26135883
206	0xbe1ba596	-0.15199885
207	0x3ea9a4e9	0.3313363
208	0xbd9262b7	-0.071477346
209	0x3d7f291c	0.062295064
210	0x3e6d4b3c	0.23173231
211	0xbdd927bf	-0.10603284
212	0xbda4097c	-0.080096215
213	0x3dad0086	0.084473655
214	0xbecb782d	-0.39740124
215	0x3ca3de57	0.02000348
216	0xbd46570a	-0.04842285
217	0x3e24b020	0.16082811
218	0x3dad756c	0.08469662
219	0x3e01738c	0.12641734
220	0x3e4a1f98	0.19738615
221	0x3c072e26	0.008250749
222	0xbee1dd1d	-0.4411401
223	0xbec4fab9	-0.38472536
224	0xbe6d0481	-0.2314625
225	0x3cad6605	0.02116681
226	0xbe6a12ab	-0.22858684
227	0x3dec29ba	0.11531396
228	0xbe05fae8	-0.13083994
229	0x3e5f3b66	0.21800002
230	0x3d5b0d4f	0.05347949
231	0xbebeeed7	-0.37291595
232	0xbe1439c4	-0.14475161
233	0x3d948e27	0.07253676
234	0xbe4ace05	-0.19805153
235	0x3e1bd5ce	0.15218279
236	0x3ddef418	0.10886401
237	0xbe224257	-0.15845619
238	0x3e99174b	0.29900584
239	0xbe0c10bc	-0.13678259
240	0x3d8cb5d7	0.06870621
241	0x3ea96de0	0.3309164
242	0xbe066947	-0.13126098
243	0x3cb799ca	0.0224122
244	0x3e80db90	0.25167513
245	0xbcc0e556	-0.023546856
246	0x3e3abfb2	0.18237188
247	0xbe80fa9b	-0.25191197
248	0xbcae9862	-0.021312896
249	0xbe1dbe60	-0.15404654
250	0x3e775115	0.24152024
251	0x3dbe0a1e	0.092792735
252	0xbdb3a2b3	-0.08771267
253	0x3e8597b9	0.26092318
254	0xbe9efa3a	-0.31050283
255	0xbd9a262e	-0.075268134

stem.conv1d.bias f4 [64]
0	0x3da036c9	0.078229494
1	0xbdfd4414	-0.123665005
2	0x3d989802	0.07450868
3	0xbdf375bf	-0.11887693
4	0x3e89c8ba	0.26910955
5	0xbe5df105	-0.21673973
6	0x3e6abdbf	0.22923945
7	0xbe7408de	-0.23831508
8	0x3d01d6c8	0.031698972
9	0xbe256c74	-0.16154653
10	0xbe3abc69	-0.18235935
11	0xbe134db6	-0.14385113
12	0x3e6a9915	0.22909959
13	0xbda6dda6	-0.08147745
14	0xbd123a10	-0.035699904
15	0x3e1e2c07	0.15446483
16	0xbde9bad5	-0.114125885
17	0xbea0beb1	-0.31395486
18	0xbe16db78	-0.14732158
19	0xbd4db5e2	-0.050222285
20	0xbe233bb1	-0.15940739
21	0xbe73256f	-0.23744749
22	0x3d5fee46	0.054670595
23	0xbe814111	-0.25244954
24	0xbcfdedba	-0.030997146
25	0x3d25d351	0.04048473
26	0xbcaec641	-0.02133477
27	0xbea67751	-0.32512906
28	0xbcaa63df	-0.020799575
29	0xbd00470a	-0.031317748
30	0x3e553ca8	0.2082392
31	0xbd999b44	-0.07500318
32	0x3e03b06a	0.12860265
33	0xbe34cc8b	-0.17656152
34	0xbcaac9de	-0.02084821
35	0xbda5344e	-0.08066617
36	0xbea8a0da	-0.3293522
37	0x3e4202b2	0.1894634
38	0x3db93f86	0.09045319
39	0x3d82caf0	0.063863635
40	0xbddea317	-0.10870951
41	0xbde8089c	-0.11329767
42	0x3e8a3209	0.269913
43	0x3e2186ca	0.15774074
44	0x3e630695	0.2217048
45	0xbe5e0ecc	-0.21685332
46	0xbd903b39	-0.07042546
47	0x3db34b31	0.08754576
48	0x3ea134e1	0.31485656
49	0x3e3461ef	0.17615484
50	0x3e9968da	0.29962808
51	0x3e7f72c5	0.24946125
52	0xbe9309ee	-0.28718513
53	0x3e443d43	0.19163994
54	0x3d0d3a6b	0.03447954
55	0xbea949f9	-0.3306425
56	0x3d9c8e82	0.07644369
57	0xbe56dd6b	-0.20982902
58	0xbe885c84	-0.26633084
59	0x3e4e6897	0.20157085
60	0xbe919650	-0.28434992
61	0x3d5eb6d8	0.054373592
62	0xbcf9f6e6	-0.030513238
63	0x3e604c9c	0.21904224

stem.bn.weight f4 [64]
0	0x3f822185	1.0166479
1	0x3f84855d	1.0353199
2	0x3f82550b	1.0182203
3	0x3f9316d3	1.149134
4	0x3f7b1408	0.9807744
5	0x3f8b2002	1.0869143
6	0x3f9023ca	1.1260922
7	0x3f7eb0d5	0.99488574
8	0x3f87e2c5	1.061608
9	0x3f84b4fc	1.0367732
10	0x3f937b94	1.1522088
11	0x3f87cb3a	1.0608895
12	0x3f83e423	1.0303997
13	0x3f847c51	1.0350438
14	0x3f864120	1.0488625
15	0x3f97a858	1.184825
16	0x3f89c0c4	1.0761952
17	0x3f93da30	1.155096
18	0x3f917b15	1.1365687
19	0x3f8af3a8	1.0855608
20	0x3f8099f1	1.0046979
21	0x3f88c66c	1.0685554
22	0x3f8770e7	1.058133
23	0x3f8d34e9	1.1031772
24	0x3f9dbf61	1.2324029
25	0x3f9a6bfc	1.2064204
26	0x3f8e6e6d	1.1127449
27	0x3f8670f8	1.0503225
28	0x3f9905b5	1.1954867
29	0x3f8b0ed2	1.0863898
30	0x3f89f661	1.0778314
31	0x3f8d6828	1.1047411
32	0x3f88ea0f	1.0696429
33	0x3f8bf2d8	1.0933485
34	0x3f80c0cf	1.005884
35	0x3f87b282	1.0601351
36	0x3f7f1d3f	0.99654
37	0x3f88c348	1.0684595
38	0x3f8d79dd	1.1052815
39	0x3f883d31	1.0643674
40	0x3f85aff7	1.0444325
41	0x3f870aba	1.0550148
42	0x3f85f739	1.0466071
43	0x3f95d058	1.1704206
44	0x3f8c1cce	1.094629
45	0x3f8de804	1.108643
46	0x3f8ac228	1.0840502
47	0x3f8581e3	1.0430263
48	0x3f833f5f	1.0253714
49	0x3f84b086	1.0366371
50	0x3f8e9cd0	1.1141605
51	0x3f832825	1.0246626
52	0x3f81dee8	1.014615
53	0x3f855eeb	1.0419592
54	0x3f91f94b	1.1404203
55	0x3f8a4d7c	1.0804896
56	0x3f87fa9d	1.0623356
57	0x3f93adc5	1.1537405
58	0x3f88ff17	1.0702847
59	0x3f99d3a1	1.2017709
60	0x3f83faf8	1.0310965
61	0x3f888e49	1.0668422
62	0x3f840204	1.0313115
63	0x3f83d366	1.0298889

stem.bn.bias f4 [64]
0	0x3de7a7bd	0.113112904
1	0xbc9687e7	-0.01837535
2	0x3c9d073d	0.01916849
3	0x3dabf77c	0.08396813
4	0x3d15c2df	0.036562797
5	0x3df1b3b8	0.11801857
6	0x3d0a4533	0.0337574
7	0xbc39e45a	-0.011345947
8	0x3d9564e1	0.07294632
9	0x3d9bae76	0.07601635
10	0x3db6c366	0.08923988
11	0x3d1c1267	0.038103487
12	0x3d8f6352	0.07001366
13	0x3d3251e0	0.043535113
14	0x3d8b176c	0.06791577
15	0x3db40f49	0.08791978
16	0x3d06bb32	0.032893367
17	0x3db7fd81	0.08983899
18	0x3dbbc36b	0.091681324
19	0x3ddf0ed8	0.10891503
20	0xbd3691f7	-0.044572797
21	0x3d847346	0.06467299
22	0x3daa3dab	0.083125435
23	0x3d80a585	0.0628157
24	0x3e45e168	0.19324267
25	0x3deee9ba	0.116656736
26	0x3d802867	0.06257706
27	0x3cdabeed	0.026702369
28	0x3e189830	0.14901805
29	0x3d740583	0.05957557
30	0xbcc47a61	-0.023984136
31	0x3dba84c6	0.09107356
32	0x3e0990bb	0.13434117
33	0x3ddc2c6a	0.10750659
34	0xbd4aea34	-0.04953976
35	0x3d1cecc7	0.038311746
36	0x3c704c6d	0.014666659
37	0x3d240aac	0.04004924
38	0x3dcf8881	0.10133458
39	0x3cfd06c4	0.030887015
40	0x3b222046	0.0024738475
41	0x3d012a1f	0.03153431
42	0x3daaecde	0.0834596
43	0x3d87c06a	0.06628497
44	0x3da5a1ec	0.08087525
45	0x3e19a2ee	0.15003559
46	0x3d02e102	0.031952865
47	0x3b19523c	0.0023394963
48	0xbc6251bc	-0.013813432
49	0x3cd37589	0.025812881
50	0x3c7f20ee	0.015571816
51	0x3db99f06	0.090635344
52	0xbceec41e	-0.02914625
53	0x3d875985	0.06608871
54	0x3dac3fa6	0.084105775
55	0xb931963c	-0.00016936002
56	0xbcc37255	-0.023858229
57	0x3dbfcbf9	0.093650766
58	0x3d9d3bbe	0.076774105
59	0x3dd1b667	0.102398686
60	0x3dd1ac81	0.10237981
61	0x3db128e9	0.08650381
62	0x3de68c68	0.11257249
63	0x3d3b9d59	0.045804355

stem.bn.running_mean f4 [64]
0	0xbf8ceb64	-1.1009336
1	0xc0053790	-2.0815163
2	0xbfbb7a1e	-1.4646642
3	0xbfc6beff	-1.5527037
4	0x404e7771	3.2260401
5	0xbfcb4677	-1.5880879
6	0x3f9ffbbc	1.2498698
7	0xc0ab35e4	-5.3503284
8	0x40cd6b0e	6.419318
9	0xc0265796	-2.5990958
10	0x3ed9e451	0.42557004
11	0x3f87774e	1.0583284
12	0x40a02676	5.004695
13	0x3f91ad13	1.1380943
14	0xc099830c	-4.797247
15	0x3f9635ad	1.173513
16	0x4090c17c	4.5236187
17	0xbf14a735	-0.5806764
18	0x3fc4575b	1.5339159
19	0x3f6877ed	0.9080799
20	0xc00aac6a	-2.1667733
21	0x40465258	3.0987759
22	0x3ff45139	1.9087287
23	0x3e3534da	0.17695943
24	0x40082949	2.1275198
25	0x3f57426b	0.8408572
26	0x3e2fd9ac	0.17172879
27	0xbf421772	-0.75817025
28	0x3f7db06b	0.9909732
29	0x40250ddd	2.5789711
30	0xbf1d645b	-0.61481255
31	0xbdd42098	-0.10357779
32	0x3fa7a1c1	1.3096238
33	0xbf6c9b8f	-0.92424864
34	0xc0123969	-2.284754
35	0xbf82291d	-1.0168797
36	0x3fb85e3f	1.4403762
37	0x3f753fda	0.95800555
38	0x40430d12	3.0476727
39	0x40035676	2.0521522
40	0xbfaece46	-1.36567
41	0x40176594	2.3655748
42	0x3e33310b	0.17499177
43	0x3f0923f9	0.53570515
44	0xba6d1400	-0.0009043813
45	0x3fa5856a	1.293134
46	0xbfe3f606	-1.7809455
47	0xbf001041	-0.500248
48	0x3fa8595f	1.3152274
49	0xc0a4f370	-5.1547165
50	0x3ee28542	0.44242293
51	0x3f282f2d	0.65696985
52	0x3ef80d4e	0.4844765
53	0x3fd5be7a	1.6698754
54	0x3e977473	0.2958103
55	0x3fb7c387	1.4356545
56	0x3edf9a47	0.43672392
57	0xbf7456ac	-0.9544475
58	0xc0539bba	-3.3063798
59	0xbf841157	-1.0317792
60	0xbfa87ede	-1.3163717
61	0xbf404d46	-0.7511791
62	0xbfe31428	-1.7740526
63	0x4065a0f5	3.587949

stem.bn.running_var f4 [64]
0	0x4116e435	9.430715
1	0x4116cdae	9.425215
2	0x41bdc4eb	23.721151
3	0x4168628b	14.524058
4	0x4173d09f	15.238433
5	0x414c7e14	12.780781
6	0x4133e425	11.243199
7	0x41adeb08	21.739761
8	0x41e416cd	28.511133
9	0x40f2d408	7.5883827
10	0x40c0fe2c	6.031027
11	0x41172cb6	9.448416
12	0x41942c8f	18.521757
13	0x41101c09	9.0068445
14	0x41903716	18.026897
15	0x41621f0e	14.132582
16	0x4168b248	14.543526
17	0x40be2430	5.9419174
18	0x40eaa619	7.3327756
19	0x4116f1f1	9.434068
20	0x418ad15b	17.352224
21	0x4147e65a	12.493738
22	0x41533840	13.201233
23	0x411fe4c7	9.993354
24	0x419a5267	19.290236
25	0x41006046	8.023504
26	0x40d87613	6.7644134
27	0x40cfe891	6.4971395
28	0x41051cbd	8.319516
29	0x41204af8	10.018303
30	0x40a9ccab	5.306234
31	0x400b6208	2.1778584
32	0x4133a087	11.226691
33	0x40d93afb	6.78845
34	0x40b805c2	5.750703
35	0x41361189	11.379281
36	0x412815fd	10.505368
37	0x4101cf1b	8.113063
38	0x41689d5b	14.538417
39	0x40e82ee7	7.2557254
40	0x4152ba42	13.170473
41	0x4110c8be	9.049009
42	0x4112478e	9.142469
43	0x40d1484f	6.5400767
44	0x409e66aa	4.950032
45	0x4096a765	4.707934
46	0x4104a6ee	8.290754
47	0x40b10aec	5.532583
48	0x415e9702	13.911867
49	0x41b01dd9	22.014574
50	0x40b5f57a	5.6862154
51	0x416ea6cb	14.915721
52	0x409fd4dd	4.9947343
53	0x4122e433	10.180713
54	0x41022b07	8.135505
55	0x4123b20e	10.23097
56	0x40895405	4.2915063
57	0x410bf7ee	8.74803
58	0x4213300d	36.796925
59	0x4154df16	13.304464
60	0x4104923c	8.285702
61	0x411f43c2	9.954042
62	0x415abe40	13.671448
63	0x4153aa94	13.229145

inception.total_ops f8 [1]
0	0x0000000000000000	0.0

inception.total_params f8 [1]
0	0x0000000000000000	0.0

inception.branch1.1.total_ops f8 [1]
0	0x0000000000000000	0.0

inception.branch1.1.total_params f8 [1]
0	0x0000000000000000	0.0

inception.branch1.1.depthwise.weight f4 [64, 1, 1]
0	0x3f728e18	0.9474807
1	0xbf083695	-0.53208286
2	0xbebd273c	-0.36943996
3	0xbf34b9f5	-0.7059625
4	0xbefefae3	-0.49800786
5	0x3f624a20	0.88394356
6	0x3f6684f1	0.900466
7	0xbf648fa6	-0.8928169
8	0x3e259b7b	0.16172592
9	0xbf2cb55f	-0.6746425
10	0x3f5c6abb	0.8610036
11	0x3f636d6b	0.88838834
12	0x3f361028	0.711184
13	0xbea7a32c	-0.32741678
14	0x3f0ac3b9	0.542049
15	0x3e85c777	0.26128742
16	0x3f1f67ab	0.6226756
17	0x3f0682af	0.5254316
18	0x3d9b1379	0.075720735
19	0xbf005761	-0.5013333
20	0x3f782824	0.9693625
21	0xbe629166	-0.22125778
22	0xbedc10f2	-0.42981678
23	0xbf5c5422	-0.86065876
24	0x3e0eab9f	0.13932656
25	0x3f14b187	0.58083385
26	0x3f76652a	0.96248114
27	0xbf28758d	-0.6580437
28	0x3e8e9cfb	0.27854142
29	0x3f1064ff	0.5640411
30	0x3f6d2dd1	0.92648035
31	0xbf83024b	-1.0235075
32	0xbf0af484	-0.5427935
33	0x3f6d2313	0.92631644
34	0x3f5a3942	0.8524362
35	0xbf1adac0	-0.60490036
36	0x3ec6ae6d	0.3880495
37	0x3f14d55d	0.58138067
38	0xbdfcb9fc	-0.12340161
39	0x3f7de39f	0.9917545
40	0x3e240dcb	0.16020887
41	0x3e8dbe82	0.27684408
42	0x3ebbee47	0.3670523
43	0xbe162237	-0.1466149
44	0xbf793cf7	-0.9735865
45	0xbc4ab4fc	-0.012372252
46	0x3f4f9ed8	0.8110175
47	0x3f434ad2	0.7628604
48	0xbf81f31b	-1.0152315
49	0x3f385bbd	0.7201498
50	0x3f1d6863	0.61487406
51	0xbcd07fd7	-0.025451584
52	0xbe8d4807	-0.27594015
53	0xbf13d1ba	-0.5774189
54	0xbf849531	-1.035803
55	0x3f2c5d61	0.67329985
56	0xbf84d865	-1.0378538
57	0x3f04b126	0.5183281
58	0xbec13d8a	-0.37742263
59	0x3e0882d3	0.13331155
60	0xbeec078d	-0.4609951
61	0x3f188bf7	0.5958857
62	0x3f37e3b3	0.71831816
63	0x3ecb01ca	0.39649802

inception.branch1.1.depthwise.bias f4 [64]
0	0xbf63a1b4	-0.88918614
1	0xbf2ad3e0	-0.66729546
2	0x3df9e105	0.12201122
3	0x3eaf2cb7	0.34213802
4	0x3f570ff4	0.8400872
5	0xbf2212ae	-0.6330975
6	0x3f723a76	0.94620454
7	0x3d94b4f9	0.0726108
8	0xbc4c8bc1	-0.012484492
9	0xbf209dbb	-0.6274068
10	0x3f25f551	0.6482745
11	0xbf05418f	-0.5205316
12	0x3e93587c	0.28778446
13	0xbf3ad795	-0.729852
14	0xbf0d8f63	-0.55296916
15	0xbe687242	-0.22699836
16	0x3db29fc6	0.087218806
17	0xbd720e6e	-0.059095792
18	0xbe4fc650	-0.20290494
19	0x3e3c514e	0.1839039
20	0x3f722188	0.94582415
21	0x3ed18a84	0.40925992
22	0xbf855287	-1.041581
23	0xbf04427b	-0.5166394
24	0x3f1ae243	0.605015
25	0xbf2231d6	-0.63357294
26	0xbf15b689	-0.5848165
27	0xbe8ede61	-0.27904037
28	0x3f63ac7c	0.88935065
29	0x3f589ba4	0.8461249
30	0xbee61494	-0.44937575
31	0xbf0535d4	-0.5203526
32	0xbf3a5ccc	-0.72797847
33	0xbe7303e7	-0.23731957
34	0x3f1941e5	0.5986617
35	0x3f1ebb65	0.6200469
36	0xbbceb3d8	-0.00630806
37	0x3e653754	0.22384387
38	0x3eb5de22	0.35521036
39	0xbe4925d3	-0.19643335
40	0x3f4d609b	0.80225533
41	0xbed2b596	-0.41154164
42	0xbf6d406f	-0.9267644
43	0x3f63c0bb	0.8896596
44	0x3f78ee62	0.97238743
45	0xbf7c67ef	-0.9859609
46	0x3dc24326	0.09485464
47	0xbe673ac8	-0.22581017
48	0x3ecfec82	0.4061013
49	0xbf135fd4	-0.575681
50	0x3e4d41ac	0.20044583
51	0xbf30592b	-0.6888606
52	0xbf1b116d	-0.60573465
53	0x3e236bc5	0.1595908
54	0xbca1a503	-0.019732004
55	0xbe387b88	-0.18015873
56	0xbde73d18	-0.112909496
57	0x3e936063	0.28784475
58	0x3f2407a3	0.6407415
59	0xbf62bbab	-0.8856761
60	0x3db98ad5	0.09059683
61	0x3edbd454	0.4293543
62	0xbf54fab2	-0.8319503
63	0x3f77ba0e	0.9676827

inception.branch1.1.pointwise.weight f4 [32, 64, 1]
0	0x3b91cfd3	0.0044498234
1	0xbdf77379	-0.120825715
2	0xbd068a3d	-0.032846678
3	0x3d9de038	0.07708782
4	0x3e0e51ac	0.13898343
5	0xbd69a283	-0.05703975
6	0xbd53b403	-0.051685344
7	0xbd23cb7e	-0.039988987
8	0xbd98f29a	-0.074681476
9	0xbdf65230	-0.12027395
10	0xbd97ea80	-0.07417774
11	0xbe487b6a	-0.19578329
12	0x3dd1cfca	0.10244711
13	0x3d83999e	0.064257845
14	0x3d6a0c11	0.057140414
15	0xbb1c6195	-0.0023861874
16	0x3da5062e	0.08057819
17	0x3e8f8dd3	0.2803789
18	0x3d9f2b4e	0.077719316
19	0x3dd39614	0.103313595
20	0xbb597492	-0.0033181054
21	0x3d3557e7	0.044273283
22	0xbd72f5c9	-0.05931643
23	0x3d96c977	0.07362645
24	0xbd5a7c6e	-0.05334132
25	0xbe485df1	-0.19567086
26	0xbe74f34c	-0.23920935
27	0xbd8f0b10	-0.06984532
28	0x3e03694f	0.12833141
29	0x3b80f145	0.0039350116
30	0xbcae14ff	-0.021250246
31	0x3dd63b77	0.10460561
32	0xbdb11501	-0.08646584
33	0xbdf95971	-0.12175263
34	0x3c0de8eb	0.008661489
35	0xbd300e65	-0.042982478
36	0x3db55c47	0.08855491
37	0xbdd1efe8	-0.102508366
38	0xbd22b33b	-0.03972171
39	0xbc9f1e13	-0.01942352
40	0x3d5fd3fc	0.054645523
41	0xbe0929eb	-0.13394897
42	0x3da8b71a	0.08238049
43	0x3da5090c	0.08058366
44	0xbd5b059f	-0.053472158
45	0xbdb3e1ed	-0.08783326
46	0x3e39ec36	0.18156514
47	0x3e1652a1	0.14679958
48	0xbcd946be	-0.02652299
49	0xb97d664c	-0.00024166069
50	0x3d0d9123	0.03456224
51	0xbc420d9b	-0.011844064
52	0x3cda173a	0.026622403
53	0x3e801482	0.25015646
54	0xbcf584ce	-0.029970553
55	0xbe2ba49c	-0.16762012
56	0xbca29502	-0.019846443
57	0xbd4104d2	-0.047123738
58	0x3dde54c0	0.108560085
59	0xbd8cf321	-0.06882311
60	0x3d7c2984	0.06156303
61	0xbd0a2c76	-0.033733808
62	0x3dc01c17	0.09380358
63	0xbdc9e501	-0.09858132
64	0x3db51cea	0.088434055
65	0xbdecf991	-0.115710385
66	0xbcb5e09b	-0.022201827
67	0x3cd3dad4	0.025861181
68	0x3c92eb5f	0.0179345
69	0x3deb9452	0.11502899
70	0x3848659d	4.777835e-05
71	0x3cdcf5c9	0.026972668
72	0xbcd66c56	-0.026174705
73	0xbd8a72f6	-0.06760208
74	0x3e01e3ae	0.12684509
75	0x3e0f6d80	0.14006615
76	0x3e2201fa	0.15821066
77	0x3d87e93c	0.06636283
78	0x3d8441b8	0.06457847
79	0xbdcd4b0e	-0.10024081
80	0x3e2be626	0.16787013
81	0x3e01d6b6	0.12679562
82	0xbd4f546f	-0.05061763
83	0x3d39c99f	0.045358296
84	0xbd1331b7	-0.035936084
85	0x3c98628b	0.018601676
86	0xbdc11b6f	-0.09429061
87	0x3d52efad	0.051498104
88	0xbd88c3b4	-0.066779524
89	0x3d712888	0.058876544
90	0xbd6434b6	-0.05571433
91	0xbc3f56df	-0.0116784265
92	0x3e192bb9	0.14958085
93	0x3d0dc695	0.03461321
94	0x3d117b2e	0.035517864
95	0xbc906b83	-0.01762939
96	0x3c7ff19d	0.01562157
97	0xbe013e3d	-0.12621398
98	0x3dd58a65	0.10426787
99	0x3c396d15	0.011317511
100	0xbcd25e34	-0.025679685
101	0x3d1931e4	0.037401095
102	0x3dea4c44	0.11440328
103	0xbd49ee2c	-0.049299404
104	0xbd693469	-0.056934748
105	0x3d5da69a	0.05411396
106	0x3db0cc9b	0.086327754
107	0x3d8f36f4	0.06992903
108	0xbb008224	-0.001960882
109	0x3a705944	0.0009168575
110	0xbddf26f1	-0.10896099
111	0xbd9c0e3a	-0.07619901
112	0x3dfde444	0.12397054
113	0xbe0c9bdc	-0.1373133
114	0x3d4a6fb2	0.049422927
115	0x3cdbe385	0.026841888
116	0xbccfbadf	-0.025357662
117	0x3cbb84a4	0.022890396
118	0xbdade702	-0.08491327
119	0x3e1c0ca3	0.15239196
120	0xbdf1ac83	-0.11800482
121	0x3e0d1fc6	0.13781652
122	0x3c796032	0.015220689
123	0xbb89d3e4	-0.0042061675
124	0xbc8f4827	-0.01749046
125	0x3d95765d	0.07297967
126	0x3b9bf95a	0.0047599496
127	0x3d6b579e	0.057456605
128	0xbce369fb	-0.027760496
129	0xbdd12b83	-0.10213377
130	0xbe45d451	-0.19319274
131	0x3e66837f	0.225111
132	0x3d4e1391	0.05031163
133	0xbdc84508	-0.09778792
134	0x3df4be46	0.11950354
135	0xbdd4d37d	-0.10391901
136	0xbd3a59fe	-0.04549598
137	0x3c6878c1	0.014188946
138	0x3d549de8	0.051908404
139	0x3be5b2f7	0.0070098597
140	0x3c453d27	0.012038506
141	0xbb5ff077	-0.0034170428
142	0xbd4e2685	-0.050329704
143	0xbe3f7155	-0.18695576
144	0x3e0e37f7	0.13888536
145	0x3d9c3996	0.07628171
146	0xbdbac47c	-0.09119508
147	0xbd95a753	-0.07307305
148	0x3dafd41e	0.0858538
149	0x3dda44da	0.10657664
150	0xbace0af1	-0.0015719814
151	0xbd848edc	-0.06472561
152	0x3d3cf1f2	0.046129175
153	0x3e456c38	0.19279563
154	0x3b77cfc3	0.0037813045
155	0x3b9be6aa	0.004757722
156	0x3e127dbe	0.1430578
157	0x3cd9cd5e	0.026587185
158	0x3d011694	0.031515673
159	0x3ccc12ba	0.024911273
160	0xbd7b112a	-0.061295666
161	0xbe38fc3e	-0.18064973
162	0x3d5d6d29	0.05405918
163	0x3d8376c1	0.06419135
164	0x3d3b804f	0.04577666
165	0x3db5e9c2	0.088824764
166	0x3df81da1	0.12115026
167	0x3c425850	0.011861876
168	0x3dad5cd9	0.08464975
169	0x3d7c0a8f	0.061533507
170	0x3bb8b698	0.0056370012
171	0x3d8eeae0	0.069783926
172	0x3e0f9105	0.14020164
173	0xbd82cd80	-0.06386852
174	0xbe34b9fe	-0.17649075
175	0x3de8373c	0.1133866
176	0x3d2dd75a	0.042441703
177	0xbdc46dba	-0.09591241
178	0xbd6f20a9	-0.058380757
179	0xbd9bd8f3	-0.07609739
180	0xbdae3825	-0.085068025
181	0xbd91a211	-0.0711099
182	0x3d529fe6	0.051422022
183	0x3daa6b6c	0.0832127
184	0xbdc106ab	-0.094251
185	0x3dade725	0.08491353
186	0xbd3f4d0f	-0.04670435
187	0xbd9f2a01	-0.077716835
188	0x3c1ebaa8	0.009688057
189	0xbcb393a6	-0.02192099
190	0x3db6c1e7	0.08923703
191	0x3daebb43	0.08531811
192	0x3cf3c62f	0.029757587
193	0x3dae67b3	0.08515873
194	0xbc6570f6	-0.014003983
195	0xbe476ceb	-0.19475143
196	0x3bd72c7b	0.006566582
197	0xbe01170d	-0.1260645
198	0xbd5b3886	-0.0535207
199	0xbe08c036	-0.13354573
200	0xbd934273	-0.071904086
201	0xbc02081f	-0.0079365065
202	0xbdacf5e7	-0.0844534
203	0xbe0fd726	-0.14046916
204	0x3cfa0320	0.030519068
205	0x3d94c613	0.07264342
206	0xbe0b4648	-0.13601029
207	0x3d110d77	0.03541323
208	0xbd707f51	-0.05871517
209	0xbdeb3415	-0.11484543
210	0x3d22387a	0.03960464
211	0xbdece9f4	-0.115680605
212	0xbc445d4e	-0.011985136
213	0xbd326b51	-0.043559376
214	0xbc9cefb0	-0.01915726
215	0xbcaf2b8a	-0.021383066
216	0xbdb7a7d8	-0.089675605
217	0xbcf1e97b	-0.029530277
218	0xbd8af3f2	-0.0678481
219	0x3ce9a968	0.028523162
220	0xbdbffd30	-0.093744636
221	0x3e1406ba	0.14455691
222	0x3cafa0e6	0.021439027
223	0xbe41a6c1	-0.18911268
224	0xbd4b4035	-0.04962178
225	0x3dec5d31	0.11541212
226	0x3da8fd69	0.08251459
227	0xbdf759b2	-0.12077655
228	0x3d8bf0fd	0.06833074
229	0xbdd1d5d1	-0.1024586
230	0xbd86e4e6	-0.06586628
231	0xbd86687d	-0.06562898
232	0x3d8fe139	0.0702538
233	0xbdc79302	-0.097448364
234	0xbc51e2a8	-0.012810387
235	0xbba9fd2a	-0.00518765
236	0xbd42e163	-0.047578227
237	0xbd20ab5c	-0.03922592
238	0x3de1b95c	0.110216826
239	0x3c7f3715	0.015577097
240	0xbd390abb	-0.04517625
241	0x3d9d3f5a	0.07678099
242	0x3d1f1091	0.03883416
243	0xbe1a3e75	-0.15062888
244	0xbd19fd27	-0.03759494
245	0x3bd9ae41	0.006643087
246	0x3e253fe6	0.16137657
247	0xbd9597d9	-0.07304353
248	0xbce93d00	-0.02847147
249	0xbcae6641	-0.021288993
250	0x3d469641	0.048483137
251	0xbde08ad4	-0.10963979
252	0x3d8d7e15	0.06908814
253	0xbd2f444d	-0.042789746
254	0xbc7e12d7	-0.015507421
255	0x3df2df11	0.11858953

inception.branch1.1.pointwise.bias f4 [32]
0	0xbda869ed	-0.08223329
1	0x3e043286	0.12909898
2	0x3d058a51	0.032602612
3	0x3da4ef66	0.08053474
4	0x3e17f770	0.14840484
5	0xbdb12d76	-0.08651249
6	0x3d9bec43	0.07613423
7	0xbd531ede	-0.05154311
8	0x3e179dfc	0.1480636
9	0x3d487cc7	0.048947122
10	0x3cf3b57e	0.029749628
11	0xbda2425e	-0.07922815
12	0x3e08b711	0.13351084
13	0x3dde5454	0.10855928
14	0xbd41f79b	-0.047355276
15	0xbd923d11	-0.07140554
16	0xbd4b4bf1	-0.04963297
17	0xbe0a021c	-0.13477367
18	0xbc6db18c	-0.0145076625
19	0x3cf6ac57	0.030111475
20	0x3dbfe296	0.0936939
21	0x3d9ee4a4	0.077584535
22	0xbd677399	-0.056506727
23	0xbd4fb09e	-0.050705545
24	0x3ce2e272	0.027695868
25	0xbd910c81	-0.07082463
26	0xbd2e9749	-0.042624746
27	0xbd4488f2	-0.047982164
28	0x3b0d45f1	0.002155658
29	0xbd44ab08	-0.04801467
30	0x3c0192c5	0.007908528
31	0x3dce8a02	0.10084917

inception.branch2.0.total_ops f8 [1]
0	0x0000000000000000	0.0

inception.branch2.0.total_params f8 [1]
0	0x0000000000000000	0.0

inception.branch2.0.depthwise.weight f4 [64, 1, 1]
0	0xbf558f0c	-0.834214
1	0xbf79a264	-0.97513413
2	0x3e92d088	0.28674722
3	0x3ebce943	0.36896715
4	0x3f0211c1	0.5080834
5	0x3f211c8e	0.62934196
6	0x3efc28cf	0.49249884
7	0xbf57a497	-0.8423552
8	0x3f200ce2	0.6251966
9	0x3e8f9897	0.28046104
10	0x3e907754	0.2821604
11	0x3e8495ac	0.2589544
12	0x3f51e59b	0.81990975
13	0x3ef36079	0.4753454
14	0xbf7c196b	-0.98476285
15	0xbf41cb3d	-0.7570074
16	0x3edc8508	0.43070245
17	0x3f1bd294	0.6086819
18	0x3f6ad35b	0.9172875
19	0xbef109e4	-0.47077858
20	0x3dd3efe1	0.10348488
21	0xbefa5c5b	-0.48898587
22	0x3f62754e	0.8846024
23	0x3f0cff7a	0.55077326
24	0xbe9dd9cc	-0.30830228
25	0xbf831617	-1.0241116
26	0x3f4b168a	0.79331267
27	0xbf57d5d6	-0.8431066
28	0x3f767379	0.9626995
29	0x3f60b5aa	0.877772
30	0xbf67a143	-0.9048044
31	0x3f0a9bfc	0.54144263
32	0x3d9d1176	0.07669346
33	0x3f34bde8	0.70602274
34	0xbf166700	-0.58750916
35	0x3f7ec41b	0.99517983
36	0x3dde4e54	0.10854784
37	0x3e01cd29	0.12675919
38	0x3f17aa48	0.59244204
39	0x3f80e9d9	1.0071365
40	0xbd5951d1	-0.05305654
41	0xbd346e7e	-0.044050686
42	0x3e16332d	0.1466796
43	0x3ea19c3e	0.31564516
44	0xbf877cc6	-1.0584953
45	0xbf3142ce	-0.6924256
46	0xbec6ca1a	-0.38826066
47	0xbeb12fbd	-0.34606734
48	0xbf509bc9	-0.8148771
49	0x3efd31b9	0.49451998
50	0x3e4674c4	0.1938048
51	0xbe207978	-0.15671337
52	0xbe041c89	-0.1290151
53	0x3f29db9d	0.6635073
54	0x3f170d0e	0.59004295
55	0x3f2507ff	0.64465326
56	0xbf03ba37	-0.51456016
57	0xbea877b5	-0.3290383
58	0x3f025763	0.5091459
59	0xbef9a3f9	-0.48757914
60	0x3f011764	0.50426316
61	0x3f576cb2	0.8415023
62	0x3eb1c717	0.34722206
63	0x3f7e507e	0.9934157

inception.branch2.0.depthwise.bias f4 [64]
0	0xbf20663f	-0.62656015
1	0x3f41b38c	0.7566459
2	0x3f60e2ae	0.87845886
3	0xbed1f258	-0.41005206
4	0x3efe5e7d	0.49681464
5	0x3f3d73d3	0.7400486
6	0x3e9854b7	0.29752132
7	0x3f127fb1	0.5722609
8	0x3f662093	0.89893454
9	0x3f6d992b	0.9281184
10	0x3f026b13	0.5094463
11	0xbf4df6e3	-0.80454844
12	0x3f6fe269	0.9370485
13	0x3f6cda55	0.9252065
14	0x3e446630	0.19179606
15	0xbefa11c5	-0.48841682
16	0x3e56d154	0.2097829
17	0x3f727f87	0.9472584
18	0x3f609df3	0.8774101
19	0xbe8d6e70	-0.2762332
20	0x3f27e074	0.65576863
21	0x3f21dd2e	0.6322812
22	0x3f07bc91	0.53022105
23	0x3e13cd9b	0.14433901
24	0xbf437f67	-0.76366276
25	0x3f66d22e	0.9016446
26	0x3f2fb9cf	0.68642896
27	0x3f7a1471	0.9768744
28	0x3f20a53c	0.6275213
29	0x3ec6cbf9	0.38827494
30	0xbf0b3e7d	-0.54392225
31	0x3e63e411	0.22254969
32	0x3dc10cc9	0.09426267
33	0x3e196760	0.1498084
34	0xbf41efcf	-0.75756544
35	0xbeda3a37	-0.4262254
36	0xbf260608	-0.6485295
37	0x3f1be0c9	0.6088987
38	0xbf027b6c	-0.50969577
39	0x3f75e369	0.96050125
40	0xbf3eaac0	-0.74479294
41	0x3f588e56	0.8459219
42	0xbf6499b0	-0.8929701
43	0xbd226b36	-0.039653026
44	0xbf090d45	-0.5353587
45	0xbe717e86	-0.23583421
46	0x3f66d1ef	0.90164083
47	0x3ecb5267	0.39711305
48	0xbe783d1b	-0.2424206
49	0x3f413d09	0.7548376
50	0x3ebb543c	0.36587703
51	0xbea04f83	-0.31310663
52	0x3e27e0c7	0.1639434
53	0x3c9e7bc9	0.019346135
54	0x3f01f55a	0.50765
55	0xbe6a1c99	-0.22862472
56	0x3f6f2d7c	0.9342878
57	0x3e8573da	0.2606495
58	0xbf1d7c44	-0.6151774
59	0xbde0101a	-0.10940571
60	0x3f465ff9	0.7749019
61	0xbea6b210	-0.32557726
62	0x3f36d48c	0.7141807
63	0xbf091e0f	-0.5356149

inception.branch2.0.pointwise.weight f4 [32, 64, 1]
0	0xbd34c7e9	-0.04413596
1	0xbde85dd4	-0.11346021
2	0xbd9bb023	-0.07601955
3	0x3cc9294b	0.024555823
4	0x3d650588	0.055913478
5	0xbddbc87f	-0.10731601
6	0x3e2e9d5c	0.17052215
7	0xbd27df0e	-0.040984206
8	0x3dd4bd92	0.1038772
9	0x3dbe0959	0.09279127
10	0x3cdc6606	0.026904117
11	0x3ca1a4cf	0.019731907
12	0x3d90bd0f	0.0706731
13	0x3d160f6d	0.036635805
14	0xbdfee8bd	-0.12446735
15	0x3db0f511	0.08640493
16	0x3c982156	0.018570583
17	0xbd2a0d0b	-0.041516345
18	0xbde52732	-0.111891165
19	0x3c943133	0.018089866
20	0xbd5fa671	-0.05460209
21	0xbd45a146	-0.048249505
22	0x3bf380cb	0.007431125
23	0xbdad3a2c	-0.08458361
24	0x3cfc6d6f	0.0308139
25	0x3ca6b9f9	0.02035235
26	0x3c23fe55	0.010009368
27	0xbdc7e198	-0.097598255
28	0x3e03f66a	0.12886968
29	0xbd9b1e16	-0.07574098
30	0x3d974d6e	0.073878154
31	0xbe24bc23	-0.16087393
32	0x3d5d8508	0.054081947
33	0xbce93f4e	-0.028472569
34	0xbd85b84d	-0.06529293
35	0xbb0ccb56	-0.0021483502
36	0xbd8e86f0	-0.06959331
37	0x3c928701	0.01788664
38	0xbd815408	-0.06314856
39	0x3da61bae	0.08110748
40	0xbc7715f8	-0.015080921
41	0xbdd5443f	-0.104134075
42	0x3d95e785	0.073195495
43	0xbac16735	-0.001475549
44	0x3e13e43e	0.14442536
45	0xbdb31c2a	-0.08745606
46	0x3d39d1b1	0.045365993
47	0x3b101052	0.0021982384
48	0x3d9b4dce	0.075831994
49	0x3d953423	0.07285335
50	0xbcc28703	-0.02374602
51	0x3e04b096	0.12957987
52	0x3cbe8c7c	0.023260348
53	0x3dc0e076	0.094178125
54	0x3dc76ac8	0.09737164
55	0x3e177712	0.14791515
56	0xbd4da216	-0.050203405
57	0xbd3fee5a	-0.04685817
58	0xbd812d56	-0.06307475
59	0x3bb0bcc6	0.0053935973
60	0xbd0659fe	-0.032800667
61	0x3e084998	0.13309324
62	0x3e050f97	0.12994228
63	0x3de2982d	0.110641815
64	0xbc87060d	-0.016482377
65	0x3e369672	0.17830828
66	0x3db3f164	0.08786276
67	0x3d66b2cd	0.05632286
68	0xbdd5899b	-0.10426637
69	0xbb9488b3	-0.0045328974
70	0x3dd68126	0.10473852
71	0x3d25da6a	0.0404915
72	0xbbde780b	-0.0067892126
73	0xbb6f81e0	-0.0036545917
74	0x3da092b7	0.07840484
75	0x3d5c89e2	0.053842433
76	0xbc2d09c7	-0.010561413
77	0xbc355f05	-0.011070018
78	0x3dfcafee	0.123382434
79	0x3d4bd75c	0.04976593
80	0x3e0999fe	0.1343765
81	0xbd1d4174	-0.0383925
82	0x3dc7140d	0.09720621
83	0xbd672ad2	-0.05643732
84	0x3b90c2f0	0.0044177696
85	0xbe2b7c92	-0.16746739
86	0x3ce0e6b4	0.027453758
87	0xbd312399	-0.04324684
88	0xbd815d33	-0.063166045
89	0xbc898e99	-0.016791629
90	0x3dd02987	0.10164171
91	0x3c7c1dd5	0.015387972
92	0x3dc197ff	0.09452819
93	0xbd574c08	-0.052562743
94	0x3d85ddbf	0.06536435
95	0xbd41b47b	-0.04729126
96	0x3dfd13f9	0.12357325
97	0xbc6f524f	-0.014607026
98	0xbbee3b2c	-0.0072702374
99	0x3be9c2a4	0.0071337987
100	0x397deca8	0.00024216122
101	0x3d9a55e6	0.07535915
102	0xbd920311	-0.07129491
103	0x3d9c1f55	0.076231636
104	0xbc056385	-0.008141403
105	0xbda7bc55	-0.08190218
106	0xbd54ee8b	-0.051985305
107	0xbc261831	-0.010137604
108	0xbdba6e55	-0.091030754
109	0x3d97bdbd	0.074092366
110	0x3dbadb85	0.09123901
111	0x3dfb13d3	0.122596405
112	0xbd6e6ed2	-0.058211155
113	0xbcfa442a	-0.030550081
114	0xbe0e1e2c	-0.13878697
115	0x3cbd4fd0	0.023109347
116	0xbd8ffdda	-0.0703084
117	0xbc8f20b9	-0.017471658
118	0xbe16619a	-0.1468567
119	0xbbb2e568	-0.0054594763
120	0x3dd713c4	0.10501817
121	0x3d99c8c7	0.07508998
122	0x3c52b82c	0.012861293
123	0xbe0b9229	-0.13629974
124	0xbcd91eb8	-0.026503906
125	0xbe1d06ab	-0.15334575
126	0x3d2010cc	0.03907852
127	0x3b3459c2	0.002751932
128	0x3dbc18ca	0.09184416
129	0x3dbaa784	0.09113982
130	0x3c0806c6	0.008302396
131	0xbcd78bc8	-0.02631177
132	0x3da07f5a	0.078367904
133	0x3d7ed43b	0.062214117
134	0x3d866588	0.06562334
135	0x3d860d65	0.065455236
136	0x3dc2cafe	0.09511374
137	0x3da21e23	0.079159044
138	0x3dde8459	0.10865087
139	0x3cc65f82	0.024215464
140	0x3d728c92	0.05921609
141	0x3d14551d	0.036213983
142	0x3c4947be	0.012285171
143	0xbe0daecc	-0.13836211
144	0x3cfb373a	0.030665983
145	0xbe115215	-0.14191468
146	0x3e33ead3	0.17570047
147	0xbd390fd2	-0.045181103
148	0xbd78b45d	-0.060718883
149	0xbe24687d	-0.16055484
150	0x3cf05391	0.029336723
151	0x3d3fb177	0.046800103
152	0xbdaa2931	-0.08308638
153	0xbdc58539	-0.09644551
154	0x3de66a45	0.11250738
155	0xbd53f4a1	-0.05174697
156	0x3bffe6b7	0.007809486
157	0x3d72cefb	0.059279423
158	0x3d89dc8b	0.06731518
159	0x3d4b2c86	0.049603008
160	0x3de13e5d	0.10998223
161	0x3e3019d2	0.1719735
162	0x3c782926	0.015146529
163	0xbe379651	-0.17928435
164	0xbd892310	-0.06696141
165	0x3cc0c882	0.02353311
166	0xbce9a50d	-0.028521085
167	0xbd15f461	-0.03661001
168	0xbdfcac73	-0.123375796
169	0x3d8eb35b	0.06967803
170	0xbcee34c1	-0.02907789
171	0xbe4a812f	-0.19775842
172	0x3dd71417	0.10501879
173	0x3d963e87	0.07336145
174	0x3de352fe	0.11099814
175	0x3e1c401a	0.15258828
176	0x3da2f21a	0.079563335
177	0x3db73117	0.0894491
178	0x3dbc9f8f	0.09210121
179	0xbd69d128	-0.057084233
180	0xbdc8212a	-0.097719505
181	0x3af1099e	0.0018389707
182	0x3dacbe7e	0.08434771
183	0x3dbc0bb9	0.091819234
184	0xbd86f486	-0.06589608
185	0x3c8aa1da	0.01692288
186	0xbd040784	-0.03223373
187	0xbd051248	-0.032488137
188	0x3cbf420c	0.023346923
189	0xba2c1f43	-0.00065659377
190	0xbd67647a	-0.056492306
191	0xbded5f53	-0.11590447
192	0x3d1af7f9	0.03783414
193	0x3e4ddb07	0.20103084
194	0xbd22764a	-0.03966359
195	0xbe42fc2c	-0.19041508
196	0x3db7d88c	0.0897685
197	0xbe2edbf3	-0.17076091
198	0xbd5b4464	-0.05353202
199	0xbb92ea49	-0.0044834954
200	0x3ded8b09	0.115987845
201	0x3d0a0c01	0.033702854
202	0x3d1d5aed	0.03841679
203	0x3d4d883f	0.050178763
204	0x3d4a7c30	0.04943484
205	0xbda8a517	-0.082346134
206	0x3eb14abe	0.34627336
207	0xbd7aec1d	-0.06126033
208	0x3c26604d	0.010154796
209	0xbda7a3e3	-0.08185556
210	0xbd4bd629	-0.049764786
211	0xbdfdb0fe	-0.12387274
212	0x3ca576eb	0.020198306
213	0x3d6fb988	0.058526546
214	0xbd31ee8d	-0.04344039
215	0xbdd750d2	-0.10513462
216	0x3caa1ce6	0.020765733
217	0x3debac77	0.115075044
218	0x3db5807e	0.088623986
219	0xbd4e2e4c	-0.05033712
220	0xbc89dc6d	-0.01682874
221	0xbca59179	-0.020210968
222	0x3dc88951	0.09791816
223	0xbda7b343	-0.08188488
224	0x3ddc36ee	0.107526645
225	0xbc94d631	-0.01816854
226	0x3dd6b8fc	0.10484502
227	0xbebd2452	-0.36941773
228	0xbdac91ba	-0.08426233
229	0x3e0eac2c	0.13932866
230	0x3e34b4a7	0.17647038
231	0x3a94a65c	0.0011341083
232	0xbdf34dce	-0.118800744
233	0x3e078d93	0.132376
234	0x3ba964b4	0.0051694755
235	0xbe1157ed	-0.14193697
236	0x3c4ed74a	0.012624571
237	0x3d5df5fc	0.054189667
238	0x3e059565	0.1304527
239	0x3e272bd7	0.16325317
240	0xbe22d007	-0.15899669
241	0xbd9ba195	-0.07599179
242	0x3df62395	0.120185055
243	0xbe16b547	-0.1471759
244	0xbd9b6130	-0.075868964
245	0x3dfdd327	0.1239379
246	0xbe39c357	-0.18140922
247	0xbda97f35	-0.08276216
248	0xbcb80c7e	-0.022466894
249	0x3e34e06f	0.1766374
250	0xbe408034	-0.18798906
251	0x3e2730f7	0.16327272
252	0x3dcfcb3c	0.10146186
253	0xb967f16d	-0.00022119815
254	0x3dcc99f7	0.09990304
255	0x3bf3504e	0.0074253445

inception.branch2.0.pointwise.bias f4 [32]
0	0xbd71925b	-0.058977466
1	0xbd74da40	-0.059778452
2	0xbd9244a7	-0.07142001
3	0xbd0a4b37	-0.033763137
4	0x3db48b9b	0.0881569
5	0x3d728a74	0.05921407
6	0xbdef35ad	-0.1168016
7	0x3db2ee1c	0.08736822
8	0xbdbba90b	-0.09163102
9	0x3b8b5d8c	0.004253095
10	0x3da9f5af	0.082988136
11	0xbdbd74e0	-0.09250808
12	0xbdd85ca4	-0.10564545
13	0x3dba7c3a	0.091057256
14	0x3bf04c3d	0.007333307
15	0x3dc77b89	0.09740359
16	0xbd59aba6	-0.053142212
17	0x3c99298d	0.01869657
18	0x3debe772	0.11518754
19	0x3d32bd3b	0.043637495
20	0x3e03c680	0.1286869
21	0xbc364584	-0.011124972
22	0xbbaef794	-0.005339572
23	0x3a4f9ca7	0.00079197664
24	0xbaf36e8f	-0.0018572378
25	0xbdff2877	-0.1245889
26	0x3d0adb2d	0.03390043
27	0xbd71a887	-0.05899861
28	0xbd98203d	-0.07428024
29	0xbdb088ee	-0.08619867
30	0xbd22a32e	-0.0397064
31	0x3daeb3e3	0.085304044

inception.branch2.1.total_ops f8 [1]
0	0x0000000000000000	0.0

inception.branch2.1.total_params f8 [1]
0	0x0000000000000000	0.0

inception.branch2.1.depthwise.weight f4 [32, 1, 1]
0	0xbf428cb2	-0.75995934
1	0xbe5877e5	-0.21139486
2	0xbf039f53	-0.51414984
3	0xbeed4539	-0.46341875
4	0x3f05d8af	0.5228376
5	0xbdc1d44c	-0.094643205
6	0xbf3a1203	-0.72683734
7	0xbe4b73e9	-0.19868435
8	0xbea31c88	-0.31857705
9	0x3f026815	0.50940067
10	0xbdbd6195	-0.09247128
11	0xbeae712a	-0.34070712
12	0xbdc4e643	-0.096142314
13	0xbe767490	-0.24067903
14	0xbf4d4df3	-0.80197066
15	0xbdc11e23	-0.09429576
16	0x3ee3aad0	0.44466257
17	0xbe9f25ab	-0.31083426
18	0x3de9e171	0.11419953
19	0x3e94182e	0.28924698
20	0x3f68ff11	0.910142
21	0x3f5b31a2	0.8562261
22	0x3f8055ce	1.0026186
23	0xbead2b85	-0.33822265
24	0x3f66992e	0.90077484
25	0xbf0fb283	-0.5613176
26	0xbf3d9e16	-0.74069345
27	0xbe117951	-0.14206435
28	0xbe450d5e	-0.1924338
29	0x3eeed255	0.46644846
30	0x3f2665fd	0.6499937
31	0xbd756e0a	-0.059919395

inception.branch2.1.depthwise.bias f4 [32]
0	0xbed3da9f	-0.41377732
1	0x3edf48ad	0.43610135
2	0x3e80d749	0.2516425
3	0xbf202138	-0.6255069
4	0xbf65688e	-0.8961266
5	0xbf5765e3	-0.8413984
6	0x3f022bb4	0.50847936
7	0x3e1bd7b8	0.15219009
8	0x3f1f118a	0.6213614
9	0xbf5adfd1	-0.85497767
10	0x3dd52bbd	0.10408733
11	0x3e320b3e	0.17387101
12	0xbe62120c	-0.22077197
13	0xbf2eaa09	-0.68228203
14	0xbedd7240	-0.43251228
15	0xbf611ae1	-0.8793164
16	0xbf66d787	-0.9017262
17	0xbefdc868	-0.4956696
18	0x3f0c4c8f	0.5480432
19	0x3f80b084	1.0053868
20	0x3e8129e3	0.2522727
21	0x3ea69e8d	0.3254284
22	0xbf23568b	-0.6380393
23	0x3ef364c1	0.47537807
24	0xbf74434d	-0.9541519
25	0x3eea95b4	0.4581734
26	0x3d9600b7	0.07324355
27	0x3e4bcc94	0.19902259
28	0xbec60998	-0.38679194
29	0xbf1f2cc6	-0.62177694
30	0xbf3fc534	-0.74910283
31	0xbdd9dbde	-0.106376395

inception.branch2.1.pointwise.weight f4 [32, 32, 1]
0	0xbe082ad0	-0.13297582
1	0xbddf924c	-0.10916576
2	0xbe110e8f	-0.1416571
3	0xbb9e5607	-0.0048320326
4	0xbe1795f4	-0.14803296
5	0x3ded9697	0.11600988
6	0xbe160a97	-0.14652477
7	0xbce2a2e2	-0.02766556
8	0x3cab23ab	0.020891031
9	0xbda3917b	-0.079867326
10	0xbdf4651d	-0.11933348
11	0xbdd78356	-0.10523097
12	0x3e192e97	0.14959179
13	0xbd774db7	-0.06037685
14	0xbcc2b1b2	-0.023766372
15	0x3d8d60d2	0.06903233
16	0x3d8360da	0.06414957
17	0x3e2ca030	0.16857982
18	0xbdf9f1e2	-0.122043386
19	0xbe1c543d	-0.1526651
20	0x3dd8b015	0.1058046
21	0x3c9f526d	0.019448483
22	0x3ddad20f	0.10684597
23	0xbd555f72	-0.052092977
24	0x3e19439b	0.14967196
25	0xbe0f30a9	-0.13983406
26	0x3b8e72a7	0.0043471637
27	0xbdfc71ad	-0.123263694
28	0x3e19fcdd	0.15037866
29	0x3d0c61ee	0.03427308
30	0x3e05dbcb	0.13072126
31	0x3dfb0380	0.12256527
32	0x3c9f4da8	0.01944621
33	0x3d86708c	0.06564435
34	0x3b80f05c	0.003934903
35	0xbd4006d6	-0.04688152
36	0xbd49be27	-0.04925361
37	0xbdbba5dd	-0.09162495
38	0x3e47c9a7	0.19510518
39	0x3c3822fd	0.011238811
40	0x3e45a7c0	0.19302273
41	0x3d6ef4ab	0.058338802
42	0x3db6f09b	0.089326106
43	0x3dcd945d	0.10038064
44	0xbcf5375d	-0.029933626
45	0x3e008a44	0.12552744
46	0xbc2b9098	-0.010471486
47	0x3dc21d83	0.09478285
48	0xbd83fd6a	-0.06444819
49	0xbc66a064	-0.014076326
50	0x3ba1eab2	0.004941308
51	0x3d75e8b1	0.060036365
52	0x3d2670e2	0.040634997
53	0x3db1b47a	0.08677001
54	0xbe16542c	-0.14680547
55	0x3c37ad00	0.01121068
56	0xbe38fe57	-0.18065773
57	0x3d73843c	0.05945228
58	0x3d4a0a4a	0.04932622
59	0x3df42877	0.119217806
60	0x3d90093f	0.070330136
61	0x3e05909f	0.1304345
62	0xbdc40434	-0.09571114
63	0xbdb79392	-0.08963694
64	0x3d4dec67	0.05027428
65	0x3df5555f	0.11979174
66	0xbe42876c	-0.18996972
67	0x3d1ea86b	0.038734835
68	0xbdaf6951	-0.085650094
69	0xbc86b34d	-0.01644292
70	0xbe20fb38	-0.15720832
71	0x3e4a8616	0.19777712
72	0x3d15a020	0.03652966
73	0xbd5fc6ea	-0.05463306
74	0xbe2dcabc	-0.16971868
75	0xbdd9ad44	-0.10628751
76	0x3a01876b	0.00049411383
77	0x3e0c5c22	0.13707021
78	0x3dadc31d	0.084844805
79	0xbe25480e	-0.16140768
80	0xbd76bd00	-0.06023884
81	0xbd933616	-0.071880504
82	0x3d9db955	0.07701365
83	0x3e42a317	0.19007526
84	0x3c24ff40	0.010070622
85	0xbe138d5b	-0.14409392
86	0xbe45c611	-0.19313838
87	0x3e17c2e5	0.1482044
88	0x3e3bb513	0.18330793
89	0x3e3b1783	0.18270688
90	0x3e36459a	0.17799988
91	0xbcd0230b	-0.025407335
92	0x3d5de040	0.05416894
93	0x3d037242	0.032091387
94	0xbdc36759	-0.095411964
95	0xbe070d3f	-0.13188647
96	0xbbf20da1	-0.0073868786
97	0x3d00b8e0	0.03142631
98	0x3e2c7353	0.16840868
99	0x3c7229be	0.01478046
100	0xbc984181	-0.018585922
101	0xbe2829a4	-0.16422135
102	0xbdaf5724	-0.08561543
103	0xbd85276a	-0.06501658
104	0xbd4999cd	-0.04921894
105	0x3db63b8d	0.08898077
106	0xbe209f5d	-0.15685792
107	0xba3b074e	-0.00071345724
108	0xbd959c9e	-0.07305263
109	0xbd09f4ea	-0.033680834
110	0x3dbc7d63	0.09203603
111	0x3cf4460c	0.029818557
112	0x3decfeec	0.1157206
113	0xbd5e142f	-0.054218467
114	0x3be7c79c	0.007073356
115	0xbdc43734	-0.09580842
116	0xbdb3a11b	-0.08770963
117	0x3d7e0092	0.062012263
118	0xbe20fd6f	-0.15721677
119	0x3d9bdcd5	0.0761048
120	0x3d5563ab	0.052097004
121	0xbd5d5d00	-0.05404377
122	0xbe0bfdee	-0.13671085
123	0xbe10c00c	-0.1413576
124	0xbdce08f7	-0.10060304
125	0x3e1c7424	0.15278679
126	0x3e34e80b	0.17666642
127	0xbdc8d1b8	-0.09805626
128	0xbd15d5ee	-0.036580972
129	0x3dcc21fd	0.0996742
130	0x3d482f3a	0.048873164
131	0xbc6692d8	-0.014073096
132	0xbe2b995d	-0.16757722
133	0x3dc32815	0.095291294
134	0xbcee0d43	-0.029059058
135	0xbe32e034	-0.17468339
136	0x3e13bb06	0.14426813
137	0xbd138d9a	-0.036023714
138	0xbd9d6e66	-0.076870725
139	0xbe14d7be	-0.14535424
140	0x3c91b62b	0.01778706
141	0x3e10f3f5	0.14155562
142	0x3e16a50a	0.14711395
143	0xbe18f0c4	-0.14935595
144	0x3de016d4	0.10941854
145	0xbda24987	-0.079241805
146	0xbd987665	-0.07444457
147	0xbde8da20	-0.11369729
148	0xbd938db2	-0.072047606
149	0x3db461bb	0.08807703
150	0x3d2b22d9	0.04178128
151	0x3defa5e3	0.11701562
152	0xbe2397c7	-0.15975867
153	0xbe339fac	-0.17541379
154	0x3c861a0d	0.016369844
155	0xbde5fd30	-0.11229932
156	0x3e084228	0.13306487
157	0x3e25ecea	0.16203657
158	0x3d849b8d	0.064749815
159	0x3dc9953b	0.098429166
160	0x3d20295b	0.03910194
161	0xbe15cedf	-0.14629696
162	0xbe37cb80	-0.17948723
163	0xbe32c3a7	-0.17457448
164	0xbdba57be	-0.09098767
165	0xbd329dfd	-0.0436077
166	0x3dca34ae	0.09873329
167	0x3e32aa2f	0.17447732
168	0x3e0920f3	0.13391475
169	0xbe20a516	-0.15687975
170	0x3cf0e1b6	0.029404502
171	0x3e06756a	0.13130727
172	0xbdc61630	-0.09672201
173	0xbdf0c117	-0.11755579
174	0x3e499fd8	0.19689882
175	0xbdf9e94d	-0.12202702
176	0x3e398bfa	0.18119803
177	0x3c128699	0.008943223
178	0x3c36701f	0.01113513
179	0xbd1e7f46	-0.038695596
180	0xbe17e47a	-0.1483325
181	0xbe510d2b	-0.2041518
182	0xbd80c13f	-0.06286859
183	0xbc631a37	-0.013861231
184	0xbd4eb6d4	-0.050467327
185	0xbd7e268f	-0.06204849
186	0x3dda8c1c	0.10671255
187	0x3e2ea7a8	0.17056143
188	0x3d53cf95	0.051711638
189	0xbd5290b8	-0.051407546
190	0xbe045e68	-0.12926638
191	0xbe455675	-0.19271262
192	0x3e21c20d	0.15796681
193	0x3dd4011d	0.10351775
194	0x3e108a7f	0.14115332
195	0xbddf0479	-0.10889525
196	0x3e18895e	0.14896151
197	0xbdd72a7a	-0.10506149
198	0x3d14843c	0.03625892
199	0x3c74741c	0.014920261
200	0xbe14fcb1	-0.14549519
201	0xbd37c3f2	-0.044864602
202	0x3e359906	0.17734155
203	0x3d0a06b3	0.033697795
204	0xbe229341	-0.15876485
205	0xbd2fac4b	-0.04288892
206	0xbe3a5c0c	-0.18199176
207	0xbd43e39c	-0.047824487
208	0xbdabb29a	-0.08383675
209	0x3e358499	0.17726363
210	0x3df59d5e	0.11992906
211	0x3e01117e	0.12604329
212	0x3e3c8c97	0.18413006
213	0xbde2d0b5	-0.11074964
214	0xbe1fd3f9	-0.15608205
215	0xbdc9152e	-0.09818493
216	0xbe587aad	-0.21140547
217	0xbcb5bdeb	-0.022185287
218	0x3d67c02b	0.05657975
219	0x3db3c920	0.08778596
220	0xbe2f2622	-0.1710439
221	0x3e33fc57	0.17576729
222	0x3d94fa4e	0.07274304
223	0xbded818d	-0.115969755
224	0x3e23ebad	0.16007872
225	0xbda179b4	-0.07884541
226	0xbc4d089b	-0.012514259
227	0xbdaa23a0	-0.08307576
228	0x3daa62cd	0.08319626
229	0x3c1809b1	0.009279654
230	0x3ca32ef9	0.01991986
231	0xbd8da471	-0.0691613
232	0xbcc69c45	-0.024244437
233	0x3df25fd8	0.11834687
234	0x3d63feb7	0.055662837
235	0x3e09669a	0.13418046
236	0x3e1242a2	0.14283231
237	0x3c3fad00	0.011698961
238	0x3e07f919	0.13278617
239	0xbdb5f4b9	-0.08884568
240	0x3c8a7714	0.016902484
241	0x3de8d90b	0.11369523
242	0x3d638ec3	0.05555607
243	0xbdba2d59	-0.09090681
244	0xbd9d8c6b	-0.07692798
245	0x3daff3df	0.085914366
246	0x3e161064	0.1465469
247	0x3dd4d860	0.10392833
248	0xbe0f7eda	-0.14013234
249	0xbd2d60fc	-0.04232882
250	0xbe1e5705	-0.15462883
251	0x3e1be8a8	0.1522547
252	0xbb51248d	-0.0031912655
253	0xbc4f2df3	-0.0126452325
254	0x3de3cd13	0.11123099
255	0x3d1d3614	0.03838165

inception.branch2.1.pointwise.bias f4 [32]
0	0xbdd26c7f	-0.102746
1	0x3db3b59e	0.08774875
2	0x3de53146	0.11191039
3	0xbd20249f	-0.039097425
4	0x3ddce0f4	0.10785094
5	0xbd9af7ec	-0.075668186
6	0xbe2032b1	-0.15644337
7	0x3d140412	0.036136694
8	0x3d7c0581	0.061528686
9	0x3aabfaca	0.0013121006
10	0xbe04a702	-0.12954333
11	0x3ca7bd2f	0.020475952
12	0xbc7c59ef	-0.015402301
13	0x3de6b155	0.11264292
14	0x3cecd037	0.028907878
15	0xbcbd88e9	-0.023136573
16	0x3db8d60a	0.090252
17	0x3e1dd348	0.15412629
18	0x3d7893e6	0.060687922
19	0x3de8a5e7	0.11359768
20	0x3d8ce31c	0.06879255
21	0x3dd3d644	0.10343602
22	0xbdec50b4	-0.115388304
23	0x3d78a839	0.060707305
24	0x3d2fab77	0.04288813
25	0xbddec463	-0.108773015
26	0x3de4b69c	0.111676425
27	0x3e2909e5	0.1650768
28	0x3e475fb5	0.19470103
29	0xbe1e27ea	-0.15444914
30	0x3d77094d	0.060311604
31	0x3c74894c	0.014925312

inception.branch3.0.total_ops f8 [1]
0	0x0000000000000000	0.0

inception.branch3.0.total_params f8 [1]
0	0x0000000000000000	0.0

inception.branch3.0.depthwise.weight f4 [64, 1, 1]
0	0x3f785c00	0.9701538
1	0x3e99b5d0	0.30021524
2	0x3e9d10f9	0.30677012
3	0xbe749b9e	-0.23887488
4	0x3f7a33c5	0.97735244
5	0xbe1b1689	-0.15145315
6	0x3e495336	0.19660649
7	0x3eb5d19f	0.3551149
8	0xbeb0cba1	-0.34530357
9	0xbf5d57df	-0.86462206
10	0xbf728a5f	-0.9474239
11	0xbe9979b4	-0.29975665
12	0x3ed67f47	0.4189398
13	0xbf350705	-0.70713836
14	0x3f716e22	0.94308674
15	0xbebcd0a4	-0.3687793
16	0x3f284f5b	0.65746087
17	0x3d378a95	0.044809896
18	0xbf1778b8	-0.5916858
19	0xbea4afd2	-0.3216539
20	0xbe325943	-0.17416863
21	0x3e943170	0.28943968
22	0xbe1e5c94	-0.15465003
23	0xbf81b039	-1.0131904
24	0xbeb6ef33	-0.3572937
25	0xbf9034e1	-1.1266137
26	0xbef31382	-0.4747582
27	0x3f47dc10	0.78070164
28	0xbf2a054d	-0.6641434
29	0xbec75830	-0.3893447
30	0x3ef9a35b	0.48757443
31	0xbe3a4af7	-0.1819266
32	0xbef2c5ed	-0.4741663
33	0xbe9c4fbf	-0.3052959
34	0xbf535f06	-0.8256687
35	0xbf4d9a74	-0.803138
36	0x3f584ff4	0.84497
37	0xbb9daeec	-0.004812112
38	0x3f282ef2	0.6569663
39	0x3f50db54	0.8158467
40	0x3f7370a4	0.9509375
41	0xbee62eaf	-0.44957492
42	0x3f87ca14	1.0608544
43	0xbf84cc30	-1.0374813
44	0x3f4ee895	0.8082364
45	0xbf110105	-0.5664218
46	0xbf728330	-0.94731426
47	0x3ec14d92	0.37754494
48	0x3e136c71	0.14396836
49	0x3e2abe47	0.16674148
50	0xbf207834	-0.62683415
51	0xbdbdd44f	-0.0926901
52	0xbf876b1d	-1.0579563
53	0x3e71d209	0.23615278
54	0x3f015ead	0.5053509
55	0x3f3e5e61	0.7436276
56	0x3c9a7188	0.018852964
57	0xbf84e2ed	-1.0381752
58	0x3f732be9	0.94988877
59	0xbf81e432	-1.0147765
60	0x3dea07cc	0.114272684
61	0xbd9d9f8b	-0.07696446
62	0xbda34686	-0.07972436
63	0xbdb28d45	-0.08718351

inception.branch3.0.depthwise.bias f4 [64]
0	0x3f6c9c22	0.9242574
1	0x3f02a5ce	0.5103425
2	0xbf1923a1	-0.5981999
3	0x3d4f335a	0.050586082
4	0xbe36b895	-0.1784385
5	0x3ef5a4e2	0.47977358
6	0xbdf1fc51	-0.11815704
7	0xbea09176	-0.31360978
8	0x3f336a46	0.70084035
9	0x3ea3489a	0.31891328
10	0x3f2a1a22	0.66446126
11	0xbe542146	-0.20715818
12	0x3db5fc6f	0.088860385
13	0xbf681741	-0.9066048
14	0xbf7ce759	-0.9879051
15	0x3e5e0539	0.2168168
16	0x3f66cb7e	0.90154254
17	0x3f4f0db1	0.80880266
18	0x3e2e9c98	0.17051923
19	0x3e79c374	0.24390966
20	0xbd81677b	-0.063185655
21	0xbf7a704d	-0.9782761
22	0xbcfb3e02	-0.030669216
23	0x3dc754c6	0.09732966
24	0xbe574b41	-0.21024801
25	0x3f1e0ba2	0.617365
26	0xbf81b6b9	-1.0133888
27	0xbbd8de8c	-0.0066183265
28	0x3f78864b	0.97079915
29	0xbec82d89	-0.3909724
30	0xbf75cb92	-0.9601375
31	0xbe5d3d93	-0.2160552
32	0xbf716710	-0.94297886
33	0xbc6f12ce	-0.014591886
34	0xbf12208a	-0.570809
35	0xbe1ac064	-0.15112454
36	0x3ea729d9	0.32649115
37	0x3f4b301d	0.7937029
38	0xbea114c9	-0.3146117
39	0xbe3b3798	-0.18282926
40	0x3eeee66a	0.46660167
41	0x3e862961	0.26203445
42	0xbeb7aaff	-0.35872647
43	0x3e3fe4b6	0.1873959
44	0x3f3d9888	0.7406087
45	0x3f1a3152	0.60231507
46	0x3f7483d7	0.9551367
47	0x3f3f703e	0.74780643
48	0xbf217ca6	-0.63080823
49	0xbf6ae134	-0.9174988
50	0x3edbdea3	0.42943296
51	0xbf03548a	-0.5130087
52	0xbf749a72	-0.95548165
53	0x3f58b00c	0.84643626
54	0xbe02b603	-0.12764744
55	0xbefad27e	-0.48988718
56	0xbe9ee2b3	-0.31032333
57	0x3e299dc7	0.16564094
58	0xbf6fa03e	-0.93603885
59	0xbf74f75c	-0.9568994
60	0xbecaba2c	-0.39595163
61	0xbf1cc851	-0.6124316
62	0x3f104706	0.56358373
63	0x3f2ac170	0.6670141
